configs/networks/acas/acas_5_7.onnx (onnx, 61577 bytes, 14 tensors)

1 f4 [50, 5]
0	0xbcf54c7e	-0.0299437
1	0xbf413c36	-0.754825
2	0xbfef0cdd	-1.86758
3	0xbe1e0e73	-0.154352
4	0x3eb5adda	0.354842
5	0x3d399ca4	0.0453154
6	0x3f9fd029	1.24854
7	0x3fa2efb3	1.27294
8	0x3f589310	0.845994
9	0xbcb05faf	-0.02153
10	0xbe427f5f	-0.189939
11	0x3f804381	1.00206
12	0xbf87290b	-1.05594
13	0x3d308e8e	0.0431047
14	0xbea346dc	-0.3189
15	0xbd1e3c2b	-0.0386316
16	0x3f1a36f4	0.602401
17	0xbf111f82	-0.566887
18	0x3dbb9ea7	0.0916112
19	0xbe458dde	-0.192924
20	0xbaf8035c	-0.00189219
21	0xbfcaf0ae	-1.58547
22	0xbd7775b8	-0.060415
23	0x3e80435f	0.250514
24	0xbeabacd6	-0.335303
25	0x3e40f16f	0.188421
26	0x3f824f22	1.01804
27	0xbf699674	-0.912452
28	0x3e9423b8	0.289335
29	0xbe9dbca9	-0.30808
30	0xbaebf201	-0.00180012
31	0x3c275b23	0.0102146
32	0x3c8b9347	0.017038
33	0xbb1b3957	-0.00236853
34	0x3b993c11	0.00467635
35	0x3e60a17b	0.219366
36	0xbe887f67	-0.266597
37	0xbd828665	-0.0637329
38	0xbe8221ea	-0.254165
39	0xbe314728	-0.173123
40	0xbc0ee33d	-0.00872117
41	0x3ff21816	1.89136
42	0x3f0a2f16	0.539781
43	0x3d8a88d5	0.0676438
44	0xbda7d559	-0.0819499
45	0x3d2315ff	0.0398159
46	0xbf85e4f7	-1.04605
47	0x3f986690	1.19063
48	0xbeb69121	-0.356576
49	0x3ed4801f	0.41504
50	0x3e422036	0.189576
51	0xbf7a60d4	-0.97804
52	0x3f49b8dc	0.787977
53	0xbc7bdbae	-0.0153722
54	0x3daaf46b	0.083474
55	0x3da37df7	0.0798301
56	0xbf961bb0	-1.17272
57	0xbf598666	-0.849707
58	0x3f117f52	0.568349
59	0xbe9361fe	-0.287857
60	0xc00f3d86	-2.23813
61	0xbd51db7a	-0.0512347
62	0xbda42a8f	-0.0801593
63	0x3db0fe55	0.0864226
64	0xbe0d04a3	-0.137713
65	0x3dd80ed0	0.105497
66	0x3f443b60	0.766531
67	0xbf921c58	-1.14149
68	0x3ddb2464	0.107003
69	0xbdd11948	-0.102099
70	0x3c51b859	0.0128003
71	0x3f3ec0b5	0.745128
72	0x3e8c0464	0.273471
73	0xbe98bc7b	-0.298313
74	0x3dd87c63	0.105706
75	0x3b4eb357	0.003154
76	0xbcb30439	-0.0218526
77	0xbaa88ba5	-0.0012859
78	0x3cad1c63	0.0211317
79	0x3b8cf49b	0.00430162
80	0xbdafe139	-0.0858788
81	0x3f34a2ec	0.705611
82	0xbf54e8fb	-0.83168
83	0xbdbc4f8c	-0.0919486
84	0x3eaf5afb	0.342491
85	0x3c9c09b6	0.0190476
86	0x3c61cbcd	0.0137815
87	0xc034e8fb	-2.82672
88	0x3e34a8c1	0.176425
89	0xbd40ac98	-0.0470396
90	0x3f59627c	0.849159
91	0xbdaa0331	-0.0830139
92	0x3c9413e9	0.0180759
93	0x3dac29da	0.0840642
94	0xbd9ac57e	-0.075572
95	0x3d1717fa	0.0368881
96	0xba31cecd	-0.000678283
97	0xbc63ed0f	-0.0139115
98	0xbdef37fc	-0.116806
99	0xbfce1ef7	-1.61032
100	0x3c302638	0.0107513
101	0x3eaadd37	0.333719
102	0xbec5eb10	-0.386559
103	0xbea2f923	-0.318307
104	0x3eb4f6be	0.353445
105	0x3d89ca19	0.06728
106	0x3df0c133	0.117556
107	0x3cb32958	0.0218703
108	0xbcaae94d	-0.0208632
109	0x3f37b5d0	0.717618
110	0x3e571583	0.210043
111	0xbf2e368f	-0.68052
112	0x3f19f45e	0.601385
113	0x3e1e8251	0.154794
114	0xbbbd60b4	-0.00577935
115	0xbdfabc94	-0.12243
116	0xbfbab40f	-1.45862
117	0x3fd40f67	1.65672
118	0xbe779c84	-0.241808
119	0x3edf34f8	0.435951
120	0x3e539475	0.206621
121	0xbfb2f694	-1.39815
122	0xbf093661	-0.535986
123	0x3d397e71	0.0452866
124	0xbe21769b	-0.157679
125	0x3d161ef1	0.0366506
126	0x3f76f912	0.964738
127	0xbfb14318	-1.38486
128	0x3caee0be	0.0213474
129	0xbec4ffa8	-0.384763
130	0x3cdaf25f	0.0267269
131	0x3f7e51d2	0.993436
132	0xbf95e98e	-1.17119
133	0xbe49b888	-0.196993
134	0x3ea9d7fe	0.331726
135	0xbc3bfddd	-0.0114741
136	0xbec2784b	-0.379824
137	0xbf409625	-0.752291
138	0xbf3201cd	-0.69534
139	0x3f365d7d	0.712364
140	0x3d6fde2f	0.0585615
141	0x3d95da27	0.07317
142	0xbde78317	-0.113043
143	0x3f379629	0.717135
144	0xbec0a548	-0.376261
145	0x3cabd53b	0.0209757
146	0x3f57f1d8	0.843534
147	0xbf83d955	-1.03007
148	0xbdf03105	-0.117281
149	0x3ea1d27c	0.316059
150	0x3dd682f9	0.104742
151	0xbf8ff77b	-1.12474
152	0x3f31947d	0.693672
153	0x3e3d87f9	0.185089
154	0xbec2c647	-0.380419
155	0xbd0a4cdb	-0.0337647
156	0x3f2c7a5b	0.673742
157	0x3e16d0d5	0.147281
158	0x3dc6fda8	0.0971635
159	0x3de6d699	0.112714
160	0xbe8e81ed	-0.278335
161	0x3ee3a301	0.444603
162	0x3c8b2e9d	0.01699
163	0xbfdae536	-1.71012
164	0x3ffffc11	1.99988
165	0x3eb8f5a1	0.361249
166	0x3f8e23e2	1.11047
167	0x3d14ca92	0.036326
168	0x3d885943	0.0665765
169	0xbf223e9f	-0.633768
170	0x3d90f95a	0.0707881
171	0xbdc97e71	-0.0983857
172	0x3faf64ae	1.37026
173	0x3eb2658c	0.348431
174	0xbec60aa6	-0.3868
175	0xba59369b	-0.000828603
176	0x3e15efa6	0.146422
177	0xbf2d73eb	-0.67755
178	0x3e57381d	0.210175
179	0xbebe1c37	-0.371309
180	0xbc4cc89b	-0.012499
181	0x3db2636d	0.0871037
182	0x3e811601	0.252121
183	0xbfb8284e	-1.43873
184	0x3e8fb917	0.280709
185	0xbe13543b	-0.143876
186	0xbf138ae3	-0.576338
187	0xbd31b3d7	-0.0433844
188	0x3e10a287	0.141245
189	0x3db21f95	0.0869743
190	0xbe6199bb	-0.220313
191	0xbfb797cc	-1.43432
192	0x3fc9f0c3	1.57766
193	0xbec79ebf	-0.389883
194	0x3f35fb50	0.710866
195	0x3d488327	0.0489532
196	0xbd60724b	-0.0547965
197	0x3d7ddadc	0.0619763
198	0x3e04994a	0.129491
199	0xbf795a4b	-0.974034
200	0x3ebf3b64	0.3735
201	0x3ea06fef	0.313354
202	0xbec0997c	-0.376171
203	0xbd943e89	-0.0723849
204	0x3e2ecf20	0.170712
205	0x3d0cc9dd	0.0343722
206	0x3f81cfab	1.01415
207	0xbf9f0457	-1.24232
208	0xbd8ea798	-0.0696556
209	0x3ee2a993	0.4427
210	0xbc0fc67c	-0.00877535
211	0xbfbf967d	-1.49678
212	0x3f97f67f	1.18721
213	0x3e87b481	0.265049
214	0xbe235116	-0.159489
215	0xbe3e3c97	-0.185778
216	0xbfc73e57	-1.55659
217	0x3fac5e0b	1.34662
218	0x3d93bbac	0.0721353
219	0xbee638eb	-0.449653
220	0xbe19c993	-0.150183
221	0xbf2e4c0e	-0.680848
222	0x3f197fd8	0.599607
223	0x3e676f6d	0.226011
224	0xbe71fc8f	-0.236315
225	0x3e7e67d7	0.248443
226	0xbf24c533	-0.643634
227	0xbc5a00fd	-0.0133059
228	0x3da83c1c	0.0821459
229	0xbec5a33c	-0.386011
230	0x3d6c0e97	0.0576311
231	0xbf3756a8	-0.716166
232	0x3c32bc15	0.0109091
233	0x3e4d245b	0.200334
234	0xbea74773	-0.326717
235	0x3e2a6699	0.166407
236	0x3f9cbd12	1.22452
237	0xbb9d8389	-0.00480694
238	0x3f19c39c	0.600641
239	0xbf33675e	-0.700796
240	0x3ff14c98	1.88515
241	0xbae1d298	-0.00172289
242	0x3b0a83fd	0.00211358
243	0xbbc18013	-0.00590516
244	0x38e257f1	0.000107929
245	0x3dbbe214	0.0917398
246	0x3fff1d93	1.99309
247	0x3e05f202	0.130806
248	0x3ed5a48b	0.417271
249	0xbec950db	-0.393195

2 f4 [50]
0	0x3cd3cb23	0.0258537
1	0xbe1d5886	-0.153658
2	0xbdc42da7	-0.0957902
3	0x3ca00f34	0.0195385
4	0xba068573	-0.000513158
5	0xbe836c9c	-0.256688
6	0xbca7982a	-0.0204583
7	0x3c765a65	0.0150362
8	0xbe46be7b	-0.194086
9	0xbf232010	-0.637208
10	0xbecc3aa8	-0.398885
11	0x3bb4c498	0.0055166
12	0xbe608399	-0.219252
13	0xbea54068	-0.322757
14	0x3e44fe37	0.192376
15	0xbcda14b4	-0.0266212
16	0xbe172607	-0.147606
17	0x3e23293d	0.159337
18	0x3ebe23f2	0.371368
19	0xbf2c7011	-0.673585
20	0x3d82db47	0.0638948
21	0xbe134b0e	-0.143841
22	0xbe7ee45c	-0.248918
23	0xbf178db5	-0.592006
24	0x3e02b7bb	0.127654
25	0xbe81c10d	-0.253426
26	0xbf166f50	-0.587636
27	0x3cee392e	0.02908
28	0x3e951633	0.291185
29	0xbed6e760	-0.419734
30	0xbe1d1b71	-0.153425
31	0x3df98959	0.121844
32	0x3e9d1d26	0.306863
33	0xbe929025	-0.286256
34	0x3da9fc6e	0.083001
35	0x3d802abb	0.0625815
36	0xbed20621	-0.410203
37	0x3da9d6fe	0.0829296
38	0xbebac190	-0.364758
39	0xbe5753e7	-0.210281
40	0x3da7c632	0.081921
41	0xbec30143	-0.380869
42	0xbebc8b65	-0.368251
43	0xbd78458c	-0.0606132
44	0x3da8711d	0.082247
45	0xbe281e8a	-0.164179
46	0xbddd00f7	-0.107912
47	0xbe8cbccf	-0.274878
48	0x3f053b08	0.520432
49	0x3cdde523	0.0270868

3 f4 [50, 50]
0	0x3f2b8da4	0.67013
1	0x3d1d54bf	0.0384109
2	0xbf7e8f4b	-0.994374
3	0xbf39654d	-0.724202
4	0x3f2dc93f	0.678852
5	0xbdbe2486	-0.0928431
6	0x3cf81a58	0.030286
7	0xbe2c0874	-0.168001
8	0x3da46be3	0.0802839
9	0xbe31c433	-0.1736
10	0x3f914467	1.1349
11	0x3e46a1e8	0.193977
12	0x3e2671ac	0.162543
13	0xbf208f97	-0.627191
14	0x3ee4b31c	0.446679
15	0x3b026144	0.00198944
16	0x3f85a900	1.04422
17	0xbf8f9629	-1.12177
18	0x3e984cad	0.29746
19	0xbe1e4d5e	-0.154592
20	0x3f51cf57	0.81957
21	0x3ebbfbdf	0.367156
22	0x3fcc5c68	1.59657
23	0xbf45fefc	-0.773422
24	0x3efb3722	0.490655
25	0x3ebad14a	0.364878
26	0x3e0769a9	0.132239
27	0xbf7ffd50	-0.999959
28	0x3f4b5126	0.794207
29	0xbefda22f	-0.495378
30	0x3ec3d35f	0.382472
31	0x3e22938e	0.158766
32	0x3ce389dd	0.0277757
33	0xbe62ea96	-0.221598
34	0xbf525259	-0.821569
35	0xbfe2e829	-1.77271
36	0xbf5acf42	-0.854725
37	0x3e0fc6da	0.140407
38	0xbf448638	-0.767673
39	0xbf7a5061	-0.977789
40	0xbe925cc4	-0.285864
41	0x3f15c62a	0.585055
42	0xbf8d5df6	-1.10443
43	0x3e256e26	0.161553
44	0xbfa1c098	-1.26369
45	0x3f543090	0.828866
46	0xbe4605ab	-0.193381
47	0x3e97d3d4	0.296538
48	0x3d82f845	0.0639501
49	0x3cbb3fa7	0.0228575
50	0xbe7d9125	-0.247624
51	0x3e237f39	0.159665
52	0x3f5e7382	0.86895
53	0x3ed7e2c5	0.421652
54	0xc016b8d0	-2.35503
55	0x3f49dd09	0.788529
56	0x3d37804f	0.0448001
57	0x3cdad5da	0.0267133
58	0x3e844aa5	0.258382
59	0x400c4990	2.19199
60	0xbf09d9f5	-0.538482
61	0xbf8d753a	-1.10514
62	0xbf18690e	-0.595353
63	0x3f2d0721	0.67589
64	0xbe8bca75	-0.273029
65	0xbc1299b6	-0.00894778
66	0x3f5e208a	0.867684
67	0xbf4be74b	-0.796498
68	0x3de09cc3	0.109674
69	0x3fb6e686	1.42891
70	0xbe9d8234	-0.307634
71	0xbd656d42	-0.0560124
72	0xbfab8130	-1.33988
73	0x3e946280	0.289814
74	0xbf3a3455	-0.727361
75	0x3fdc30d3	1.72024
76	0x3ff058cd	1.87771
77	0xbe33821b	-0.175301
78	0x3f2c816f	0.67385
79	0x4036d5a6	2.85679
80	0xbfa8aab9	-1.31771
81	0x3e34b6e9	0.176479
82	0xbf1d14c2	-0.613598
83	0x3fad04d5	1.35171
84	0x3fa076f3	1.25363
85	0xbde3b1d1	-0.111179
86	0xbeae047d	-0.339878
87	0xbf853847	-1.04078
88	0x3f10df48	0.565907
89	0x3f4efd22	0.80855
90	0xbef0ba41	-0.470171
91	0x40142c3d	2.3152
92	0xbf84e9f7	-1.03839
93	0xbfa53459	-1.29066
94	0x3db8d709	0.0902539
95	0xc00f4c98	-2.23905
96	0xc01a956c	-2.41537
97	0x3fac1e26	1.34467
98	0x3ba26200	0.00495553
99	0x3f49d591	0.788415
100	0x3e5ad795	0.213713
101	0x3de3e5b8	0.111278
102	0x3f992e73	1.19673
103	0x3ea8e0a8	0.329839
104	0x3f4a1901	0.789444
105	0xbf5a65cf	-0.853116
106	0x3d1d741a	0.0384408
107	0xbd8fc280	-0.0701952
108	0x3e50e27e	0.203989
109	0xbf08a57a	-0.533775
110	0xbfc75dcc	-1.55755
111	0x3e5588a0	0.208529
112	0xbe965b42	-0.293665
113	0x3e3c74fb	0.18404
114	0x3ec4c250	0.384295
115	0xbd0f5e42	-0.035002
116	0x3f31b3af	0.694148
117	0x3e0b2d4d	0.135915
118	0x3e38027e	0.179697
119	0xc03161e5	-2.7716
120	0xbf07d391	-0.530572
121	0xbde41bb9	-0.111381
122	0xbebd5a5c	-0.36983
123	0xbe40d307	-0.188305
124	0xbb7e311e	-0.00387866
125	0xbef00e28	-0.468858
126	0xbf833040	-1.02491
127	0xbe6f9054	-0.233949
128	0xbf6b5cd1	-0.919385
129	0xbeb4a3c6	-0.352812
130	0x3d89e351	0.0673281
131	0x3f34d152	0.706319
132	0x3efb33db	0.49063
133	0x3f071855	0.527715
134	0xbf8aa5f8	-1.08319
135	0xbf15f45e	-0.58576
136	0x3f10d174	0.565696
137	0x3d9cac66	0.0765007
138	0x3e420104	0.189457
139	0xbbacab5a	-0.00526945
140	0xbf8bd567	-1.09245
141	0xbeaaba7c	-0.333454
142	0xbd8c5254	-0.0685164
143	0x3f12554c	0.571614
144	0x3eab2746	0.334284
145	0x3fb30b8d	1.39879
146	0x3f072a6b	0.527991
147	0xbf45755c	-0.771322
148	0x3f2c9f84	0.674309
149	0x3e9749f1	0.295486
150	0x3e0c4b90	0.137007
151	0xbedeeaea	-0.435386
152	0xbfb081c3	-1.37896
153	0xc0201d54	-2.50179
154	0x3f8ec02f	1.11524
155	0xbc96d747	-0.0184132
156	0xbc88a662	-0.0166809
157	0xbf9b15b5	-1.2116
158	0x36859891	3.98147e-06
159	0x3fa288ce	1.2698
160	0xbee55de6	-0.447982
161	0x3f2ebdd3	0.682584
162	0xbe9c3116	-0.305062
163	0xc093837b	-4.6098
164	0x3e5f2d3c	0.217946
165	0xbcbcd49d	-0.0230506
166	0xbfa73c0c	-1.30652
167	0xbe9bd7b2	-0.30438
168	0x3c3e41f0	0.0116124
169	0xbee82f94	-0.453488
170	0xbfbd4856	-1.47877
171	0x3f29c7de	0.663206
172	0xbfedeb31	-1.85874
173	0xbfe10ff9	-1.7583
174	0x3f757e99	0.958963
175	0x3f68038a	0.906304
176	0xbcbbf61b	-0.0229445
177	0x3f01843c	0.505924
178	0xbf445ff2	-0.767089
179	0xbe99769b	-0.299733
180	0x3c845b0e	0.0161567
181	0xbf4fdf6e	-0.812003
182	0xbe32b021	-0.1745
183	0xbf1d5b79	-0.614677
184	0xbfacbeb6	-1.34957
185	0xbec3cc6c	-0.382419
186	0xbfc8f2d0	-1.56991
187	0x3f8af102	1.08548
188	0xbf9c0981	-1.21904
189	0xbee5e17e	-0.448986
190	0x3f01f3e9	0.507628
191	0xbffc4d01	-1.9711
192	0xbe92ec29	-0.286958
193	0xbeb523b3	-0.353788
194	0xbef65aff	-0.481163
195	0xbe242dcf	-0.160331
196	0x3f863b79	1.04869
197	0xc0861562	-4.19011
198	0x3e21e7da	0.158111
199	0xbeb1b62c	-0.347093
200	0x3b631234	0.00346483
201	0xbd4897b4	-0.0489728
202	0xbc589dbb	-0.0132212
203	0xbd808305	-0.0627499
204	0xbd27b155	-0.0409406
205	0xbc8bcdff	-0.017066
206	0x3c7c1a2d	0.0153871
207	0x3c932b8c	0.0179651
208	0xbb87d4e1	-0.00414525
209	0xbd14c9f1	-0.0363254
210	0x3cb6010e	0.0222173
211	0x3d25db26	0.0404922
212	0x3c66e72a	0.0140932
213	0xbc6ecfc1	-0.0145759
214	0xbd5c8e76	-0.0538468
215	0x3ce11849	0.0274774
216	0xbc9c259b	-0.0190609
217	0xbc44c4c1	-0.0120098
218	0x3ab4ecdc	0.00138035
219	0x3cc47ab9	0.0239843
220	0xbcb49350	-0.0220429
221	0x3cef4100	0.0292058
222	0x3ce01de2	0.027358
223	0x3c4343b7	0.011918
224	0xbc521c98	-0.0128242
225	0x3ca43fe6	0.02005
226	0x3cf933fe	0.0304203
227	0x3c9a1a93	0.0188115
228	0xbd11a925	-0.0355617
229	0x3a30a7ed	0.000673889
230	0xbcc91a5b	-0.0245487
231	0xbd0195e7	-0.0316371
232	0xbb79c279	-0.00381103
233	0xbd055631	-0.0325529
234	0xbd5207ba	-0.0512769
235	0xbd0ab5d1	-0.0338648
236	0x3c8da71d	0.0172916
237	0xbccbc424	-0.0248738
238	0xbd0285ec	-0.031866
239	0x3c90d3c3	0.0176791
240	0xbd015c71	-0.0315823
241	0xbc5616f8	-0.013067
242	0x3caa3451	0.0207769
243	0x3cdbcbd9	0.0268306
244	0x3ce53727	0.0279804
245	0xbd1d116e	-0.0383467
246	0x3ce17fe2	0.0275268
247	0xbd0be90d	-0.0341578
248	0xbd1d7ecc	-0.038451
249	0xbca579d7	-0.0201997
250	0xbcb01359	-0.0214936
251	0xbd07a927	-0.0331203
252	0xbc9d8c02	-0.0192318
253	0xbb79c0a1	-0.00381092
254	0xbd5e211e	-0.0542308
255	0x3ceb1ce4	0.0287003

4 f4 [50]
0	0x3de30553	0.11085
1	0xbde73605	-0.112896
2	0xbf15f4d3	-0.585767
3	0xbe493922	-0.196507
4	0xbc876c70	-0.0165312
5	0xbd20a329	-0.0392181
6	0xbc8f2f48	-0.0174786
7	0xbfc6584f	-1.54957
8	0x3e0ad3a6	0.135573
9	0x3f8ffe09	1.12494
10	0xbc856d5d	-0.0162875
11	0x3fa7f141	1.31205
12	0x3fe7a6df	1.80978
13	0xbf624f01	-0.884018
14	0x3e9592fb	0.292137
15	0xbe544c7b	-0.207323
16	0xbc711af5	-0.0147159
17	0x3e7859c9	0.24253
18	0x3ea67c8d	0.325169
19	0x3ef1dd3c	0.472391
20	0x3f4dff93	0.804681
21	0xbb6f9854	-0.00365593
22	0xbd06b866	-0.0328907
23	0x3e9a9867	0.301944
24	0x3f6711d8	0.902616
25	0x3e4296f6	0.190029
26	0xbd425f05	-0.0474539
27	0xbf959be5	-1.16882
28	0xbc00acf9	-0.00785374
29	0xbd5fd5a3	-0.0546471
30	0x3e9b92c0	0.303854
31	0xbc27e87c	-0.0102483
32	0xbe245cbc	-0.16051
33	0x3d56413a	0.0523083
34	0xbea35bb4	-0.319059
35	0x3ef07208	0.46962
36	0x3e8e2a80	0.277668
37	0xbf5e45e5	-0.868254
38	0x3e930814	0.287171
39	0x3f9c2b41	1.22007
40	0xbdcc9661	-0.0998962
41	0x3f57b8c3	0.842663
42	0x3fb48de3	1.41058
43	0xbd6d0cf9	-0.0578737
44	0xbee262aa	-0.442159
45	0xbfb0ad58	-1.38029
46	0xbf11d93c	-0.569721
47	0x3dfc304d	0.123139
48	0x3f22ae8e	0.635476
49	0x3e3e85ba	0.186057

5 f4 [50, 50]
0	0xbf824cd7	-1.01797
1	0x3f2e9d73	0.68209
2	0x3eec36db	0.461356
3	0x3ff830d3	1.93899
4	0xbc46d09f	-0.0121347
5	0x3cfd1351	0.030893
6	0x3cd2e763	0.0257451
7	0xbf82ed14	-1.02286
8	0xbf236f09	-0.638413
9	0x3e50a915	0.20377
10	0x3cb30977	0.0218551
11	0x3ef55758	0.479182
12	0x3eaa8aa4	0.333089
13	0xc06aaae3	-3.66668
14	0xbf41cde6	-0.757048
15	0xc033544c	-2.80202
16	0xbcf5ddd3	-0.030013
17	0xbf2248b6	-0.633922
18	0x3f899264	1.07478
19	0x3f5ed8d3	0.870496
20	0x3e0d0e13	0.137749
21	0xbc7e00b7	-0.0155031
22	0x3c9ef58f	0.0194042
23	0x3d97c50b	0.0741063
24	0xbf38a4d3	-0.721265
25	0xbf7cbd88	-0.987267
26	0xc0023dc5	-2.03502
27	0x3f8aad82	1.08342
28	0xbd061416	-0.032734
29	0xbe5e3fff	-0.217041
30	0xbf838ef3	-1.0278
31	0xbc1dc289	-0.0096289
32	0x3d5c466d	0.0537781
33	0xbf5a54b5	-0.852855
34	0xbf5b585c	-0.856817
35	0x3f637dd8	0.888639
36	0xc06754ca	-3.61455
37	0xbfeff338	-1.87461
38	0x3e67ef17	0.226498
39	0xbe3c6477	-0.183977
40	0xbf99bbae	-1.20104
41	0xbf1fa68b	-0.623635
42	0xbda70c2e	-0.0815662
43	0xbe0fab11	-0.140301
44	0x3e953997	0.291455
45	0x3eb7342f	0.35782
46	0xbfff0165	-1.99223
47	0x3df09e13	0.117489
48	0xbe73c07f	-0.238039
49	0xbfa3d662	-1.27998
50	0xbf7082ae	-0.939494
51	0xbd9b908d	-0.0759593
52	0x3e8947d0	0.268126
53	0xc06feda6	-3.74888
54	0xbce8f1fc	-0.0284357
55	0xbd916279	-0.0709886
56	0x3cf8b94f	0.0303618
57	0xc03b4c98	-2.92655
58	0xbef4aa97	-0.477864
59	0x3e9eeb70	0.31039
60	0x3d0fd794	0.0351177
61	0xbe28bdec	-0.164787
62	0xbea72abf	-0.326498
63	0xbfa24b88	-1.26793
64	0xbf8c2de0	-1.09515
65	0xbfd3bd7b	-1.65422
66	0x3d39d925	0.0453731
67	0xbf525e68	-0.821753
68	0x3ef48e8a	0.47765
69	0x3f85cb68	1.04527
70	0x3e44e593	0.192282
71	0x3cd535bc	0.0260266
72	0xbc9877c6	-0.0186118
73	0xbf81f55a	-1.0153
74	0x3e51b153	0.204778
75	0x3fc1c875	1.51393
76	0xbea18e75	-0.31554
77	0x3ecf316e	0.404674
78	0x3bc93944	0.00614086
79	0xbeab1bbd	-0.334196
80	0xbf18a8c1	-0.596325
81	0xbc1ca4f2	-0.00956081
82	0xbf04e8c9	-0.519177
83	0xbe2e3971	-0.170141
84	0xbdc5c2fb	-0.0965633
85	0x3f81a36e	1.0128
86	0x3f4bedd9	0.796598
87	0xbe886bbe	-0.266447
88	0xbfe44966	-1.78349
89	0x3f2363a2	0.638239
90	0xbeb442c8	-0.352072
91	0xbedb4e33	-0.428331
92	0x3f98710d	1.19095
93	0xbf00b8f1	-0.502822
94	0xbf877510	-1.05826
95	0xbfa7eea2	-1.31197
96	0xbfaea5f8	-1.36444
97	0x3f099fc3	0.537594
98	0x3e79374c	0.243375
99	0x3f98cad5	1.19369
100	0x3f3052a4	0.688761
101	0x3fbdf267	1.48396
102	0xbf7a0f6f	-0.976798
103	0x3fb647ed	1.42407
104	0x3d22acee	0.0397157
105	0xbccc1cd9	-0.0249161
106	0xbc13122b	-0.0089765
107	0x3eed7321	0.463769
108	0xbf1a6c7f	-0.603218
109	0x3f5bf823	0.859255
110	0xbafdc30f	-0.00193605
111	0x3fb0db8c	1.3817
112	0xbccc5ddc	-0.0249471
113	0xbeb53b2a	-0.353967
114	0xbff194af	-1.88735
115	0x3ed9c715	0.425347
116	0xbd065f2a	-0.0328056
117	0x3e9884c7	0.297888
118	0x3f784a51	0.969884
119	0x3fe41dd2	1.78216
120	0x3f8f6502	1.12027
121	0x3d3f8c07	0.0467644
122	0x3ac3df12	0.00149438
123	0x3f58b3e5	0.846495
124	0xbf8477ee	-1.03491
125	0x3d14bbe4	0.036312
126	0x3f90f3cb	1.13244
127	0x3f708605	0.939545
128	0xbae56d02	-0.00175038
129	0x3ff27b0b	1.89438
130	0x3e9f2b45	0.310877
131	0xbd56c29f	-0.0524317
132	0xbf2d2264	-0.676306
133	0xbfc45975	-1.53398
134	0x40802292	4.00422
135	0x3f583958	0.844625
136	0x3fb82a45	1.43879
137	0x3ec88052	0.391604
138	0x3f40ca71	0.753089
139	0x3f270d74	0.652549
140	0xbebeb1c4	-0.37245
141	0x3ea1ff0d	0.316399
142	0x3f7e466b	0.993262
143	0xbf9d76de	-1.23019
144	0x3fb9714c	1.44877
145	0x3f7b4ca1	0.981638
146	0x3fc06057	1.50294
147	0x3fa189df	1.26202
148	0x3fd0d8ed	1.63162
149	0x3f53632c	0.825732
150	0xbf05d484	-0.522774
151	0x3ebaef91	0.365109
152	0x3c0fe627	0.0087829
153	0xbf6f5e96	-0.935037
154	0x3d45a200	0.0482502
155	0x3d622f1a	0.0552207
156	0x3d4f1f8d	0.0505672
157	0x3e5b445f	0.214128
158	0x3dae34c7	0.0850616
159	0x3df92967	0.121661
160	0xbc6e5040	-0.0145455
161	0x3cc15e39	0.0236045
162	0xbf62187a	-0.883186
163	0xbf27e015	-0.655763
164	0x3f939f02	1.15329
165	0x3f990ff9	1.1958
166	0xbd060ef3	-0.0327291
167	0xbcce84fe	-0.0252099
168	0xbec4f56f	-0.384685
169	0xbe747022	-0.238709
170	0xbeeb2c62	-0.459323
171	0x3bf997dc	0.00761698
172	0x3cdc9cef	0.0269303
173	0x3e2ff3ae	0.171828
174	0x3e1bdcf0	0.15221
175	0x3f3ba7db	0.73303
176	0x3f2a0fd4	0.664304
177	0xbeef381d	-0.467225
178	0x3b173566	0.00230726
179	0x3fbe9889	1.48903
180	0x3e10d413	0.141434
181	0x3cf7d341	0.0302521
182	0xbed36220	-0.412858
183	0xbec94ec2	-0.393179
184	0xbd7cabed	-0.0616874
185	0x3dd62e90	0.104581
186	0x3ea24d2b	0.316995
187	0x3f1b7c46	0.607365
188	0x3f9aa0ba	1.20803
189	0xbf5b6178	-0.856956
190	0xbfb2f7e4	-1.39819
191	0xbec3bba5	-0.382291
192	0xbf64af0c	-0.893296
193	0x3dcfdf3b	0.1015
194	0x3f61387a	0.879768
195	0x3c7a998f	0.0152954
196	0x3f747fed	0.955077
197	0xbe488766	-0.195829
198	0x3ddf24d9	0.108957
199	0xbe6a044b	-0.228532
200	0x3fad9653	1.35615
201	0xbf14be40	-0.581028
202	0xbd9d398a	-0.0767699
203	0x3f533d08	0.82515
204	0x3be146ac	0.00687488
205	0x3c72be63	0.0148159
206	0xbcb5c945	-0.0221907
207	0x3f4c7e17	0.798799
208	0x3cb04fbf	0.0215224
209	0x3e0513b6	0.129958
210	0x3d32e39d	0.0436741
211	0xc060ea4b	-3.5143
212	0xbde5f9df	-0.112293
213	0xbf2fce31	-0.68674
214	0x3f0eeac8	0.55827
215	0xbe978ca8	-0.295995
216	0x3cafec8d	0.0214751
217	0x3d77a538	0.0604603
218	0xbdca9bc2	-0.0989299
219	0xbf12c99f	-0.573389
220	0x3f913554	1.13444
221	0xbc3f2da8	-0.0116686
222	0x3d68558a	0.0567222
223	0x3e29f948	0.16599
224	0x3f0f5904	0.559952
225	0x3e43150e	0.19051
226	0x3d9023ea	0.070381
227	0xbf85e743	-1.04612
228	0xbc2d538b	-0.010579
229	0x3e26b5d4	0.162803
230	0x3e15e41d	0.146378
231	0x3d4f2496	0.050572
232	0x3dc633dc	0.0967786
233	0xbeb60a42	-0.355547
234	0xbebce69f	-0.368947
235	0xbfa09df1	-1.25482
236	0x3fa0fdf4	1.25775
237	0x3f8ea897	1.11452
238	0x3f02add6	0.510465
239	0xbf9e2f5a	-1.23582
240	0x3cd8a5e9	0.0264463
241	0x3f5f94ea	0.873366
242	0x3f0a4606	0.540131
243	0x3e0830a1	0.132998
244	0x3e158106	0.146
245	0x4035c5ac	2.84019
246	0xbf459ed8	-0.771955
247	0x3dd0b631	0.10191
248	0x3f879336	1.05918
249	0x3fb0ba73	1.38069
250	0xbd524928	-0.0513393
251	0x3dbb6b46	0.0915132
252	0x3f0ff413	0.562318
253	0xbfb43372	-1.40782
254	0xbcacdaf5	-0.0211005
255	0x3cc40406	0.0239277

6 f4 [50]
0	0x3f0e81cb	0.556668
1	0xbf1bca64	-0.608557
2	0xbf461d86	-0.773888
3	0xbd93b081	-0.072114
4	0xbede0daa	-0.433698
5	0xbe84a537	-0.259073
6	0xbef62c34	-0.480806
7	0xbfa4b87c	-1.28688
8	0xbf0b355d	-0.543783
9	0xbefca904	-0.493477
10	0x3f961ef7	1.17282
11	0x3e1a9f38	0.150998
12	0xbfb31173	-1.39897
13	0xbf4dcbcd	-0.803891
14	0xbe4b7cfe	-0.198719
15	0xbe7bead5	-0.246013
16	0xc000f6e8	-2.01507
17	0xbe62d667	-0.221521
18	0x3eccc708	0.399956
19	0xbf6cdbad	-0.925227
20	0xbcf00a1e	-0.0293017
21	0xc04f104d	-3.23537
22	0xbf97f195	-1.18706
23	0xbe18ab93	-0.149092
24	0xbe5ed352	-0.217603
25	0xbfac9668	-1.34834
26	0xc04dca43	-3.21547
27	0xbec41334	-0.382959
28	0xc02d0481	-2.7034
29	0xbea8bd01	-0.329567
30	0x3febd955	1.84257
31	0xbf620924	-0.882952
32	0xbfaf2181	-1.36821
33	0xbe8284e0	-0.25492
34	0xbfbbeab3	-1.4681
35	0x3c2f2d80	0.010692
36	0xbee93661	-0.455493
37	0x3f2bd103	0.671158
38	0xbefb8f58	-0.491328
39	0xbf467dbb	-0.775356
40	0xbd301861	-0.042992
41	0xbc8b1a0f	-0.0169802
42	0xc036fd22	-2.8592
43	0xbfbdab4b	-1.48179
44	0xc00e5bea	-2.22436
45	0xc007b185	-2.12021
46	0xbdcdc7ef	-0.100479
47	0xbfa962e1	-1.32333
48	0xbf0c578e	-0.548211
49	0x3f4d2114	0.801286

7 f4 [50, 50]
0	0x3ee4bb3d	0.446741
1	0x3ef06983	0.469555
2	0x3ea1d452	0.316073
3	0x3f49f773	0.788932
4	0xbfc2a4fd	-1.52066
5	0x3ef9d841	0.487978
6	0x3e0dcfcc	0.138488
7	0x3f79f549	0.976399
8	0xbfa29542	-1.27018
9	0xbfbabbed	-1.45886
10	0xbe670974	-0.225622
11	0xbef71f79	-0.482662
12	0x3ef38f58	0.475703
13	0x40351f60	2.83004
14	0x3f2699d9	0.650785
15	0x3ead0d6b	0.337993
16	0x3ecc0aaf	0.398519
17	0x3f59d5a2	0.850916
18	0xbf2902ef	-0.660201
19	0x3ede1b6d	0.433803
20	0x3d0a9301	0.0338316
21	0x3f8c4ff4	1.09619
22	0xbf32593a	-0.696674
23	0xbeca9b4a	-0.395716
24	0xc0201911	-2.50153
25	0xbef2ec8d	-0.474461
26	0x3f6cf701	0.925644
27	0xbeba34a8	-0.363683
28	0xbf3e0642	-0.742283
29	0xbee7bdcf	-0.45262
30	0xc0414802	-3.02002
31	0xc0002e34	-2.00282
32	0x3f744178	0.954124
33	0x3e94aff7	0.290405
34	0xbefb70ef	-0.491096
35	0x3eb67211	0.356339
36	0xbf042624	-0.516207
37	0x3f759829	0.959353
38	0x3edbcb81	0.429287
39	0xbf9fe187	-1.24907
40	0x3d40afa3	0.0470425
41	0x3cebe561	0.0287959
42	0x3ed3d274	0.413715
43	0x3e017d6b	0.126455
44	0x3e92b303	0.286522
45	0xbe8a033e	-0.269556
46	0x3f132e38	0.574924
47	0xbe0e74b0	-0.139117
48	0x3f025626	0.509127
49	0x3ebaef91	0.365109
50	0x3ef733a9	0.482816
51	0x3e4b69db	0.198646
52	0xbec0bed7	-0.376456
53	0x3e560392	0.208998
54	0x3f43ef39	0.765369
55	0x3ecf7c03	0.405243
56	0x3f1b6ea4	0.607157
57	0xbf994f8b	-1.19774
58	0x4010c765	2.26217
59	0x3dddb3c0	0.108253
60	0xbe7fdcdf	-0.249866
61	0x3f881f21	1.06345
62	0xc00290ac	-2.04008
63	0x3f8cede5	1.10101
64	0xbf6e224f	-0.930211
65	0xbf1bc59c	-0.608484
66	0x3fa5c9c5	1.29522
67	0xbf9cf862	-1.22633
68	0x3e01871e	0.126492
69	0x3e67d178	0.226385
70	0x3cfbae97	0.0307229
71	0x3f33bb84	0.70208
72	0xc030e7d5	-2.76415
73	0x3ec1ed7c	0.378765
74	0xbec47e28	-0.383775
75	0xbf921cac	-1.1415
76	0xc0acf4f1	-5.4049
77	0x3f1dc800	0.616333
78	0xc0118106	-2.2735
79	0x4065d495	3.5911
80	0x3e91ea14	0.284989
81	0x3d43f507	0.0478411
82	0xbf25948e	-0.646798
83	0x3ede4778	0.434139
84	0xbe638327	-0.22218
85	0xbf0aa854	-0.541631
86	0xc0edcbbc	-7.43112
87	0xbcbdf3b6	-0.0231875
88	0x3f0147ae	0.505
89	0xbc1e00d2	-0.00964375
90	0xbd1d8e6b	-0.0384659
91	0xbd1a449f	-0.0376631
92	0xbf5321b4	-0.824733
93	0xbec8ab93	-0.391934
94	0x3fa2d4d4	1.27212
95	0x3f2b61bb	0.66946
96	0xbe831855	-0.256045
97	0xbf3f43a6	-0.747126
98	0xbed274e2	-0.411048
99	0x3ed21816	0.41034
100	0x3d26de5b	0.0407394
101	0x3ca521c3	0.0201577
102	0xbfd3acc5	-1.65371
103	0xbf7f3882	-0.996956
104	0xbe31c9b4	-0.173621
105	0xbf935b81	-1.15123
106	0xbe9444bf	-0.289587
107	0x3fbf9581	1.49675
108	0x3f648c1e	0.892763
109	0x3ec297e1	0.380065
110	0x3ec638a8	0.387151
111	0x40109c4e	2.25954
112	0xbd88845b	-0.0666587
113	0x40559b3d	3.3376
114	0x3eb4cc25	0.35312
115	0xbef9b110	-0.487679
116	0x4005cc8e	2.09061
117	0x3fab44e5	1.33804
118	0x3f550f95	0.832269
119	0x3f3ea066	0.744635
120	0x3d4438aa	0.0479056
121	0x405bbcd3	3.4334
122	0x3f89c2e3	1.07626
123	0xbf4eba5a	-0.807531
124	0x3fe889a0	1.8167
125	0xbebc92de	-0.368308
126	0x3fad4120	1.35355
127	0xbf2d9ae9	-0.678145
128	0xc07a03ef	-3.90649
129	0x40111950	2.26717
130	0xbf4a9867	-0.791388
131	0x400a9153	2.16512
132	0x40160a28	2.34437
133	0x3f5018f8	0.812881
134	0xc0933f14	-4.60145
135	0x3f677b9e	0.90423
136	0x3f930b8d	1.14879
137	0x3f4c3665	0.797705
138	0x4010e5de	2.26403
139	0x40140000	2.3125
140	0xbd269a9e	-0.0406748
141	0x3d2bb9dd	0.0419253
142	0x4096ad19	4.70863
143	0x3f976b90	1.18297
144	0x3ff0df26	1.88181
145	0x402f14ba	2.73564
146	0xbe9df99c	-0.308545
147	0x3f85b963	1.04472
148	0x3f8c4a0e	1.09601
149	0x3ec176de	0.37786
150	0x3e59ff0d	0.212887
151	0x3ec25b31	0.379602
152	0xbf904cad	-1.12734
153	0xbf8bb8e5	-1.09158
154	0x3f617d28	0.880816
155	0x3fed9264	1.85603
156	0x3e179314	0.148022
157	0x3de3c6c9	0.111219
158	0x3f84c49c	1.03725
159	0x3f77738e	0.966607
160	0xbe4362a6	-0.190806
161	0xbf61b057	-0.881597
162	0x3ebbe76d	0.367
163	0x3ed754b0	0.420568
164	0xbf9098b3	-1.12966
165	0x3efb1f25	0.490472
166	0x3f99b478	1.20082
167	0x4007064f	2.10976
168	0x3f0afe72	0.542945
169	0x3ff54d94	1.91643
170	0x3d50a27a	0.0509362
171	0x40530e80	3.29776
172	0x3fabc600	1.34198
173	0x3f4c5da7	0.798304
174	0x3fd5b2d5	1.66952
175	0x3f639dd4	0.889127
176	0x3f39bf16	0.725572
177	0x3fe29985	1.77031
178	0x3e3b87be	0.183135
179	0x3f2c1f97	0.672357
180	0xbe18ae75	-0.149103
181	0xbd90ec8f	-0.0707637
182	0x3fd8faad	1.69515
183	0x3f262510	0.649003
184	0xbf54538f	-0.8294
185	0xbe89d649	-0.269213
186	0x3f82670e	1.01877
187	0x3f0a175d	0.539419
188	0xbe62df0d	-0.221554
189	0x404bba0a	3.18323
190	0xbc81f7bc	-0.0158652
191	0xbd3e51aa	-0.0464646
192	0x3f509bb7	0.814876
193	0x3f91f5ae	1.14031
194	0xbdcc05d5	-0.0996205
195	0x3fe6b0c9	1.80227
196	0xbf05e9c0	-0.523098
197	0x3fca07b3	1.57836
198	0xbfdcf56f	-1.72624
199	0x3e166f0d	0.146908
200	0x3e25985b	0.161714
201	0x3faf33db	1.36877
202	0xbf486552	-0.782796
203	0xbede542e	-0.434236
204	0x3ececdaf	0.403913
205	0x3eeaf7d3	0.458922
206	0x3d9d7676	0.0768861
207	0x3f2bfb8b	0.671807
208	0x3f7300bd	0.94923
209	0x3ea2682b	0.317201
210	0xbd7498c4	-0.059716
211	0x3f9c3223	1.22028
212	0x3fd8f5c3	1.695
213	0xc0a4efdd	-5.15428
214	0x3f0c0193	0.546899
215	0x3e8f6b5d	0.280116
216	0x4025035c	2.57833
217	0xbfc9c726	-1.57639
218	0x3ef64990	0.48103
219	0x3ea25cc4	0.317114
220	0x3ceecb90	0.0291498
221	0x400ac693	2.16837
222	0x3f18067d	0.593849
223	0xbe91e03f	-0.284914
224	0x3fce1cac	1.61025
225	0x3ee91772	0.455257
226	0x3f856777	1.04222
227	0x3f19ee89	0.601296
228	0xbde16a48	-0.110066
229	0xc0045eb3	-2.06828
230	0xbeff1151	-0.498179
231	0x3f50e886	0.816048
232	0x3f80f2d0	1.00741
233	0x3f79b153	0.975362
234	0x3cc46448	0.0239736
235	0x3db72820	0.089432
236	0x3f166139	0.587421
237	0x3f717bb7	0.943294
238	0x3d6fdbab	0.0585591
239	0x3fc3e814	1.53052
240	0xbc35a0cc	-0.0110857
241	0x3a847773	0.00101064
242	0x40618256	3.52358
243	0x3f54487c	0.829231
244	0x4039e4cd	2.90459
245	0x407190c1	3.77446
246	0xbf78b31c	-0.971483
247	0xbeeda9ca	-0.464186
248	0x3f2e11ed	0.679961
249	0x3eba8b8f	0.364346
250	0xbf89652c	-1.0734
251	0x3f792bb2	0.973323
252	0xbf534aa9	-0.825358
253	0xbf6d9d99	-0.928186
254	0xbec692d5	-0.387839
255	0xbef82a56	-0.484698

8 f4 [50]
0	0xbfb831cf	-1.43902
1	0xc0053166	-2.08114
2	0xbfaf5a32	-1.36994
3	0xbf914e3c	-1.1352
4	0x402d3997	2.70664
5	0x3ff601cd	1.92193
6	0x3ff704ab	1.92983
7	0xc081ff43	-4.06241
8	0xbfbb4635	-1.46308
9	0xbdc57499	-0.0964138
10	0xc0019f80	-2.02536
11	0xbfb1bef5	-1.38864
12	0xbf40903f	-0.752201
13	0x40a6fbbd	5.21823
14	0x3f64a394	0.893121
15	0xbfd9e4f7	-1.7023
16	0x3fd451ec	1.65875
17	0xbfa68a72	-1.3011
18	0xc0214318	-2.51972
19	0xbcfff0b1	-0.0312427
20	0x3fc8cb7d	1.56871
21	0xbedaa66e	-0.427051
22	0x3f72b3cc	0.948056
23	0xbe900a18	-0.281327
24	0x3f91ab4b	1.13804
25	0xbf22b778	-0.635612
26	0xbfd90bb7	-1.69567
27	0x3ed554fc	0.416664
28	0x3f20b49e	0.627756
29	0x3f98c1a9	1.19341
30	0x405219e3	3.28283
31	0xc00fe426	-2.2483
32	0xbf49553f	-0.786457
33	0x3f85b131	1.04447
34	0xbdf1d799	-0.118087
35	0xbdd48909	-0.103777
36	0xbfee9e1b	-1.8642
37	0xbd0c7d6c	-0.0342993
38	0x3fb87992	1.44121
39	0xc0433d32	-3.05061
40	0x3e2b8d3f	0.167531
41	0x3fa2edbb	1.27288
42	0xbd26b4a0	-0.0406996
43	0xc04549f9	-3.08264
44	0x3efe4713	0.496636
45	0xbb9f68e6	-0.0048648
46	0xbc7d2052	-0.0154496
47	0x3ed061e9	0.406997
48	0x40465658	3.09902
49	0xbfa3736d	-1.27696

9 f4 [50, 50]
0	0xbd0c52a4	-0.0342585
1	0xbceda6cd	-0.0290102
2	0x3c37e4de	0.011224
3	0xbd2d3268	-0.0422844
4	0xbc99c4cd	-0.0187706
5	0xbd6d9d27	-0.0580112
6	0xbd29e73f	-0.0414803
7	0x3d39bffa	0.0453491
8	0xbc3ce77c	-0.0115298
9	0xbd069ad4	-0.0328625
10	0xbcf90895	-0.0303996
11	0x3c100485	0.00879014
12	0xbd84e593	-0.064891
13	0x3c2c8605	0.01053
14	0x3d24c5cd	0.0402277
15	0xbd099a48	-0.0335944
16	0x3bb1b8e0	0.00542365
17	0xbc6ec4da	-0.0145733
18	0xbd5fe6a0	-0.0546633
19	0x3cbb2174	0.0228431
20	0x3be8fe71	0.00711041
21	0x3be5c8b2	0.00701245
22	0x3c8b6eff	0.0170207
23	0xbd4a5e0d	-0.0494061
24	0x3be0b044	0.00685695
25	0x3c2ae51b	0.0104306
26	0x3d03a3a9	0.0321385
27	0x3c92387c	0.0178492
28	0x3ccd8b6e	0.0250909
29	0x3cccee90	0.0250161
30	0xbcc2eb6d	-0.0237939
31	0xbb9d62fd	-0.00480306
32	0xbd3f708e	-0.0467382
33	0x3b864d62	0.00409858
34	0xbc90c9b2	-0.0176743
35	0xbb6eb4ff	-0.00364238
36	0x3d1d9bd7	0.0384787
37	0x3d01bc48	0.0316737
38	0xbcf007d0	-0.0293006
39	0x3ad8731e	0.00165138
40	0xbd1df040	-0.0385592
41	0x3c8684b4	0.0164207
42	0x3c70563f	0.014669
43	0xbcdd9217	-0.0270472
44	0xbcc10a8c	-0.0235646
45	0x3cb46024	0.0220185
46	0xbd35104d	-0.044205
47	0xbb01f0db	-0.00198274
48	0xbd4ba7ef	-0.0497207
49	0x3ce4147d	0.0278418
50	0xbf0c1e26	-0.547335
51	0xbfe18f1d	-1.76218
52	0x3fb244fa	1.39273
53	0xc0000514	-2.00031
54	0xbf9b1d3f	-1.21183
55	0x3de8c719	0.113661
56	0xbf6f6b6e	-0.935233
57	0x3f680032	0.906253
58	0xc0342071	-2.81448
59	0x3dad7d2c	0.0847114
60	0x3e4dd723	0.201016
61	0xc01f4de8	-2.48913
62	0x3f1b223a	0.605991
63	0xbf62fa1e	-0.886629
64	0xbff132b5	-1.88436
65	0xc0e9f2a6	-7.31087
66	0xc07c4a38	-3.94203
67	0xbf3a0afa	-0.72673
68	0x3fdda07b	1.73146
69	0x3d4f5acc	0.0506237
70	0xbfd560e9	-1.66702
71	0xbfc1fce3	-1.51553
72	0xbe28bce0	-0.164783
73	0x3e44983d	0.191987
74	0xbf2c3a11	-0.672761
75	0xbf256ce8	-0.646193
76	0xbf92f4f1	-1.1481
77	0x3f159179	0.584251
78	0x3fc9844d	1.57435
79	0x3f99d639	1.20185
80	0xbf167371	-0.587699
81	0xbfed1e64	-1.85249
82	0xc0138f47	-2.30562
83	0xbe331e3a	-0.17492
84	0xc02b22fb	-2.67401
85	0xc0c60ded	-6.1892
86	0xc093b060	-4.61528
87	0x3c73f6dd	0.0148904
88	0xbf3c029f	-0.734415
89	0x3f257d18	0.64644
90	0x3e38e758	0.18057
91	0xc003f8cb	-2.06206
92	0x3d4589c8	0.0482271
93	0xbeee0221	-0.46486
94	0x3fb0a9bd	1.38018
95	0x3d60f055	0.0549167
96	0xbc1a4114	-0.00941493
97	0xbefd6606	-0.494919
98	0x3e9dbec2	0.308096
99	0xc063172f	-3.54829
100	0xbfa76651	-1.30781
101	0x3f735393	0.950494
102	0xbf8548aa	-1.04128
103	0x3e896e37	0.268419
104	0xbeb73b00	-0.357872
105	0xbe178bbd	-0.147994
106	0x3ba7d71f	0.00512208
107	0xbda93bb3	-0.0826334
108	0x3ea4c5fc	0.321823
109	0x3ec1cc10	0.37851
110	0x3e5e264e	0.216943
111	0xc024a748	-2.57271
112	0xbf59ab6d	-0.850272
113	0x3d86fb67	0.0659092
114	0xbfc75e20	-1.55756
115	0xbe98b88d	-0.298283
116	0x3ee5e460	0.449008
117	0xbf65c098	-0.89747
118	0xc010a7f0	-2.26025
119	0xbc6f4100	-0.0146029
120	0xbf16d395	-0.589166
121	0x3c652bd4	0.0139875
122	0xbf01a6a4	-0.506449
123	0x3e360dcc	0.177787
124	0x3edad927	0.427438
125	0xbf173190	-0.5906
126	0xbea0d9d7	-0.314162
127	0xbf18b264	-0.596472
128	0x3e635b4f	0.222028
129	0xbf279f34	-0.654773
130	0xbee66341	-0.449976
131	0xbe4c1052	-0.199281
132	0x3e63ba34	0.22239
133	0xbf56877f	-0.838005
134	0x3f6189ad	0.881007
135	0xbf47f562	-0.781088
136	0xc001389b	-2.01908
137	0xbd6dae74	-0.0580277
138	0x3d861e78	0.0654878
139	0xc08b05bc	-4.34445
140	0x3e75efa6	0.240172
141	0xc021e47a	-2.52957
142	0x3cc8e00e	0.0245209
143	0xc09b4ecf	-4.85337
144	0xbf9ab9a1	-1.20879
145	0x3be10279	0.00686675
146	0xbbc928be	-0.00613889
147	0xbbfe97b6	-0.00776955
148	0x3fb8f6be	1.44503
149	0x3e29efd8	0.165954
150	0x3eeb3c60	0.459445
151	0x405a3498	3.40946
152	0xbf18c459	-0.596746
153	0xbfc5acef	-1.54434
154	0xc021ee78	-2.53018
155	0xc05e6f93	-3.47556
156	0xc0165269	-2.34878
157	0x3f1552c1	0.583294
158	0xbeaedacb	-0.341513
159	0x3e9771eb	0.295791
160	0xbf4427fa	-0.766235
161	0xbf769e80	-0.963356
162	0xbf0c9acc	-0.549237
163	0xc0182e34	-2.37782
164	0xc07948aa	-3.89506
165	0xc088d091	-4.27546
166	0xc01df8a1	-2.4683
167	0x3f557aff	0.833908
168	0x400f79d1	2.24181
169	0x391434f0	0.000141341
170	0xc0986113	-4.76185
171	0xbdfb1f25	-0.122618
172	0xbf60ac19	-0.877626
173	0x3f4c167b	0.797218
174	0xc03e7896	-2.97611
175	0xbfc4e0ca	-1.53811
176	0xc094a4e8	-4.64513
177	0xc0504fa0	-3.25486
178	0xbf7b3d8e	-0.981408
179	0xbecf2192	-0.404553
180	0x3e601c93	0.218859
181	0x3faa680a	1.3313
182	0xc02e15ca	-2.72008
183	0xc041a416	-3.02564
184	0xc01893f3	-2.38403
185	0x3e9ac0c6	0.302252
186	0x3f86bde4	1.05267
187	0x3c20bfff	0.0098114
188	0xc0c4bce8	-6.14806
189	0x3fd498b3	1.66091
190	0xbe98b49e	-0.298253
191	0xbe9557de	-0.291686
192	0xbcac958a	-0.0210674
193	0x3f334752	0.700307
194	0x3e22352f	0.158406
195	0xbce30dec	-0.0277166
196	0x3c4608f9	0.0120871
197	0x3d8e0689	0.0693484
198	0xc02b9581	-2.681
199	0xbf017bb7	-0.505794
200	0x3e9e4abe	0.309164
201	0x401823b8	2.37718
202	0xbf85a416	-1.04407
203	0xbeccb685	-0.39983
204	0xbf40f206	-0.753693
205	0xbfd68588	-1.67595
206	0xbf23ea2d	-0.640292
207	0x3f1b17df	0.605833
208	0xbedfd30b	-0.437157
209	0x3f4eb27d	0.807411
210	0xbfa50eaa	-1.28951
211	0xbec14035	-0.377443
212	0x3cffa242	0.0312053
213	0x3f8cde2b	1.10053
214	0x3bb5973c	0.00554171
215	0xbeba20bc	-0.363531
216	0xbee38eb0	-0.444448
217	0x3f71db98	0.944757
218	0x3f17d923	0.593157
219	0xbc55d0ed	-0.0130503
220	0x3db72c5f	0.0894401
221	0xbffeeeb7	-1.99166
222	0x3f65b4fe	0.897293
223	0xbe1653ca	-0.146804
224	0x3f5ff716	0.874864
225	0x3d3045c8	0.0430353
226	0x3c241e58	0.010017
227	0x3f618644	0.880955
228	0xc0044b5e	-2.0671
229	0xc07faf8e	-3.99509
230	0x3d75bdf2	0.0599956
231	0xbed7afea	-0.421264
232	0x3e9c97b7	0.305845
233	0x3e3a28fe	0.181797
234	0xbf729ea1	-0.947733
235	0xbdf1769b	-0.117902
236	0x3e813a93	0.2524
237	0x3d27d425	0.0409738
238	0xc06eb7fe	-3.72998
239	0x3ed4b3c4	0.415434
240	0x3d0de59c	0.0346428
241	0xbdbe0edf	-0.0928018
242	0xbc900241	-0.0175792
243	0x3fc066e4	1.50314
244	0xc029f195	-2.65537
245	0x3ca7bafa	0.0204749
246	0xbd3b2ac9	-0.0456951
247	0x3d944e1b	0.0724146
248	0xbdb315a1	-0.0874436
249	0x3fc2b50b	1.52115
250	0xbe87e7c0	-0.26544
251	0xc07f4688	-3.98868
252	0x3f9bbe77	1.21675
253	0x4001eadd	2.02996
254	0xc063df8f	-3.56052
255	0xbf7acdf2	-0.979705

10 f4 [50]
0	0xbcaba99c	-0.0209549
1	0x3f8cb828	1.09937
2	0xbeb2a5c6	-0.348921
3	0xc09095c0	-4.51828
4	0x3f89999a	1.075
5	0x3fc8c8de	1.56863
6	0xbc1710d3	-0.00922032
7	0xbf8b0260	-1.08601
8	0xbf996d09	-1.19864
9	0x3f9e3593	1.23601
10	0x3fc33d5c	1.52531
11	0xbf2ac96d	-0.667136
12	0xc05efad7	-3.48406
13	0x3ef8f3aa	0.486234
14	0x3ee53e4f	0.447741
15	0xc04ff67f	-3.24942
16	0xc0245311	-2.56757
17	0x3fa17b20	1.26157
18	0xbebf7b9e	-0.37399
19	0xbf57314d	-0.840596
20	0xc00a5de1	-2.16198
21	0xbd1fec2f	-0.0390436
22	0xbf82bde4	-1.02142
23	0xc0b85643	-5.76053
24	0xbf6dd54e	-0.929036
25	0xc0b691d1	-5.7053
26	0x4003ca43	2.05922
27	0x3fea3c21	1.82996
28	0xbf76d2cc	-0.964154
29	0x3fa935fc	1.32196
30	0xbfbe646f	-1.48744
31	0x3f3943e1	0.723692
32	0xc03e89ca	-2.97716
33	0xbfaf40f6	-1.36917
34	0x3d007e75	0.0313706
35	0xbf8b6849	-1.08912
36	0xbe67bbf9	-0.226303
37	0x40143f3e	2.31636
38	0x3f6d80b2	0.927745
39	0x3fc62435	1.54798
40	0x3fea9a2c	1.83283
41	0xbffcecea	-1.97598
42	0xbf2f455a	-0.684652
43	0xc00413d3	-2.06371
44	0xbf6c0757	-0.921987
45	0xbf811538	-1.00846
46	0xc03625d9	-2.84606
47	0xbf6920f3	-0.910659
48	0x3fe6d235	1.80329
49	0x3de4ebdd	0.111778

11 f4 [50, 50]
0	0xbd09dafb	-0.0336561
1	0x3c022dcd	0.00794549
2	0xbbead663	-0.00716667
3	0x3b0804c7	0.00207548
4	0xbd4f488d	-0.0506063
5	0xbd119d31	-0.0355503
6	0xbd38d859	-0.0451282
7	0xb9eab40b	-0.000447661
8	0xbd6ce1c6	-0.0578325
9	0xbd647ed0	-0.055785
10	0x3b4b6fab	0.00310419
11	0xbdcbe8f2	-0.0995654
12	0xbcc7625f	-0.0243389
13	0xbc475cb6	-0.0121681
14	0x3b962302	0.00458181
15	0xbda4208c	-0.0801402
16	0xbdd1ee24	-0.102505
17	0xbcf0fd63	-0.0294177
18	0xbc6c73c7	-0.0144319
19	0xbe44b2fb	-0.192089
20	0xbc793f1c	-0.0152128
21	0xbe24f15e	-0.161077
22	0xbd05d43a	-0.0326731
23	0xbcb70b9a	-0.0223444
24	0xbc92cea4	-0.0179208
25	0xbc1a6c27	-0.0094252
26	0xbee8cb29	-0.454675
27	0x3c0a40ec	0.00843833
28	0xbd456d5d	-0.0482
29	0x3d37a47c	0.0448346
30	0xbdc2047a	-0.0947351
31	0xbcf3f276	-0.0297787
32	0xbdd7268d	-0.105054
33	0x3b929e93	0.00447447
34	0x3ccaab8a	0.02474
35	0xbd83a4d0	-0.0642792
36	0x3cf2fc41	0.0296613
37	0x3b71216b	0.00367936
38	0xbc199c94	-0.00937571
39	0xba97a375	-0.00115691
40	0xbca44ba4	-0.0200556
41	0xbb47bbec	-0.0030477
42	0xbda50276	-0.0805711
43	0xbada31ba	-0.00166469
44	0x3a4e25cf	0.000786391
45	0x3d2e5746	0.0425637
46	0xbba446f2	-0.00501334
47	0x3c33a472	0.0109645
48	0xbc4087b0	-0.0117511
49	0x3c642a4c	0.0139261
50	0xba98fcbc	-0.0011672
51	0xbff96430	-1.94837
52	0x3fc7d902	1.56131
53	0x3e7a9110	0.244694
54	0x4010d2b3	2.26286
55	0xbf4d2d13	-0.801469
56	0xbb06b566	-0.00205549
57	0x3ebeb8fa	0.372505
58	0x401f75b8	2.49156
59	0x3f3fa66a	0.748633
60	0xbf8dd7dc	-1.10815
61	0x3f8b9581	1.0905
62	0xbf3e352f	-0.742999
63	0xbe6ec354	-0.233167
64	0xbe59df11	-0.212765
65	0x3f6b5979	0.919334
66	0x3f33bdf1	0.702117
67	0xc0191340	-2.3918
68	0x3fa96d09	1.32364
69	0x3f87eb07	1.06186
70	0xbdee5604	-0.116375
71	0x3fb7d274	1.43611
72	0x3fec7dd4	1.84759
73	0xbebafa2f	-0.36519
74	0xc0c270b9	-6.07626
75	0xbfd06d1e	-1.62833
76	0x401422bc	2.31462
77	0x3f1155e7	0.567717
78	0xbf57cb3e	-0.842945
79	0x3fc8aa65	1.5677
80	0xbf10aaeb	-0.565108
81	0x3e30852b	0.172383
82	0x3f06da34	0.526767
83	0x3ffc6c76	1.97206
84	0x3ed0b008	0.407593
85	0xbfb19653	-1.3874
86	0xbf792b80	-0.97332
87	0x3f837af6	1.02719
88	0xbf55d356	-0.835256
89	0xc03346dc	-2.8012
90	0xbe2e08f2	-0.169956
91	0x407f41c8	3.98839
92	0xbe702bc7	-0.234542
93	0xbe1d0e99	-0.153376
94	0x3fdb65aa	1.71404
95	0x403b01b8	2.92198
96	0x3f02c27a	0.51078
97	0xbf006c44	-0.501652
98	0xbe6b54e3	-0.229816
99	0xbfc69a80	-1.55159
100	0x3d40346e	0.046925
101	0x3fc80c20	1.56287
102	0x3fc95769	1.57298
103	0xbe9953df	-0.299468
104	0xc09290eb	-4.58019
105	0x40175dcc	2.3651
106	0xbcf35c18	-0.029707
107	0xbebdbe5e	-0.370593
108	0x3f82b218	1.02106
109	0x3ff1205c	1.8838
110	0x3ee60264	0.449237
111	0xc027d7dc	-2.62255
112	0xbf8873ac	-1.06603
113	0xbf3fbaba	-0.748943
114	0xbdb62d69	-0.0889538
115	0x3b29fc93	0.00259379
116	0x3e74af92	0.238951
117	0x3f00489d	0.501108
118	0xc0c1e243	-6.05887
119	0xc0417a78	-3.0231
120	0xbebd55a4	-0.369794
121	0x3f1b7b6c	0.607352
122	0x3f46501e	0.77466
123	0xbf6d3672	-0.926612
124	0xc080844d	-4.01615
125	0xbf660419	-0.8985
126	0x3f26d3a6	0.651667
127	0x3fa8ed3e	1.31974
128	0xbe61c9b4	-0.220496
129	0x3f87d31c	1.06113
130	0xc0802ce4	-4.00548
131	0x3f45c5c5	0.772549
132	0xbfda454e	-1.70524
133	0x3ffa4c30	1.95545
134	0x3ee6a9a4	0.450513
135	0x3f78a16a	0.971213
136	0x4021ba34	2.52699
137	0x3eae11dc	0.33998
138	0xbf9fbbd8	-1.24792
139	0x3eb8385c	0.359805
140	0xbdb84d34	-0.089991
141	0xbf6644b7	-0.899486
142	0xbf1b761d	-0.607271
143	0xbe8823ea	-0.265899
144	0x400d2086	2.20511
145	0x405232a0	3.28434
146	0x3f03253e	0.512287
147	0x3fe100e7	1.75784
148	0xbf882de0	-1.0639
149	0x3f8f6d33	1.12052
150	0x3b23a78f	0.00249717
151	0xc00c1ff3	-2.18945
152	0xbf656f44	-0.896229
153	0xbfc2e148	-1.5225
154	0xc064848c	-3.57059
155	0xc008e465	-2.13894
156	0xbcd078be	-0.0254482
157	0x3f087076	0.532966
158	0x40074acb	2.11394
159	0xbf3012ae	-0.687785
160	0xc0a64b73	-5.19671
161	0x3fd62d0e	1.67325
162	0xbf43d178	-0.764915
163	0xc09a3238	-4.81863
164	0xbe1eea64	-0.155191
165	0xbf4b8141	-0.794941
166	0xc01231a5	-2.28428
167	0x3f78d456	0.97199
168	0x3f5f190d	0.871476
169	0xc0c0425b	-6.0081
170	0xbf708f86	-0.93969
171	0xbd417dc9	-0.0472391
172	0xc01ee3e7	-2.48266
173	0x3e7f9c20	0.249619
174	0xbfa1bb06	-1.26352
175	0xbf37a238	-0.717319
176	0xbeb248f9	-0.348213
177	0xc01f938a	-2.49338
178	0xc00b0996	-2.17246
179	0xbffd2d77	-1.97795
180	0xc05c3e6c	-3.44131
181	0x3e376d98	0.179129
182	0xc05dbc7f	-3.46463
183	0xc0bb7770	-5.85833
184	0xbf045111	-0.516862
185	0xc0758c7e	-3.8367
186	0x3e141feb	0.144653
187	0xbf5b4129	-0.856463
188	0xbec8acc1	-0.391943
189	0xc051e719	-3.27973
190	0xbdf00ef1	-0.117216
191	0xbfc46c76	-1.53456
192	0x3f8c6152	1.09672
193	0xbe119f3c	-0.142209
194	0xc08e9408	-4.45557
195	0xc0990c0b	-4.78272
196	0xbf094867	-0.536261
197	0xbfc4a81a	-1.53638
198	0xbfd7e76d	-1.68675
199	0xc0bfd1f6	-5.99438
200	0xb9ae6787	-0.00033265
201	0x3de43809	0.111435
202	0xbedcca92	-0.431233
203	0xbdfdb6e5	-0.123884
204	0xbe3e9857	-0.186128
205	0xbd281e98	-0.0410448
206	0xbd3e4911	-0.0464564
207	0xbd848840	-0.064713
208	0x3de47fdc	0.111572
209	0xbdf67e41	-0.120358
210	0x3d430538	0.0476124
211	0xbdeb167f	-0.114789
212	0x3e2a6b51	0.166425
213	0x3e8b647c	0.272251
214	0xbd10fe70	-0.0353989
215	0xbc31c143	-0.0108493
216	0xbc7b09f7	-0.0153222
217	0xbd7c7a1f	-0.0616399
218	0x3d120099	0.0356451
219	0x3e517b0f	0.204571
220	0xbe3a53fc	-0.181961
221	0xbe540810	-0.207062
222	0x3e250efe	0.16119
223	0x3bb84079	0.00562292
224	0xbb9b5861	-0.00474076
225	0xbcc4dd14	-0.0240312
226	0xbcb0f1db	-0.0215997
227	0xbc3186f6	-0.0108354
228	0x3d66495b	0.0562223
229	0x3e56a012	0.209595
230	0xbcd4bdc7	-0.0259694
231	0x3d98e864	0.074662
232	0x3eeda9eb	0.464187
233	0x3e8ade87	0.271229
234	0xbd4761be	-0.0486772
235	0xbde14728	-0.109999
236	0x3cc54519	0.0240808
237	0xbe00a7c6	-0.12564
238	0xbcaa7d4c	-0.0208117
239	0xbddc84b6	-0.107675
240	0xbdb28863	-0.0871742
241	0xbe9e262d	-0.308885
242	0xbdc2c775	-0.095107
243	0xbc818b50	-0.0158135
244	0xbda1f61c	-0.0790827
245	0xbe1e01de	-0.154304
246	0x3e207bfe	0.156723
247	0xbe6cd9e8	-0.2313
248	0xbdb68710	-0.0891248
249	0xbaeec113	-0.00182155
250	0x3c8eb7f4	0.0174217
251	0x3d393a7f	0.0452218
252	0xbd82070c	-0.06349
253	0xbf5c85b2	-0.861415
254	0xbd839df2	-0.0642661
255	0xbffcdcdb	-1.97549

12 f4 [50]
0	0x3eb04168	0.344249
1	0xc0cf0ed4	-6.47056
2	0xc1134318	-9.20388
3	0x3fbab852	1.45875
4	0x3f60ae21	0.877657
5	0xc038b852	-2.88625
6	0xc0e88106	-7.26575
7	0x3f6af6f9	0.917831
8	0xc0d8dd6e	-6.77703
9	0xbf21e69b	-0.632425
10	0x3fd1e258	1.63972
11	0x404a0fe4	3.15722
12	0x3ff30ed4	1.89889
13	0x3eac00b9	0.335943
14	0x3f154c01	0.583191
15	0xc0ee8034	-7.45315
16	0xbed937f4	-0.424255
17	0x3f6dc3f0	0.928771
18	0x3ef308bc	0.474676
19	0xbe53fb7a	-0.207014
20	0xc105b68f	-8.35707
21	0xbfc4b7d4	-1.53686
22	0xbfd0725c	-1.62849
23	0x3fd49e45	1.66108
24	0x3db2792f	0.0871452
25	0xc0a180c7	-5.04697
26	0xc0b23459	-5.56889
27	0x401b5936	2.42732
28	0xc0c48605	-6.14136
29	0xc0e1c28f	-7.055
30	0x4088c5d6	4.27415
31	0xbf4706a3	-0.777445
32	0x4068a5a4	3.63511
33	0x3f662b8c	0.899102
34	0xc10bc16a	-8.73472
35	0xc0a1bc02	-5.0542
36	0x3de96dd2	0.113979
37	0xc0e44135	-7.13296
38	0xc0060496	-2.09403
39	0x3d596a4f	0.0530799
40	0xbd1bc3c6	-0.0380285
41	0x3fa42603	1.28241
42	0x40dbc4f0	6.86779
43	0x4029a273	2.65054
44	0xbd47e176	-0.048799
45	0xc090b8bb	-4.52255
46	0x3f4c9e13	0.799287
47	0x3f516217	0.817903
48	0xc11ec9f9	-9.92431
49	0x40589bfa	3.38452
