configs/networks/acas/acas_1_6.onnx (onnx, 61577 bytes, 14 tensors)

1 f4 [50, 5]
000000 7f 16 9b 3d e5 f2 c7 3e 55 6b 09 3f 54 c3 be 3e
       0.0757265 0.390525 0.536794 0.372584
000010 18 76 3d bd c8 5b 0e 3d 74 d2 2b 3e 6a bd 7f bd
       -0.0462552 0.0347555 0.167795 -0.0624365
000020 01 2f ab 3e 2b a4 dc be a7 78 94 3e 2a b8 29 bd
       0.334343 -0.43094 0.289983 -0.0414354
000030 49 80 5f bd cf 9e 4b 3e 28 d8 9a bc 49 8a 43 3d
       -0.0545657 0.198848 -0.0189019 0.0477393
000040 aa ef 6c bf 8a 06 b4 bd 0b ec f1 3c ef 42 be bd
       -0.925532 -0.0879031 0.0295315 -0.0929011
000050 c9 ff 04 be f6 08 25 3e 70 5c 56 3f 27 d3 32 3d
       -0.129882 0.161167 0.837348 0.0436584
000060 5b d0 bb 3c c7 cf 0c bc 90 97 de bb e5 0b 9a bc
       0.0229265 -0.00859446 -0.00679297 -0.0188045
000070 47 c8 d0 be 68 5e a9 3c df b4 8f 3c fa 80 1b 3b
       -0.407778 0.0206749 0.0175423 0.0023728
000080 d3 67 87 bd d4 82 e7 3e af 06 0c bf b3 ce 78 3e
       -0.066116 0.45217 -0.546977 0.242976
000090 cb 9b e8 bb 95 c9 56 3a 2f df 3a 3d ed 65 db bc
       -0.00709865 0.000819349 0.045623 -0.026782
0000a0 b1 bf 94 3f 72 9a 4f bc df fc 48 bb df f1 97 bd
       1.1621 -0.0126711 -0.00306683 -0.0741918
0000b0 d2 54 4f bf 97 0c 17 bc 52 9a e5 be c7 65 2c be
       -0.809888 -0.00921931 -0.448443 -0.168357
0000c0 c9 d4 b3 bd 16 0c 57 3b f0 c4 cc bf 08 2d 1a 3d
       -0.0878082 0.00328136 -1.59976 0.0376406
0000d0 27 50 00 3c e1 02 96 bb cb a2 b0 bc 0a e4 88 3c
       0.00783161 -0.00457798 -0.021562 0.0167103
0000e0 c8 7e 46 bf 0d a7 44 3f 3b 2f df 3c b4 3c cf 3d
       -0.775372 0.768174 0.0272442 0.10119
0000f0 c9 c8 fa bb 9f b2 18 bc 53 09 4f bc 50 f7 66 bd
       -0.00765333 -0.00931993 -0.0126365 -0.0563882
000100 98 15 7e 3f 17 2e 0b be f7 ac eb bd 37 8c 26 bf
       0.992517 -0.135918 -0.115076 -0.650577
000110 8b c2 3e 3e d9 e8 1c 3b 85 74 7c bb 5a b4 46 bb
       0.186289 0.00239425 -0.00385216 -0.00303199
000120 d0 c4 ea bc 71 88 bc 3b e9 0b d5 39 a3 95 5b bd
       -0.0286583 0.00575357 0.000406354 -0.0536095
000130 47 5a 7e bf f1 63 7c bf ca a4 0e 3f 63 da 72 bd
       -0.993565 -0.9859 0.557202 -0.0592903
000140 13 7c f8 bc b5 51 25 bf 0f 27 48 3f da e2 fa 3d
       -0.0303326 -0.645778 0.781846 0.122503
000150 97 a8 d6 be f7 a6 50 3b 37 87 4e bb de 8c 9e 3b
       -0.419255 0.00318378 -0.00315137 0.00483857
000160 77 53 80 bc ee ca cf bb a9 d8 f8 bd 8a da a7 bd
       -0.0156648 -0.00634133 -0.121507 -0.0819598
000170 53 09 ff be 2c 75 aa bd a0 e3 1e 3d 50 4a a2 3d
       -0.498118 -0.0832313 0.0387913 0.0792433
000180 36 75 1e bf 99 9f e3 3e 80 9b cd be fe 9e 78 3e
       -0.618976 0.444577 -0.401577 0.242794
000190 23 67 d9 be d1 9c d0 3c 76 b7 8a b9 0a 4a d1 3d
       -0.424615 0.0254654 -0.000264581 0.102192
0001a0 7a 6c c3 3e fb ac 32 be 43 02 16 be 61 4f 40 3d
       0.381687 -0.174488 -0.146493 0.0469507
0001b0 9d 88 c9 bd 2a fd 14 be 44 c7 a9 3c 80 47 48 3f
       -0.0984051 -0.145497 0.0207249 0.782341
0001c0 84 63 36 bf 2e 8c 74 3c e0 3a c5 3d b1 dc ae bf
       -0.712456 0.014926 0.0963037 -1.36611
0001d0 bd 29 9b 3c b5 95 30 3b dc ef 92 ba f9 e3 2c 3c
       0.0189408 0.00269447 -0.00112104 0.0105524
0001e0 41 9f e0 be dd 9a f4 3d fb 5c 1d be 69 c8 68 3e
       -0.438715 0.119436 -0.153675 0.227327
0001f0 ed f4 a3 be 98 17 10 ba fd 59 20 bb 4f 0a bb b9
       -0.320228 -0.000549668 -0.00244677 -0.000356751
000200 b4 70 1b 3b a5 a6 59 3b b4 02 f3 3e 47 af 16 be
       0.00237183 0.00332109 0.47463 -0.147153
000210 a2 b2 31 be d0 b6 0a be 55 17 20 be e4 b8 b8 3c
       -0.173533 -0.135463 -0.156339 0.0225491
000220 c9 3d 79 3f c8 98 83 bf f4 4f f0 3d 68 5a 12 be
       0.973599 -1.0281 0.11734 -0.142923
000230 2d b1 a2 3e 85 e9 6b be de 4b 0b 3d 5b fd 82 3d
       0.317758 -0.230383 0.0340079 0.0639598
000240 2c 9e 42 bf 5c 4e d3 3b 54 fe 71 3f 0d 6b 8f bc
       -0.760226 0.00644855 0.945287 -0.0175071
000250 fb 85 4b ba 1a e5 f4 bb 04 5b 80 3c 15 1f 3f 3f
       -0.00077638 -0.0074736 0.0156684 0.746568
000260 51 bd 15 3e 0d e9 c7 3b 79 eb 57 3c 7e 1c ed bd
       0.14623 0.00610078 0.0131787 -0.115777
000270 3a 9b a7 3b c2 d5 09 bc c7 19 89 3d 97 03 6d 3e
       0.00511494 -0.00841278 0.0669437 0.231459
000280 81 dd dd 3b 6f bb 80 bf 4d f8 81 3f 3b 48 b9 3d
       0.00677079 -1.00572 1.01539 0.0904698
000290 c0 9b 29 3d d8 ce 5c bd 60 19 80 3c 99 d1 34 3d
       0.0414083 -0.0539082 0.0156371 0.0441452
0002a0 d9 ce 3b bf 5b b1 4f be dc 7c c8 3a 7b d7 a0 bc
       -0.733625 -0.202825 0.0015296 -0.019634
0002b0 a8 e5 53 bf 18 d1 72 3b 1c 43 80 3b cd 73 14 be
       -0.827723 0.00370509 0.00391425 -0.144973
0002c0 78 3d 3d 3c 85 af 4b 3a 94 dc 01 3e 95 b7 53 3e
       0.0115503 0.000776999 0.126818 0.206755
0002d0 7c 78 3b 3c ca b7 98 bd b3 b2 b5 be ef 20 56 be
       0.0114423 -0.0745693 -0.354879 -0.20911
0002e0 94 11 9c 3d 34 f8 16 3c 45 81 8e be 31 e3 f7 bc
       0.0762054 0.00921445 -0.27833 -0.0302597
0002f0 ed b2 64 bd 2e 8e 0a 3e 49 10 9e 3d 4f ad ce 3e
       -0.0558347 0.135308 0.0771795 0.403666
000300 00 c9 f4 3e ef d6 a8 bd f6 9f 10 3d ca af 35 3d
       0.478096 -0.0824412 0.0353088 0.0443571
000310 df ae cd 3c 92 b1 3a 3e e1 9a ab 3e 19 8d 8c be
       0.0251078 0.182318 0.335166 -0.274514
000320 d7 0d a0 bd 3b fc b1 3f ae 80 02 3e 87 4e 9f 3e
       -0.0781514 1.39051 0.127444 0.311146
000330 66 3c 60 bd 17 d8 63 be be 2f ee bd 32 48 30 3d
       -0.0547451 -0.222504 -0.116302 0.0430376
000340 ba 2d 91 bc f3 05 5d 3e 78 06 d3 3b 5f 96 ce be
       -0.017722 0.215843 0.00643998 -0.403491
000350 fd a1 e9 3e dd 6e 33 bd 2b b4 8d 3d 0a f6 a7 3e
       0.456314 -0.0438069 0.0691913 0.328049
000360 cb 20 29 3b 23 14 5b bc bc b1 50 3e 08 8b 9f bd
       0.00258069 -0.0133715 0.203803 -0.0779019
000370 5b b6 d6 3b 20 29 bf 3a df 36 93 bc e8 44 ab 3a
       0.0065525 0.00145844 -0.0179705 0.00130668
000380 82 8d 6b 3b 5d d6 29 bd 51 3b 72 3d f6 ec bd bb
       0.00359425 -0.0414642 0.0591386 -0.00579607
000390 9a ec ef be f3 af ad 3e 61 dd 38 3e 2d d0 3e 3e
       -0.468602 0.339233 0.180532 0.186341
0003a0 20 b2 08 be c9 02 36 be 5a b7 61 bf ea 15 00 3d
       -0.133492 -0.177745 -0.881704 0.0312709
0003b0 06 4a 66 3f ad 4f 39 3e 1d 8d 68 3d 39 27 36 be
       0.899567 0.180968 0.0567752 -0.177884
0003c0 c8 01 43 3b 03 41 3c bf 05 35 ac be 8a 76 a5 3e
       0.00297557 -0.735367 -0.336342 0.32317
0003d0 3c d1 bf bc 64 3b b7 be b6 2c 1f be 90 bd 0e 3e
       -0.0234152 -0.357875 -0.155444 0.139395
0003e0 4c fc 71 3e 37 88 a6 be
       0.236314 -0.325258

2 f4 [50]
000000 62 35 f1 3c 27 07 7d bc f6 51 db 3a 0c 4b 8d bc
       0.0294444 -0.0154436 0.00167328 -0.0172477
000010 1b 35 fa 3c 69 0f a5 3d 71 db b8 3d 54 52 9c 3d
       0.0305429 0.0805958 0.0902623 0.0763289
000020 ea e8 b8 3a 5c 38 10 3d d8 f0 a4 be d8 46 8c be
       0.00141075 0.03521 -0.32215 -0.273978
000030 b5 6f 7e be 3f 11 95 3d 3a 9b a9 bc 69 e0 47 be
       -0.248473 0.0727868 -0.0207039 -0.195192
000040 94 00 ab 3c 0f af 90 bc c9 30 b8 bc df c2 a2 be
       0.0208743 -0.0176616 -0.0224842 -0.317893
000050 51 66 e3 3d 9f 1a b4 bd ee 24 8a be f0 85 39 be
       0.111035 -0.0879414 -0.269813 -0.181175
000060 91 53 0a bd c4 52 6e bc 82 ec 90 bc b9 39 50 bd
       -0.0337711 -0.0145461 -0.0176909 -0.0508363
000070 93 df 42 be aa 7e 05 3d c2 17 06 3e 4c e8 c7 3b
       -0.190306 0.0325915 0.13095 0.00610069
000080 0d ff 09 be 92 06 9f be ae 49 37 3c ae d7 f4 3d
       -0.134762 -0.310597 0.011187 0.119552
000090 1e 58 49 3d ae 5b 29 3c 66 49 85 3d 99 99 3e bc
       0.0491563 0.0103368 0.0650814 -0.0116333
0000a0 d8 f0 d4 3d 1d b8 f7 3b 9b 92 6c 3e e4 be 55 3e
       0.103975 0.00755979 0.231028 0.208736
0000b0 76 2d ab bc 1d d2 3e bd 19 91 a0 be 9f 1b ff bc
       -0.0208957 -0.0465871 -0.313607 -0.0311411
0000c0 12 de b9 3d d8 88 fb bc
       0.0907556 -0.0307049

3 f4 [50, 50]
000000 1d c9 05 bd 00 ec 17 3d 6b 7c ab bd fa db 19 bd
       -0.0326625 0.0370903 -0.0837334 -0.0375633
000010 89 a8 93 bc 8f 67 61 bc 3b 6c 47 bd de ec 6a 3c
       -0.0180247 -0.0137576 -0.0486872 0.0143387
000020 54 75 0d 3c d3 88 84 bd a6 3f e0 bc cf 7a 42 3c
       0.00863393 -0.0647141 -0.0273741 0.0118701
000030 39 0b 1c bc d0 bb 0a 3c 4b dd 1d 3c a4 83 bf bc
       -0.00952416 0.00846763 0.00963528 -0.0233782
000040 b7 4d e7 3c ee 32 32 3d 8c 94 f7 3c e4 4e 44 bc
       0.0282353 0.0435056 0.0302222 -0.0119817
000050 73 63 fa bc 9b 84 5c bd f1 50 ef 3c dc fd e0 3c
       -0.030565 -0.0538374 0.0292134 0.0274648
000060 f1 8a bb bc b7 bc cd bb 3c cd 38 bc e0 6c 0e bd
       -0.0228934 -0.0062786 -0.0112794 -0.0347718
000070 f7 a4 1b 3c ca 1b bb 3c 4c 34 72 b9 49 eb 99 bd
       0.00949978 0.0228404 -0.000230984 -0.0751558
000080 bf c5 79 3c 05 05 14 bd 42 3a 41 bd b6 0e 33 bd
       0.0152449 -0.0361376 -0.0471747 -0.0437152
000090 a5 66 b0 3b 3d 3a bf 3c 1b e7 40 bd 81 f7 64 bd
       0.00538333 0.0233432 -0.0470954 -0.0559001
0000a0 7c 34 09 bc 13 c3 64 bd d7 ce c1 3c 7b 9a 97 bb
       -0.00837433 -0.0558501 0.0236582 -0.00462657
0000b0 5a f8 b8 3a b5 38 00 bc 01 bd 95 3c 38 ef 84 bd
       0.00141121 -0.00782602 0.0182786 -0.0649094
0000c0 90 74 3c 3c 0e af da bc b6 f3 7d 3b e5 64 e2 3e
       0.0115024 -0.0266948 0.003875 0.442176
0000d0 49 4b b5 3f 2e c5 19 c0 fc a5 ad 3e 16 db ac 3e
       1.41636 -2.40266 0.339157 0.337609
0000e0 45 48 71 3f 6b 7e 38 bf a8 7f da 3c a7 41 75 bf
       0.942509 -0.720679 0.0266722 -0.958033
0000f0 70 d2 9c 3e 2c d6 24 bf fa 6f bf bd f2 26 b7 3e
       0.306293 -0.643893 -0.0934753 0.357719
000100 cf f4 12 bd 54 57 0e 3e a0 10 06 bd f5 79 96 bc
       -0.035878 0.139005 -0.0327307 -0.0183687
000110 69 8d 99 be 9c 50 80 bf 7b 4e c4 c0 37 6c fb 3d
       -0.299907 -1.00246 -6.13458 0.122765
000120 54 1c 9f 3e f3 93 1e 3f 9f 02 88 3f bf ca eb bc
       0.310763 0.619445 1.06258 -0.0287832
000130 e8 4c 0a 3e f9 f4 58 bf 0c c8 1e 3e 89 08 7f bf
       0.135059 -0.847488 0.15506 -0.996224
000140 ad 34 a5 bf d0 7e 64 be fa f0 60 bf ba da 3a 3f
       -1.29067 -0.22314 -0.878677 0.7299
000150 71 a9 2a 3e 84 f0 8b c0 eb fc 1b 3d d1 5c af bf
       0.166662 -4.37311 0.038083 -1.37002
000160 f5 4d b5 bc 4a d3 7c 3f dd 40 69 bf 65 a5 bd bf
       -0.0221319 0.987599 -0.911146 -1.48161
000170 be ad ba bd 3f 74 85 bf 85 c7 48 3c e7 fe aa be
       -0.0911517 -1.04261 0.0122546 -0.333976
000180 48 16 dc 3f 2a 00 36 be ad df 3c bf 81 07 42 3f
       1.71943 -0.177735 -0.737788 0.757927
000190 42 cf 66 bc e3 a6 16 3f 78 25 39 3e 6b d5 2e be
       -0.0140875 0.588484 0.180807 -0.170736
0001a0 5b 61 22 3f d4 d3 57 3e 97 ec be 3d 5c e4 3e 3e
       0.634298 0.210769 0.0932247 0.186418
0001b0 45 a1 e5 3d 74 af a8 bd bf cc 21 bd d7 32 09 be
       0.112124 -0.0823659 -0.0395019 -0.133983
0001c0 cd 45 b2 3c 14 08 fb bd 98 24 60 bb 19 76 a0 be
       0.0217618 -0.122574 -0.00342015 -0.313401
0001d0 8e ce 91 3e 2e c4 cf 3c 64 73 25 3e 30 65 e0 3e
       0.284779 0.0253621 0.161573 0.438272
0001e0 eb 25 7c 3c d6 02 0b be f3 e5 09 40 8f 8a 2f 3e
       0.0153899 -0.135753 2.15466 0.171427
0001f0 0a d8 7e 3e 2b af 0b 3d 38 d8 db bc 94 16 32 3f
       0.248871 0.0341026 -0.0268365 0.695657
000200 b8 e8 24 be c9 28 b5 3d b3 97 6d be 20 7c b0 be
       -0.161044 0.0884567 -0.232024 -0.344697
000210 3f 57 93 3f 45 2c a2 be fd 0f 95 bc 4e b7 84 be
       1.1511 -0.316744 -0.0181961 -0.259211
000220 aa d4 4c be b3 b5 de 3e 98 1f d1 bb cc 08 54 bd
       -0.20003 0.43498 -0.00638194 -0.0517662
000230 c5 ad aa be 9d d4 cf 3e 42 b4 26 be f5 90 df bc
       -0.333357 0.405919 -0.162797 -0.0272908
000240 82 3a 25 bd 77 49 1c 3f fa 99 fa bd e7 34 7b 3e
       -0.040339 0.610496 -0.122364 0.245319
000250 7d b3 31 3f 15 19 9d be cb 2f 93 bd d7 1c ab bd
       0.694145 -0.306832 -0.0718685 -0.0835511
000260 d5 08 dd bd 91 5f 0f 3e d5 ec 51 3e 26 72 31 bf
       -0.107927 0.140013 0.205005 -0.693148
000270 fd 86 f1 3e 11 39 2d 3e 65 70 f4 bd 4b 3d 2b be
       0.471733 0.169163 -0.119355 -0.167226
000280 34 f4 83 3f 79 e7 f8 3e 65 e3 c1 3e cd 07 21 bc
       1.03089 0.486141 0.378688 -0.00982852
000290 fe f8 46 bd 3b 71 f9 bd 78 09 16 3f dc ff b6 bc
       -0.0485773 -0.121798 0.586082 -0.0223388
0002a0 d1 db 09 bd 80 b7 20 be f5 84 b5 be b3 61 bd be
       -0.0336569 -0.15695 -0.35453 -0.369886
0002b0 63 0e 92 bd ea 7b 49 3f 47 20 f6 3e 86 90 13 bd
       -0.0713165 0.787047 0.480715 -0.0360265
0002c0 76 6e fa be 1b 4c 53 3e af cd 26 3f 8c f6 38 3e
       -0.489124 0.206345 0.651576 0.180628
0002d0 92 38 30 bd 44 dc 58 3f 09 d7 08 bd 8d 43 c5 be
       -0.0430227 0.847111 -0.0334082 -0.385281
0002e0 ce 4f 25 3f d4 ef 82 be 5c 59 ea be 3b a2 67 3c
       0.645749 -0.255736 -0.457713 0.0141378
0002f0 8a 53 c2 bd 26 35 a4 be ab b3 fa bd 26 e5 4e be
       -0.0948859 -0.320718 -0.122413 -0.202046
000300 e5 02 9f 3b 1a fd 00 bf 45 16 c4 3c 17 f0 02 3e
       0.00485264 -0.503862 0.0239364 0.127869
000310 8e 03 4f 3f 83 d2 c1 bd c0 53 32 bd b3 60 12 3e
       0.808648 -0.0946398 -0.0435369 0.142947
000320 0e 11 63 3f 4d ed 96 bd 20 41 a5 3f 67 2c e2 be
       0.886979 -0.0736948 1.29105 -0.441745
000330 6b d4 93 3f 19 aa 3e 3f 51 bc 26 bf 2b 89 bc be
       1.15492 0.744783 -0.651311 -0.368234
000340 b0 5b 1f bd 97 01 07 3e 90 49 56 be eb 19 56 bf
       -0.0389058 0.131842 -0.209265 -0.836333
000350 1d cc 22 bf 6a 17 6b bf d9 93 c0 bc 48 cd 0d bd
       -0.635927 -0.918326 -0.023508 -0.0346196
000360 32 38 8a be b7 cf 2f 3d 09 a5 53 3f c6 e3 ad 3d
       -0.26996 0.0429227 0.826737 0.0849071
000370 69 38 51 3f b7 41 4d be a2 ec 2d be b6 86 ea 3e
       0.817267 -0.200446 -0.169848 0.458059
000380 68 5b 29 bf 3e ea 0c 3c 4f b0 ff bd 53 5c 65 be
       -0.661551 0.00860077 -0.124848 -0.223985
000390 55 a4 da be 47 1c 46 bf d8 d2 23 3d 27 c2 b2 bf
       -0.427035 -0.773869 0.039996 -1.39655
0003a0 59 6e a1 be ef 1a 9c 3e 97 a9 89 3e 45 9b 53 3f
       -0.315295 0.304893 0.268872 0.826588
0003b0 53 78 10 be 34 83 88 3e 27 2f 3e 3f c8 0c 80 3f
       -0.141084 0.266626 0.742907 1.00039
0003c0 42 b2 f0 be 86 c7 0e 3e 52 b7 f3 3c 8a 92 e0 be
       -0.47011 0.139433 0.0297505 -0.438618
0003d0 b6 8c 0f 3d 2b 15 b4 3e 89 d0 18 bf cb 2f 63 3e
       0.0350463 0.351724 -0.596932 0.221862
0003e0 4f e6 1f 3e 30 83 a1 be 48 a0 a6 bd f8 c3 e7 be
       0.156152 -0.315454 -0.0813604 -0.452667
0003f0 c0 d0 be bc 8e 46 c4 3d 64 e5 3b bf 44 6d 83 3e
       -0.0232929 0.0958377 -0.733969 0.256693

4 f4 [50]
000000 af 62 0c bc ce dd c3 3d 91 b9 a2 be 82 c4 76 be
       -0.00856845 0.0956379 -0.317822 -0.240984
000010 d6 3b dc 3c f1 82 68 3e fb 75 ef be 72 6a 67 be
       0.026884 0.227062 -0.467697 -0.225992
000020 46 06 7e bd 22 e3 a9 be 23 a3 9b be 84 b9 9d bc
       -0.0620177 -0.331811 -0.303979 -0.0192535
000030 ea 21 ca 3e 23 59 f6 bb 58 3b 5a 3e d8 26 3a bd
       0.39479 -0.00751795 0.213117 -0.0454472
000040 41 2a a5 3e 8e 02 74 be 2f 30 90 bc 33 ca 8e bc
       0.322588 -0.238291 -0.0176011 -0.0174304
000050 9e 98 8d be 1f d2 c4 3d 26 e4 23 3e 88 12 3d be
       -0.276555 0.0961039 0.16005 -0.184641
000060 29 b3 51 be 9c 15 91 bc 8b 8b 9b 3e 5a f4 ae bd
       -0.204785 -0.0177105 0.303799 -0.085427
000070 62 4a e4 3d b4 af 5c 3e aa d1 50 bc 65 3f 66 bc
       0.11147 0.215514 -0.0127453 -0.0140532
000080 fb 92 cd 3e 3f cb 52 bb bb 7f 8c bd 48 c3 69 bd
       0.401512 -0.00321646 -0.068603 -0.057071
000090 12 fb 34 3e 97 a8 8e be cb a5 8c bc d7 46 91 bd
       0.176739 -0.27863 -0.0171689 -0.0709359
0000a0 ab f3 9e bc 11 34 56 be 3a e6 bc bb 55 a5 d5 3e
       -0.0194033 -0.209183 -0.00576475 0.417277
0000b0 f5 be 91 be 8f 2c 07 bc c1 8c 09 be 20 79 47 be
       -0.28466 -0.00825037 -0.134326 -0.194798
0000c0 b0 92 03 bf d0 b3 a9 be
       -0.513957 -0.33145

5 f4 [50, 50]
000000 c4 06 0b bc 24 29 4d 3a b4 de 94 3c d9 ea fa 3e
       -0.0084855 0.000782626 0.0181726 0.490073
000010 c4 93 1d be 76 6b 49 be 53 af fb bd c5 00 a1 3e
       -0.153884 -0.196699 -0.122893 0.314459
000020 d7 18 1c 3f f7 e5 a4 3e e3 e0 92 bd 77 f8 a7 3f
       0.609754 0.322067 -0.071718 1.31227
000030 dd 7a 8d bc 33 6a 63 bc cb 2d 2d 3e a5 f3 89 3e
       -0.0172705 -0.0138803 0.16912 0.269437
000040 50 8c 6c 3e c5 c7 c8 3b 78 36 9a 3c 74 5a 1c 3d
       0.231004 0.00612733 0.0188248 0.0381722
000050 2f 50 62 be 1e c2 80 be 62 a3 7c 3f 1b 37 8b 3d
       -0.221009 -0.251481 0.986868 0.0679762
000060 90 11 70 3d a2 79 e5 bc e9 9c 4f 3e 36 ea d5 3f
       0.0586105 -0.0280121 0.202747 1.67121
000070 00 25 94 3d cd 3d 04 3d be 7f 38 bd f2 55 97 3c
       0.0723362 0.0322855 -0.0450437 0.0184736
000080 db ac 75 bd c7 3c 8c bd ef 8c 96 be f6 eb fe be
       -0.0599793 -0.0684753 -0.294044 -0.497894
000090 94 6c d5 be 43 e7 05 3e fa 5e 43 3c 0f a7 c2 3c
       -0.416844 0.130765 0.0119245 0.0237613
0000a0 d9 e6 4b bd fe 7e b9 3e d1 79 0b bc 5a 9f 0a 3f
       -0.0497807 0.362297 -0.00851293 0.541494
0000b0 6b df 92 3c 11 01 47 bd 73 e7 b3 3d 16 29 5e bc
       0.0179288 -0.048585 0.0878438 -0.0135596
0000c0 bc 94 7a 3e 1e a8 5b bf 08 ef e1 bb ad 6c ff 3d
       0.244708 -0.858034 -0.00689495 0.124719
0000d0 4d 48 8b be 06 9e 3f 3f 00 f0 3e bc fc 05 36 bd
       -0.272036 0.748505 -0.0116539 -0.0444393
0000e0 13 c2 d9 bc 1e 6d b4 be 18 07 0b 3f de cf 84 bd
       -0.0265818 -0.352395 0.543077 -0.0648496
0000f0 57 d7 8c 3d a3 04 09 3f 4e d4 0a 3f 48 4b 8a bc
       0.0687701 0.535227 0.542302 -0.0168816
000100 3f f7 8e bb 68 66 bc 3d 9e 09 cd 3d 40 c1 e5 bd
       -0.00436297 0.0919922 0.100116 -0.112185
000110 35 a1 bf bc 4b bd 38 3d 46 79 8e 3e a7 67 80 3d
       -0.0233923 0.0451024 0.278269 0.0626977
000120 2f 6b 8a 3e ac ff cb be ec 17 14 3f 6a 01 30 bd
       0.270349 -0.398435 0.57849 -0.0429701
000130 85 3e 98 3e ca 17 0c bf a0 87 c2 be 25 24 22 be
       0.297352 -0.547238 -0.379941 -0.158341
000140 69 77 03 3d 12 61 0d 3d b1 d0 3d 3c e4 d7 df be
       0.0320963 0.0345164 0.0115854 -0.437194
000150 84 18 b3 3d 75 35 de bc 66 2f fb 3d 6d 75 99 3d
       0.0874491 -0.0271251 0.122649 0.074931
000160 04 fc bf bc de 74 43 bf 9f 71 a1 bc 10 59 e4 3e
       -0.0234356 -0.763502 -0.0197075 0.445992
000170 7f e8 a0 39 33 53 0a be d7 46 e5 3b d5 64 bc 3c
       0.000306908 -0.135083 0.00699697 0.0229973
000180 35 26 e4 bd 3c 67 3b be a1 13 3a 3f 93 8a 36 bf
       -0.111401 -0.183011 0.726862 -0.713052
000190 54 da ec bc 6c 67 8e bc 69 52 0a be 23 f8 87 be
       -0.0289127 -0.0173833 -0.13508 -0.265565
0001a0 6c 26 c7 be 7c 46 02 3d 0b 6e 35 3d 53 7b 01 3e
       -0.388965 0.0318055 0.0442944 0.126447
0001b0 02 10 77 3c 0e ba a9 bc 3e 5b 57 3e 15 6f ac bf
       0.0150795 -0.0207186 0.210309 -1.34714
0001c0 11 35 99 be e7 ab ff bc 93 1e 82 bb de 01 62 3f
       -0.299233 -0.0312099 -0.00397093 0.882841
0001d0 8e ad 13 3f e3 6e 20 be cc 85 a5 3c c0 65 24 bd
       0.576867 -0.156673 0.0202054 -0.0401361
0001e0 65 e0 c0 3e a8 6e 4e 3e ec dd 2f be 38 97 ac bd
       0.376712 0.201594 -0.171745 -0.0842728
0001f0 af e9 29 bf ef 16 ed 3b 58 58 10 3e 39 9c b9 3e
       -0.663722 0.0072354 0.140962 0.36252
000200 26 1c 0a 3e c3 9c f0 be 5b c9 14 3c 3c 37 06 3c
       0.134873 -0.469946 0.00908121 0.00819188
000210 70 cd 35 3f f7 b0 f7 bd ba c0 01 3f 96 72 63 bc
       0.710166 -0.120943 0.506847 -0.0138823
000220 0d 70 b1 3e f2 28 f5 3d 20 e7 a2 bc 56 bb 02 bf
       0.346558 0.119707 -0.0198856 -0.510671
000230 8b 71 7e bc a6 46 a0 be 68 4c 37 bd 97 1b 1c be
       -0.01553 -0.313039 -0.0447506 -0.152449
000240 c2 33 31 be c1 ba 3b 3d 38 da c1 3e fd 87 84 be
       -0.173049 0.0458324 0.378618 -0.25885
000250 8c d6 b1 bd 85 5f 9a be f2 e1 23 bd 47 3c a9 be
       -0.086835 -0.30151 -0.0400104 -0.330538
000260 e7 a6 11 bf 4b 93 ca 3e 9b ab 36 3e 96 d0 21 bf
       -0.568953 0.395655 0.178389 -0.632089
000270 71 e4 f1 be 5a 9e 07 3f 95 e4 aa 3d d9 c6 e9 bc
       -0.472446 0.52976 0.0834438 -0.0285372
000280 ff 88 a0 3d b6 bf a3 3e 69 fc a2 be 4e bc 5e 3c
       0.0783863 0.319822 -0.318332 0.0135947
000290 3f e1 b4 be c5 20 a0 be 8f 50 b3 be 06 4c 90 bf
       -0.353281 -0.31275 -0.350224 -1.12732
0002a0 5b f4 a9 3c 79 b9 3e bc 51 86 7a be cd 5c c0 be
       0.0207464 -0.0116409 -0.244653 -0.375708
0002b0 6d 72 a8 3e 39 09 aa bd 11 fc 97 3e d3 b5 40 bd
       0.328998 -0.0830254 0.296845 -0.0470484
0002c0 da e4 f0 bd f4 4e e5 3e 64 cc dd bd 37 88 d6 bd
       -0.117624 0.447868 -0.1083 -0.104752
0002d0 2b fe 8c 3b 64 1a b2 bc ab 3f 26 3f 04 73 34 3e
       0.00430276 -0.0217411 0.649409 0.17622
0002e0 b8 07 bc 3d 49 66 75 3c db 3b 9e bd d4 ef 22 be
       0.0918116 0.014978 -0.0772626 -0.159118
0002f0 62 e9 4f 3b 34 d9 ff bd 08 b6 40 3d c1 8b 4a bf
       0.00317248 -0.124926 0.0470486 -0.791195
000300 e7 e0 d9 bc 04 3c c1 3e b8 c0 2f 3c 18 00 2f bd
       -0.0265965 0.377411 0.0107271 -0.0427247
000310 6d c7 44 be c4 ab 51 bc b1 05 14 3c c7 46 b5 bd
       -0.192167 -0.0127973 0.00903456 -0.0885139
000320 d2 74 93 3b d0 b3 99 3f 93 38 eb 3d 9e 41 1b bf
       0.00450001 1.2008 0.114854 -0.60647
000330 ca 6d db 3d 94 4e 54 3e 0d 51 9d be 37 c5 33 3e
       0.107143 0.207331 -0.307259 0.175557
000340 1c 61 a1 3e c8 3f 9b be ae 7e 08 3f f4 a6 8e bf
       0.315194 -0.303221 0.533183 -1.11447
000350 e7 70 29 3f 55 ee cf bc de e3 ec bd 98 88 4b 3f
       0.661879 -0.0253822 -0.115669 0.795053
000360 4d f5 34 be 17 64 83 3e a1 ad b9 3c 81 74 16 3d
       -0.176717 0.256623 0.0226658 0.0367322
000370 21 5b d6 3d c3 c5 b0 bd 8a ae 7b 3e f2 cf b4 be
       0.104666 -0.0863147 0.245783 -0.353149
000380 46 7b 84 be 6a 77 fe 3c 49 d7 84 bf 81 78 4d be
       -0.258753 0.0310628 -1.03782 -0.200655
000390 d9 08 98 3f 0f b5 c5 3e f7 4d ab 3c 73 a7 0f bc
       1.18777 0.386147 0.0209112 -0.00876795
0003a0 07 40 5c be 9b e0 90 bd e8 c0 c2 be 3c 6a e4 be
       -0.215088 -0.0707409 -0.380378 -0.446123
0003b0 10 02 da be 8e 3b 3d 3f bc b0 f5 3c 25 93 7f 3f
       -0.425797 0.73919 0.0299915 0.998339
0003c0 30 f6 5e 3c 0f 48 22 3f b2 03 38 3d 8d 0e 58 be
       0.0136085 0.633912 0.0449254 -0.210993
0003d0 eb 1e a1 be b4 ce d3 3b 6c 92 5f 3d d8 bb 97 be
       -0.314689 0.00646385 0.054583 -0.296355
0003e0 c8 99 3a bf 1e b8 d4 bc a1 ff 54 bc f7 3f a8 3e
       -0.728909 -0.0259667 -0.0130004 0.328613
0003f0 45 62 ca 3e 03 3f ea bd 99 10 c3 3d cd 92 b0 be
       0.395281 -0.114378 0.0952465 -0.34487

6 f4 [50]
000000 72 70 99 be 83 c3 28 bb e5 28 a0 be f8 cc 88 bc
       -0.299686 -0.00257513 -0.312812 -0.0166993
000010 68 3c e1 3e 8a 57 19 bd 31 24 a7 be 7b 2d 48 be
       0.439914 -0.037437 -0.326448 -0.195486
000020 20 56 69 3d 91 7d 00 bf 42 5e bf be 3b 7e ae 3d
       0.0569669 -0.501916 -0.373766 0.0852017
000030 c5 75 8c 3e f7 cb 57 be d4 10 30 bc 82 1a 6e 3e
       0.274336 -0.210739 -0.0107462 0.232523
000040 4e ec d9 be 62 58 74 3d 5e 2e 42 bd 92 3d 72 3e
       -0.425631 0.0596546 -0.0474075 0.236563
000050 ff 06 4d be 29 92 87 be a3 4f 15 bd 98 82 9a 3c
       -0.200222 -0.264787 -0.0364529 0.0188611
000060 92 58 d2 bd 5f 5e 02 bc 61 34 ab 3e 83 30 b7 3e
       -0.102708 -0.00795707 0.334384 0.357792
000070 84 10 70 3e 8a ae 6b be 86 38 d6 3d fc 17 c0 3e
       0.234438 -0.230158 0.1046 0.375183
000080 e2 14 87 bd ac c5 e7 bd 73 a2 38 bd 06 c9 9c bd
       -0.0659578 -0.11317 -0.0450768 -0.0765553
000090 8a 5b 15 3e 53 5d 40 3e c1 1f 7e bc e7 72 9e bc
       0.145857 0.187856 -0.0155105 -0.0193419
0000a0 58 1d 69 3e 6f 2a 52 bc 10 b2 5c 3e 0b 5e 64 be
       0.227651 -0.0128275 0.215523 -0.223015
0000b0 9f e3 a3 3d 26 c8 04 3c 25 b3 9a 3e 98 bf ba be
       0.080024 0.00810436 0.302148 -0.364743
0000c0 7f c0 8b be f4 24 9f 3d
       -0.272953 0.0777072

7 f4 [50, 50]
000000 c1 ad 57 3f e4 bd da 3e 06 12 84 3f d2 8b 06 3f
       0.842495 0.42723 1.0318 0.525571
000010 72 55 c4 3d 4a 8d 8a 3d 19 ff 1e be 49 68 2b 3e
       0.0958661 0.0676523 -0.15527 0.16739
000020 9f af 1d bf f9 6a 8f 3e 80 b8 6b 3f 0f 12 7d 3c
       -0.615961 0.280113 0.920784 0.0154462
000030 c8 23 d8 bd a4 e2 cf be 45 cf f3 3a aa f4 4e 3d
       -0.105537 -0.406026 0.00186012 0.0505263
000040 ce a5 90 3f f2 62 9c bd 21 c8 41 be 6c d0 af 3e
       1.13006 -0.0763606 -0.18924 0.343387
000050 68 ac e2 bc 7f 4d c6 3d b4 ad ee be 17 10 76 3f
       -0.0276701 0.0968275 -0.466169 0.961183
000060 8c 4b bd 3e 6c 5c bf 3c 77 9d 85 be 48 35 ec 3d
       0.369717 0.0233595 -0.260967 0.115336
000070 8c 69 a6 3c 6c d1 42 be 99 f1 16 be 8d 61 86 3e
       0.020314 -0.190252 -0.147406 0.262463
000080 ce 8b f3 3e d7 69 00 3f e2 04 de be 9d 66 35 3f
       0.475676 0.501615 -0.433631 0.708597
000090 c3 7a c8 bc a5 96 14 3c a5 f8 58 3e f9 91 2e 3b
       -0.0244726 0.00906912 0.211886 0.00266373
0000a0 19 e2 88 3d 3f 4e fd 3c 3c 69 0d bf 3f 1c c4 3e
       0.0668375 0.0309211 -0.552387 0.383028
0000b0 0f 42 60 3d 8c a3 52 3e f7 8e bf 3c b9 b6 c6 bd
       0.0547505 0.205702 0.0233836 -0.0970282
0000c0 3f 4c 6c bd a8 23 76 bd 7d b0 0c be a9 86 2d bf
       -0.0576899 -0.0600926 -0.137392 -0.677836
0000d0 5b 2c 00 3d 1b 86 ea 3c c2 6c e2 3d 6e 34 00 3e
       0.0312923 0.0286284 0.110559 0.1252
0000e0 46 78 3b be b9 5e 99 3d 8b c3 95 bf f4 87 8e 3e
       -0.183076 0.0748877 -1.17003 0.278381
0000f0 39 b3 5d 3e f7 e9 e0 bf 57 21 e5 be bd ac 09 3e
       0.216504 -1.75714 -0.44752 0.134448
000100 0b 7a ef 3d 9e ef e7 be 7e c7 30 bf 43 ce d6 bc
       0.116932 -0.453 -0.690544 -0.0262214
000110 1c 45 46 be f3 c9 f2 be 0e 8c b4 3b d0 91 c6 bd
       -0.193623 -0.474197 0.00550986 -0.0969578
000120 22 54 b9 3e 48 fb 23 3f 62 bf 0f bf f6 6d 32 3d
       0.36197 0.640553 -0.561514 0.0435619
000130 d1 24 61 3e a7 dc 6e 3d 49 f2 94 be e4 f8 c9 be
       0.219867 0.0583159 -0.290911 -0.394477
000140 c5 1c 3c 3f d2 36 12 3f bc 04 37 be 96 73 0e 3d
       0.734814 0.571149 -0.178729 0.0347782
000150 ab ec 2b be d5 3f 0a bc 44 e3 e4 3c 91 9c 04 3f
       -0.167895 -0.00843807 0.0279404 0.518014
000160 78 73 92 3d 7a 58 83 3c bf b7 99 3f 9b 96 13 3d
       0.0715093 0.0160334 1.20092 0.0360323
000170 0c cf 96 bd 16 51 43 3f 8e 7e af bd 4c 6e 94 3b
       -0.0736371 0.762956 -0.0856906 0.00452975
000180 ab af 2e 3e a7 6d cd 3c f4 16 0f be be 6b e8 3e
       0.170592 0.0250767 -0.139736 0.453947
000190 df 6c eb be c1 ad 7b be 58 a8 71 bf ec 84 07 3f
       -0.459815 -0.24578 -0.943975 0.529372
0001a0 67 64 70 bd ec 51 38 3e 50 7a 75 3d 1a 16 63 be
       -0.0586895 0.18 0.0599311 -0.221764
0001b0 73 9f 20 3f a2 d2 58 be 00 e5 27 bf 1c ac e4 bc
       0.627433 -0.211741 -0.655838 -0.0279141
0001c0 d8 2c 37 be 3c d4 9b bc 4c 52 e1 be 71 6e 97 ba
       -0.178882 -0.0190221 -0.440081 -0.00115533
0001d0 7a c6 3e be 6c dd 5c bd 7a 23 29 3d 09 15 94 be
       -0.186304 -0.0539221 0.0412936 -0.289223
0001e0 19 a6 5b bd 8d 7f df bd d7 33 34 be e6 76 ef 3e
       -0.0536252 -0.10913 -0.175979 0.467704
0001f0 c7 d4 95 3e cc 96 0d 3c 49 bc 1c 3e 9a 97 f3 3e
       0.292639 0.00864191 0.153062 0.475766
000200 da ae b0 3e 3a e8 16 bf 2f 4d 55 3f 21 3b ef bd
       0.345084 -0.589481 0.833209 -0.116812
000210 ca 6b 9d 3e 7a d7 0a 3d 70 b5 0a bf 30 46 14 be
       0.307463 0.0338969 -0.541831 -0.144799
000220 42 b4 b6 be 1f 4b f7 3e 41 f1 53 be 10 c4 c3 3c
       -0.356844 0.482995 -0.206975 0.0238972
000230 ea ea 2e 3e c1 0f b9 bb 77 48 d1 3d 88 a0 1a 3e
       0.170818 -0.00564763 0.102189 0.151003
000240 41 2b 70 3e 71 3a e1 3e 3e 06 2f bf fe 0a 81 3e
       0.23454 0.439899 -0.683689 0.252037
000250 55 a4 62 be fe d0 10 bc 4c 38 08 bf 52 26 dd 3e
       -0.22133 -0.00883889 -0.532109 0.431933
000260 91 44 0f c0 6d 3b 51 bf b1 c2 cd bd 48 34 99 3e
       -2.23856 -0.817313 -0.100469 0.299227
000270 98 c1 0c 3f ac 90 9a bf 8b a6 9b 3f db fa 19 be
       0.549829 -1.20754 1.21602 -0.150371
000280 8d 9b 26 3f 17 49 e3 3e 1d ac 83 bf e3 4f 10 3f
       0.650811 0.443917 -1.02869 0.563719
000290 b8 e4 80 3f 12 83 40 be 02 2a 14 bf cd 06 79 be
       1.00698 -0.188 -0.578766 -0.24319
0002a0 41 f2 ce bd d0 ed b1 3f f5 4a 49 3e 2e c5 d9 bf
       -0.101048 1.39007 0.196575 -1.70133
0002b0 bd d9 ab bd b9 36 e4 3e 13 44 11 c0 9b 3d 4b bd
       -0.0839114 0.44573 -2.26978 -0.0496193
0002c0 51 88 50 3e 65 39 e9 3e 1a a2 22 3f 80 d2 00 be
       0.203645 0.455516 0.635286 -0.125803
0002d0 df 16 34 3f 18 cd 82 3e 12 4e 49 c0 75 3a e0 be
       0.703474 0.255471 -3.14539 -0.437946
0002e0 8e 1e 0f 3e 4b 8f 56 be b3 d0 f6 be ac e2 fd 3e
       0.139765 -0.209531 -0.482061 0.49587
0002f0 c7 c1 80 bc 1c 8c 22 bc 7e 36 36 3f 9e 9b 31 bd
       -0.0157174 -0.0099211 0.711769 -0.0433613
000300 ce fb df 3e fc 52 97 3f be 12 10 3f a8 1c d3 3c
       0.437468 1.18222 0.562786 0.0257705
000310 e5 5f 77 3f 01 6d 2b be 48 09 cb 3d 73 80 80 3e
       0.966307 -0.167408 0.0991388 0.25098
000320 07 b7 15 3d 03 3f 02 bf 82 00 59 3e 40 dd 00 3e
       0.0365515 -0.508774 0.211916 0.125844
000330 75 2e 96 3c 66 49 84 bf 9c bf 75 bf 54 3a d8 3d
       0.0183327 -1.03349 -0.959955 0.10558
000340 5b 5e 99 3d 09 59 f1 3c 41 82 96 3f 40 5f c4 3c
       0.074887 0.0294614 1.17585 0.0239712
000350 25 08 77 be 42 41 41 3f 0f 0a d2 3e f3 3a 92 3d
       -0.241242 0.754902 0.410233 0.0714015
000360 bb 64 4c bf 0a 10 75 3e 8e 06 10 be 5e 18 94 bd
       -0.798412 0.239319 -0.14065 -0.0723121
000370 80 9e a6 be ef ff 53 3f be f4 1b 3d ad 17 37 3f
       -0.325428 0.828124 0.0380752 0.715205
000380 4c 8d 60 be 00 88 01 bb 7a c6 5e 3e 9d f1 5d 3e
       -0.219289 -0.00197649 0.217554 0.216742
000390 e0 2e 93 3e 31 b1 09 3e 21 12 af bd 88 11 ba be
       0.287467 0.134465 -0.0854838 -0.363415
0003a0 9b c8 a4 3e 19 e3 4f 3f a0 c4 97 3e 18 5b 28 3f
       0.321843 0.812059 0.296422 0.65764
0003b0 53 b3 67 be b7 b3 23 3f bf 99 28 be c3 ce 39 bd
       -0.22627 0.639461 -0.164649 -0.0453632
0003c0 29 cc 2b be 26 d2 ec bc 46 d2 8e 3e b0 ab 09 3d
       -0.167771 -0.0289088 0.278948 0.033611
0003d0 28 8d 87 bd 7e 51 8a be 91 61 89 3f 70 7a 1b bf
       -0.0661872 -0.270153 1.07329 -0.607337
0003e0 16 a2 13 be e3 8b 36 be 08 94 99 3f 9d 85 09 3f
       -0.144173 -0.178268 1.19983 0.537195
0003f0 05 c0 84 3f 94 d9 10 3e b4 58 0a 3e 1d 77 5a be
       1.03711 0.141455 0.135104 -0.213345

8 f4 [50]
000000 ec 4c a1 be 68 3c a9 be ae bc 24 be ae bc 58 bf
       -0.31504 -0.330539 -0.160876 -0.846629
000010 33 c5 9c be 8d 5e 2d 3e 62 a1 b6 3e 4f 4c 4d 3c
       -0.306192 0.169306 0.3567 0.0125304
000020 96 24 0f be 44 b7 68 3d 09 4e bd bc ff 65 0d 3d
       -0.139788 0.0568154 -0.0231085 0.0345211
000030 e8 4b af be 2e 58 ea bd 74 ee 46 be c9 50 ba 3d
       -0.342376 -0.114426 -0.194269 0.0909744
000040 55 17 a0 be cd 3d 04 3e 26 bf 9a bd e5 b6 9d be
       -0.312678 0.129142 -0.0755599 -0.308036
000050 21 40 c6 be a6 8b 63 3d 70 0a 83 be 26 fc f2 3d
       -0.387208 0.0555531 -0.255939 0.118645
000060 fe 9b 57 be a1 db 6b bd 65 e3 61 be 3d d6 28 bf
       -0.210556 -0.0575825 -0.220594 -0.659519
000070 e8 c1 99 bf b2 9e e2 be 51 01 66 3c 9e ef 6f bf
       -1.20123 -0.442617 0.0140384 -0.93725
000080 97 53 72 3e 06 2c da bb d0 ef 7b 3f c0 f2 96 3c
       0.236647 -0.00665808 0.984128 0.0184263
000090 7e 3b 09 be 08 8f 42 bf e6 18 da 3c 79 74 5f bf
       -0.134016 -0.759995 0.0266232 -0.872871
0000a0 10 41 45 3e aa 35 23 3d d7 dd a4 be 30 12 9e bf
       0.192631 0.0398461 -0.322005 -1.23493
0000b0 20 b8 2a 3e 43 3d 58 bc 99 63 39 be 4f d8 b4 bd
       0.166718 -0.0131982 -0.181044 -0.0883032
0000c0 00 c4 e5 be ee 09 52 3d
       -0.448761 0.051279

9 f4 [50, 50]
000000 e2 73 47 be 3d 49 9e bf d6 e3 de 3d 5e 4c 93 3e
       -0.194778 -1.23661 0.108833 0.287692
000010 1c 7d ec bd 73 d5 9c be db 91 05 3d 01 be e3 3e
       -0.115473 -0.306316 0.0326098 0.444809
000020 41 0d 7f 3e dc 2d 09 be b3 42 51 be d4 9a 8e 3f
       0.249074 -0.133964 -0.204356 1.1141
000030 de 91 91 be 7b 33 4a 3e 61 c3 0f bf 88 f7 4c 3e
       -0.284316 0.197462 -0.561575 0.200163
000040 1d ae 19 3f 44 6c 50 bf 14 05 de bf e2 c8 83 be
       0.600313 -0.814152 -1.73453 -0.257392
000050 20 7b 37 c0 25 77 a8 3e 51 66 87 bf d1 5d 1e 3f
       -2.86689 0.329034 -1.05781 0.618619
000060 d2 1c f9 bd 18 cf 70 be 4f b0 b7 3e 1e 45 87 bd
       -0.121637 -0.235165 0.358767 -0.0660498
000070 6e a4 0c be 13 b8 45 3e 6f f3 36 3e 6f 7e ab be
       -0.137346 0.193085 0.178663 -0.334949
000080 7e 5d 61 3d 30 b2 2e 3d 08 a5 34 3d 1c cf bf be
       0.0550208 0.0426504 0.0441027 -0.374627
000090 ba da ea 3d 06 47 a1 bf ca 19 5a be c7 d9 64 be
       0.114675 -1.25998 -0.212989 -0.223487
0000a0 cb 08 89 3d 7e 54 27 bf 3b 53 80 bf cf 33 31 bd
       0.0669113 -0.653633 -1.00254 -0.0432623
0000b0 7e 8c 99 bf f2 79 65 be 63 2a dd 3d 08 e9 c1 3e
       -1.1996 -0.224098 0.107991 0.378731
0000c0 f7 af 8c bf 95 64 dd bd ce 47 a3 3c 98 bd 7c 3e
       -1.09912 -0.108102 0.0199317 0.246817
0000d0 ed d5 17 be 48 34 e1 bd 00 e2 ce bd 4f df fc 3c
       -0.148277 -0.109963 -0.101017 0.0308682
0000e0 82 91 f2 bc 89 95 86 3d da 41 c0 3d b9 8d 06 3e
       -0.0296104 0.0657149 0.0938756 0.1314
0000f0 8b fd 05 3e 1b 10 01 3e d5 cd 25 3e 23 f8 df 3d
       0.13085 0.126038 0.161918 0.10936
000100 f4 70 8d 3d f8 2d 9f bd d1 e6 28 be 1d 72 f3 3d
       0.0690631 -0.0777244 -0.164943 0.11887
000110 f0 bf d5 3d 77 4b 02 be 26 c8 28 3e 78 3c b2 3d
       0.10437 -0.127241 0.164826 0.0870294
000120 eb 52 03 3e 0c 7f 5c bd 44 e0 90 3e e5 9b 69 bb
       0.128246 -0.0538321 0.282961 -0.00356459
000130 62 68 15 3d 24 99 95 bc f4 2e b3 bd 59 81 c6 bd
       0.0364765 -0.0182615 -0.0874919 -0.0969264
000140 ae f1 09 3e 09 97 64 bd e2 94 f9 3d 41 11 a6 3c
       0.134711 -0.0558081 0.121866 0.0202719
000150 77 34 49 bd 90 f5 64 3e d2 34 18 be 38 6b 10 be
       -0.0491223 0.223593 -0.148639 -0.141034
000160 85 65 07 3d 98 fc 8a bd 49 6f 0f 3b 13 63 f9 3d
       0.0330558 -0.0678646 0.00218864 0.121771
000170 2b c2 5d be 3e 92 d2 bd 78 25 e9 3d 89 e1 a4 bd
       -0.216561 -0.102818 0.113841 -0.0805083
000180 1e e5 bb bc 89 12 c3 3d 62 b4 73 3d 00 71 af 3e
       -0.0229364 0.0952502 0.0594982 0.342659
000190 51 2d 9a be bd 34 15 3e 58 ff 87 3e 24 44 49 3e
       -0.301127 0.145709 0.26562 0.196549
0001a0 f5 49 16 3f 8c fc 55 bc e9 20 39 3d 49 f7 db 3e
       0.587066 -0.0130607 0.0451974 0.429621
0001b0 4b 03 df be 97 a9 e9 bd 62 be f4 be d1 02 24 be
       -0.435572 -0.114093 -0.478015 -0.160167
0001c0 67 b6 9b be 63 9c 3f 3e 84 45 25 bd 1a 14 2d 3e
       -0.304126 0.18712 -0.0403495 0.169022
0001d0 16 87 07 3f 1b 14 e8 bc e8 4c ca bd 37 c5 d3 3e
       0.529405 -0.0283299 -0.0987795 0.413614
0001e0 74 99 7a be 99 a8 d4 3c ac 6f 18 3f cd 59 2f bf
       -0.244726 0.0259593 0.595454 -0.684964
0001f0 c7 0b ab 3b 1a f8 f6 bc cc d3 1d 3f fc 8e 01 be
       0.00521991 -0.0301476 0.616513 -0.126522
000200 9f 28 bf bd 0d aa cd 3e 68 22 68 bf 9c a5 ac 3e
       -0.0933392 0.401688 -0.906775 0.337201
000210 d5 cc da 3d b2 71 54 3b ab 8e 41 3c 64 b2 f8 be
       0.106836 0.00324164 0.0118138 -0.485736
000220 5f 43 f0 3e e5 f1 d4 bd 8e 93 12 be 58 c9 17 3e
       0.469264 -0.103977 -0.143141 0.148229
000230 e8 49 5e bd be 2e 23 be fe 02 4b 3d b2 81 f4 bd
       -0.0542697 -0.159358 0.0495634 -0.119388
000240 24 d3 01 be d8 66 03 be 34 85 86 be de cb 0d be
       -0.126782 -0.128322 -0.262735 -0.138473
000250 73 f7 19 be aa b8 61 3e 3b 39 9b be 9f e6 70 3f
       -0.150358 0.220431 -0.303171 0.941019
000260 fb af 23 3e bc b1 e8 3e b2 2c 04 bf be 14 4e 3e
       0.159851 0.454481 -0.516307 0.201251
000270 d6 16 83 bd ae 2b 8e be 49 58 4a bd 01 8a b1 be
       -0.0640084 -0.277677 -0.0494006 -0.346756
000280 40 da 2f be 2e e5 1c bf f3 ac 84 be b1 34 f0 bd
       -0.171731 -0.612872 -0.259132 -0.117288
000290 d6 a9 46 3f 66 4c 31 be 01 51 b0 be 43 ab f3 3e
       0.776029 -0.173143 -0.344368 0.475916
0002a0 00 a9 7d 3f 6d ab 0d bf e0 4d 97 3e 10 e9 d7 bd
       0.99086 -0.553397 0.295516 -0.105425
0002b0 c3 f2 cf 3e 23 67 91 3e 87 c5 28 3e 0f 7d af be
       0.406149 0.28399 0.164816 -0.342751
0002c0 2b 14 81 be 77 f5 89 bb f1 68 e3 3d 06 a1 50 bf
       -0.252107 -0.00421017 0.11104 -0.814957
0002d0 50 a8 47 be a1 a0 d4 be 66 d4 21 3d 9a 42 27 bd
       -0.194978 -0.415288 0.0395092 -0.040835
0002e0 4d dc 5a be a4 31 3f bd a9 bf e6 3e 62 48 ce 3e
       -0.213731 -0.0466782 0.450681 0.402896
0002f0 8d 61 6e be 5b 40 08 3d 9c 8a 84 bf a5 bd 2d 3f
       -0.232794 0.0332645 -1.03548 0.678675
000300 bb 25 d9 3e be 13 73 be 06 d4 4b 3e fb 89 74 3d
       0.424116 -0.23738 0.199051 0.0597019
000310 6f d4 e2 be f9 f8 04 be bd 8c 5a bf f7 1d 83 be
       -0.443027 -0.129856 -0.85371 -0.256088
000320 cd af 95 c0 75 59 dc 3e 79 2b 41 3d 3f 74 05 3f
       -4.67771 0.43037 0.0471606 0.521305
000330 80 0e 93 bf 18 cd 2a be 8b 0b a1 3d ce 6e 85 be
       -1.14888 -0.166798 0.0786353 -0.260611
000340 81 bf ce 3c f3 59 76 3f 20 42 00 3f ef 6f 0c bf
       0.0252378 0.96231 0.501009 -0.548583
000350 ff e9 26 3e 67 d5 47 be 5e 85 14 3e fd 16 09 bf
       0.163002 -0.19515 0.14504 -0.535507
000360 3c 6b 2b c0 99 b8 15 3e 52 d4 89 be 1e 81 89 bc
       -2.67842 0.146212 -0.269198 -0.0167852
000370 3c 84 d1 be 4a 59 2b bd 31 07 65 bf cd 77 40 be
       -0.409212 -0.0418332 -0.894641 -0.187957
000380 29 11 77 3d ad f6 d8 be fc 6d 4f be af 5f 80 be
       0.0603191 -0.423757 -0.202568 -0.25073
000390 ff 03 0c 3e 6d 20 35 bf 95 0e 06 3e e9 60 51 bf
       0.136734 -0.707526 0.130915 -0.817885
0003a0 d0 d5 66 be 9c 3b 15 3c bf 28 91 3e ff 3e 63 bf
       -0.225425 0.00910845 0.283514 -0.88768
0003b0 2c 9b 19 3e 8d ee 8c c0 7d 2a 42 3d 86 a4 90 3d
       0.150006 -4.40412 0.0474038 0.0706263
0003c0 a3 05 48 bf 2d f4 97 bd 64 8c 14 bd 41 2b d8 be
       -0.781336 -0.0741962 -0.0362667 -0.422205
0003d0 b1 73 6e 3d c3 48 ef 3d 32 51 a9 bd 27 98 b9 3b
       0.0582158 0.116838 -0.0826744 0.00566389
0003e0 d4 bb b0 3e 3c a5 03 bf a3 22 ce bd 46 26 d8 be
       0.345183 -0.51424 -0.100652 -0.422167
0003f0 c9 cb 9a 3c d6 72 e7 3e fc 35 81 3f 70 41 96 be
       0.018896 0.452048 1.00946 -0.293468

10 f4 [50]
000000 d8 d8 bd 3e 28 48 1c be 84 45 45 3d ca a3 80 3c
       0.370795 -0.152619 0.048162 0.0157031
000010 1a 6d 05 bf 19 ad 7b 3f f1 62 99 be 84 11 fb bd
       -0.521196 0.98311 -0.299583 -0.122592
000020 b0 a5 ec bc dd 07 90 3e 51 13 7d 3e 1f 0f 95 3e
       -0.0288876 0.28131 0.247144 0.291131
000030 ba db f5 3d 43 39 81 be 1f 2f a4 bc a6 a3 87 3d
       0.120048 -0.25239 -0.020042 0.0662301
000040 de 03 34 3e 3f 38 ff bd a8 70 34 3e cb bf e6 be
       0.175796 -0.124619 0.176211 -0.450682
000050 c9 c3 47 bd 3c 2e 0a 3e 54 a9 c5 bf 88 a3 06 bd
       -0.0487707 0.134942 -1.54423 -0.0328708
000060 e7 8b 1d 3e 57 eb 5c bf 60 78 01 bf 27 32 03 bf
       0.153854 -0.862966 -0.505743 -0.512484
000070 38 bf 89 be 1a da 95 3d bc c9 cf 3d 39 ed 29 3e
       -0.269037 0.0731699 0.101459 0.165944
000080 b6 bc 22 bf c0 04 5e be 34 81 22 3e 0a 11 fc bf
       -0.635692 -0.216815 0.158696 -1.96927
000090 48 35 44 bf 01 8a 99 3e 56 46 1b bf e2 39 db 3d
       -0.766438 0.299881 -0.606542 0.107044
0000a0 ca 43 95 bc 58 92 0c 3e e9 c6 b5 bd a1 10 01 3e
       -0.0182208 0.137277 -0.0887583 0.12604
0000b0 ad 82 9d 3d 30 d4 01 3f da ff 80 3e 49 a0 21 be
       0.0769094 0.507144 0.251952 -0.157838
0000c0 df 1a 00 c0 0c 81 12 3d
       -2.00164 0.0357676

11 f4 [50, 50]
000000 d6 91 1e bd 01 07 7e bc 65 8a f1 be 52 8b 77 bd
       -0.0387133 -0.0155046 -0.471759 -0.0604356
000010 4c 1b 4c 3b e4 1f 4c bd f2 07 e3 3d 33 fd 62 be
       0.00311442 -0.0498351 0.110855 -0.221669
000020 80 5d f2 bb f6 dc 78 3d 39 2a af be 5e 14 78 bd
       -0.0073964 0.0607576 -0.342119 -0.0605663
000030 e3 a6 46 3e ef 8f 33 3f d8 7f 80 3b 75 0b b8 3a
       0.193996 0.701415 0.00392149 0.00140415
000040 a7 47 ee 3c c9 e8 f0 3e cd 73 00 3f b0 2c 87 3c
       0.0290869 0.470526 0.501767 0.0165008
000050 3f e1 5c be 00 4a 2d 3d b7 45 f1 be c9 95 95 3c
       -0.215703 0.0423069 -0.471235 0.0182599
000060 71 8d bf 3d f4 a8 88 3d 3d 48 cf 3d e9 28 9f be
       0.0935315 0.0667285 0.101212 -0.310859
000070 b6 f8 b4 bf 14 b3 22 bf da 1d da 3e 75 2e 96 3d
       -1.41384 -0.635545 0.426009 0.0733308
000080 ed 47 52 c0 49 11 a9 bf 39 d9 c0 bb be 33 15 bd
       -3.28564 -1.32084 -0.00588527 -0.0364263
000090 60 01 ec bd a3 23 09 be 59 6d 4e 3e a6 42 fc bd
       -0.115237 -0.133925 0.201589 -0.123174
0000a0 9d 68 95 bb 17 29 24 3e b0 c8 97 3e 03 44 a9 3e
       -0.00455959 0.160313 0.296453 0.330597
0000b0 40 f7 35 3e 8e 3d fb bd 78 80 07 be d6 73 82 bf
       0.177701 -0.122676 -0.132326 -1.01916
0000c0 ad 5b 13 3d f8 ff f1 3d fa a3 de bc 38 5d e0 bb
       0.0359761 0.118164 -0.0271778 -0.00684705
0000d0 df dc 6f 3e b1 80 8e bd b6 e1 a6 3c f5 05 8e 3d
       0.234241 -0.0695814 0.0203713 0.0693473
0000e0 59 79 78 3d 98 d2 44 3d 2e 78 0c bd 5f 46 4c bd
       0.0606626 0.0480524 -0.0342943 -0.0498718
0000f0 a8 4a 45 bd 3c 13 3a be 54 35 a1 be 5a 62 3d bf
       -0.0481669 -0.181714 -0.31486 -0.739782
000100 f6 84 9d 3b 75 8a fa bc a1 a2 1a be fd 03 bb bd
       0.00480711 -0.0305836 -0.151011 -0.0913162
000110 86 74 e0 be 77 30 b2 3e cc e8 8c 3d 91 42 29 be
       -0.438389 0.348026 0.0688034 -0.165293
000120 26 fd 9d be 74 8f 11 3d de 87 4d bd 48 d7 71 3d
       -0.308572 0.0355372 -0.0501784 0.0590432
000130 7c 6d 0c 3d f7 6b ba bb 2f db 1e be 62 65 24 be
       0.0342841 -0.00568914 -0.155133 -0.160543
000140 a9 0c 2d 3d f7 ad 26 3e 94 34 03 3f b3 78 21 be
       0.0422484 0.162773 0.512521 -0.157687
000150 16 c8 97 bd 5f 90 d9 bc 1d ad ea bd 20 0c 3c 3e
       -0.0741121 -0.0265581 -0.114588 0.18364
000160 bc 76 39 be 17 57 a6 bd 72 c5 22 bc 0b d5 b8 bd
       -0.181117 -0.0812208 -0.00993477 -0.0902501
000170 26 e7 af 3d ed d5 27 3e 8a 10 cd 3c a2 28 f0 3d
       0.0858901 0.163902 0.0250323 0.117265
000180 f1 cc 85 3d f2 d8 8a 3d a7 d9 72 bd a5 49 09 3e
       0.0653323 0.0677966 -0.0592896 0.13407
000190 b5 a3 d8 3d 3e c3 25 3d aa 47 fa 3d c6 68 02 3d
       0.105781 0.0404694 0.122207 0.0318382
0001a0 00 02 96 3e 2c 0f 02 be 36 ae 6f be 3f 1e 7a be
       0.292984 -0.127011 -0.234063 -0.244256
0001b0 ed 92 82 3c 11 e3 35 3c 7c 0a 85 3d e6 77 da 3e
       0.0159392 0.0111015 0.0649614 0.426696
0001c0 67 63 25 3e 21 77 65 3f ab 25 8d 3e 9e 0a f8 3c
       0.161512 0.896349 0.275678 0.0302785
0001d0 41 9c b7 3e f5 59 0f 3d 28 60 17 3f 9a b7 b5 3d
       0.358614 0.0349979 0.591311 0.0887291
0001e0 09 fa 1b 3e 5f 7c d1 bd 6f 8b 68 3c b5 7a 3d 3c
       0.152321 -0.102288 0.0141934 0.0115649
0001f0 f6 08 f5 3d 97 c7 f2 3e b3 cb 9a 3b c0 22 ff 3c
       0.119646 0.474179 0.00472399 0.0311445
000200 3d b7 88 be 54 fc d7 3e 8c 7e 89 3d f9 18 67 3d
       -0.267023 0.421847 0.0671359 0.0564203
000210 e0 13 7b 3f 9d d9 8d 3a 48 12 69 bd 3b d2 f0 3a
       0.980772 0.00108223 -0.0569022 0.00183732
000220 40 9d 37 bd 20 60 dd be b6 4c 46 be 4f 79 1c bf
       -0.0448277 -0.432374 -0.193652 -0.611226
000230 3c d2 45 3d 95 9a 1d be 75 94 ab 3e 55 68 b0 3e
       0.0482962 -0.15391 0.335117 0.344546
000240 47 6f 8d 3d 6a 5d a4 bd ff 41 bf bd 8e a0 b7 3d
       0.0690599 -0.0802563 -0.0933876 0.0896617
000250 2e c3 a4 bc fd 40 03 3d 49 60 18 3d c3 f5 48 be
       -0.0201126 0.0320444 0.0372012 -0.19625
000260 23 2b 60 3b 84 0e ea be 8c 86 8c 3e 06 63 04 3e
       0.00342054 -0.457142 0.274464 0.129284
000270 1e 4e e0 3d 94 17 4d bf e1 23 07 bd 20 65 1f bd
       0.109524 -0.801141 -0.0329932 -0.0389148
000280 17 50 b3 bd 11 57 5e be 9b 0e 73 3d 5c ae 1e bf
       -0.0875551 -0.217129 0.0593401 -0.619848
000290 33 53 0a be 13 9a 34 be bf 62 ed bd cb fd c4 3c
       -0.135083 -0.176369 -0.115911 0.0240468
0002a0 dc bc e9 be 52 f3 25 bf d9 24 7d 3b 7e fc 25 3e
       -0.456519 -0.648244 0.00386267 0.162096
0002b0 bf f1 21 bf d5 59 ed 3c a3 dc 07 3d 2f 36 4d 3e
       -0.632595 0.0289735 0.0331694 0.200402
0002c0 45 f2 cd be ee db 9c 3a 2c 2b ed bd 43 1e 75 bf
       -0.402239 0.00119674 -0.115805 -0.957493
0002d0 dc f3 f4 3e 9e 05 06 bd be 83 97 3e 09 70 fa 3d
       0.478423 -0.0327202 0.295927 0.122284
0002e0 03 ce 9a be 4f 40 9e 3d 9f 95 bf bd b2 b8 df 3d
       -0.302353 0.0772711 -0.0935471 0.109239
0002f0 01 69 0f bf a9 a5 39 bc 16 7e 3a bc 23 92 d7 3c
       -0.560196 -0.011331 -0.0113826 0.0263148
000300 73 0e 6e be 77 81 02 be f0 fc 82 3d 24 92 bd 3d
       -0.232477 -0.127447 0.063959 0.0925639
000310 01 2c 57 3d c2 08 bb 3d 62 53 82 bc 1d 03 fa be
       0.0525322 0.0913253 -0.0159089 -0.488305
000320 bf 7c 92 3d 04 fc 3f bc 7e 00 42 be a0 3d 2d bd
       0.071527 -0.0117178 -0.189455 -0.0422951
000330 f8 a4 d3 3e 21 b1 5d bc ce c7 35 bd 9d 77 bd 3d
       0.413368 -0.013531 -0.04438 0.0925133
000340 87 a4 16 3d a3 40 9f 3c 35 98 46 3e 34 f6 15 be
       0.036778 0.01944 0.19394 -0.146447
000350 a2 4d 84 bc 9b ab 02 3f 42 82 9d bd b9 33 97 bb
       -0.0161503 0.510431 -0.0769086 -0.00461432
000360 fe 5d a4 bd 85 e6 3e bb e8 7f 5e 3c fb 5b 6e bf
       -0.0802574 -0.00291291 0.0135803 -0.931091
000370 1e f2 e0 bc 04 be cc bd bc 02 21 be d2 4e 13 3b
       -0.0274592 -0.0999718 -0.157237 0.00224774
000380 fd 26 7e bd 46 98 32 3e 23 8c 17 bc 20 08 00 be
       -0.0620489 0.174409 -0.00924972 -0.125031
000390 c5 c2 35 bd c0 b3 a5 be 82 8f 01 3e 2a ba af 3d
       -0.0443752 -0.323637 0.126524 0.0858043
0003a0 f2 ef f3 3e 77 64 0c be 1e d3 84 3d 2b 4d 0a 3d
       0.47644 -0.137102 0.0648558 0.033765
0003b0 3f 23 0b 3c 6c bc aa bd 2a 37 51 bd 95 2b 1c 3d
       0.00849229 -0.0833672 -0.051078 0.0381275
0003c0 1c 3e 0e bd c5 91 66 3b 44 21 18 bd 3b 8c 09 3e
       -0.0347272 0.00351821 -0.0371411 0.134324
0003d0 99 83 a0 be 3a 0d ac 3c c3 ff 8c 3b 1b f5 70 3e
       -0.313504 0.0210024 0.00430295 0.23531
0003e0 ce 99 5e bd 15 57 d5 3d e7 f0 7f bc b9 28 84 bd
       -0.0543459 0.10417 -0.0156214 -0.0645308
0003f0 ba 08 fc bb 4e d7 6e bc 69 51 cf 3e 61 3a 88 3d
       -0.00769147 -0.0145777 0.404918 0.0665176

12 f4 [50]
000000 2c 56 be bd 49 25 a1 bc 07 98 a9 bd 31 1d 5f bd
       -0.0929378 -0.0196711 -0.0828095 -0.0544712
000010 7f e0 05 bd 5f b5 f2 3d b4 58 0a be 64 23 20 be
       -0.0326848 0.11851 -0.135104 -0.156385
000020 7d 09 29 bf 4b dc 34 bd d3 66 01 3d c4 0b 22 bd
       -0.660301 -0.0441554 0.0315922 -0.039562
000030 54 37 4f bf db 36 ec 3d 2e 04 d9 bd b2 4b cc be
       -0.809438 0.115339 -0.105965 -0.399015
000040 bc 06 dd bd 29 08 96 be 2d 99 13 3e 65 0b 87 bd
       -0.107923 -0.293031 0.144139 -0.0659397
000050 2d ee 6b bf b4 e7 02 be 4d f1 1d bd 15 4b db 3c
       -0.921603 -0.127837 -0.0385602 0.0267692
000060 36 ce 81 bc e4 fc e8 3c 2d cc 02 bd d7 a6 01 3e
       -0.0158454 0.0284409 -0.031933 0.126613
000070 a5 13 75 bf 9c 87 ab be 0a 2d 8b be 36 29 7b 3d
       -0.957331 -0.335019 -0.271828 0.0613186
000080 81 78 19 bf 0d 77 a9 3d 85 94 8f be 97 74 04 be
       -0.599495 0.0827466 -0.28043 -0.129351
000090 4e 9a a6 3d f9 c0 9e bd 65 36 0a c0 ea 67 40 3d
       0.081349 -0.0775165 -2.15957 0.0469741
0000a0 4d 92 9d 3d 38 c1 92 3d c0 5e f9 be 0d a6 71 be
       0.0769392 0.0716576 -0.487051 -0.235985
0000b0 12 14 9b bf 7d 3a 43 3d 94 de 17 be 23 66 76 bf
       -1.21155 0.0476632 -0.14831 -0.962496
0000c0 93 c1 56 bd f3 03 6b bf
       -0.0524307 -0.918029
