configs/networks/acas/acas_1_2.onnx (onnx, 61577 bytes, 14 tensors)

1 f4 [50, 5]
0	0xbe9a2707	-0.301079
1	0x3bedd256	0.00725774
2	0xbb8fe7bf	-0.00439164
3	0xbf900735	-1.12522
4	0xbeb52c5a	-0.353854
5	0xbfa7c947	-1.31083
6	0x3d8ccfca	0.0687557
7	0x3e7795f6	0.241783
8	0xbe3c7970	-0.184057
9	0xbe87774b	-0.264582
10	0x3d924598	0.0714218
11	0x3fbe2878	1.48561
12	0x3e614df9	0.220024
13	0x3ec6e0d2	0.388434
14	0xbe00c06a	-0.125734
15	0x3ec70026	0.388673
16	0x3f48bab6	0.784099
17	0xbf48bb2c	-0.784106
18	0xbebcffeb	-0.36914
19	0x3e862824	0.262025
20	0xbf0414b6	-0.515941
21	0x3ca02b84	0.019552
22	0x3bbd059a	0.00576849
23	0x3e6bb83d	0.230195
24	0xbee34a23	-0.443925
25	0x3c5e58e6	0.013571
26	0x3ad707b9	0.00164055
27	0x3ce305bf	0.0277127
28	0xbed49e23	-0.415269
29	0xbed9988d	-0.424992
30	0xbfbb3eff	-1.46286
31	0xbdc0ca38	-0.0941357
32	0x3c212991	0.00983657
33	0xbc2a5d36	-0.0103982
34	0x3bb8949c	0.00563295
35	0x3f346e1a	0.704805
36	0x3cd46a50	0.0259296
37	0xbeab92c0	-0.335104
38	0xbd99ea21	-0.0751536
39	0xbe028523	-0.127461
40	0x3dcd4cba	0.100244
41	0x3f9d259a	1.22771
42	0x3ee684f1	0.450233
43	0x3ea80c31	0.328218
44	0xbe45e248	-0.193246
45	0x3ce43640	0.0278579
46	0x403c8701	2.94574
47	0x3dbaf25f	0.0912826
48	0x3dcda1a9	0.100406
49	0xbf1380dc	-0.576185
50	0x3d973eee	0.0738505
51	0x3fed421c	1.85358
52	0xbfe70d30	-1.80509
53	0x3e1d4bad	0.153609
54	0xbd103fb3	-0.035217
55	0xbde0c283	-0.109746
56	0x3f0fbb95	0.561456
57	0xbfe5f3b6	-1.7965
58	0x3d87ea02	0.0663643
59	0xbef31db4	-0.474836
60	0x3f4a0b2d	0.789233
61	0x3c4acbd6	0.0123777
62	0xbb6d133e	-0.00361748
63	0x3e2d5c74	0.169298
64	0xbe8c86cf	-0.274466
65	0x3e9abde4	0.30223
66	0x3ec919ce	0.392775
67	0xbe19d063	-0.150209
68	0x3e9117f8	0.283386
69	0x3ee55736	0.447931
70	0xbdcaaa05	-0.0989571
71	0xbd9c6279	-0.0763597
72	0xbd20a237	-0.0392172
73	0xbe9ec93a	-0.310129
74	0xc00eded3	-2.23235
75	0x3e2e8ee7	0.170467
76	0xbe603212	-0.218941
77	0x3fbcf51b	1.47623
78	0xbd04f807	-0.0324631
79	0x3eab68f1	0.334785
80	0x3de3150e	0.11088
81	0xbc914c8e	-0.0177367
82	0xbd167a96	-0.036738
83	0xbc1516fe	-0.00909972
84	0x3f553c8a	0.832955
85	0x3e091afc	0.133892
86	0xbf86339c	-1.04845
87	0x3f870a91	1.05501
88	0xbde2a887	-0.110673
89	0x3d8020ed	0.0625628
90	0xbf82b26c	-1.02107
91	0x3dd4bd77	0.103877
92	0xbe4afee7	-0.198238
93	0x3bc7e608	0.00610042
94	0x3ced8d37	0.028998
95	0xbf77c361	-0.967825
96	0x3d83681a	0.0641634
97	0xbe41012a	-0.188481
98	0xbe34d0dd	-0.176578
99	0xbe182dbe	-0.148612
100	0xbe187400	-0.14888
101	0xbe996484	-0.299595
102	0xbec5eaab	-0.386556
103	0x3ce3b6be	0.0277971
104	0xbe1d7236	-0.153756
105	0xbc3dba76	-0.0115801
106	0xbe618ca0	-0.220263
107	0x3e5edaa9	0.217631
108	0xbf1e8a61	-0.619299
109	0xbd640f09	-0.0556784
110	0x3ccd08c7	0.0250286
111	0xbe85eaab	-0.261556
112	0x3c7ec212	0.0155492
113	0xbe5e410b	-0.217045
114	0x3d59a30a	0.053134
115	0xbe985404	-0.297516
116	0xbdcaac39	-0.0989613
117	0xbf962bbf	-1.17321
118	0x3d55e6a2	0.0522219
119	0x3d52ca72	0.0514626
120	0x3d1dfb94	0.03857
121	0xbe83499d	-0.256421
122	0x3ecf1130	0.404428
123	0xbe560243	-0.208993
124	0x3de6cc1d	0.112694
125	0xbd12ab18	-0.0358077
126	0x3f67a56e	0.904868
127	0x3e0b966c	0.136316
128	0xbe9fd9ba	-0.312208
129	0x3db0a36c	0.0862492
130	0x3f3403ff	0.703186
131	0xbc9f124a	-0.0194179
132	0x3dc76ebf	0.0973792
133	0x3f054142	0.520527
134	0xbf8a1a0d	-1.07892
135	0x3e71372a	0.235562
136	0xbf0a19ca	-0.539456
137	0x3f428bd2	0.759946
138	0x3e7e9fae	0.248656
139	0xbfbcef89	-1.47606
140	0xbfab0fd0	-1.33642
141	0xbe53b9ae	-0.206763
142	0x3e3cea6c	0.184488
143	0x3c997587	0.0187328
144	0xbc1b04f4	-0.00946163
145	0x3d8ef607	0.0698052
146	0xc01537f4	-2.33154
147	0x3e1df6dc	0.154262
148	0x3ed2db62	0.41183
149	0xbf621987	-0.883202
150	0x3c4d7bb4	0.0125417
151	0xbd955e5e	-0.0729339
152	0xc0146762	-2.31881
153	0x3c875198	0.0165184
154	0x38f2e351	0.000115818
155	0xbcee491e	-0.0290876
156	0x3ecaf6c7	0.396414
157	0xbf1a6688	-0.603127
158	0xbd2f6a36	-0.0428259
159	0x3dbd8044	0.0925298
160	0xbe2811f5	-0.164131
161	0x3d098e1e	0.0335828
162	0x3b488ffc	0.00306034
163	0x3e6cce1c	0.231255
164	0x3e50f5a1	0.204062
165	0x3f2e4788	0.680779
166	0x3ca7c8d2	0.0204815
167	0x3d351647	0.0442107
168	0xbf8f7510	-1.12076
169	0x3f498d04	0.787308
170	0x3f99a36e	1.2003
171	0x3a59e4e3	0.0008312
172	0x3a36ebb1	0.000697787
173	0x3a7642ac	0.000939409
174	0xba9822f7	-0.00116071
175	0xbf3531a9	-0.707789
176	0x3df4cdb8	0.119533
177	0x3d86c1ae	0.0657991
178	0x3c84fb47	0.0162331
179	0x3d51075a	0.0510324
180	0xbcccc144	-0.0249945
181	0x3daad399	0.0834114
182	0x3fe00cc8	1.75039
183	0x3d5d2418	0.0539895
184	0xbb572368	-0.00328275
185	0xbf34a527	-0.705645
186	0xbe2845dd	-0.164329
187	0xbf024a6b	-0.508948
188	0xbe70142f	-0.234452
189	0x3e284a94	0.164347
190	0xbf65068a	-0.894631
191	0x3dd31d2e	0.103083
192	0x3f35ddb1	0.710414
193	0xbef50a03	-0.478592
194	0x3e5450f0	0.20734
195	0x3d13458d	0.035955
196	0xc0191783	-2.39206
197	0xbd8dfb86	-0.0693274
198	0x3e80624e	0.25075
199	0x3ddb4c3c	0.107079
200	0xbe675793	-0.22592
201	0xbda0aeb1	-0.0784582
202	0x3ee5931d	0.448388
203	0x3eb61933	0.355661
204	0xbf229e6f	-0.63523
205	0x3f03e0ce	0.515149
206	0x4029736d	2.64767
207	0xbea7c009	-0.327637
208	0xbd4af0bf	-0.049546
209	0x3db8d5e2	0.0902517
210	0xbd76e7f4	-0.0602798
211	0x3ea4a1cf	0.321547
212	0xbf009eba	-0.502422
213	0xbf0c3383	-0.547661
214	0xbd3050b0	-0.0430457
215	0xbe1f0457	-0.15529
216	0xbd515197	-0.0511032
217	0x3cb497ed	0.0220451
218	0xbf248f32	-0.64281
219	0x3f2fa616	0.686128
220	0x3e6b584b	0.229829
221	0x3f9ec0d7	1.24026
222	0xbd33354c	-0.043752
223	0x3ecf02e6	0.404319
224	0xbf614c88	-0.880074
225	0xbfacfa59	-1.35139
226	0x3ce4c6bf	0.0279268
227	0x3a2f2228	0.000668081
228	0xba406d21	-0.000734048
229	0x3c8bb433	0.0170537
230	0xbfb28b1a	-1.39487
231	0x3cf0ae89	0.0293801
232	0x3dce4218	0.100712
233	0x3c6ffdbf	0.0146479
234	0xbd5612fc	-0.0522642
235	0x3bd15e17	0.00638939
236	0x3c92c3f2	0.0179157
237	0xbdf269e0	-0.118366
238	0xbef28827	-0.473695
239	0xbc1c395c	-0.00953516
240	0xbe780a18	-0.242226
241	0x3de6bc62	0.112664
242	0xbecff92f	-0.406198
243	0x3e73358f	0.237509
244	0xbeedf117	-0.46473
245	0xbfbf9485	-1.49672
246	0xbbe0e370	-0.00686305
247	0x37da47ac	2.6021e-05
248	0x3ad910d3	0.00165608
249	0xbb027ea0	-0.00199119

2 f4 [50]
0	0xbf1513f9	-0.582336
1	0xbea260b3	-0.317144
2	0x3e11c369	0.142347
3	0x3ec574d6	0.385657
4	0xbd813ff9	-0.0631103
5	0xbde031cf	-0.10947
6	0xbec8a97a	-0.391918
7	0x3dab322d	0.0835918
8	0xbd5a6c0d	-0.0533257
9	0xbe4543af	-0.192641
10	0xbf14da1b	-0.581453
11	0xbea39de5	-0.319564
12	0x3e94c20d	0.290543
13	0xbdbedcc2	-0.0931945
14	0xbf6d4131	-0.926776
15	0x3d53176a	0.051536
16	0xbe542bfa	-0.207199
17	0x3f061d97	0.523889
18	0xbe65fcc2	-0.224597
19	0xbe3414a5	-0.17586
20	0x3d8735b4	0.0660204
21	0xbe46fdeb	-0.194328
22	0x3d4a97d4	0.0494612
23	0xbd038cb2	-0.0321166
24	0x3e048238	0.129403
25	0x3e124420	0.142838
26	0x3e12edbb	0.143485
27	0xbef2dadc	-0.474326
28	0xbe8b3d6c	-0.271953
29	0xbe62b5e5	-0.221397
30	0x3d0671d4	0.0328234
31	0x3e9640a7	0.293462
32	0x3dfee243	0.124455
33	0xbd3cedac	-0.0461251
34	0x3ec4727e	0.383686
35	0xbe0ae74f	-0.135648
36	0x3cc70ddc	0.0242986
37	0xbe28dde8	-0.164909
38	0xbe71b08a	-0.236025
39	0x3e438a7e	0.190958
40	0x3cd63059	0.0261461
41	0x3f32a183	0.697777
42	0xbcad6635	-0.0211669
43	0x3d3728c1	0.0447166
44	0xbe0bccaf	-0.136523
45	0xbe4d87b5	-0.200713
46	0xbec194e2	-0.378089
47	0x3e0672b9	0.131297
48	0x3bfc3ed5	0.00769792
49	0xbed5c1e8	-0.417495

3 f4 [50, 50]
0	0x3e04ef46	0.129819
1	0xbd6daf30	-0.0580284
2	0xbe1c3a43	-0.152566
3	0x3ea77f6b	0.327144
4	0xbde7429a	-0.11292
5	0xbe4c0618	-0.199242
6	0xbfd8e608	-1.69452
7	0xbe01387a	-0.126192
8	0x3e99e68a	0.300587
9	0xbdabb957	-0.0838496
10	0xbdc0f40e	-0.0942155
11	0x3e62b2c0	0.221385
12	0x3f00b535	0.502765
13	0x3cd53c3d	0.0260297
14	0x3e2d29dc	0.169105
15	0x3e01cf35	0.126767
16	0x3d0f988f	0.0350576
17	0x3e8d5172	0.276012
18	0xbf86f838	-1.05445
19	0x3d4cf9c9	0.0500429
20	0x3f37890d	0.716935
21	0x3e37ecbb	0.179614
22	0x3d83c65e	0.0643432
23	0xbe255821	-0.161469
24	0x3e3db6a2	0.185267
25	0x3e7b1466	0.245195
26	0x3c46de76	0.012138
27	0xbdee086c	-0.116227
28	0xbf14ef46	-0.581776
29	0x3daad29a	0.0834095
30	0x3e16a50d	0.147114
31	0x3e76ce79	0.241022
32	0x3f0de8a3	0.554331
33	0xbe9b6c59	-0.303561
34	0x4029989e	2.64994
35	0x3d8a8e2e	0.067654
36	0xbd62fd5b	-0.0554174
37	0x3e4bf099	0.19916
38	0xbca952aa	-0.0206693
39	0x3e83a66a	0.257129
40	0x3d820198	0.0634796
41	0x3e5cd2d4	0.215648
42	0xbe1bff8b	-0.152342
43	0xbd2f35fe	-0.0427761
44	0x3dc92df7	0.0982322
45	0xbf7e2058	-0.992681
46	0xbeceeefa	-0.404167
47	0x3e800c74	0.250095
48	0xbe3d5411	-0.184891
49	0xc02302b4	-2.54704
50	0x3ba7c719	0.00512017
51	0xba909e9e	-0.00110336
52	0x3c19ed9d	0.00939503
53	0xbd0aa84a	-0.0338519
54	0xbd27bdcf	-0.0409525
55	0xbd2eb661	-0.0426544
56	0x3ccbfedc	0.0249018
57	0x3c2188dc	0.00985929
58	0xbcd2f1aa	-0.02575
59	0xbc8cd48f	-0.0171912
60	0xbcf9533e	-0.0304352
61	0x3c0193c9	0.00790877
62	0xbc6be023	-0.0143967
63	0x3cec12ae	0.0288175
64	0xbc9ff9d0	-0.0195283
65	0xbd4c9499	-0.0499464
66	0xbcae16c9	-0.0212511
67	0x3cbe3e5f	0.0232231
68	0x3cac357e	0.0210216
69	0xbd1f3139	-0.0388653
70	0xbc2bdd69	-0.0104898
71	0x3bd9dfb0	0.00664898
72	0x3cf7eeef	0.0302653
73	0xbc422178	-0.0118488
74	0x3c9c5967	0.0190856
75	0xbd83a315	-0.0642759
76	0x3a819aa8	0.000988801
77	0x3d0bead5	0.0341595
78	0x3ce7ad23	0.0282808
79	0xbca35499	-0.0199378
80	0x3c33a620	0.0109649
81	0xbd24c603	-0.0402279
82	0xbb8bb18f	-0.00426311
83	0xbc1005b2	-0.00879042
84	0xbd7a7689	-0.0611482
85	0xbc9ab233	-0.0188838
86	0xbd4b02e3	-0.0495633
87	0x3b25bf98	0.00252912
88	0xbc92403f	-0.0178529
89	0xbca5e750	-0.0202519
90	0x3cd48593	0.0259426
91	0xbbff4c10	-0.00779105
92	0x3d1a327b	0.0376458
93	0x3cb9bd5b	0.0226733
94	0xbcffb8b2	-0.031216
95	0x3ca78408	0.0204487
96	0xbd0771af	-0.0330674
97	0x3ca4d6af	0.0201219
98	0xbbfa93da	-0.00764702
99	0x3cc4e64e	0.0240356
100	0x3f181dc1	0.594204
101	0xbcda5b96	-0.026655
102	0x3d829d41	0.0637765
103	0xbf2b8bf0	-0.670104
104	0xbf0693e2	-0.525694
105	0x3f9931ba	1.19683
106	0x3ea1376d	0.314876
107	0x3f879581	1.05925
108	0x3eb892cd	0.360495
109	0x3e90f25a	0.283099
110	0xbf7b573f	-0.9818
111	0x3e968cef	0.294044
112	0xbea42939	-0.320627
113	0x3f05131f	0.519823
114	0xbf10b578	-0.565269
115	0xbe99d9b2	-0.300489
116	0xbde044af	-0.109506
117	0x3e9e5fb7	0.309324
118	0xbd66f339	-0.0563843
119	0x3c00fbe9	0.00787256
120	0xbddf1412	-0.108925
121	0x3e207182	0.156683
122	0x3e90d2c4	0.282858
123	0x3e0e618d	0.139044
124	0x3f150a35	0.582187
125	0x3eb13d53	0.346171
126	0xbf60f723	-0.878771
127	0x3f10e714	0.566026
128	0x3f04e9c4	0.519192
129	0x3f1085a1	0.564539
130	0x3eb3a216	0.350846
131	0x3e9806d1	0.296927
132	0xbf7fd157	-0.999288
133	0xbe43a68b	-0.191065
134	0xbe134480	-0.143816
135	0xbdcdac26	-0.100426
136	0x3e322fad	0.17401
137	0xbde7b784	-0.113143
138	0xbed80de5	-0.421981
139	0x3ee87747	0.454035
140	0xbe36c3fc	-0.178482
141	0x3f3ee89f	0.745737
142	0xbcf32c48	-0.0296842
143	0x3f89cf57	1.07664
144	0x3e9cb70b	0.306084
145	0xbdde132b	-0.108435
146	0xbfb70ae5	-1.43002
147	0x3f0ce4c9	0.550366
148	0x3bd8b233	0.00661304
149	0x400896bc	2.1342
150	0x3e35b036	0.17743
151	0x3db73fb8	0.089477
152	0xbf266d37	-0.650104
153	0xbf746e2b	-0.954806
154	0xbe8d816b	-0.276378
155	0xbe849279	-0.25893
156	0xbf288b22	-0.658373
157	0xbd07bdcf	-0.03314
158	0xbd3b60af	-0.0457465
159	0xbec92232	-0.392839
160	0xbd3d3d78	-0.0462012
161	0xbc0929ca	-0.00837178
162	0x3e0ea52f	0.139302
163	0xbf6440d1	-0.891614
164	0xbe5745bf	-0.210227
165	0x3ec1c8a8	0.378484
166	0xbbd76a75	-0.00657397
167	0x3e62fba0	0.221663
168	0xbfb22bbf	-1.39196
169	0x3d8956dc	0.0670602
170	0xbf13fb48	-0.578053
171	0x3da7e2c5	0.0819755
172	0xbed3f3e0	-0.41397
173	0x3f5211dc	0.820585
174	0xbd141ff8	-0.0361633
175	0xbe841ede	-0.258048
176	0xbe05d24a	-0.130685
177	0xbea4ffa8	-0.322263
178	0x3d1e1199	0.038591
179	0x3dc7753f	0.0973916
180	0xc02e32f4	-2.72186
181	0xbf7473ef	-0.954894
182	0xbf10959e	-0.564783
183	0xbc18a22e	-0.00931601
184	0xbef5d50b	-0.480141
185	0x3e7ebc84	0.248766
186	0x3f90941d	1.12952
187	0x3ee93294	0.455464
188	0xbf289ff9	-0.658691
189	0x3fac06e2	1.34396
190	0x3c9fbe77	0.0195
191	0xbe0abda1	-0.135489
192	0x3ec1e14c	0.378672
193	0x3eeb8bf0	0.460052
194	0x3ea3a14d	0.31959
195	0xbea37ed4	-0.319327
196	0x3ed807bc	0.421934
197	0x3f2b778e	0.669793
198	0x3e3f7404	0.186966
199	0xbf174c1b	-0.591005
200	0x3ed600b0	0.417974
201	0xbe12e5de	-0.143455
202	0x3f2ee664	0.683203
203	0x3f0477cd	0.517453
204	0x3ea69143	0.325327
205	0xbe8c0032	-0.273439
206	0x3eb0bdcb	0.345198
207	0x3ce63f65	0.0281064
208	0xbdc543e4	-0.0963209
209	0xbd5f1bd4	-0.0544699
210	0x3fd1797d	1.63652
211	0xbf2e67f9	-0.681274
212	0xbe008894	-0.125521
213	0xbd87dd7a	-0.0663404
214	0xbfb60568	-1.42204
215	0xbfb618bd	-1.42263
216	0x3e8a5892	0.270207
217	0xc0057de9	-2.08581
218	0x3d77a96a	0.0604643
219	0xbe37d0af	-0.179507
220	0x3e14cf07	0.145321
221	0xbf861f4b	-1.04783
222	0xbecdbb9d	-0.401822
223	0x3ebc9e23	0.368394
224	0xbf9deadd	-1.23373
225	0x3ef77fae	0.483396
226	0xbe40bd01	-0.188221
227	0x3f62fddb	0.886686
228	0x3f64ad25	0.893267
229	0xbe22f09e	-0.159121
230	0x3f218c4c	0.631047
231	0x3f06fd76	0.527305
232	0xbf03dfd2	-0.515134
233	0x3ea3836b	0.319362
234	0xbd52f4b4	-0.0515029
235	0x3e835f3d	0.256586
236	0xc077a494	-3.86942
237	0x3e55f02c	0.208924
238	0xbf456990	-0.771142
239	0xbf0bd178	-0.546165
240	0x3bb780b5	0.00560006
241	0x3f1bdc9c	0.608835
242	0xbdcc5924	-0.0997794
243	0xbdc32584	-0.0952864
244	0xbecf310a	-0.404671
245	0x3ec188d3	0.377997
246	0xbc6ec17f	-0.0145725
247	0xbd1a9110	-0.037736
248	0x3ec5896a	0.385814
249	0x3ee5527e	0.447895
250	0xbfc616c6	-1.54757
251	0xbf34244f	-0.703679
252	0x3fa8f616	1.32001
253	0xbe9bb928	-0.304147
254	0x3e7fb97c	0.249731
255	0x3fa5c52e	1.29508

4 f4 [50]
0	0xbca5a9de	-0.0202226
1	0xbca15b2f	-0.0196968
2	0xbf8d652c	-1.10465
3	0xbfae0371	-1.35948
4	0xbf66a748	-0.90099
5	0xbef992ea	-0.487449
6	0x3f5322af	0.824748
7	0x3cd8244f	0.0263845
8	0xbfd18a87	-1.63704
9	0xbf916fa8	-1.13622
10	0xbf9ce9a3	-1.22588
11	0xbb90e3d3	-0.00442169
12	0x3c0448c5	0.00807399
13	0xbbb416de	-0.00549589
14	0x3e45a1cb	0.193
15	0x3ea893d9	0.329253
16	0xbe7b6f1a	-0.245541
17	0x3f7b122b	0.980746
18	0x3f647a29	0.892489
19	0xbb84eae1	-0.00405632
20	0xbeba39e7	-0.363723
21	0xbcd765e3	-0.0262937
22	0xbf47ccd1	-0.780469
23	0x3e9eb1c4	0.30995
24	0x3de882f1	0.113531
25	0xbe2e7ab7	-0.17039
26	0xbe1b4070	-0.151613
27	0xbdb756e4	-0.0895212
28	0xbdd6f3b2	-0.104957
29	0xbc5528bc	-0.0130102
30	0xbf8f00bd	-1.11721
31	0x3e0a048e	0.134783
32	0xbec125ff	-0.377243
33	0xbcd9ff86	-0.0266111
34	0x3f0e0126	0.554705
35	0x3f241323	0.640917
36	0xbeeb1811	-0.459168
37	0x3dda4df4	0.106594
38	0x3e53a605	0.206688
39	0x3ed9f87f	0.425724
40	0x3f62274a	0.883412
41	0xbf451f2e	-0.770007
42	0x3e832096	0.256108
43	0xbf8a7d56	-1.08195
44	0xbc1fc8de	-0.00975248
45	0xbf3ba93b	-0.733051
46	0x3e302539	0.172017
47	0xbdb2c8b8	-0.0872969
48	0xbc39b9cb	-0.0113358
49	0xbc783820	-0.0151501

5 f4 [50, 50]
0	0x3f08ac8e	0.533883
1	0x3d2edaa9	0.042689
2	0x3e1aa1d7	0.151008
3	0x3ed0f6ad	0.408132
4	0x3fa52b80	1.29039
5	0xbed6a5f8	-0.419235
6	0xbdfbc87e	-0.122941
7	0xbea31d0d	-0.318581
8	0xbe8925dd	-0.267867
9	0x3ee51c19	0.44748
10	0xbe18b695	-0.149134
11	0xbd1008dc	-0.0351647
12	0x3f0a6330	0.540576
13	0x3d9d1cdc	0.0767152
14	0x3f28bff4	0.659179
15	0x3e414b16	0.188763
16	0xbf3209ee	-0.695464
17	0x3edf2c0e	0.435883
18	0x3e5a2a4e	0.213052
19	0xbcd8d4e3	-0.0264687
20	0xbe1769a9	-0.147864
21	0x3b9e8ac5	0.00483832
22	0x3edaa5c6	0.427046
23	0xbfa5197a	-1.28984
24	0x3e8660c4	0.262457
25	0xbec9acde	-0.393897
26	0x3eaca3e8	0.337188
27	0xbf48b84a	-0.784062
28	0x3e2ca0c3	0.168582
29	0xbd306dd7	-0.0430735
30	0xbf221fd1	-0.633298
31	0xbe9c9b84	-0.305874
32	0x3eda8f19	0.426873
33	0xba174e5d	-0.000577187
34	0xbf1641b3	-0.58694
35	0xba9b0ee5	-0.001183
36	0x3ec324a7	0.381139
37	0xbe83d20f	-0.257462
38	0x3e6da598	0.232077
39	0xbf25f6ba	-0.648296
40	0xbeacaada	-0.337241
41	0x3ed78056	0.420901
42	0xbf321f5c	-0.695791
43	0x3f3ea36a	0.744681
44	0x3ce7a8f1	0.0282788
45	0x3f0ff456	0.562322
46	0xbf14913a	-0.580341
47	0x3e433df3	0.190666
48	0xbc076c91	-0.00826563
49	0xbc1d627c	-0.009606
50	0xbd54b168	-0.051927
51	0x3c6eab44	0.0145672
52	0xbd1b0905	-0.0378504
53	0xbd3d665d	-0.0462402
54	0x3c514b4c	0.0127743
55	0xbc52e947	-0.012873
56	0x3cf7de94	0.0302575
57	0x3ceff881	0.0292933
58	0x3c7d72f2	0.0154693
59	0x3c1d6b81	0.00960815
60	0xbd17e290	-0.0370813
61	0x3cb8a5ce	0.02254
62	0xbbac6752	-0.00526134
63	0xbca0df3e	-0.0196377
64	0xbd171200	-0.0368824
65	0xbc0861d9	-0.00832411
66	0xbce15f61	-0.0275113
67	0x3d16c707	0.0368109
68	0xbc3c8e91	-0.0115086
69	0xbd18a48c	-0.0372663
70	0xbcfeebce	-0.0311183
71	0x3bc47815	0.00599576
72	0x3ca2424a	0.019807
73	0x3c132f07	0.00898338
74	0xbd106ec8	-0.0352619
75	0xbc0452eb	-0.00807641
76	0x3bc3380e	0.00595761
77	0x3d00cacb	0.0314434
78	0x3cdaaa71	0.0266926
79	0x3b89c96d	0.00420492
80	0x3c02b7c0	0.00797838
81	0xbcb73e25	-0.0223685
82	0x3c39f1ff	0.0113492
83	0x3ac1795d	0.00147609
84	0xbd9ee3bb	-0.0775828
85	0xbd47bdcf	-0.048765
86	0xbcec23aa	-0.0288256
87	0x3a8fa7fe	0.00109601
88	0xbcbc6d6f	-0.0230014
89	0xbd4b6193	-0.0496536
90	0x3d168bfe	0.0367546
91	0x3bcf7b12	0.00633181
92	0xbc15acfb	-0.00913548
93	0x3c3d8ed7	0.0115697
94	0xbd3e3f50	-0.0464471
95	0xbd4aa0bd	-0.0494697
96	0xbd403a83	-0.0469308
97	0xbd0753e7	-0.033039
98	0xbd39e6fc	-0.0453863
99	0x3c79f87f	0.015257
100	0xbc0e486d	-0.00868426
101	0x3c654493	0.0139934
102	0xbd31fbc6	-0.043453
103	0x3bac5040	0.00525859
104	0x3cbdedd7	0.0231847
105	0xbc6f8e99	-0.0146214
106	0xbd6f8e12	-0.0584851
107	0x3c3e9b46	0.0116337
108	0xbcd65973	-0.0261657
109	0xbca512df	-0.0201506
110	0x3d178268	0.0369896
111	0xbcab4487	-0.0209067
112	0xbd408a34	-0.0470068
113	0x3d2dd64d	0.0424407
114	0x3d104a80	0.0352273
115	0xbcfd64e5	-0.0309319
116	0xbc952d8f	-0.0182102
117	0x3c8ff576	0.0175731
118	0x3c126e8d	0.00893749
119	0x3c169665	0.00919113
120	0xbce849cb	-0.0283555
121	0xbc810188	-0.0157478
122	0x3cba9202	0.0227747
123	0xbc685122	-0.0141795
124	0xbd3fb58d	-0.046804
125	0xbc21f548	-0.00988514
126	0xbcd4f921	-0.0259977
127	0xbd381012	-0.0449372
128	0xbcb3f05d	-0.0219652
129	0x3c6a1e82	0.0142895
130	0xbd3ef050	-0.0466159
131	0x3d00f7fd	0.0314865
132	0x3bc403fb	0.00598192
133	0xbc95f098	-0.0183032
134	0xbd4eb82a	-0.0504686
135	0xbd6a8eb4	-0.057265
136	0xbcfaf99b	-0.0306366
137	0xbbc02407	-0.00586367
138	0x3ce3d01f	0.0278092
139	0xbc82d92e	-0.0159727
140	0xbd21981b	-0.0394517
141	0x3c938731	0.0180088
142	0x3cbd5dfa	0.0231161
143	0x3d09a8c0	0.0336082
144	0xbd437b2f	-0.0477249
145	0xbd5f3c05	-0.0545006
146	0xbd1936ee	-0.0374059
147	0xbbf070ec	-0.00733768
148	0x3c2fcf66	0.0107306
149	0xba01b736	-0.000494826
150	0x3ea91c4c	0.330294
151	0x3d0d62a4	0.0345179
152	0x3e19d51b	0.150227
153	0x3faf36ce	1.36886
154	0x3f10b03a	0.565189
155	0xbf159685	-0.584328
156	0x3e0efc7a	0.139635
157	0xbea7064f	-0.32622
158	0xbe67f0ed	-0.226505
159	0x3f2f2b56	0.684255
160	0xbcf4fbc0	-0.0299052
161	0x3c35d173	0.0110973
162	0x3f9c5b6c	1.22154
163	0x3f0105e2	0.503996
164	0xbf402e23	-0.750704
165	0xbed12a95	-0.408528
166	0xbe280fdc	-0.164123
167	0xbec63bef	-0.387176
168	0x3f54c47a	0.831123
169	0x3a110daf	0.000553335
170	0x3f5fcb2e	0.874194
171	0xbcd3264d	-0.0257751
172	0x3f74589b	0.954477
173	0x3fac5ac4	1.34652
174	0xbe9da33c	-0.307886
175	0x3e94f249	0.290911
176	0xbf3036a8	-0.688334
177	0xbdade127	-0.0849021
178	0x3d8822e4	0.0664728
179	0xbc7b05c5	-0.0153212
180	0x3f6cd36b	0.925101
181	0xbe037b07	-0.128399
182	0x3eb61d00	0.35569
183	0xbd3c6328	-0.045993
184	0xbfe3458d	-1.77556
185	0xbe14af0c	-0.145199
186	0xbe873d19	-0.264138
187	0xbdde2de8	-0.108486
188	0x3e3b5bf7	0.182968
189	0x3e0d944b	0.138261
190	0x3f1de376	0.616752
191	0x3ee9cd1c	0.456643
192	0xbf22f73c	-0.636585
193	0xbf82b5b3	-1.02117
194	0xbc974a6a	-0.0184681
195	0x3e18982d	0.149018
196	0x3f0251e3	0.509062
197	0x3f0c6089	0.548348
198	0x3d2118ea	0.0393304
199	0x3d28bb76	0.0411944
200	0x3ddacc4f	0.106835
201	0xbcdd3a6e	-0.0270054
202	0x3db52927	0.0884574
203	0xbee0dfdf	-0.439208
204	0x382822e0	4.00868e-05
205	0xbe785be2	-0.242538
206	0xbdecc35d	-0.115607
207	0xbead42c4	-0.3384
208	0xbe7aceab	-0.244929
209	0x3e95655e	0.291789
210	0xbdf3eab3	-0.1191
211	0xbd0b5533	-0.0340168
212	0xbeb810a5	-0.359502
213	0xbcdf4e0f	-0.0272589
214	0x3db32881	0.0874796
215	0x3e6600f3	0.224613
216	0x3edd0657	0.431689
217	0x398a17e0	0.000263392
218	0xbdd7ac3f	-0.105309
219	0x3cf77f28	0.030212
220	0x3db8d0f4	0.0902423
221	0xbd287a58	-0.0411323
222	0xbdd4cb19	-0.103903
223	0xbea46349	-0.32107
224	0x3d78cb8e	0.060741
225	0x3cce676c	0.0251958
226	0x3cfa7a4f	0.0305759
227	0xbfa94aa1	-1.32259
228	0x3dbd122a	0.0923198
229	0xbcb50a03	-0.0220995
230	0xbeed0e34	-0.462999
231	0xbcd30dfa	-0.0257635
232	0xbf863f14	-1.0488
233	0x3c6d1684	0.0144707
234	0xbf28ca3e	-0.659336
235	0x3e3d783e	0.185029
236	0xbf8643fe	-1.04895
237	0xbee4b103	-0.446663
238	0x3e57cfa2	0.210753
239	0x3f0bffde	0.546873
240	0x3e1af7d3	0.151336
241	0x3f3547ae	0.708125
242	0xbe747ae1	-0.23875
243	0x3f3b6a1f	0.732088
244	0x3caabc01	0.0208416
245	0x3dd1fcd2	0.102533
246	0xbea5b63d	-0.323656
247	0x3ca22193	0.0197914
248	0x3d0bb3c8	0.034107
249	0xbcb377fd	-0.0219078
250	0xbfbdf1bf	-1.48394
251	0xbd340f81	-0.0439601
252	0xbc9feaec	-0.0195212
253	0x3f80bf0a	1.00583
254	0x3f0cb0f2	0.549575
255	0x3ee7d8cf	0.452826

6 f4 [50]
0	0xbfc51490	-1.53969
1	0xbcaa22b4	-0.0207685
2	0xbc8f5ae7	-0.0174994
3	0xbfc5dbcb	-1.54577
4	0x3d44a20b	0.0480061
5	0x3f0486cf	0.517682
6	0x3d3b1c6b	0.0456814
7	0xbf1ada23	-0.604891
8	0xbfc277c4	-1.51928
9	0x3f10c469	0.565497
10	0xbc9d66e3	-0.0192141
11	0x3e04b48d	0.129595
12	0x3c577384	0.0131501
13	0x3ed9d841	0.425478
14	0x3f9436b9	1.15792
15	0xbcfc40c3	-0.0307926
16	0x3edff195	0.43739
17	0xbe79ea9a	-0.244059
18	0xbe1ba7b9	-0.152007
19	0xbd77d630	-0.060507
20	0x3df7c0b1	0.120973
21	0xbfcc2ce4	-1.59512
22	0xbeae8102	-0.340828
23	0xbfe5e743	-1.79612
24	0x3eaceb14	0.337731
25	0xbfc5c2e3	-1.54501
26	0xbf28f00f	-0.659913
27	0xbb79fc30	-0.00381447
28	0x3f3654f8	0.712234
29	0xbc904197	-0.0176094
30	0x3f46e2b9	0.776897
31	0xbf913650	-1.13447
32	0x3eef4f2f	0.467401
33	0x3f3584b2	0.709056
34	0xbce565eb	-0.0280027
35	0x3f0e2ef5	0.555404
36	0xbefb8c54	-0.491305
37	0xbe9cd445	-0.306307
38	0xbc5abf69	-0.0133513
39	0xbddfd47c	-0.109292
40	0x3ddee4e2	0.108835
41	0x3ea770df	0.327033
42	0x3efc25af	0.492475
43	0x3e5ff10f	0.218693
44	0x3f361d11	0.711381
45	0xbfcbc06e	-1.59181
46	0xbdbf068b	-0.0932742
47	0x3e1fc9bc	0.156043
48	0x3f31d628	0.694674
49	0xbfbb3eff	-1.46286

7 f4 [50, 50]
0	0xbeb38499	-0.350621
1	0xbd580977	-0.0527434
2	0xbcd28863	-0.0256998
3	0xbf634ba5	-0.887873
4	0xbead3b4b	-0.338343
5	0xbf7546c3	-0.958111
6	0xbece655a	-0.403117
7	0x3db9d686	0.0907412
8	0x3e901755	0.281428
9	0x3edfa95d	0.436839
10	0xbb218fdd	-0.00246524
11	0x3e264b23	0.162396
12	0xbec03ada	-0.375449
13	0x3fda8049	1.70704
14	0x3e5a22f7	0.213024
15	0xbc1f0452	-0.00970562
16	0x3fa2bc94	1.27138
17	0xbf036fe3	-0.513426
18	0x3f04b125	0.518328
19	0x3f28b6c8	0.659039
20	0xbe2416be	-0.160243
21	0x3f050364	0.519583
22	0x3f155c96	0.583444
23	0x3fa64d2b	1.29923
24	0x3e98ca3e	0.298418
25	0x3dc71822	0.097214
26	0x3f4e5c0c	0.806092
27	0x3da53777	0.0806722
28	0x40272e73	2.61221
29	0xbd3a90db	-0.0455483
30	0xbfb7707a	-1.43312
31	0x3e85188f	0.259953
32	0x3f938e4c	1.15278
33	0x3ede2153	0.433848
34	0xbc327533	-0.0108922
35	0x3e2319c6	0.159278
36	0x3e1d4174	0.15357
37	0xc0826a16	-4.07545
38	0xbc9d5f57	-0.0192105
39	0xbe9d5c96	-0.307347
40	0x3e5ab10c	0.213566
41	0x4052c5eb	3.29333
42	0xbf4c7ac0	-0.798748
43	0x3e92a950	0.286448
44	0xc011c409	-2.27759
45	0x3f578184	0.84182
46	0xbf5dcfee	-0.866454
47	0xbe86cce6	-0.263282
48	0xc02511f1	-2.57922
49	0xbd053cb6	-0.0325286
50	0xbebf09d9	-0.373122
51	0x3d241bb9	0.0400655
52	0xbaf9e081	-0.00190641
53	0x3dd21dda	0.102596
54	0xbede3de6	-0.434066
55	0x3d887d70	0.0666455
56	0xbf23fcdb	-0.640577
57	0xbd416392	-0.0472141
58	0x3f8c0981	1.09404
59	0x3f162446	0.586491
60	0xbc662fe0	-0.0140495
61	0xbeade13b	-0.339609
62	0xbec51f1d	-0.385003
63	0x3f2f46dc	0.684675
64	0x3ec10929	0.377023
65	0x3d1ccf79	0.0382838
66	0x3ec4a6ec	0.384086
67	0x3f9e58f7	1.23709
68	0xbec8064b	-0.390673
69	0x3e60a56a	0.219381
70	0xbea506dd	-0.322318
71	0x3e93cd14	0.288674
72	0xbeb54174	-0.354015
73	0xbecc7fbb	-0.399412
74	0xbd561a39	-0.0522711
75	0x3e9bc537	0.304239
76	0x3c6fc159	0.0146335
77	0xbdb3ebe8	-0.0878523
78	0x3e39d020	0.181458
79	0x3d364643	0.0445006
80	0x3e4f8a09	0.202675
81	0x3f20c2c6	0.627972
82	0x3de46b6a	0.111533
83	0x3ed9d1d4	0.425429
84	0xbd2c4c24	-0.0420648
85	0xbdb1f065	-0.0868843
86	0x3f779c95	0.967233
87	0x3e32c98e	0.174597
88	0xbc99b28e	-0.0187619
89	0x3e9cd8fd	0.306343
90	0x3ec35ce2	0.381568
91	0x3f1aa716	0.604112
92	0xbec4471b	-0.383355
93	0x3e259c49	0.161729
94	0x3e6ee3d6	0.233291
95	0xbe773216	-0.241402
96	0x3db10731	0.0864395
97	0xbe1d65a1	-0.153708
98	0x3dfc70ca	0.123262
99	0xbd3c2f76	-0.0459437
100	0x3f645b8e	0.892022
101	0xbb252ea3	-0.00252048
102	0xbd3db263	-0.0463127
103	0x3da5e6a2	0.0810063
104	0xbf219d99	-0.631311
105	0xbf502ff9	-0.813232
106	0xc0030404	-2.04712
107	0x3e634a02	0.221962
108	0x3fc6e243	1.55378
109	0xbe8c09e5	-0.273513
110	0x3ceae11f	0.0286718
111	0xbec230ba	-0.379278
112	0x3e30f5a1	0.172812
113	0x3f77edd9	0.968473
114	0xbe614f8b	-0.22003
115	0x3c1e5698	0.0096642
116	0x3cdd83d4	0.0270404
117	0xbe452370	-0.192518
118	0x3de4a409	0.111641
119	0xbf4527f6	-0.770141
120	0xbd43c841	-0.0477984
121	0xbec3da73	-0.382526
122	0x3ef787ad	0.483457
123	0x3e22e276	0.159067
124	0xbe04a05e	-0.129518
125	0xbfaf4a77	-1.36946
126	0xbda76930	-0.0817436
127	0xbf83251c	-1.02457
128	0x3fb90386	1.44542
129	0xbd0d632a	-0.0345184
130	0xbfacaea7	-1.34908
131	0x3ec61d65	0.386943
132	0xbed8010c	-0.421883
133	0xbe609353	-0.219312
134	0x3cbda28d	0.0231488
135	0xbfa996a7	-1.32491
136	0x3f7f3700	0.996933
137	0x3fd13501	1.63443
138	0xbd1b4afa	-0.0379133
139	0x3f0097ea	0.502318
140	0x3e8ad3a6	0.271146
141	0xbfe7d60f	-1.81122
142	0xbe1c1a05	-0.152443
143	0x3eee08af	0.46491
144	0x3e9d7604	0.307541
145	0x3f879bbb	1.05944
146	0xbf80f41f	-1.00745
147	0xbf107443	-0.564274
148	0xbe448494	-0.191912
149	0xbd175fb3	-0.0369565
150	0xbf7aa034	-0.979007
151	0xbd4aae7a	-0.0494828
152	0x3ce518f4	0.027966
153	0xbfa4970f	-1.28586
154	0xbee2db62	-0.44308
155	0x3d6feafa	0.0585737
156	0xbf2b91b4	-0.670192
157	0xbe8d72de	-0.276267
158	0xbdbb60e4	-0.0914934
159	0x3f5a68c2	0.853161
160	0x3cf135cd	0.0294446
161	0xbec36934	-0.381662
162	0xbda5d38c	-0.0809699
163	0x3f1a2a1b	0.602205
164	0x3e3d8f0c	0.185116
165	0xbcf44a55	-0.0298206
166	0xbf1b7953	-0.60732
167	0xc0277c70	-2.61697
168	0xbf34c2f8	-0.7061
169	0x3e56f2a6	0.20991
170	0x3f5cec85	0.862984
171	0x3ee318fc	0.44355
172	0xbf018223	-0.505892
173	0xbf4f50e3	-0.809828
174	0x3f2463e0	0.642149
175	0xbe8d933e	-0.276514
176	0x3eb7e08b	0.359135
177	0x3de22899	0.110429
178	0x3f435515	0.763017
179	0x3d1bc58e	0.0380302
180	0x3edbb1f2	0.429092
181	0x3ed59620	0.417161
182	0xbf624a27	-0.883944
183	0x3dc459f4	0.0958747
184	0x3cb03e56	0.0215141
185	0x3d0ef20b	0.0348988
186	0xbf54fcb5	-0.831981
187	0xbeb2cf53	-0.349238
188	0xbca0b9ea	-0.0196199
189	0x3e94f5f5	0.290939
190	0xbd737974	-0.059442
191	0x3f1792f3	0.592086
192	0x3dd14b9d	0.102195
193	0xbe9a9ac3	-0.301962
194	0xbf662a0b	-0.899079
195	0xc08e0b78	-4.4389
196	0xbf2d95ff	-0.67807
197	0x3c5d9217	0.0135236
198	0xbf089b0f	-0.533616
199	0x3d9380e6	0.0720232
200	0x3eacb0c0	0.337286
201	0x3d2e6d9c	0.042585
202	0x3ca968af	0.0206798
203	0xbec8ea9e	-0.392415
204	0xbe532053	-0.206178
205	0xbe0afb3b	-0.135724
206	0x3ee271de	0.442275
207	0x3ef73b86	0.482876
208	0x3f467b0b	0.775315
209	0x3eee3d3e	0.465311
210	0xba65bfaf	-0.000876422
211	0xbf9a1427	-1.20374
212	0xbef28262	-0.473651
213	0x3eedef20	0.464715
214	0x3fa7ae14	1.31
215	0xbd0b417d	-0.033998
216	0xbc18ddf2	-0.00933026
217	0xbfa69e1b	-1.3017
218	0xc02e572a	-2.72407
219	0x3eb9e7da	0.363097
220	0xbf162930	-0.586566
221	0xbed69100	-0.419075
222	0x3f995b57	1.1981
223	0xbebe106b	-0.371219
224	0x3d8eb0e0	0.0696733
225	0xbe3938de	-0.180881
226	0x3ed11212	0.408341
227	0xbe3d5d3e	-0.184926
228	0x3cf65cb3	0.0300735
229	0xbc335be2	-0.0109472
230	0xbe9fb3b7	-0.311918
231	0x3f96680a	1.17505
232	0x40009279	2.00894
233	0x3e46d2aa	0.194163
234	0x3ccf465a	0.0253021
235	0x3d674c5a	0.0564693
236	0x3f87aa26	1.05988
237	0xbf9152d2	-1.13534
238	0x3d136b4c	0.035991
239	0x3d2df29c	0.0424677
240	0xbfced917	-1.616
241	0x3fb6d384	1.42833
242	0xbf5cf28c	-0.863076
243	0xbe8b8690	-0.272511
244	0x3f5eb0a7	0.869883
245	0xbda1fbc6	-0.0790935
246	0x3e087ad1	0.133281
247	0x3e14488c	0.144808
248	0xbf8126e9	-1.009
249	0x3d8fecd0	0.0702759
250	0xbe4b3fea	-0.198486
251	0x3d1a90f6	0.0377359
252	0x3d096a0c	0.0335484
253	0xbd9aa5fc	-0.0755119
254	0xbdb4e351	-0.0883242
255	0x3da272bc	0.0793204

8 f4 [50]
0	0xbf712ea5	-0.942118
1	0xbf4bac71	-0.7956
2	0xbf04d595	-0.518884
3	0x3eabec25	0.335786
4	0x3ec91a54	0.392779
5	0x3f127770	0.572135
6	0xbf87d2c8	-1.06112
7	0xbf7625b7	-0.961513
8	0xbe0c3937	-0.136937
9	0x3fa7eab3	1.31185
10	0x3f56aad2	0.838544
11	0x3f275009	0.653565
12	0xbe797bfa	-0.243637
13	0x3edf46ed	0.436088
14	0x3ea2b1b3	0.317762
15	0x3dc57598	0.0964157
16	0x3f2c0d0b	0.672074
17	0x3f6aeed9	0.917707
18	0xbfd1197a	-1.63359
19	0xbe8573eb	-0.26065
20	0xbf029985	-0.510155
21	0x3e1bb7fa	0.152069
22	0x3eec25af	0.461225
23	0x3e9597d5	0.292174
24	0xbf656e8b	-0.896218
25	0x3f979b13	1.18442
26	0xbe949b41	-0.290247
27	0xbed24d2b	-0.410745
28	0xbf3ea055	-0.744634
29	0x3efe7d78	0.497051
30	0x40586e44	3.38173
31	0xbf366adb	-0.712568
32	0xbeffe4bd	-0.499792
33	0xbf2e6b0e	-0.681321
34	0xc0048f08	-2.07123
35	0xbf7ea6d2	-0.994733
36	0x3d8e514c	0.069491
37	0xbe7212d7	-0.2364
38	0xbf600043	-0.875004
39	0xc0234952	-2.55135
40	0xbcfdd6c5	-0.0309862
41	0xbf840e17	-1.03168
42	0xbf81dcc6	-1.01455
43	0xbe54f4c7	-0.207965
44	0xbf3c5016	-0.735597
45	0xbf09a7d2	-0.537717
46	0xbfd2afcd	-1.64599
47	0xbf488af0	-0.78337
48	0x3e044956	0.129186
49	0xbd3aa319	-0.0455657

9 f4 [50, 50]
0	0xbe0b4678	-0.136011
1	0xbea99b2c	-0.331262
2	0x3c1ebb6c	0.00968824
3	0xbdda237d	-0.106513
4	0xbd8caa5b	-0.0686843
5	0xc0114fdf	-2.2705
6	0xbf2fa0e8	-0.686049
7	0x3eedbca9	0.46433
8	0xc02c7896	-2.69486
9	0x3e9569b1	0.291822
10	0xbe12584f	-0.142915
11	0x3f3660e5	0.712416
12	0x3ee95981	0.455761
13	0x3f7cbdba	0.98727
14	0xbeba8e0d	-0.364365
15	0xbfc6aa3b	-1.55207
16	0x3de36545	0.111033
17	0x3f9397cc	1.15307
18	0xbed3e1ca	-0.413832
19	0xbda7a42c	-0.0818561
20	0x3f8b588e	1.08864
21	0xbfc8577e	-1.56517
22	0xbee9f256	-0.456927
23	0x3f11c305	0.569382
24	0x3f8c639d	1.09679
25	0xbe8f852f	-0.280313
26	0x3f71437c	0.942436
27	0x3ea86834	0.32892
28	0x3e547cfa	0.207508
29	0x3f36db73	0.714286
30	0xbe1c942d	-0.152909
31	0xbe593f6c	-0.212156
32	0x3e0436fc	0.129116
33	0x3e7ac322	0.244885
34	0xbf31106f	-0.691657
35	0x3e4f1737	0.202237
36	0x3c9615ec	0.018321
37	0x3d7866af	0.0606448
38	0x3fbc4620	1.47089
39	0xbe1da448	-0.153947
40	0x3c93b0b7	0.0180286
41	0x3f2e6eb9	0.681377
42	0xbfb0c2f8	-1.38095
43	0xbfaa464a	-1.33027
44	0x3f4b3248	0.793736
45	0xbf9eea21	-1.24152
46	0x3e3eb895	0.186251
47	0xbdff969e	-0.124799
48	0xbeadb4ab	-0.339269
49	0x3f09e29b	0.538614
50	0xbe60cc79	-0.21953
51	0x3e02e0e3	0.127811
52	0x3f1e0781	0.617302
53	0x3f2993b4	0.66241
54	0xbbd2da83	-0.00643474
55	0x3f107a8d	0.56437
56	0x3db8e780	0.0902853
57	0x3ea2a7bd	0.317686
58	0xbf75b76b	-0.95983
59	0x3ea8e1d6	0.329848
60	0xbe96848c	-0.29398
61	0x3d424f80	0.0474391
62	0xbe462802	-0.193512
63	0x3fa437b5	1.28295
64	0xbd93a125	-0.0720847
65	0xbf40f9a0	-0.753809
66	0x3d66e37f	0.0563693
67	0xbfb657a8	-1.42455
68	0x3a1238ca	0.000557792
69	0xbe3aa4ba	-0.182269
70	0xbeffe953	-0.499827
71	0xbf2a8e0d	-0.66623
72	0x3e2e353f	0.170125
73	0xbe24f2ae	-0.161082
74	0x3f07414a	0.52834
75	0x3d6f7894	0.0584646
76	0xbd0e45a9	-0.0347344
77	0xbeaba711	-0.335259
78	0x3e9ca601	0.305954
79	0xbd0b304a	-0.0339816
80	0xbf128028	-0.572268
81	0xbe9abcd8	-0.302222
82	0x3ef451b9	0.477186
83	0xbf4214f0	-0.758132
84	0xbddd8a55	-0.108174
85	0x3ea40db2	0.320417
86	0xbeab211d	-0.334237
87	0xbc9e4961	-0.0193221
88	0x3f64aa22	0.893221
89	0xbe086cec	-0.133228
90	0xbd09ed39	-0.0336735
91	0xbfb0b0f2	-1.3804
92	0x3dfe4c51	0.124169
93	0xbfd14c44	-1.63514
94	0x3e03fb7a	0.128889
95	0x3d62d3f0	0.0553779
96	0x3f38f50a	0.722489
97	0xbdd1f794	-0.102523
98	0xbba816b5	-0.00512966
99	0x3f30a6ca	0.690045
100	0xbe06f827	-0.131806
101	0x3e6cb4af	0.231158
102	0xbf841f75	-1.03221
103	0xbe8c768e	-0.274342
104	0x3ceb41cd	0.0287179
105	0x3f0e7807	0.556519
106	0xbc71ba57	-0.0147539
107	0xbe17e308	-0.148327
108	0x3f94725c	1.15974
109	0xbe996d6e	-0.299663
110	0x3f07d838	0.530643
111	0xbf49a123	-0.787615
112	0x3ea189be	0.315504
113	0xbe3cdff0	-0.184448
114	0xbed60371	-0.417995
115	0xbf74ce2d	-0.956271
116	0xbf517f63	-0.81835
117	0x3cbada26	0.0228091
118	0x3f3f49cf	0.74722
119	0xbf7d5b03	-0.98967
120	0x3f846595	1.03435
121	0x3ef14574	0.471233
122	0xbf6d881a	-0.927858
123	0x3ea9e5e2	0.331832
124	0x3e13d295	0.144358
125	0xbe679032	-0.226136
126	0x3daaa7fa	0.0833282
127	0xbed8125a	-0.422015
128	0xc0a10996	-5.03242
129	0xbf87eb07	-1.06186
130	0x3f14d39e	0.581354
131	0xbedff562	-0.437419
132	0x3f224e9c	0.634012
133	0x3f28f0fa	0.659927
134	0xbd34a87e	-0.044106
135	0xbf06c11a	-0.526384
136	0xbe92d96a	-0.286815
137	0xbf8adbb6	-1.08483
138	0x3de2acb8	0.110681
139	0xbf0939c9	-0.536038
140	0x3c9c76f9	0.0190997
141	0x3ecc5ed5	0.399161
142	0xbffe2142	-1.98539
143	0x3c90f07e	0.0176928
144	0x3e16583f	0.146821
145	0x3f1d4467	0.614325
146	0xbe0f39d2	-0.139869
147	0xbf55c001	-0.834961
148	0x3e70242d	0.234513
149	0xbe4b0293	-0.198252
150	0xbdbd7379	-0.0925054
151	0xbe8c4828	-0.273988
152	0x3ddc0e39	0.107449
153	0x3d325298	0.0435358
154	0xbe1bf099	-0.152285
155	0xc08fb2ab	-4.49056
156	0x3d10016a	0.0351576
157	0x3e69539c	0.227858
158	0xbebf9fed	-0.374267
159	0x3d45ee06	0.0483227
160	0x3da343d2	0.0797192
161	0x3f67a744	0.904896
162	0x3e7cc78f	0.246855
163	0x3db9ae4f	0.0906645
164	0xbd5359af	-0.0515992
165	0xbf2a1cce	-0.664502
166	0x3ec43116	0.383187
167	0xbdc2c443	-0.0951009
168	0xbd3524f6	-0.0442247
169	0x3d2245c0	0.0396173
170	0xbddd48cb	-0.108049
171	0x3ee81d19	0.453347
172	0x3d64478d	0.0557323
173	0xbeb4d63d	-0.353197
174	0xbe8d4541	-0.275919
175	0xbe414834	-0.188752
176	0xbdfa5a8a	-0.122243
177	0x3ea9b49a	0.331456
178	0xbe43443d	-0.19069
179	0x3e182be9	0.148605
180	0xbe9c6d1e	-0.30552
181	0x3c8756a1	0.0165208
182	0x3f333ce6	0.700148
183	0x3d560e5f	0.0522598
184	0xbeae846a	-0.340854
185	0xbe403926	-0.187718
186	0xc020cb7d	-2.51242
187	0xbf9c8b97	-1.22301
188	0xbf1560d9	-0.583509
189	0xc14ce910	-12.8069
190	0xbb8050f3	-0.0039159
191	0x3d89d536	0.0673012
192	0x3c8057df	0.0156669
193	0x3e20bf5d	0.15698
194	0xbed0a56a	-0.407512
195	0x3f0d8eda	0.552961
196	0x3e938455	0.288119
197	0x3ea57eaa	0.323232
198	0xbe573190	-0.21015
199	0x3ebf1a7e	0.373249
200	0x3d0a27f2	0.0337295
201	0xbd0b4528	-0.0340015
202	0xbd00da00	-0.0314579
203	0xbbb9257b	-0.00565022
204	0xbd4a3e62	-0.0493759
205	0xbd4f2b16	-0.0505782
206	0xbb7102e2	-0.00367754
207	0x3805edf9	3.19313e-05
208	0xbc59e188	-0.0132984
209	0xbcd70210	-0.0262461
210	0xbaa0a653	-0.00122566
211	0xbcea0f68	-0.0285718
212	0xbc475cb6	-0.0121681
213	0xbd3f7073	-0.0467381
214	0x3cf8c75c	0.0303685
215	0xbb6d55ae	-0.00362144
216	0x3cd3de39	0.0258628
217	0xbd361998	-0.044458
218	0xbcc06fc7	-0.0234908
219	0x3c9aea31	0.0189105
220	0x3c314446	0.0108195
221	0xbd1b1eba	-0.0378711
222	0x3c8926f0	0.0167422
223	0xbd6a25be	-0.0571649
224	0xbca812a3	-0.0205167
225	0xbd0b851f	-0.0340625
226	0xbcabf338	-0.02099
227	0xbd953727	-0.0728591
228	0x3d043ea4	0.0322863
229	0x3cc54e1e	0.0240851
230	0xbcea1222	-0.0285731
231	0x3c0c7c25	0.00857452
232	0x3b2e7f85	0.00266263
233	0xbd098f96	-0.0335842
234	0x3cb3db9a	0.0219553
235	0xbb86668c	-0.00410158
236	0xbc8c0e2b	-0.0170966
237	0xbc95eda8	-0.0183018
238	0xbc89fbcd	-0.0168437
239	0xba080ad1	-0.00051896
240	0xba3266df	-0.000680549
241	0x3c0face6	0.00876925
242	0x3d17d630	0.0370695
243	0x3a066d06	0.000512794
244	0xbb48117c	-0.0030528
245	0xbbde228b	-0.00677902
246	0xbb6d8681	-0.00362435
247	0xbbff4d68	-0.00779121
248	0xbb9b095b	-0.00473134
249	0xbcc28d43	-0.023749
250	0x3ddbb8c3	0.107286
251	0xbbd6ce58	-0.00655536
252	0xbde88a48	-0.113545
253	0xbbf20c77	-0.00738674
254	0xbe21e1d2	-0.158088
255	0x3e2dd2af	0.169749

10 f4 [50]
0	0xc045df3b	-3.09175
1	0xbfca1bb0	-1.57897
2	0xbf3f76a3	-0.747904
3	0x3ed63bef	0.418426
4	0xbc948a66	-0.0181324
5	0x3f383cd1	0.719678
6	0x3e354478	0.177019
7	0xbe85197a	-0.25996
8	0xc034f8b6	-2.82768
9	0xbeece0fc	-0.462654
10	0xc0597c70	-3.39822
11	0x3fc79ffd	1.55957
12	0x3f76556d	0.962241
13	0xc01e284e	-2.47121
14	0xbd2cec42	-0.0422175
15	0x3e9897ea	0.298034
16	0xbf1fa66a	-0.623633
17	0xbe1d9664	-0.153894
18	0xbe43810f	-0.190922
19	0xbeded8d3	-0.435248
20	0x3ee8e2a0	0.454854
21	0x3e49d8c7	0.197116
22	0x3ce11c7b	0.0274794
23	0xbfc4d8ed	-1.53787
24	0x3fcc6888	1.59694
25	0xbfb014a5	-1.37563
26	0x3f27ffef	0.656249
27	0x3d5e0305	0.0542021
28	0xbf30cbf3	-0.690612
29	0xbdf12989	-0.117755
30	0xbe267903	-0.162571
31	0xbf42a66e	-0.760352
32	0xbea36f5d	-0.319209
33	0xbeee16b5	-0.465017
34	0x3e058538	0.130391
35	0x3d6e6503	0.0582018
36	0x3fd5adeb	1.66937
37	0xbed37ac4	-0.413046
38	0xbf707cc8	-0.939404
39	0xbfffd8ae	-1.9988
40	0x3ee3fe3b	0.445299
41	0xbfa92e73	-1.32173
42	0x3ee5759f	0.448163
43	0xbd8e56f6	-0.0695018
44	0x3eacf91a	0.337838
45	0x3fdae686	1.71016
46	0x3fd51dbd	1.66497
47	0x3f0c83ba	0.548885
48	0xbf0491e2	-0.517851
49	0x3f2a49e4	0.66519

11 f4 [50, 50]
0	0xbf152157	-0.58254
1	0xc04f0b63	-3.23507
2	0x3dd3e037	0.103455
3	0x3cbccebd	0.0230478
4	0xbc207b2a	-0.00979499
5	0xbebf4eec	-0.373649
6	0x3dc3e136	0.0956444
7	0x3d3bd889	0.0458608
8	0x3dda786c	0.106675
9	0xbecc095f	-0.398509
10	0x3f09a8ce	0.537732
11	0xbf1474da	-0.579908
12	0xbd493b48	-0.0491288
13	0xbdd2d55a	-0.102946
14	0xbee5e95b	-0.449046
15	0xbe3e94ee	-0.186115
16	0x400c0981	2.18808
17	0x3f23417d	0.637718
18	0x3f34a9ac	0.705714
19	0xbdc1c3d5	-0.0946118
20	0x3f328f7e	0.697502
21	0x3dd1001d	0.102051
22	0xbea2e05d	-0.318118
23	0xbe3f0e0b	-0.186577
24	0x3e2173fb	0.157669
25	0xbf2f1ed1	-0.684064
26	0xbe1e9143	-0.154851
27	0x3dc79c34	0.0974659
28	0x3f355810	0.708375
29	0x3e69378f	0.227751
30	0xbedc87fd	-0.430725
31	0xbeb4a601	-0.352829
32	0x3edd9fd3	0.43286
33	0xbf009acc	-0.502362
34	0xbf45a273	-0.77201
35	0xbee4d877	-0.446964
36	0xbeaa3422	-0.332429
37	0x3f2cd680	0.675148
38	0xbe228c37	-0.158738
39	0xbf689d39	-0.908649
40	0x3f257870	0.646369
41	0x3e631a09	0.221779
42	0xbf015076	-0.505134
43	0xbef76816	-0.483216
44	0xbe967275	-0.293842
45	0xbfb68295	-1.42586
46	0x3e3401c5	0.175788
47	0x3f1141ea	0.567412
48	0x3c368c19	0.0111418
49	0x3edc7150	0.430552
50	0xbf0cea6c	-0.550452
51	0xc00cd6cb	-2.20061
52	0x3f29c4a8	0.663157
53	0x4002cb7d	2.04367
54	0x3c257499	0.0100986
55	0x3e1f7b5b	0.155744
56	0xbef1908e	-0.471806
57	0xbea460ee	-0.321052
58	0xbe7ac259	-0.244882
59	0x3d6466cd	0.0557621
60	0x3e465dc0	0.193717
61	0xc059805e	-3.39846
62	0xbdddc6a0	-0.108289
63	0xbf467d56	-0.77535
64	0x3e7ba4d7	0.245746
65	0x4009a2f0	2.15057
66	0xbfb7d417	-1.43616
67	0x3e18f649	0.149377
68	0xbf904c59	-1.12733
69	0xbfd1f16b	-1.64018
70	0x403c862f	2.94569
71	0x3e12fcad	0.143542
72	0xc14371de	-12.2153
73	0x40136b3c	2.30342
74	0x3e91e471	0.284946
75	0x3e0f5dbc	0.140006
76	0xbe8ac8e7	-0.271064
77	0xc034b7aa	-2.82371
78	0x3fcfe4cd	1.62417
79	0xbeb7878b	-0.358456
80	0x3f1868ec	0.595351
81	0xc1125793	-9.14638
82	0xbe6974e6	-0.227985
83	0x3f479f66	0.779776
84	0xbf82d917	-1.02225
85	0xbef019f4	-0.468948
86	0x3e408fa8	0.188048
87	0x3f5f2ecf	0.871808
88	0x3fc12e1f	1.50922
89	0x3fae4745	1.36155
90	0xbf409e67	-0.752417
91	0xbf63b02d	-0.889407
92	0xbec5ffa4	-0.386716
93	0xbee419c1	-0.445509
94	0x3f5c6e1a	0.861055
95	0xbd841a84	-0.0645037
96	0xbf4fc9ac	-0.811671
97	0x3fba3cc9	1.45498
98	0xbe14febd	-0.145503
99	0xbe2a91da	-0.166572
100	0xbd774a6a	-0.0603737
101	0xbffd3459	-1.97816
102	0xbe0be729	-0.136624
103	0xbe1c1616	-0.152428
104	0x3bc6cd6f	0.00606697
105	0x3d55a096	0.0521551
106	0x3c9dd8c3	0.0192684
107	0x3cd6bc3a	0.0262128
108	0x3e7a172b	0.244229
109	0xbda3964a	-0.0798765
110	0x3d7efdd7	0.0622538
111	0xbf0a30cb	-0.539807
112	0x3dc1a643	0.0945554
113	0x3dead2dd	0.11466
114	0xbe39c6f3	-0.181423
115	0x3d0d4852	0.0344928
116	0x404f5d4f	3.24007
117	0x3ecb9b02	0.397667
118	0x3eeff413	0.468659
119	0xbdcdd378	-0.100501
120	0x3e720ea6	0.236384
121	0xbcbe3ace	-0.0232214
122	0xbe8dafb0	-0.276731
123	0x3d6b4cd0	0.0574463
124	0x3da28f4f	0.0793749
125	0xbbc42158	-0.00598542
126	0xbe948abd	-0.290121
127	0xbda59ece	-0.0808693
128	0x3d02c9fa	0.0319309
129	0x3e97485e	0.295474
130	0xbdd76146	-0.105166
131	0xbe3ffac2	-0.18748
132	0x3d866fc9	0.0656429
133	0xbcd5e941	-0.0261122
134	0xbec7d75e	-0.390315
135	0xbe9fff37	-0.312494
136	0xbec9d8e8	-0.394233
137	0xbeba5df2	-0.363998
138	0xbde5e1c1	-0.112247
139	0xbdd3604a	-0.103211
140	0xbe199cbf	-0.150012
141	0x3e7163fe	0.235733
142	0x3d717050	0.058945
143	0x3da454de	0.08024
144	0x3e42d235	0.190255
145	0xbef4bdfd	-0.478012
146	0x3d882808	0.0664826
147	0x3e3f5904	0.186863
148	0xbf3f7a92	-0.747964
149	0x3ef38499	0.475621
150	0xbdc3b43a	-0.0955586
151	0x3d15290c	0.0364161
152	0x3d0c1384	0.0341983
153	0x3e048b22	0.129437
154	0xbd372d94	-0.0447212
155	0x3e96ca04	0.29451
156	0x3e4d4845	0.200471
157	0x3e018091	0.126467
158	0x3dbb2a5e	0.0913894
159	0x3b81c9af	0.00396081
160	0xbd9d91b9	-0.0769381
161	0xbd1fea66	-0.0390419
162	0x3d958919	0.0730154
163	0xbe1b05fb	-0.15139
164	0x3d553ec1	0.0520618
165	0xbd72144f	-0.0591014
166	0x402422e6	2.56463
167	0x3d149af7	0.0362806
168	0xbe0cee9e	-0.137629
169	0xbe5f96e1	-0.218349
170	0xbf0dfa12	-0.554597
171	0x3d83ed1d	0.0644171
172	0xbf05627c	-0.521034
173	0x3c08d8c2	0.00835246
174	0xbd54fdf4	-0.052
175	0xbe1d40ab	-0.153567
176	0x3d5e4aa4	0.0542704
177	0x3e596b76	0.212324
178	0xbe039000	-0.128479
179	0x3d0e340b	0.0347176
180	0xbe35d4a6	-0.177569
181	0xbd2c699b	-0.0420929
182	0xbd218896	-0.0394369
183	0xbe059967	-0.130468
184	0xbe327b2d	-0.174298
185	0xbd11f4bf	-0.0356338
186	0xbdd62414	-0.104561
187	0x3f04da2b	0.518954
188	0xbd0b75d0	-0.0340479
189	0xbd192edb	-0.0373982
190	0x3d714a5b	0.0589088
191	0x3cbba41b	0.0229054
192	0x3d4ff972	0.050775
193	0xbd907810	-0.0705415
194	0xbea83a32	-0.328569
195	0xbb85cb1b	-0.00408305
196	0x3d2312bf	0.0398128
197	0x3dd929ed	0.106037
198	0x3dc19fb5	0.0945429
199	0xbd873995	-0.0660278
200	0x3edcda90	0.431355
201	0xbfe3cce2	-1.77969
202	0x3f8e2585	1.11052
203	0x3eeaf577	0.458904
204	0xbc66cf42	-0.0140875
205	0x3ef67147	0.481333
206	0xbef12210	-0.470963
207	0xbf0eadf7	-0.557342
208	0xbea71e2a	-0.326402
209	0xbf116e26	-0.568087
210	0xbdfa5871	-0.122239
211	0xbf472431	-0.777896
212	0x3e94dbe0	0.29074
213	0xc01828cc	-2.37749
214	0xbfdaa5f8	-1.70819
215	0xbf5626a2	-0.836527
216	0xbd538518	-0.0516406
217	0x3f6fceb8	0.936748
218	0x3eb4ad9b	0.352887
219	0x3e17cf1c	0.148251
220	0x3f98d994	1.19414
221	0xbdd6e9bc	-0.104938
222	0x3f9d3554	1.22819
223	0xbf8a94ee	-1.08267
224	0xbf90408e	-1.12697
225	0xbf27e60c	-0.655854
226	0xbf0b3a04	-0.543854
227	0xbe23892f	-0.159703
228	0x3fbc2603	1.46991
229	0x3f07f173	0.531028
230	0xbf16130a	-0.586228
231	0xbec4b70b	-0.384209
232	0xbc4d1fd9	-0.0125198
233	0xc09bfba9	-4.87447
234	0x3f264bba	0.649593
235	0x3d61ebad	0.0551564
236	0x3f345b6c	0.70452
237	0x3ea19418	0.315583
238	0xbf4de3b9	-0.804256
239	0x3eaaa066	0.333255
240	0x3eb9cc96	0.362889
241	0x3f19d50b	0.600907
242	0xbda9d063	-0.082917
243	0x3de05d53	0.109553
244	0xbe6b3073	-0.229677
245	0xbf878da4	-1.05901
246	0xbeaa3748	-0.332453
247	0x3f05e5f3	0.52304
248	0xbfddaaf8	-1.73178
249	0xbdaeeac2	-0.0854087
250	0xbd847065	-0.0646675
251	0x3c9b15d0	0.0189313
252	0xbc97f80f	-0.0185509
253	0xbe7821af	-0.242316
254	0x3c7a2ad4	0.015269
255	0xbe8459fb	-0.258499

12 f4 [50]
0	0xbeaec919	-0.341378
1	0xbfe04b0a	-1.75229
2	0xbe5518f4	-0.208103
3	0xbe3760bf	-0.17908
4	0xbfec2c91	-1.84511
5	0x3dbcd086	0.0921946
6	0x3e436e72	0.190851
7	0x3df4b1ee	0.11948
8	0xc01a2b41	-2.40889
9	0xc0909082	-4.51764
10	0xbe1df6dc	-0.154262
11	0xbfca0a52	-1.57844
12	0xc06c42d9	-3.69158
13	0x3f6a3023	0.914797
14	0xbec360d0	-0.381598
15	0xbfb554ca	-1.41665
16	0x3ef57eed	0.479484
17	0x3dab759a	0.0837204
18	0xbe190603	-0.149437
19	0xbef3c0c2	-0.47608
20	0xc0043444	-2.06569
21	0xbef9f1ae	-0.488172
22	0xc0a41a8b	-5.12824
23	0xbea76a72	-0.326984
24	0x3cf33b61	0.0296914
25	0x3e22f512	0.159138
26	0x3e2dc4ca	0.169696
27	0xbf3ce26d	-0.73783
28	0xbec14db6	-0.377546
29	0x3e0877ab	0.133269
30	0x3df0435f	0.117316
31	0x3dad0cf9	0.0844974
32	0xc0bb94af	-5.8619
33	0xbfdfd4bf	-1.74868
34	0x3fc469d7	1.53448
35	0xbeda2270	-0.426044
36	0x3e1c9a78	0.152933
37	0x3ee30814	0.443421
38	0xbf0bd817	-0.546266
39	0xbfa1bca9	-1.26357
40	0x3e531833	0.206147
41	0xbf5c7421	-0.861147
42	0xbdbed642	-0.0931821
43	0x3e6e3c97	0.232653
44	0x3ea6de55	0.325915
45	0x3fa406e2	1.28146
46	0x3ef25e78	0.473377
47	0xbe15d1c4	-0.146308
48	0x3da5044c	0.0805746
49	0xbddcb146	-0.10776
