configs/networks/acas/acas_2_8.onnx (onnx, 61577 bytes, 14 tensors)

1 f4 [50, 5]
0	0x3d8feac4	0.070272
1	0xbc5693f6	-0.0130968
2	0x3c6c42b4	0.0144202
3	0x3e8235d6	0.254317
4	0x3dc7735c	0.097388
5	0x3c877e7a	0.0165398
6	0x3baff2cc	0.00536952
7	0x3b1bd70c	0.00237793
8	0x3a18752c	0.00058158
9	0x3bf44059	0.00745396
10	0xbdb3a7c0	-0.0877223
11	0x3bb8ad9c	0.00563593
12	0x3cc087b0	0.0235022
13	0xbf28e5c5	-0.659756
14	0x3f27079e	0.65246
15	0x3d573988	0.0525451
16	0x3f081227	0.531527
17	0xbec599cc	-0.385939
18	0x3eac4d44	0.336527
19	0xbf05729b	-0.52128
20	0x4008bfb1	2.1367
21	0xbbbd3da3	-0.00577517
22	0xbb43ecd4	-0.00298958
23	0xbc099327	-0.0083969
24	0x3a879205	0.00103432
25	0xbd425baa	-0.0474507
26	0x3f91e796	1.13988
27	0xbf8f620f	-1.12018
28	0x3e3759ab	0.179053
29	0xbe8d90e2	-0.276496
30	0x3e3dc593	0.185324
31	0x3e174c4d	0.147752
32	0xbdce6c09	-0.100792
33	0x3dd9c27f	0.106328
34	0x3eae887b	0.340885
35	0x3d1c41b5	0.0381486
36	0x3d9b2cac	0.0757688
37	0xbccf1c32	-0.025282
38	0xbfcb7415	-1.58948
39	0xbe42ff09	-0.190426
40	0xbd70b1ff	-0.0587635
41	0xbf3e99d9	-0.744535
42	0xbec62da5	-0.387067
43	0x3e70c8cd	0.235141
44	0xbe29feca	-0.166011
45	0xbd1d8fe3	-0.0384673
46	0x3d760037	0.0600588
47	0x3cd6feb5	0.0262445
48	0xbc389a10	-0.0112672
49	0xbf829692	-1.02022
50	0xbf2b2c30	-0.668643
51	0x3f5a5b21	0.852953
52	0xbf03fb26	-0.515551
53	0x3e3e60c4	0.185916
54	0xbe395897	-0.181002
55	0xbc6a23f6	-0.0142908
56	0xbdbc23c5	-0.0918651
57	0x3f48a2fd	0.783737
58	0x3f444d34	0.766803
59	0xbf4c1ede	-0.797346
60	0x3c81a80b	0.0158272
61	0xbb011af3	-0.00196999
62	0x3cde4b7a	0.0271356
63	0xbe15aaf8	-0.14616
64	0xbf6bd46b	-0.92121
65	0xbcab3106	-0.0208974
66	0xc03e7382	-2.9758
67	0xbe316db1	-0.17327
68	0x3decbf2b	0.115599
69	0xbdb482cc	-0.0881401
70	0xbcc78c1b	-0.0243588
71	0xbf099ba2	-0.537531
72	0xbf4190b0	-0.756114
73	0x3e73f962	0.238256
74	0xbe0cce1c	-0.137505
75	0x3d82731a	0.0636961
76	0x3f5619db	0.836332
77	0xbfaa2f5a	-1.32957
78	0x3d49b1aa	0.0492417
79	0xbe290082	-0.165041
80	0x3cde5c77	0.0271437
81	0xbe9672da	-0.293845
82	0x3f78c986	0.971825
83	0x3e003fb3	0.125243
84	0xbdd383f1	-0.103279
85	0xbd101e0b	-0.0351849
86	0x3f3ae06e	0.729987
87	0x3ff9bbae	1.95104
88	0xbe5ef241	-0.217721
89	0x3e69ce8e	0.228327
90	0x3b4686e3	0.00302928
91	0x3fc98106	1.57425
92	0xbfa99653	-1.3249
93	0x3cace96d	0.0211074
94	0xbe85e679	-0.261524
95	0xbe0fd0d0	-0.140445
96	0xbfc503da	-1.53918
97	0x3fc2f49d	1.52309
98	0x3db323c9	0.0874706
99	0xbeb850be	-0.359991
100	0xbde56580	-0.11201
101	0xbf9ae979	-1.21025
102	0x3fce88ce	1.61355
103	0xbe054717	-0.130154
104	0x3ec72021	0.388917
105	0x3e22cba7	0.15898
106	0xbf878cfc	-1.05899
107	0x3f9b7b4a	1.2147
108	0x3e0ceaf2	0.137615
109	0xbe2712a1	-0.163157
110	0x3d6d6bde	0.0579642
111	0x40418d26	3.02424
112	0x3e27f5e8	0.164024
113	0x3e6a005c	0.228517
114	0xbf29b802	-0.662964
115	0x3c55be0d	0.0130458
116	0xbba26280	-0.00495559
117	0x39dc397c	0.000420045
118	0x3a4a0583	0.000770651
119	0xbb0e5bce	-0.00217222
120	0xbd07a348	-0.0331147
121	0xbf82cba7	-1.02184
122	0x3fa39097	1.27785
123	0x3e178c87	0.147997
124	0xbe9fbb0e	-0.311974
125	0x3c03baaa	0.00804011
126	0x3eddd441	0.43326
127	0x3f0a0e0f	0.539277
128	0xbee3db5e	-0.445033
129	0x3ebf151e	0.373208
130	0xc002b9cb	-2.04259
131	0xbb918f74	-0.00444215
132	0x3d6cac4b	0.0577815
133	0x3cd3c651	0.0258514
134	0xbe0f583a	-0.139985
135	0x3d97bbf9	0.074089
136	0xbfe8b589	-1.81804
137	0x3e426aec	0.189861
138	0x3e54549b	0.207354
139	0xbec26eb9	-0.379751
140	0x3c9052c9	0.0176176
141	0x3f2ba56e	0.670493
142	0x3ff43276	1.90779
143	0x3e12db62	0.143415
144	0xbe286a90	-0.164469
145	0xbcd5defa	-0.0261073
146	0xbf3112ba	-0.691692
147	0x3f66e6eb	0.901961
148	0x3e1e0b0b	0.154339
149	0xbe8546b2	-0.260305
150	0xbca101a3	-0.0196541
151	0xbf8ac3ca	-1.0841
152	0x3fb5c5d6	1.4201
153	0xbe018efc	-0.126522
154	0x3ecb295f	0.3968
155	0xbedfa41e	-0.436799
156	0x3eefab54	0.468104
157	0xbf81d6e0	-1.01437
158	0xbd9802e9	-0.0742243
159	0x3e47a073	0.194948
160	0x3e9daaf8	0.307945
161	0x3e9360f2	0.287849
162	0x3cff9bf7	0.0312023
163	0xbc01edf7	-0.00793027
164	0xbe7fd8ae	-0.24985
165	0x3c7a6953	0.0152839
166	0x40220ebf	2.53215
167	0x3c59ae5d	0.0132862
168	0x3c94a49d	0.0181449
169	0xbcd1bcf7	-0.0256028
170	0x3d8912a6	0.0669301
171	0x3f3b1e7e	0.730934
172	0x3e01e68a	0.126856
173	0x3e609529	0.219319
174	0xbec6cfea	-0.388305
175	0xbb0d4e32	-0.00215615
176	0x3d780601	0.0605526
177	0x3bdbc7a7	0.00670715
178	0x3ce2386f	0.0276148
179	0xbfd78ab1	-1.68392
180	0x3c7c1c46	0.0153876
181	0x3f3f7b4a	0.747975
182	0x3f8c5b18	1.09653
183	0x3eb96b98	0.362149
184	0xbe6dbad4	-0.232158
185	0x3bc9a0f3	0.00615322
186	0xbec3e5fb	-0.382614
187	0xbefdcbbc	-0.495695
188	0xbecf5643	-0.404955
189	0xbd3e405d	-0.0464481
190	0xba79645a	-0.000951355
191	0x3f76ffc1	0.96484
192	0xbf959fd3	-1.16894
193	0xbe30daa1	-0.172709
194	0x3e7704bc	0.241229
195	0x3cebd49a	0.0287879
196	0x3f8cf030	1.10108
197	0x3ef92791	0.48663
198	0x3f44801f	0.76758
199	0xbf75b4fe	-0.959793
200	0x3d699327	0.0570251
201	0xbf269f7b	-0.650871
202	0xbdde670e	-0.108595
203	0x3ed6d3b7	0.419584
204	0xbf0ce2e3	-0.550337
205	0xbd16616b	-0.036714
206	0x3fa92fc2	1.32177
207	0xbfcc8b97	-1.59801
208	0xbd52c641	-0.0514586
209	0x3e68f9f4	0.227516
210	0xbd64203b	-0.0556948
211	0xbf8d2546	-1.1027
212	0x3fdbb060	1.71632
213	0xbef1f59d	-0.472577
214	0x3f1cea5b	0.612951
215	0x3e245e92	0.160517
216	0x3fc989df	1.57452
217	0xbf0794b8	-0.529613
218	0xbb82d07f	-0.00399214
219	0xbec80d1b	-0.390725
220	0xbe338fbd	-0.175353
221	0x3f81b574	1.01335
222	0xbf918794	-1.13695
223	0xbdaa9eb2	-0.0833105
224	0x3eb1de8b	0.347401
225	0x3ddb6dca	0.107143
226	0x3f9babc9	1.21618
227	0xbf6bbfe8	-0.920897
228	0x3e64d940	0.223485
229	0xbddc9364	-0.107703
230	0xbbbc4164	-0.0057451
231	0xbad3c7e9	-0.00161576
232	0xbb0f71cd	-0.00218879
233	0xbc29336b	-0.0103272
234	0xbbaba54a	-0.00523821
235	0xbd48b114	-0.048997
236	0x3e3292c5	0.174388
237	0x3eaae579	0.333782
238	0x3ef27ed8	0.473624
239	0xbf03e500	-0.515213
240	0xb9c15621	-0.00036876
241	0xbc51b8c5	-0.0128004
242	0xbc32ec51	-0.0109206
243	0x3c65cb36	0.0140255
244	0x3a421745	0.000740398
245	0x3d09a05d	0.0336002
246	0xbf1d7c3d	-0.615177
247	0xbe3bec68	-0.183519
248	0xbe9702c5	-0.294943
249	0x3eea64c3	0.4578

2 f4 [50]
0	0x3cefa3fd	0.029253
1	0xbc9e16d7	-0.019298
2	0x3d330688	0.0437074
3	0xbddd4f16	-0.108061
4	0x3f313900	0.692276
5	0xbbb7306e	-0.00559049
6	0xbc613c5b	-0.0137473
7	0xbf0bb656	-0.545751
8	0x3e02541e	0.127274
9	0xbecf1ef3	-0.404533
10	0xbe80904f	-0.251101
11	0x3e8204d1	0.253943
12	0xbedc903f	-0.430788
13	0x3cd073b6	0.0254458
14	0xbdbf0cbb	-0.093286
15	0xbea3762e	-0.319261
16	0xbc8dfba1	-0.0173319
17	0x3d1220af	0.0356757
18	0xbe4c7086	-0.199648
19	0xbe1fb15b	-0.15595
20	0xbea31d93	-0.318585
21	0xbec5fe33	-0.386705
22	0xbeb083ba	-0.344755
23	0xbc65a50b	-0.0140164
24	0xbe8b9991	-0.272656
25	0x3d1e67af	0.0386731
26	0xbe6cedd5	-0.231376
27	0xbe1d01c1	-0.153327
28	0xbd0a010b	-0.0336924
29	0x3e49656f	0.196676
30	0xbedeba6b	-0.435016
31	0xbe844da9	-0.258405
32	0xbe4cb967	-0.199926
33	0xbccf98fa	-0.0253415
34	0xbe2a3e7d	-0.166254
35	0xbeaf9db2	-0.343
36	0xbe0d5454	-0.138017
37	0x3e388ce7	0.180225
38	0xbf0bea70	-0.546546
39	0xbe356ead	-0.17718
40	0xbdea25d9	-0.11433
41	0xbf0c92ef	-0.549117
42	0xbf391666	-0.722998
43	0xbe8ac5e3	-0.271041
44	0xbe38eef2	-0.180599
45	0xbec988f4	-0.393623
46	0xbc977857	-0.01849
47	0xbd35b3c6	-0.0443609
48	0xbcc16fa1	-0.0236128
49	0x3e01ba80	0.126688

3 f4 [50, 50]
0	0xbf8807dd	-1.06274
1	0x3d61fafd	0.055171
2	0xbf6d6627	-0.92734
3	0x3eb3b8a2	0.351018
4	0xbc94d61b	-0.0181685
5	0x3e730ced	0.237354
6	0x3f75932d	0.959277
7	0xbdde97d0	-0.108688
8	0x3ee95550	0.455729
9	0x3f9ef156	1.24174
10	0xbe3c4ce0	-0.183887
11	0x3ef9df55	0.488032
12	0x3fcc4dfd	1.59613
13	0xbfbb88b9	-1.46511
14	0x3e41b3af	0.189162
15	0x3ec283d3	0.379912
16	0xbf88c78f	-1.06859
17	0xbd971716	-0.0737745
18	0xbdaf3f96	-0.0855705
19	0x3e7d8a98	0.247599
20	0x3eb98eb9	0.362417
21	0x3f15c4ca	0.585034
22	0xbf5615ca	-0.83627
23	0xb9199466	-0.000146465
24	0x3e7cbfb1	0.246825
25	0x3ee497b7	0.44647
26	0x3f9460fe	1.15921
27	0xbf109529	-0.564776
28	0xbe872d5e	-0.264018
29	0xbd11e1aa	-0.0356156
30	0x3f0a5e68	0.540503
31	0x3e91b7bf	0.284605
32	0x3e59edc0	0.212821
33	0xbfcde1b1	-1.60845
34	0x3e238eb0	0.159724
35	0x3ec0127b	0.375141
36	0x3eaf0bd0	0.341887
37	0x3ebb0db7	0.365339
38	0x3f2174d6	0.630689
39	0x3e24f334	0.161084
40	0x3e5d056c	0.215841
41	0x3fa7598a	1.30742
42	0x3f545122	0.829363
43	0xbf00867b	-0.502052
44	0xbe679bfe	-0.226181
45	0x3ebcd489	0.368809
46	0xbd2558ea	-0.040368
47	0x3eb1908e	0.346806
48	0x3af5e473	0.00187601
49	0xbef5fd69	-0.480449
50	0x3f906a2b	1.12824
51	0xbc930d8e	-0.0179508
52	0x3d95c7db	0.0731351
53	0x3dc7f9e4	0.0976446
54	0x3d3de4d2	0.0463608
55	0xbf78aa65	-0.97135
56	0xbd977821	-0.0739596
57	0x3d25df8e	0.0404964
58	0x3f84169c	1.03194
59	0xbf23636f	-0.638236
60	0x3fa1551d	1.26041
61	0xbd93f4c4	-0.0722442
62	0xbf9bc0c2	-1.21682
63	0x3f2ccad5	0.67497
64	0x3fd75254	1.6822
65	0xbdfa0408	-0.122078
66	0xc01e5e0b	-2.47449
67	0x3f84d2b3	1.03768
68	0xbf5d0492	-0.863351
69	0xbfd6f252	-1.67927
70	0xbf18140e	-0.594056
71	0xbf8d3309	-1.10312
72	0x3e2a261c	0.166161
73	0xba5d0ed3	-0.000843269
74	0xbfb5859d	-1.41814
75	0x3ee9f256	0.456927
76	0x3ca9f63e	0.0207473
77	0x3cbd39e8	0.0230989
78	0x3fd94d94	1.69768
79	0xbf0e2e0a	-0.55539
80	0xc02ddaa5	-2.71647
81	0x3e4226c4	0.189601
82	0xbef4ee9e	-0.478383
83	0x3ef4ff86	0.478512
84	0x3f1399e5	0.576567
85	0xbf283a75	-0.657142
86	0x4003a58f	2.05698
87	0x3edbcf4f	0.429316
88	0x3f14a3b5	0.580623
89	0x3e833df3	0.256332
90	0xbf359d02	-0.709427
91	0xbd8e15ca	-0.0693775
92	0xbda31fcd	-0.0796505
93	0xbe16809d	-0.146975
94	0xbeccf56f	-0.40031
95	0x3e43a4f8	0.191059
96	0xbcff20dd	-0.0311436
97	0xbf93f099	-1.15578
98	0xbd193c11	-0.0374108
99	0x3ecd4a80	0.400959
100	0x3f0cd4ed	0.550124
101	0xbc86342c	-0.0163823
102	0xbe0ff3ae	-0.140578
103	0xbe5edb2f	-0.217633
104	0x400d7c46	2.21071
105	0x3e42888b	0.189974
106	0xbd403ecf	-0.0469349
107	0x3e380171	0.179693
108	0xbe00ee8d	-0.12591
109	0xbe32b778	-0.174528
110	0x3e2c23b8	0.168105
111	0xbd064f3a	-0.0327904
112	0xbf53dcbe	-0.827587
113	0x3d516858	0.0511249
114	0x3e937ac4	0.288046
115	0xbe4e5083	-0.201479
116	0xbe1eec7d	-0.155199
117	0xbe2d9a95	-0.169535
118	0x3f0b0532	0.543048
119	0x3ebdf82b	0.371034
120	0x3de55da2	0.111995
121	0xbf8c8462	-1.09779
122	0xbe5a3a8e	-0.213114
123	0x3cb03842	0.0215112
124	0x3e77d524	0.242024
125	0x3eb4ec42	0.353365
126	0xc02cbd66	-2.69906
127	0xbee5a683	-0.448536
128	0xbec7fd1e	-0.390603
129	0x3edfcc7d	0.437107
130	0x3ea9ccfb	0.331642
131	0xbe3331e4	-0.174995
132	0x400714e4	2.11065
133	0xbd361911	-0.0444575
134	0xbe4cc144	-0.199956
135	0x3e8b16e3	0.271659
136	0x3eb72ae0	0.357749
137	0xbd79ac29	-0.0609552
138	0xbecd69f5	-0.401199
139	0xbcc48719	-0.0239902
140	0xbf12325d	-0.571081
141	0xbd9945fa	-0.0748405
142	0xbebe60e5	-0.371833
143	0xbe373eab	-0.17895
144	0xbd98497b	-0.0743589
145	0xbf53a909	-0.826798
146	0xbd19b655	-0.0375274
147	0x3f09c10d	0.538102
148	0xbd1062b9	-0.0352504
149	0xbeea34ca	-0.457434
150	0xbbae3d40	-0.00531736
151	0x39271c06	0.000159368
152	0xbce598ab	-0.0280269
153	0x3cb3e758	0.0219609
154	0xbd916957	-0.0710017
155	0x3be3f776	0.00695699
156	0x3d75bf34	0.0599968
157	0xbd68d2bd	-0.0568416
158	0x3b89d4d6	0.00420628
159	0xbd54a127	-0.0519115
160	0xbd0be653	-0.0341552
161	0xbc8e47c1	-0.0173682
162	0xbb24eab1	-0.00251643
163	0xbb120cb2	-0.00222854
164	0x3d02d440	0.0319407
165	0x3d27aab9	0.0409343
166	0xbda038e3	-0.0782335
167	0xbcf314cb	-0.029673
168	0xbcf35710	-0.0297046
169	0xbca8d93d	-0.0206114
170	0xbc9a9a80	-0.0188725
171	0xbd063b83	-0.0327716
172	0xbcbfce82	-0.0234139
173	0x3b1626c8	0.00229113
174	0xbd8c9dfb	-0.0686607
175	0xbcbf147d	-0.0233252
176	0x3c4373f3	0.0119295
177	0xbc6d3375	-0.0144776
178	0xbd344333	-0.0440094
179	0xbd019d8f	-0.0316444
180	0x3b6aa220	0.00358022
181	0xbd3db80c	-0.0463181
182	0x3c2f23da	0.0106897
183	0xbd4bf71a	-0.0497962
184	0xbd46153d	-0.0483601
185	0xbd59b68a	-0.0531526
186	0x3c4fa773	0.0126742
187	0xbdc4aa8a	-0.0960284
188	0xbbc66ac8	-0.00605521
189	0xbb989c59	-0.00465731
190	0xbc93b76d	-0.0180318
191	0x3c72f33d	0.0148285
192	0xbca5c4b6	-0.0202354
193	0xbd4884b9	-0.0489547
194	0xbd093f0e	-0.0335074
195	0xbb52ec4c	-0.00321843
196	0xbcd50805	-0.0260048
197	0xbd22f3eb	-0.0397834
198	0xbb51155c	-0.00319036
199	0x3c840365	0.0161149
200	0xbf0c7896	-0.548715
201	0xbd0895d1	-0.033346
202	0xbf5db930	-0.866107
203	0xbe2bb060	-0.167665
204	0xc09690eb	-4.70519
205	0xbeac20f7	-0.336189
206	0xbefc5b29	-0.492883
207	0xbdc1891c	-0.0944998
208	0xbff6833c	-1.92588
209	0xc001a027	-2.0254
210	0x3ed4c63f	0.415575
211	0xbf05bed3	-0.522443
212	0x4008e148	2.13875
213	0xbc9ef87e	-0.0194056
214	0xbfa397cc	-1.27807
215	0xbef22681	-0.47295
216	0xbf345aa3	-0.704508
217	0xbea026ab	-0.312795
218	0x3d69b8b1	0.0570609
219	0xbf295022	-0.661379
220	0xc05b76b4	-3.42912
221	0xc057306a	-3.36233
222	0x3f406445	0.75153
223	0x3cb4f9dd	0.0220918
224	0xbe77a461	-0.241838
225	0xbe93edfa	-0.288925
226	0x3ec77404	0.389557
227	0xbd343618	-0.0439969
228	0x3eb4c943	0.353098
229	0xc04ca993	-3.19785
230	0xbdb34374	-0.087531
231	0x3f04f744	0.519398
232	0x4106aa7a	8.41662
233	0x3ede38c9	0.434027
234	0x3f798d7a	0.974815
235	0x3cb9d21e	0.0226832
236	0x3f9956c1	1.19796
237	0xbcb988b8	-0.0226482
238	0x3c75975c	0.0149897
239	0x3faeb8fa	1.36502
240	0xbf11769b	-0.568216
241	0x3f713e70	0.942359
242	0x3cf800c3	0.0302738
243	0xbe608c3f	-0.219285
244	0x3f01a3d3	0.506406
245	0x3f0cb296	0.5496
246	0x3d0cfeec	0.0344228
247	0x3e70f40e	0.235306
248	0x3c847545	0.0161692
249	0xbf6c5ef6	-0.923324
250	0x3e4ea854	0.201814
251	0x3d0f6e32	0.0350172
252	0xbf2e5626	-0.681002
253	0xbf0384cb	-0.513745
254	0x3d97de28	0.0741542
255	0x3e30778a	0.172331

4 f4 [50]
0	0xbebb7825	-0.366151
1	0x3ed5434a	0.416529
2	0x3f464c0e	0.774598
3	0xbc48612d	-0.0122302
4	0xbeced506	-0.403969
5	0xbe5c729f	-0.215281
6	0xbc3b47d5	-0.0114307
7	0xbee59770	-0.448421
8	0x3f3d9f5e	0.740713
9	0xbead12cb	-0.338034
10	0xbc930454	-0.0179464
11	0x3fe1f84d	1.76539
12	0xbf9b82d4	-1.21493
13	0x3f693f3a	0.911121
14	0xbc26a0e9	-0.0101702
15	0xbc44c81c	-0.0120106
16	0x3fb2277c	1.39183
17	0x3c861c7a	0.016371
18	0x3f06fd87	0.527306
19	0x3ee47fdc	0.446288
20	0xbec85272	-0.391254
21	0xbc833f50	-0.0160214
22	0xbf891a22	-1.07111
23	0xbdcf28c8	-0.101152
24	0xbf119d13	-0.568803
25	0x3f80cb29	1.0062
26	0xbe02bcf9	-0.127674
27	0x3f1e1d86	0.617638
28	0xbe199956	-0.149999
29	0xbe51beb2	-0.204829
30	0x3f37290b	0.71547
31	0xbde2eba2	-0.110801
32	0x3e5a32b1	0.213084
33	0x3ebd627c	0.369892
34	0xbb9dadd0	-0.00481198
35	0xbe22830a	-0.158703
36	0xbeef6295	-0.467549
37	0xbcb4e3d8	-0.0220813
38	0x3f34295a	0.703756
39	0x3ef816ad	0.484548
40	0x3f665f42	0.899891
41	0xbf013d43	-0.504841
42	0xbf9c8366	-1.22276
43	0xbe2de58e	-0.169821
44	0xbc3fbf33	-0.0117033
45	0x3e36c58f	0.178488
46	0xbef804fb	-0.484413
47	0xbbd736de	-0.00656782
48	0xbeac97fa	-0.337097
49	0xbbfeb222	-0.0077727

5 f4 [50, 50]
0	0xc04d9e06	-3.21277
1	0x3f599c8d	0.850045
2	0x3e801c71	0.250217
3	0xbdbca08d	-0.0921031
4	0xbcd04593	-0.0254238
5	0xbf238ee3	-0.638899
6	0x3c98f026	0.0186692
7	0xbe4c5f7c	-0.199583
8	0x3e319d24	0.173451
9	0xbf791c7e	-0.973091
10	0x3d5621fb	0.0522785
11	0xbf84216c	-1.03227
12	0xbf245ee5	-0.642073
13	0xbcbc5ca8	-0.0229934
14	0xbc872d1b	-0.016501
15	0x3d1d5d08	0.0384188
16	0xbf00be83	-0.502907
17	0xbf41e7a7	-0.757441
18	0xbe8d9664	-0.276538
19	0xbfe600d2	-1.7969
20	0x3db6d6f7	0.0892772
21	0xbade5104	-0.00169614
22	0xbfd4c986	-1.6624
23	0xc02e53e3	-2.72387
24	0xbf42f09e	-0.761484
25	0xbeb6ec9e	-0.357274
26	0xc012363b	-2.28456
27	0x3f143915	0.578996
28	0x3f4a07c4	0.789181
29	0x3f820ba2	1.01598
30	0x3dc92aec	0.0982264
31	0xc05f05fb	-3.48474
32	0xbee12f4d	-0.439814
33	0x3fa052e7	1.25253
34	0xbd05f2a3	-0.0327021
35	0x401fe6ef	2.49847
36	0x3fd2ae7d	1.64595
37	0xbca0b2c8	-0.0196165
38	0xbecfe005	-0.406006
39	0xbeccf334	-0.400293
40	0x3f0a451c	0.540117
41	0xbfdafad7	-1.71078
42	0xbf648cf8	-0.892776
43	0x3ebec41e	0.37259
44	0x3d3ac5b4	0.0455987
45	0x3f2b6806	0.669556
46	0xbfb0053e	-1.37516
47	0xbc656331	-0.0140007
48	0xbf865a9b	-1.04964
49	0xbc8116ec	-0.015758
50	0xbf29da59	-0.663488
51	0x3edcf206	0.431534
52	0xbdaf8056	-0.085694
53	0xbb7aaeb2	-0.00382511
54	0x3efbaade	0.491538
55	0x3f222153	0.633321
56	0xbd365577	-0.0445151
57	0x3e8bdbe4	0.273162
58	0xbd014199	-0.0315567
59	0xc00f94af	-2.24345
60	0x3b535ab0	0.00322501
61	0x3dd4916d	0.103793
62	0x3fb01a8b	1.37581
63	0x3ec2a90d	0.380196
64	0x3c6fd4a4	0.0146381
65	0xbced5ae2	-0.028974
66	0xbead5c53	-0.338595
67	0xbf3d7a9a	-0.740152
68	0x3c101292	0.00879349
69	0xbfb3ec03	-1.40564
70	0x3e484556	0.195577
71	0x3c9f4a12	0.0194445
72	0xbdcec6bd	-0.100965
73	0xc05cb218	-3.44837
74	0xc0a978ff	-5.29602
75	0x3e900e6b	0.28136
76	0xc08bceaf	-4.36898
77	0x3e617ce5	0.220203
78	0xbf9f0fd0	-1.24267
79	0xbf133c82	-0.575142
80	0xbf5219a8	-0.820704
81	0xbf5aed78	-0.855186
82	0xbf18a7c6	-0.59631
83	0x3e5a4591	0.213156
84	0x3af45780	0.00186418
85	0xc0b9feef	-5.81237
86	0xc0ea55da	-7.32298
87	0xbc813158	-0.0157706
88	0x3f2e73f7	0.681457
89	0x3dc5b094	0.0965282
90	0x3e97f413	0.296784
91	0xc02f94d9	-2.74346
92	0xc054a3ad	-3.32249
93	0xbf63bcc3	-0.889599
94	0xbd5da009	-0.0541077
95	0xbe8e78e2	-0.278266
96	0x3eebc2db	0.460471
97	0xbc7962c2	-0.0152213
98	0xbf4509f2	-0.769683
99	0x3c799de6	0.0152354
100	0xbeca452c	-0.395059
101	0xbe9f7729	-0.311456
102	0x3a5b0903	0.000835553
103	0xbd39870a	-0.0452948
104	0xbf0c4f09	-0.548081
105	0xbfd67ab7	-1.67562
106	0xbd56b823	-0.0524217
107	0xbf3ad14a	-0.729756
108	0xbda6c3d4	-0.0814282
109	0x3f9b866e	1.21504
110	0x3ca1eb0c	0.0197654
111	0x3e800bcc	0.25009
112	0x3f1cc8ac	0.612437
113	0x3d268ec5	0.0406635
114	0x3d2a0b51	0.0415147
115	0x3c1014b6	0.008794
116	0x3ecc0746	0.398493
117	0xc029367a	-2.64395
118	0xbf8245a2	-1.01775
119	0x3ee28d65	0.442485
120	0xc00b6b3c	-2.17842
121	0x3d2fc58b	0.042913
122	0xbf972f45	-1.18113
123	0xbfe47a3a	-1.78498
124	0xbfb6cc4f	-1.42811
125	0xbf66d82c	-0.901736
126	0x403fbe23	2.99598
127	0xbff7ce31	-1.93598
128	0xbf40b018	-0.752687
129	0xc0a3dea9	-5.12093
130	0xbf251e00	-0.644989
131	0x3e616228	0.220101
132	0xc014132b	-2.31367
133	0x3e1447c3	0.144805
134	0xbb126caa	-0.00223426
135	0xc0499f80	-3.15036
136	0xbfc2d5d0	-1.52215
137	0xbcb66186	-0.0222633
138	0xbfc978d5	-1.574
139	0x3f61b5e9	0.881682
140	0x3ea31ee2	0.318595
141	0x3dfb4bb6	0.122703
142	0xc083b7e9	-4.1162
143	0xc0bedc33	-5.96438
144	0xbd57c11d	-0.0526744
145	0xbffb3d5c	-1.96281
146	0x3fbc5d10	1.47159
147	0xbd419455	-0.0472606
148	0x3f14840e	0.58014
149	0x3cb5975c	0.0221669
150	0x3fc740a3	1.55666
151	0x3e70fa9c	0.235331
152	0x3f31a1ec	0.693877
153	0x3d51e47f	0.0512433
154	0x3f36d7b6	0.714229
155	0xbf1558b8	-0.583385
156	0xbcb38101	-0.0219121
157	0xbec255b0	-0.37956
158	0x3f3f7bd0	0.747983
159	0x3fdaa993	1.7083
160	0xbd0f75f4	-0.0350246
161	0x3dbcf5f5	0.092266
162	0x3fa68cbd	1.30117
163	0x3f5a1672	0.851905
164	0x3c296264	0.0103384
165	0xbd389035	-0.0450594
166	0xbf99a4be	-1.20034
167	0x3f8fb00c	1.12256
168	0xbe96922e	-0.294084
169	0x4033ed7c	2.81137
170	0xbef7e458	-0.484164
171	0xbd370b14	-0.0446883
172	0xbe301a7a	-0.171976
173	0x40a19763	5.04973
174	0xbf8ec083	-1.11525
175	0x3e9a36a0	0.301198
176	0xc02316db	-2.54827
177	0x3f1b939a	0.607721
178	0x3f7c3eea	0.985335
179	0x3f554b38	0.833179
180	0xbde7d45a	-0.113198
181	0x3f9ba97e	1.21611
182	0x3c6b9651	0.0143791
183	0x3ed4fc61	0.415988
184	0x3cab734b	0.020929
185	0xbef4b5dd	-0.47795
186	0xc003b795	-2.05808
187	0xbd5482bf	-0.0518825
188	0xbee72171	-0.451427
189	0xbeb09a46	-0.344927
190	0x3ed50e78	0.416126
191	0x3f6e3593	0.930505
192	0x3fb01062	1.3755
193	0x3fe39192	1.77788
194	0x3c84f781	0.0162313
195	0x3fa0b924	1.25565
196	0x3fa4d10f	1.28763
197	0x3d0d711d	0.0345317
198	0xbc86a8fc	-0.016438
199	0xbb430579	-0.00297579
200	0x3fe888a4	1.81667
201	0xbee19a63	-0.440631
202	0x3ec248f9	0.379463
203	0x3b5fcb01	0.00341481
204	0x3f808f32	1.00437
205	0xbd8af4ae	-0.0678495
206	0x3c609643	0.0137077
207	0xbf9f5c29	-1.245
208	0x3ec09396	0.376126
209	0x401067e0	2.25634
210	0x3cf37685	0.0297196
211	0x3fa2771d	1.26926
212	0xc00f974e	-2.24361
213	0x3f10a07f	0.564949
214	0x3d11134e	0.0354188
215	0xbc645f25	-0.0139387
216	0x3f0b8a4c	0.545079
217	0xbe9a74e2	-0.301673
218	0x3f8c0a7c	1.09407
219	0x3f06323c	0.524204
220	0xbf9fecff	-1.24942
221	0x3d26aa59	0.0406898
222	0x3f5ec4e7	0.870192
223	0xc042e465	-3.04519
224	0x3fa7edfa	1.31195
225	0xbe09e061	-0.134645
226	0x3f415800	0.755249
227	0x3db1724e	0.0866438
228	0xbf378280	-0.716835
229	0x3f5867ae	0.845332
230	0x3f20b418	0.627748
231	0x3f4a7f80	0.791008
232	0xbe9abf98	-0.302243
233	0xc017c91d	-2.37165
234	0xbce988c5	-0.0285076
235	0xbea00e06	-0.312607
236	0xbf700b9a	-0.937677
237	0xbb0db184	-0.00216207
238	0x3f72d3e9	0.948546
239	0xbfad07c8	-1.3518
240	0xbf04cd85	-0.518761
241	0x3f8acaac	1.08431
242	0x405ba858	3.43215
243	0x4041fa44	3.0309
244	0x3c913cd4	0.0177292
245	0x3fdfff04	1.74997
246	0x3f54f638	0.831882
247	0xbd47a17f	-0.048738
248	0x4029a6b5	2.6508
249	0xbcc9edc0	-0.0246495
250	0xbe877469	-0.26456
251	0x3eb4790c	0.352486
252	0x3e3abcd8	0.182361
253	0x3d121fbd	0.0356748
254	0xbf88985f	-1.06715
255	0xbfee0419	-1.8595

6 f4 [50]
0	0x3e9f68e0	0.311347
1	0xbd43c410	-0.0477944
2	0x3fc5a75d	1.54417
3	0xc0668e8a	-3.60245
4	0xc037ab4b	-2.86983
5	0x3f6b9842	0.920292
6	0xbc198679	-0.00937044
7	0xbd198c13	-0.0374871
8	0xbfff5d79	-1.99504
9	0x3f93aa7a	1.15364
10	0xbe8a4c1f	-0.270112
11	0xc017967d	-2.36856
12	0xbf967c5b	-1.17567
13	0xbf581ecd	-0.84422
14	0xbd3e94fc	-0.0465288
15	0xbfe1cac1	-1.764
16	0x3e86d613	0.263352
17	0xbf23df7f	-0.640129
18	0xbeba4313	-0.363793
19	0xbea2871a	-0.317437
20	0xbf3a67b6	-0.728145
21	0x400a3276	2.15933
22	0x3f18e864	0.597296
23	0xbf8ea993	-1.11455
24	0xbe4ac2df	-0.198009
25	0xc05262cc	-3.28728
26	0x3f94c2a4	1.16219
27	0x3fb53b3a	1.41587
28	0x3e6e731d	0.232861
29	0xbcd09aed	-0.0254645
30	0x3f02707e	0.509529
31	0x3fc2b9a1	1.52129
32	0xc0283c21	-2.62867
33	0x3f275fb3	0.653804
34	0xbfc47011	-1.53467
35	0xbed51c19	-0.41623
36	0xbfb698dd	-1.42654
37	0xbffcde2b	-1.97553
38	0x3f4a7fc3	0.791012
39	0xc0168659	-2.35195
40	0x3ef649d4	0.481032
41	0xbfd07c85	-1.6288
42	0xbfa025af	-1.25115
43	0xbea06940	-0.313303
44	0x3f448a69	0.767737
45	0xbf525ce6	-0.82173
46	0xc003ab22	-2.05732
47	0x3e1025c0	0.140769
48	0xbf5bbd5a	-0.858358
49	0x3f7fcc4b	0.999211

7 f4 [50, 50]
0	0x3f1f8402	0.623108
1	0x3fb23e6c	1.39253
2	0x4008963e	2.13417
3	0x4019d567	2.40365
4	0xbdbf2204	-0.0933266
5	0xbf056af0	-0.521163
6	0xba1df0c1	-0.000602495
7	0x3d2bab14	0.0419112
8	0xbeb40358	-0.351588
9	0xbf509321	-0.814745
10	0x3f84294a	1.03251
11	0xbe2d80e5	-0.169437
12	0x4038a551	2.88509
13	0xbd73a747	-0.0594857
14	0x3cc75d21	0.0243364
15	0xbf8fcfd5	-1.12353
16	0x3f0b8573	0.545005
17	0x3fb78ca8	1.43398
18	0x3f45550d	0.770829
19	0xbec70f7c	-0.38879
20	0x3f065f20	0.524889
21	0x3fdbedfa	1.7182
22	0x3f3a7807	0.728394
23	0x3f2a66fd	0.665634
24	0x3faede01	1.36615
25	0xbf9e1d00	-1.23526
26	0xbcb6ada7	-0.0222996
27	0x3f95ea89	1.17122
28	0xc00ba14d	-2.18172
29	0xbd2aff02	-0.0417471
30	0x3faa3b25	1.32993
31	0x3f8710cb	1.0552
32	0x3e6d5d81	0.231802
33	0x3f901301	1.12558
34	0xbedb7eb3	-0.428701
35	0xbe852242	-0.260027
36	0x3e1e8683	0.15481
37	0x4030b685	2.76114
38	0x3ebcebbc	0.368986
39	0x4004db62	2.07589
40	0xbb648f8c	-0.00348756
41	0x3fc05921	1.50272
42	0x3f2037a4	0.625849
43	0x3f935547	1.15104
44	0x3f9ca622	1.22382
45	0x3fac4135	1.34574
46	0x4046ee39	3.10829
47	0x3e80a698	0.251271
48	0xc0d58f1d	-6.67372
49	0x3df09e99	0.11749
50	0x3e8916a9	0.267751
51	0x405a5fd9	3.4121
52	0x3da40c4f	0.0801016
53	0x4011b3a7	2.27659
54	0x400c7621	2.19471
55	0x3ee5f58c	0.449139
56	0x3c88216c	0.0166175
57	0xbc62160a	-0.0137992
58	0x3fdbc1be	1.71685
59	0xbf7e3290	-0.992959
60	0x4013165d	2.29824
61	0x3e4794a7	0.194903
62	0xbdae217b	-0.0850248
63	0x3ed9fd9c	0.425763
64	0x3d0300ec	0.0319833
65	0xbf8f352b	-1.11881
66	0x40a3b780	5.11615
67	0xbe9502ef	-0.291038
68	0x3d04d71a	0.0324317
69	0x3f02b229	0.510531
70	0xc0285a9b	-2.63053
71	0x404bf8f4	3.18707
72	0xbf35948e	-0.709298
73	0xbfa9f8a1	-1.3279
74	0x3fb2dc5d	1.39735
75	0x402e91fb	2.72766
76	0x3f0f1077	0.558845
77	0xbfafda51	-1.37385
78	0x40875144	4.22867
79	0x3b88a805	0.00417042
80	0x3f81da27	1.01447
81	0x4032e9f7	2.79553
82	0x40185921	2.38044
83	0x3d8a4393	0.0675117
84	0xbf81c91d	-1.01395
85	0x3f0e4170	0.555686
86	0x3fe40735	1.78147
87	0x4033e4cd	2.81084
88	0x3f916d5d	1.13615
89	0x401de59f	2.46714
90	0xbf0dafd1	-0.553464
91	0x3fab35d2	1.33758
92	0x3f376998	0.716455
93	0x40020371	2.03146
94	0x3e820ee9	0.25402
95	0x3faefdca	1.36712
96	0x400559b4	2.0836
97	0xbf23e2d6	-0.64018
98	0x3fa33c60	1.27528
99	0x3fe8f4c7	1.81997
100	0x3f195b68	0.599051
101	0x3fe67c07	1.80066
102	0x3ca7868c	0.0204499
103	0xbe0bd76f	-0.136564
104	0x3e8ff90e	0.281197
105	0xbf37e3b0	-0.718318
106	0xbc9c4a4e	-0.0190784
107	0xbccdc048	-0.0251161
108	0x3c8d2ef2	0.0172343
109	0x3bd9895e	0.00663869
110	0x3e584d34	0.211232
111	0xbe24ef89	-0.16107
112	0xbf123c97	-0.571237
113	0x3ee9b175	0.456432
114	0x3ce20360	0.0275895
115	0xbd2561b9	-0.0403764
116	0xbf6ca633	-0.924411
117	0xbf54edc4	-0.831753
118	0x3e434656	0.190698
119	0xbe30407d	-0.172121
120	0xbe053d21	-0.130116
121	0x3eba4e38	0.363878
122	0xbea714fd	-0.326332
123	0x3f57c72e	0.842883
124	0xbf4a6794	-0.790643
125	0x3f2257da	0.634153
126	0x3e0d72bd	0.138133
127	0xbe5d1394	-0.215895
128	0xbe01904b	-0.126527
129	0xbd38c020	-0.0451051
130	0xbf6d002e	-0.925784
131	0xbeabce21	-0.335557
132	0xbec2bffd	-0.380371
133	0x3f2afc69	0.667914
134	0x3eb464dc	0.352332
135	0x3e5f811f	0.218266
136	0xbc3fc86d	-0.0117055
137	0xbe6bc6eb	-0.230251
138	0x3eb9fab9	0.363241
139	0xbf31ed07	-0.695023
140	0x3d605921	0.0547725
141	0xbbfc1189	-0.00769252
142	0x3e334efd	0.175106
143	0xbf0df612	-0.554536
144	0xbf90d3ae	-1.13146
145	0x3fc50236	1.53913
146	0x3cdc9166	0.0269248
147	0xbe709353	-0.234937
148	0x3da0ee2f	0.0785793
149	0x3efe325d	0.496478
150	0x3a423ad6	0.000740928
151	0xbb872a2b	-0.0041249
152	0xbd255758	-0.0403665
153	0xbc4a56d1	-0.0123498
154	0xbc749858	-0.0149289
155	0x3c5f8d2e	0.0136445
156	0x3c670f03	0.0141027
157	0x3ca3ee52	0.0200111
158	0xbd19ef95	-0.037582
159	0xbc12abf4	-0.00895213
160	0x3cae35d3	0.0212659
161	0x3c552851	0.0130101
162	0xbb509e93	-0.00318328
163	0x3c6b2a86	0.0143534
164	0xbcca19ca	-0.0246705
165	0xb9976d2b	-0.000288823
166	0xb93c2d29	-0.000179459
167	0x3b498215	0.00307477
168	0x3cd06325	0.0254379
169	0xbd3e8dda	-0.046522
170	0x3c90e886	0.017689
171	0x3c9b2f66	0.0189435
172	0xbd668017	-0.0562745
173	0x3cb3aca0	0.0219329
174	0x3ce75976	0.0282409
175	0xbd37f555	-0.0449117
176	0xbccbc7ea	-0.0248756
177	0x3cc86a9d	0.0244649
178	0xbd6e9eaf	-0.0582568
179	0xbd02bca9	-0.0319182
180	0xbcc99ae9	-0.02461
181	0xbca92197	-0.0206459
182	0xbbd04d1f	-0.00635685
183	0x3c3695be	0.0111441
184	0xba789ca3	-0.000948379
185	0xbc356f4e	-0.0110739
186	0xbd922fd6	-0.0713803
187	0x3beb2365	0.00717585
188	0x3bff2fe1	0.00778769
189	0x3d0757ad	0.0330426
190	0xbc1a8780	-0.00943172
191	0x3c46e95e	0.0121406
192	0xbcee2a4a	-0.0290729
193	0x3c960815	0.0183144
194	0xbd9a5ff0	-0.0753783
195	0x3d2c04a0	0.0419966
196	0xbc0beea1	-0.00854078
197	0xbd1a088a	-0.0376058
198	0x3b7e629c	0.00388161
199	0xbd34d651	-0.0441497
200	0x3ec58299	0.385762
201	0x3f20aeb8	0.627666
202	0x3f6f44b3	0.934642
203	0x3ef55d1c	0.479226
204	0xbec56adf	-0.385581
205	0xbfefd7b2	-1.87377
206	0x3c3f3fb1	0.0116729
207	0xbba5a947	-0.00505558
208	0xbe384381	-0.179945
209	0xbee1a6f8	-0.440727
210	0xbfe42b41	-1.78257
211	0x3f8c1a8b	1.09456
212	0xbbf0e3c3	-0.00735137
213	0xbec0a548	-0.376261
214	0x3c0d8d06	0.00863958
215	0xbbe86de8	-0.00709318
216	0xbec88590	-0.391644
217	0x3f21234f	0.629445
218	0xbfd0e7ff	-1.63208
219	0x3ee81adf	0.45333
220	0x3f228662	0.634863
221	0x3dac41a7	0.0841096
222	0x3ec24702	0.379448
223	0x3fb57dbf	1.4179
224	0xbe7067cf	-0.234771
225	0x3f9e8588	1.23845
226	0xbe5ad4b2	-0.213702
227	0x3e01effa	0.126892
228	0x3fd9ba5e	1.701
229	0x3d02192f	0.0317623
230	0x3fc3e187	1.53032
231	0x3f665a79	0.899818
232	0xbda4c5cd	-0.0804554
233	0xbd6f341b	-0.0583993
234	0xbf7c7f78	-0.98632
235	0x3f56ceab	0.839091
236	0x3f761544	0.961262
237	0x3fe3d513	1.77994
238	0x3e137c57	0.144029
239	0x3f9ef790	1.24193
240	0xbf0dff2e	-0.554675
241	0xbff3b203	-1.90387
242	0x3ee3da94	0.445027
243	0xbd2a4a71	-0.0415749
244	0x3fb1e69b	1.38985
245	0x3dbccc39	0.0921864
246	0x3f2ff434	0.68732
247	0x3e648ba8	0.223189
248	0x3f965f85	1.17479
249	0x3e0c4370	0.136976
250	0xbecbe426	-0.398225
251	0xbe2eb852	-0.170625
252	0x3e877d95	0.26463
253	0x3f872ca5	1.05605
254	0x3f67be77	0.90525
255	0xbc003ff7	-0.00782775

8 f4 [50]
0	0xbf82b7aa	-1.02123
1	0x3f839e5a	1.02827
2	0x3f504cbe	0.813671
3	0xbd1c60d9	-0.0381783
4	0x404fa051	3.24416
5	0x3f529cbb	0.822704
6	0x3f5eaa3b	0.869785
7	0x40226d9c	2.53794
8	0xbfe2469d	-1.76778
9	0xbf822920	-1.01688
10	0xc02ed899	-2.73197
11	0x4029ceaf	2.65324
12	0x3e31be6e	0.173578
13	0xbf83f045	-1.03077
14	0xbfea7ea6	-1.83199
15	0xbf978e4c	-1.18403
16	0x3fc3c0c2	1.52932
17	0x3f8626d5	1.04806
18	0x402c363b	2.69081
19	0x3f4f3722	0.809435
20	0xc01bfa1a	-2.43714
21	0x3fc88312	1.5665
22	0xbbfc3c51	-0.00769762
23	0xc0ac8ef3	-5.39245
24	0xbf274c1b	-0.653505
25	0x402b2e1f	2.67469
26	0xbe5f98fa	-0.218357
27	0xc0829f2c	-4.08193
28	0x40029985	2.04062
29	0x3f84b924	1.0369
30	0xbf17deb5	-0.593242
31	0x4000538f	2.0051
32	0xbf0e6bd7	-0.556333
33	0xbf2c08a7	-0.672007
34	0x3f4073ac	0.751765
35	0x3f7dab8f	0.990899
36	0xbca33b39	-0.0199257
37	0xbedc195d	-0.429881
38	0x3f78c8bd	0.971813
39	0xc0712b2c	-3.76826
40	0xbf8ff338	-1.12461
41	0xbf33c090	-0.702157
42	0x404e5700	3.22406
43	0xc0012642	-2.01796
44	0xbf6cc88a	-0.924935
45	0x3fa0fa05	1.25763
46	0xbf6ab7dc	-0.916868
47	0x4018cba7	2.38743
48	0x3e6e47dc	0.232696
49	0xbec70e2c	-0.38878

9 f4 [50, 50]
0	0x3eae9b7c	0.34103
1	0xbe854aa1	-0.260335
2	0xbe4999dd	-0.196876
3	0xbbe429cb	-0.00696299
4	0x3d5fe5c9	0.0546625
5	0xbdc01fee	-0.0938109
6	0x3dc632ea	0.0967768
7	0xbfca91fb	-1.58258
8	0x3d35c9e6	0.044382
9	0x3f2acf31	0.667224
10	0xbcc43a21	-0.0239535
11	0xbf530542	-0.824299
12	0xbeaef7e4	-0.341735
13	0xbdccc873	-0.0999917
14	0xbdd0efdd	-0.10202
15	0x3df1de6a	0.1181
16	0xbfc1805e	-1.51173
17	0xbeb6f60e	-0.357346
18	0xbe2028a2	-0.156405
19	0x3dd01217	0.101597
20	0xbd7ad1a8	-0.0612351
21	0xbf04aa11	-0.51822
22	0xbcb5e819	-0.0222054
23	0x3ed768e0	0.420722
24	0x3eb247cb	0.348204
25	0xbf1fac82	-0.623726
26	0x3ed22079	0.410404
27	0x3bdeff95	0.00680537
28	0x3dabce1a	0.0838892
29	0xbf499620	-0.787447
30	0xbeafafa7	-0.343137
31	0x406d6627	3.70936
32	0xbed477de	-0.414977
33	0xbd61dec8	-0.0551441
34	0x3eaf8d71	0.342876
35	0x3ec1e7fb	0.378723
36	0xbd3488ee	-0.0440759
37	0x3c4da2b6	0.012551
38	0x3f13836b	0.576224
39	0xbf9d4802	-1.22876
40	0x3e1e136e	0.154371
41	0xbd3668c2	-0.0445335
42	0xbdb96894	-0.0905315
43	0xbca36dc3	-0.0199498
44	0x3c3bf727	0.0114725
45	0xbe14b0e2	-0.145206
46	0x3e99463d	0.299364
47	0xbf279ecf	-0.654767
48	0x3e686bdf	0.226974
49	0xbf0bbc0a	-0.545838
50	0xbf76fb5d	-0.964773
51	0xbd96fb24	-0.0737212
52	0xbf5194c0	-0.818676
53	0x3ca817e2	0.0205192
54	0xbfcaa4fd	-1.58316
55	0x3fada36e	1.35655
56	0xc05b2bfe	-3.42456
57	0xbf585ff2	-0.845214
58	0xbfa8e94f	-1.31962
59	0xbecb5d46	-0.397196
60	0x3ec574f7	0.385658
61	0x3d912a37	0.0708813
62	0x3ecbb4b3	0.397863
63	0xbe853672	-0.260181
64	0xbf930d30	-1.14884
65	0x3c2f40cb	0.0106966
66	0x3ee294ff	0.442543
67	0xbf6caa86	-0.924477
68	0xbf21015c	-0.628927
69	0xbf532b77	-0.824882
70	0xbe8c7150	-0.274302
71	0xbdbbdba1	-0.0917275
72	0xbcccc250	-0.024995
73	0xbea2d491	-0.318028
74	0x3eb7e176	0.359142
75	0x40045d10	2.06818
76	0x3dbd973a	0.0925736
77	0x3d65de4b	0.0561202
78	0x3c1168a8	0.00887505
79	0x3e302364	0.17201
80	0xbe521dda	-0.205192
81	0xc0c1cd4b	-6.05631
82	0x3f45d2e1	0.772749
83	0x3c1b9c9e	0.00949779
84	0x3e9a8805	0.301819
85	0xc016a7f0	-2.354
86	0x3d37b8b9	0.0448539
87	0x3ed2da55	0.411822
88	0x3f59e615	0.851167
89	0x3f3a4d0a	0.727738
90	0xbf212b4e	-0.629567
91	0x3d0db007	0.0345917
92	0x3fa3d60f	1.27997
93	0x3ec90abb	0.39266
94	0x3ecc1b33	0.398645
95	0x3f260e1f	0.648653
96	0xbf8e501e	-1.11182
97	0x3d8ee6ab	0.0697759
98	0x3f872d4d	1.05607
99	0x3fa0cad5	1.25619
100	0x3f2ac860	0.66712
101	0xc045b060	-3.08889
102	0x3fec4ea5	1.84615
103	0xbaa795b1	-0.00127857
104	0x3e90ae32	0.282579
105	0xbfcd7050	-1.60499
106	0x4033f5d8	2.81188
107	0xc04fed52	-3.24886
108	0xbefefbf4	-0.498016
109	0xbe83c298	-0.257344
110	0xbf1cb31c	-0.612108
111	0xc04bfa1a	-3.18714
112	0xbed1adc9	-0.409529
113	0x3e1bb4d5	0.152057
114	0xbecb98c8	-0.39765
115	0x3f0f85d7	0.560636
116	0xc08f2eb2	-4.47445
117	0xc08cac86	-4.39606
118	0xc115cb14	-9.36208
119	0x3fb5f84d	1.42164
120	0xc059a60d	-3.40076
121	0xc0ac28f6	-5.38
122	0x3d376908	0.0447779
123	0x3f463593	0.774255
124	0x3fd0a18c	1.62993
125	0xbf04e68e	-0.519143
126	0xc00230fd	-2.03424
127	0x3f2659e2	0.649809
128	0x3e629564	0.221273
129	0xbf3d6f44	-0.739979
130	0x3fa6c41e	1.30286
131	0xc082d091	-4.08796
132	0xc00db61c	-2.21424
133	0xbfba3f14	-1.45505
134	0xbf975f1c	-1.18259
135	0xc0302a1b	-2.75257
136	0x3d518b93	0.0511585
137	0xc03ee3e7	-2.98266
138	0xc0995f07	-4.79285
139	0xc0415864	-3.02102
140	0xbf2f7879	-0.685432
141	0xbdd4a0a1	-0.103822
142	0xc0cdf362	-6.43596
143	0x3f2cf484	0.675606
144	0xc0fdf3b6	-7.936
145	0x3fc796d1	1.55929
146	0xc176bac7	-15.4206
147	0x3f2c05d5	0.671964
148	0x3ebad795	0.364926
149	0xc0093847	-2.14406
150	0x3e9ad85e	0.302432
151	0xbe755b46	-0.239606
152	0xbec92ea5	-0.392934
153	0x3cb20a3e	0.0217334
154	0x3eb2e2fc	0.349388
155	0x3f07e09c	0.530771
156	0x3f36ca58	0.714025
157	0x3f95b424	1.16956
158	0x3ef38cda	0.475684
159	0x3ea7296f	0.326488
160	0xbd587d8a	-0.0528541
161	0x400694ee	2.10284
162	0x3d47c038	0.0487673
163	0x3f20c74c	0.628041
164	0x3c181184	0.00928152
165	0xbf1ebb02	-0.620041
166	0xbf1635f8	-0.586761
167	0xc0233c36	-2.55055
168	0x3f5820d5	0.844251
169	0xbe00ab2e	-0.125653
170	0xbf07317f	-0.528099
171	0x3d7c8217	0.0616475
172	0xbd28cbec	-0.0412101
173	0x3e69a5ec	0.228172
174	0x3ec4ce1c	0.384385
175	0xc05a0126	-3.40632
176	0x3ff2fc7a	1.89833
177	0x3f6bd9a9	0.92129
178	0xbecd0375	-0.400417
179	0x3f8ac80c	1.08423
180	0x3ed5f0f6	0.417854
181	0x3ecc0379	0.398464
182	0xbf74a244	-0.955601
183	0xbf2cbef9	-0.674789
184	0x3f2d86fd	0.677841
185	0x3fbe4bdc	1.48669
186	0xbd02b3da	-0.0319098
187	0x3e6445aa	0.222922
188	0x3f94e65c	1.16328
189	0xbf00dd51	-0.503377
190	0xbe9f7985	-0.311474
191	0xbe30e497	-0.172747
192	0x3f1fba34	0.623935
193	0xbf6db6c3	-0.92857
194	0x3d8d5bee	0.069023
195	0xbe7ef7c2	-0.248992
196	0xbf05da8c	-0.522866
197	0x3e51b21c	0.204781
198	0xbddb2bbb	-0.107017
199	0x3e7a209b	0.244265
200	0xc024b146	-2.57332
201	0xbf91a709	-1.13791
202	0xc0677d6b	-3.61703
203	0x3c0a5132	0.00844221
204	0xc083f530	-4.12368
205	0x3f879a6b	1.0594
206	0xc03323f6	-2.79907
207	0xc0b62253	-5.69169
208	0x3fab2618	1.3371
209	0x3f366e22	0.712618
210	0xbf04957d	-0.517906
211	0xc0cf7857	-6.48344
212	0xc011ae68	-2.27627
213	0x3e12ca9b	0.143351
214	0x3f520642	0.820408
215	0x3fea59f3	1.83087
216	0xbfee6ca0	-1.86269
217	0x3f40a340	0.752491
218	0xc0038d7a	-2.05551
219	0x3fb5a661	1.41914
220	0xbfec8462	-1.84779
221	0xc07c5db7	-3.94322
222	0xbd106c7a	-0.0352597
223	0x3f994bf1	1.19763
224	0x403b436c	2.92599
225	0xbfd97a25	-1.69904
226	0x3f7c1e58	0.984838
227	0x3fb7736d	1.43321
228	0x3e5810e9	0.211002
229	0xbf883ba3	-1.06432
230	0x3f61ede1	0.882536
231	0x4021ecd5	2.53008
232	0xbff33d5c	-1.90031
233	0xbf62d645	-0.886082
234	0x3f44152b	0.765948
235	0xc05e8e37	-3.47743
236	0x3c0b0b0b	0.00848652
237	0xc01e262d	-2.47108
238	0xbe7e685e	-0.248445
239	0xc0fc65e9	-7.88744
240	0xbf539f02	-0.826645
241	0xbe2bf488	-0.167925
242	0xbfe5dd1a	-1.79581
243	0x401f70ce	2.49126
244	0xc0ac2268	-5.3792
245	0x3faf34d7	1.3688
246	0xbfc63d1d	-1.54874
247	0xbfc994af	-1.57485
248	0xbe1b8067	-0.151857
249	0xc02b2839	-2.67433
250	0x3ec76513	0.389443
251	0x3f347d2c	0.705035
252	0xbfbf6651	-1.49531
253	0x3bd1696a	0.00639074
254	0x3f8c9fe8	1.09863
255	0xbf1c8d7e	-0.611534

10 f4 [50]
0	0x3ee10a13	0.43953
1	0xc042f180	-3.04599
2	0x3fd249e4	1.64288
3	0x4008949a	2.13407
4	0xbf5a8d22	-0.853716
5	0xc0080a7c	-2.12564
6	0xc03ba3c2	-2.93187
7	0xbe278573	-0.163595
8	0xc004aab9	-2.07292
9	0xbe1a44c8	-0.150653
10	0xbf9de93a	-1.23368
11	0x3f2df783	0.679558
12	0xbe33b03e	-0.175477
13	0xc02cad58	-2.69808
14	0x3f970ae5	1.18002
15	0xc075b2ab	-3.83903
16	0xbf25084f	-0.644658
17	0x40572baa	3.36204
18	0x40616b12	3.52216
19	0xc0217732	-2.5229
20	0x3f84764b	1.03486
21	0xbdd651b1	-0.104648
22	0xbf955326	-1.1666
23	0x4022e87d	2.54544
24	0x3fd2924f	1.64509
25	0xc0773bb8	-3.86302
26	0xbfd8941d	-1.69202
27	0x3f72ad4f	0.947957
28	0xbee1c68f	-0.440968
29	0xc0204207	-2.50403
30	0x3fc98256	1.57429
31	0xc005b7bf	-2.08934
32	0x3fe6aed1	1.80221
33	0xc01510f5	-2.32916
34	0xbfee6a55	-1.86262
35	0xbf881cd6	-1.06338
36	0x3fb88d8f	1.44182
37	0x3f93dfe3	1.15527
38	0xbcea8c66	-0.0286314
39	0xc05563b2	-3.33421
40	0xc056d940	-3.35701
41	0xbf24d0ab	-0.643809
42	0xc0743b25	-3.81611
43	0x3f9a9542	1.20768
44	0x3eefcc5c	0.468356
45	0x3f946595	1.15935
46	0x3e95bea1	0.29247
47	0x3dd8f798	0.105941
48	0x4088f267	4.27959
49	0xbf0d4a5e	-0.551916

11 f4 [50, 50]
0	0x40420831	3.03175
1	0x4055e258	3.34194
2	0x3f30b157	0.690206
3	0x3e0173fb	0.126419
4	0x3f88850a	1.06656
5	0x405cb828	3.44874
6	0x403da805	2.96338
7	0xbfd9e83e	-1.7024
8	0xc162d42c	-14.1768
9	0x40170165	2.35946
10	0xc0935879	-4.60455
11	0xc03d736d	-2.96017
12	0xbfb39c63	-1.40321
13	0x403a8d3b	2.91487
14	0x3e62ef0b	0.221615
15	0xc02148d4	-2.52007
16	0x405b1aca	3.42351
17	0xbf6b9e9d	-0.920389
18	0xbf870b8d	-1.05504
19	0x40842071	4.12896
20	0xc030e0f4	-2.76373
21	0x407824b3	3.87724
22	0x402ba177	2.68173
23	0x3fb47fcc	1.41015
24	0x4036877f	2.85202
25	0x3ed8a8b1	0.423162
26	0xc0625b42	-3.53682
27	0xbe960264	-0.292987
28	0x3f9cdb38	1.22544
29	0x40882824	4.2549
30	0xc03aa7c6	-2.91649
31	0xc03ba051	-2.93166
32	0x3ff1613d	1.88578
33	0x3fd95f46	1.69822
34	0x4032caac	2.79362
35	0x40471fde	3.11132
36	0x4003d9d3	2.06017
37	0x403697e1	2.85302
38	0x3e0362a6	0.128306
39	0xbf8aa551	-1.08317
40	0x40724357	3.78536
41	0x407edd2f	3.98225
42	0x3f0bd20f	0.546174
43	0x407efdf4	3.98425
44	0xc02c8a1e	-2.69593
45	0xc0f83151	-7.75602
46	0xc087f156	-4.24821
47	0x3f6a0f6f	0.914298
48	0xbefb30f9	-0.490608
49	0xbf86b2c0	-1.05233
50	0xbfe08ede	-1.75436
51	0xc0033bb8	-2.05052
52	0xbed1acbd	-0.409521
53	0x3cfe75bc	0.031062
54	0xbe3bd09e	-0.183413
55	0x3f35b984	0.709862
56	0x3f2968b6	0.661754
57	0x3f0f127f	0.558876
58	0x3f848b97	1.03551
59	0x3f1ae936	0.605121
60	0xbf52bc51	-0.823186
61	0xbf323d4f	-0.696248
62	0x3fa81f21	1.31345
63	0x3eb3a7b9	0.350889
64	0x3ee03d79	0.437969
65	0x3e47c526	0.195088
66	0xbfa4cf18	-1.28757
67	0x3cb2e1d5	0.0218362
68	0x3f8f165d	1.11787
69	0xbf32a305	-0.6978
70	0x3ee88c82	0.454197
71	0xbf17bb95	-0.592706
72	0x3f2f4b40	0.684742
73	0xbe38409e	-0.179934
74	0xbe48e219	-0.196175
75	0xbeac9d7c	-0.337139
76	0x3f3e08e1	0.742323
77	0x3fa4fb55	1.28892
78	0x3fc2a0ba	1.52053
79	0xbf472e8c	-0.778054
80	0x3f4c0a8d	0.797036
81	0x403bee24	2.93641
82	0xbb117e6d	-0.00222006
83	0xbe06cfc8	-0.131652
84	0xbf84793e	-1.03495
85	0x3f07a754	0.529897
86	0x3ecf077d	0.404354
87	0x3f455fcc	0.770993
88	0xbe9a4074	-0.301273
89	0xbf37ff9b	-0.718744
90	0xbf9e4303	-1.23642
91	0x3e7a8f7e	0.244688
92	0xbf95aaa4	-1.16927
93	0x3f51a922	0.818987
94	0x3f27441c	0.653383
95	0xbf95b520	-1.16959
96	0x3f2cf68c	0.675637
97	0x3efe5ade	0.496787
98	0xbd707cd5	-0.0587128
99	0x3f89989e	1.07497
100	0x400ad552	2.16927
101	0x40115087	2.27054
102	0xbe14f26b	-0.145456
103	0xbf58d003	-0.846924
104	0xbf4f2b34	-0.809253
105	0xbfe1b7bf	-1.76342
106	0x3f97ae14	1.185
107	0xbea06f05	-0.313347
108	0xc00975b8	-2.14781
109	0x3fa2c2ce	1.27157
110	0x3df170d6	0.117891
111	0xbe72de44	-0.237176
112	0xc040d677	-3.01309
113	0xbfb9c67e	-1.45137
114	0x406ad289	3.6691
115	0x400214a5	2.03251
116	0x400027fa	2.00244
117	0xc03fdcc6	-2.99785
118	0x4007daa5	2.12272
119	0xbd93254e	-0.0718485
120	0x3f307182	0.689232
121	0xc03d3c0c	-2.95679
122	0xc0137c70	-2.30447
123	0x3e093ccd	0.134021
124	0x4004725c	2.06948
125	0x3efb5efa	0.490959
126	0xc038a25e	-2.88491
127	0xbf0e37ef	-0.555541
128	0xc008378b	-2.12839
129	0x3f0ec647	0.557713
130	0x3fe135fc	1.75946
131	0xc09e91fb	-4.95532
132	0x3e6a37ef	0.228729
133	0xc08ee7ff	-4.46582
134	0x3f41f0f6	0.757583
135	0x40074270	2.11343
136	0x3f9845cc	1.18963
137	0x3f7ac26a	0.979529
138	0x403097b7	2.75926
139	0xc027fc65	-2.62478
140	0x3ff26517	1.89371
141	0x3f9b2618	1.2121
142	0xc02b1cc1	-2.67363
143	0xbeb6412d	-0.355966
144	0xc033bd27	-2.80842
145	0xbfd05c68	-1.62782
146	0xc03623e2	-2.84594
147	0x401601a3	2.34385
148	0xbee58666	-0.448291
149	0x3f414ed3	0.755109
150	0xbf402a45	-0.750645
151	0xc00e8beb	-2.22729
152	0xc00906f7	-2.14105
153	0xc036df26	-2.85737
154	0xbf7d3598	-0.989099
155	0x3f6ed331	0.93291
156	0xc07e9e45	-3.97841
157	0xbfa41f21	-1.2822
158	0x3f103782	0.563347
159	0x3f4982ba	0.787151
160	0xbf6f505d	-0.93482
161	0xbfb8053e	-1.43766
162	0x3fad8d7a	1.35588
163	0xbf6a53da	-0.915342
164	0xbf15e322	-0.585497
165	0x3d03e136	0.0321972
166	0xbf82833c	-1.01963
167	0xbf79f98b	-0.976464
168	0xbf9230fd	-1.14212
169	0xc0b9cc10	-5.80616
170	0x3efdf58c	0.496014
171	0xbd8c852f	-0.0686134
172	0xbfabac71	-1.3412
173	0xbf414bf1	-0.755065
174	0xbf9512ec	-1.16464
175	0xbf2b28e9	-0.668593
176	0x3fb1eecc	1.3901
177	0x4016ca82	2.35611
178	0x3f4d2125	0.801287
179	0xc0319a41	-2.77504
180	0xbd1b79d9	-0.037958
181	0x3f43c3c6	0.764706
182	0xbff78b59	-1.93394
183	0x3fe81d2a	1.81339
184	0xbf4f2c95	-0.809274
185	0xbfefe47a	-1.87416
186	0xc0228b44	-2.53975
187	0xc023adc1	-2.55748
188	0x3f83ddec	1.03021
189	0xbed0fd7e	-0.408184
190	0xbfd1ad43	-1.6381
191	0xc0549ec3	-3.32219
192	0xc0023151	-2.03426
193	0xbd58fde3	-0.0529765
194	0xbfee6afd	-1.86264
195	0xbdc5fe04	-0.0966759
196	0x3fa7a2f0	1.30966
197	0x3f0a6070	0.540534
198	0xbc279b4f	-0.0102299
199	0xbd6f1221	-0.0583669
200	0x3f196de3	0.599333
201	0x401ce3e7	2.45141
202	0x3f5f93de	0.87335
203	0xbf3bc3a4	-0.733454
204	0xbf9965d4	-1.19842
205	0xbdc96a42	-0.0983472
206	0x3f793d86	0.973595
207	0xbf53b678	-0.827003
208	0xbf3f7f06	-0.748032
209	0x3f4fb96b	0.811423
210	0x4000176e	2.00143
211	0xc06120b0	-3.51762
212	0xc00f374c	-2.23775
213	0xbf71fe65	-0.945288
214	0x407cdefc	3.95111
215	0xc001475a	-2.01998
216	0xbf9e5365	-1.23692
217	0xc060a2b1	-3.50993
218	0xc01b9724	-2.4311
219	0x3ead7860	0.338809
220	0xbe02806b	-0.127443
221	0xbf9cb6d8	-1.22433
222	0xbf39a78f	-0.725213
223	0x3edb96f2	0.428886
224	0x3d254db2	0.0403573
225	0x3fc66ba5	1.55016
226	0x3ed22531	0.41044
227	0x402d90eb	2.71197
228	0x3f9085b2	1.12908
229	0x3f109689	0.564797
230	0x3ec67558	0.387614
231	0xbff60664	-1.92207
232	0x3f1f0521	0.621172
233	0xc07fecff	-3.99884
234	0x3f074aa9	0.528483
235	0x4082389b	4.06941
236	0xbf162941	-0.586567
237	0xbfdb21d5	-1.71197
238	0x3e321a2e	0.173928
239	0x3fec98b3	1.84841
240	0x3f133c1d	0.575136
241	0xbee36241	-0.444109
242	0xbf6d7f63	-0.927725
243	0xbfb84135	-1.43949
244	0x3fb7e187	1.43657
245	0x40163593	2.34702
246	0xc0030be1	-2.0476
247	0xbf5134ce	-0.817212
248	0xbe1efe93	-0.155268
249	0x3d860179	0.0654325
250	0x3f46b3ee	0.776183
251	0x3ecd870e	0.401421
252	0xbf940735	-1.15647
253	0xbfaf1aa0	-1.368
254	0xbe27763e	-0.163537
255	0x40075810	2.11475

12 f4 [50]
0	0xc001c28f	-2.0275
1	0x40904f0e	4.50965
2	0xc072cfc0	-3.79393
3	0xbe1d3b2a	-0.153546
4	0xc06364ae	-3.55302
5	0x3ff7a787	1.9348
6	0x3f9c562e	1.22138
7	0x3fd99264	1.69978
8	0xbf05600f	-0.520997
9	0x3fd0a5ce	1.63006
10	0xc04e5bc0	-3.22435
11	0x3fabd9a9	1.34258
12	0x3cbb1dae	0.0228413
13	0xbf91c91d	-1.13895
14	0x3fe2bd3c	1.7714
15	0x3ed7e62e	0.421678
16	0xc022c101	-2.54303
17	0x3eab955f	0.335124
18	0x3fdb60bf	1.71389
19	0xbee75c6c	-0.451877
20	0xbf767bc4	-0.962826
21	0xbc000e38	-0.00781589
22	0xbfa63cc9	-1.29873
23	0x3c060eb8	0.00818222
24	0x4005e2ac	2.09196
25	0xbf903b4f	-1.12681
26	0x407d381d	3.95655
27	0xbf28a1e0	-0.65872
28	0xbf293b5c	-0.661062
29	0xbd1e2f45	-0.0386193
30	0x3ea7db4d	0.327845
31	0xbf813cde	-1.00967
32	0x3f515044	0.817631
33	0x3fefd806	1.87378
34	0xc05a16f0	-3.40765
35	0x3f8fd9fd	1.12384
36	0x3eebae8a	0.460316
37	0x3fcdd495	1.60805
38	0x3ef74a77	0.48299
39	0x3fd00054	1.62501
40	0x3f834b1f	1.02573
41	0xbf056734	-0.521106
42	0xbfd2b94e	-1.64628
43	0xbef7f0aa	-0.484258
44	0x3f970996	1.17998
45	0x3fd14413	1.63489
46	0xbcb04e7c	-0.0215218
47	0xbe3f93ff	-0.187088
48	0x3faade55	1.33491
49	0xc014833c	-2.32051
