configs/networks/acas/acas_2_6.onnx (onnx, 61577 bytes, 14 tensors)

1 f4 [50, 5]
000000 1a 52 65 bf 95 99 d2 bd 60 22 fe 3d a2 7b 76 be
       -0.895784 -0.102832 0.124089 -0.240706
000010 52 6f ac bd c5 60 34 3c 1c 0b 6a 3f 39 09 7d bf
       -0.0841967 0.0110094 0.914232 -0.988422
000020 29 c6 22 3c e6 04 cd 3d 0c 3b 0c 3b df f9 15 3e
       0.00993494 0.100107 0.00213975 0.146461
000030 e1 35 79 3c 88 0e 86 3d 50 65 a4 ba 0c a1 c4 bd
       0.0152106 0.0654574 -0.00125424 -0.0960103
000040 db ef 5a bd 05 bf f2 bc 0e c0 a1 3c dc 8e 7f 3d
       -0.0534514 -0.0296321 0.0197449 0.0623921
000050 9a 08 7b 3d 0e f3 e1 bf 00 00 ec 3f b0 00 a6 3e
       0.0612875 -1.76523 1.84375 0.324224
000060 31 b3 0f be ae 07 bc bb a0 fc 5d bc f3 c8 9f bc
       -0.140332 -0.00573822 -0.013549 -0.019505
000070 84 fd cf 3a 66 2e 96 b9 6f 12 e3 3d 42 95 d2 3f
       0.00158684 -0.000286448 0.110875 1.64518
000080 12 c9 46 bc 48 e1 92 3e 18 d0 83 be f9 f4 d8 3d
       -0.0121329 0.286875 -0.257447 0.105936
000090 1c 5d 49 bf ba f3 3c 3f 15 01 ee bd 59 f7 4f 3e
       -0.786577 0.738094 -0.116213 0.203092
0000a0 15 6f 34 3e 39 b3 e5 3e 30 29 3e bf 89 26 10 be
       0.176205 0.448633 -0.742816 -0.140772
0000b0 6f 2d 03 3e 21 c8 c1 bc 7b 4a 2e 3e 35 5e fa bd
       0.128103 -0.023655 0.170206 -0.12225
0000c0 2d cc fa 3e de 3b 4a bf 4a 25 58 3f 4c 50 0b 3f
       0.489839 -0.789976 0.844319 0.544194
0000d0 d9 fc c9 3c 4a b3 59 bf bc 5a 8e bd fa 9a e5 bd
       0.0246567 -0.850392 -0.069509 -0.112112
0000e0 61 81 79 3d c3 84 0c bd 81 22 5e bf 49 84 52 3f
       0.0609144 -0.0343063 -0.867714 0.822331
0000f0 2c 82 f3 3f 6f 4a 1a 3b 75 d1 4a bb 71 44 ef bb
       1.90241 0.00235429 -0.00309476 -0.00730186
000100 81 02 f3 3b 2f 14 a0 3e c6 15 7f bf 7c dd 37 3b
       0.00741607 0.312654 -0.996426 0.00280556
000110 74 0c 78 3e 6d 59 42 bf 06 2f 3a 3e 63 d5 00 bf
       0.242235 -0.759177 0.18182 -0.503256
000120 10 25 82 3e ee 01 7f bd 84 8b 2b 3d 1b 0f 16 bd
       0.254189 -0.0622577 0.0418811 -0.0366355
000130 eb 74 20 bf 1b 7f 22 3f 71 09 db bc 44 e2 b9 3c
       -0.626784 0.634752 -0.0267379 0.0226909
000140 2a f7 07 bd 8d 5f 18 3e b9 89 ba be 07 98 09 be
       -0.0331947 0.148802 -0.364332 -0.134369
000150 1b b5 a7 3d e6 9f 8f 3c 37 aa 93 3c 16 68 af 3e
       0.0818884 0.0175323 0.0180255 0.342591
000160 b0 b9 c9 3d 22 df 65 3e e2 3a 08 bc 48 f8 83 3a
       0.0984987 0.224484 -0.00831482 0.00100685
000170 b0 ee ce 3c b5 cc c8 3d 67 b8 03 c0 45 d9 db bc
       0.0252603 0.0980467 -2.05813 -0.026837
000180 7a c3 cd be ce 38 cd 3e 9e 99 d8 3e 1e 6c 09 bf
       -0.401882 0.400824 0.423047 -0.536806
000190 88 52 81 3d 57 09 d2 3f 40 a3 d4 3e bb 64 20 3f
       0.0631457 1.64091 0.415308 0.626537
0001a0 c3 64 ea be ad 5b 13 bd cc d0 d8 3d 57 ee 41 3f
       -0.4578 -0.0359761 0.105867 0.757543
0001b0 f2 98 f9 be df 8b ef 3d 9f 7d 9b bc 0c 09 73 3c
       -0.487495 0.116966 -0.0189808 0.0148337
0001c0 be af 7c 3b 11 30 21 3b 46 2e 13 bb c7 29 3a be
       0.00385569 0.00245953 -0.0022458 -0.1818
0001d0 ec 86 0f c0 9d 46 ca be 0f 9d 4a 3f 22 1a ad bf
       -2.24261 -0.39507 0.791459 -1.35236
0001e0 a3 02 27 bc f6 24 b4 3b 93 7d b3 39 64 95 d7 b9
       -0.0101935 0.00549757 0.000342351 -0.000411193
0001f0 3d 2c 5e 3a 67 cb c1 3b 5b 94 0f 40 ba 2f 37 3e
       0.000847522 0.00591414 2.24343 0.178893
000200 68 5a 0a bf ea 94 67 3e 45 69 8a 3d 6e f9 88 be
       -0.540442 0.226154 0.0675836 -0.267528
000210 76 e0 7c 3e 04 e2 4d 3f 96 76 32 bf fa 5f ee 3c
       0.24695 0.80423 -0.697122 0.0290985
000220 91 f2 7b bf 87 6d 29 c0 a2 0e b3 3e 5c e3 63 be
       -0.98417 -2.64731 0.349721 -0.222547
000230 c2 06 97 3a bb ff a9 3d 71 90 10 be f6 7a b7 bf
       0.00115224 0.0830073 -0.141176 -1.43344
000240 9f c9 02 bf df f8 6a 3e fd da 6a bf b2 1e 8d 3d
       -0.510889 0.229465 -0.917404 0.0689062
000250 a1 33 94 3d 86 eb 4c bd a9 bf 8e bd 61 32 b9 3f
       0.0723641 -0.0500293 -0.0697015 1.44685
000260 ae 7e dc 3e 65 00 48 3e 7f 06 a5 bd c6 6b 5e bf
       0.430654 0.195314 -0.0805788 -0.868832
000270 6a c2 11 bd 03 73 99 bc 45 48 3d 3d 01 09 d4 3c
       -0.0355858 -0.0187316 0.0462115 0.0258832
000280 c6 2b 35 3c c0 07 cf be 90 82 ff be 20 9c af be
       0.0110578 -0.404356 -0.499043 -0.342988
000290 b4 1a 77 3d ac 73 8c bf 03 0b 80 be 35 b9 73 bd
       0.0603282 -1.09728 -0.250084 -0.0595028
0002a0 b3 43 d4 3e b4 3d 5e bf 68 95 29 be 6b 9a 2b bf
       0.414579 -0.868129 -0.165609 -0.670325
0002b0 22 8e 8d 3f 1a de 0c be 88 bd 20 3e ee 0d b9 3d
       1.1059 -0.137566 0.156973 0.0903586
0002c0 d0 d0 9f 3f 5a 64 e3 bf 96 14 4e 3d de 72 45 3e
       1.24856 -1.7765 0.0503126 0.192821
0002d0 92 41 29 bd 59 6c 03 3e d4 64 16 be 61 6e 17 be
       -0.0413223 0.128343 -0.146869 -0.147882
0002e0 26 1c ba 3e 98 fb e4 3c f3 e2 28 3f 8c 2e 2f bf
       0.363496 0.027952 0.659713 -0.684304
0002f0 b0 e7 06 bd 0d ea 51 3d 3f 4d d2 bc fd 9f c3 bf
       -0.0329358 0.0512486 -0.0256716 -1.52832
000300 0e f3 a1 bf 4d 82 6f 3f 1f 68 c5 be bf 94 06 bd
       -1.26523 0.935582 -0.38556 -0.0328567
000310 7a 0a 57 ba 5f fd cc bb fc d4 02 bc 68 0c fe 39
       -0.000820316 -0.00625579 -0.00798535 0.000484559
000320 51 b0 90 3d bd 6f 14 3f d7 31 5e be 45 83 64 be
       0.0706488 0.57983 -0.216987 -0.223157
000330 7d e6 81 bd 90 88 84 3d b2 2f 19 bf 25 58 c8 bf
       -0.0634279 0.0647136 -0.598384 -1.56519
000340 ac e4 f3 3e 64 74 a0 be cf 2b c3 3d 9b 8f 2f 3f
       0.476354 -0.313388 0.0952984 0.685785
000350 96 3f 47 bf d8 7f 2d 3e 36 94 b2 be 63 28 df bf
       -0.778314 0.169433 -0.348787 -1.74342
000360 53 59 16 3c f6 1b 37 bc 78 8f 6a 3a dd 5b 31 3d
       0.00917657 -0.0111761 0.000894777 0.0433005
000370 38 6b b0 3c 64 07 55 3e 47 1c 0a bf 7d ae f6 3e
       0.0215355 0.208036 -0.539494 0.4818
000380 7b 67 24 bf f7 2a 68 3d eb 1d fe 3e 57 21 15 be
       -0.642204 0.0566816 0.496322 -0.145635
000390 44 52 6b 3e ad 15 2d bf 7b be e6 3d 5b 44 70 3f
       0.229806 -0.676112 0.112668 0.938543
0003a0 6b 60 ef bf 85 9e 08 bd d7 67 9e 3e 9f ac 28 be
       -1.87013 -0.0333543 0.309386 -0.164721
0003b0 b8 92 a9 3f 93 8c b4 bf f1 36 25 3d 1a a6 86 be
       1.32479 -1.41054 0.0403356 -0.262986
0003c0 16 49 c0 3d ce 36 87 bf d6 4f 24 bb a6 9c c7 be
       0.0938894 -1.05636 -0.0025072 -0.389867
0003d0 c5 76 d7 bd ec d9 73 3c 0b 41 8a 3f 3d 0f 9a bf
       -0.105207 0.0148835 1.08011 -1.20359
0003e0 d7 c8 89 3d f2 b2 06 3e
       0.0672776 0.131542

2 f4 [50]
000000 c7 fe 88 bd 2d 93 d1 be b6 d7 02 3d 5b 9f 4d 3c
       -0.0668922 -0.409326 0.031944 0.0125502
000010 ea 24 eb be 77 1a c4 bc 81 3b b5 bc 1f 49 c1 be
       -0.459266 -0.0239384 -0.0221231 -0.377511
000020 7e 19 4c 3e ac b5 86 3d 4c 6d 81 be e5 ac 89 bd
       0.199316 0.0657762 -0.252787 -0.0672243
000030 2d ec 05 3f a2 09 8c be 90 13 e6 bd d8 7d 97 be
       0.523135 -0.273511 -0.112342 -0.295882
000040 d7 62 ac 3d 8a d7 2b 3c 2e 39 3a bf 50 bd 1a 3d
       0.0841729 0.0104884 -0.727435 0.0377782
000050 8a f0 b5 3d 77 f4 2f be c3 78 97 bc 2a 1c 51 be
       0.0888377 -0.171831 -0.0184902 -0.204209
000060 e5 2d 11 bc 1b 2c cc be d9 22 81 3e 9c 31 1c 3e
       -0.00886104 -0.398774 0.252219 0.152533
000070 09 71 d5 be 43 53 9b 3c b2 7f ae 3e f2 14 c8 bd
       -0.416878 0.0189606 0.340818 -0.0976962
000080 44 d9 00 3d ac ad c0 be c6 6d 14 be 1c 99 c7 be
       0.0314572 -0.376325 -0.14495 -0.38984
000090 3c 17 86 3c 80 60 ae be 90 4c 37 be 13 c1 ae bc
       0.0163685 -0.34058 -0.179003 -0.0213323
0000a0 14 93 47 3e c9 8d 97 bd 54 74 24 be 0a 65 b9 be
       0.194897 -0.0740009 -0.1606 -0.362099
0000b0 ac a9 3c 3e e6 03 52 be 2a 4f 05 bd a6 d1 04 be
       0.184241 -0.205093 -0.0325462 -0.129706
0000c0 55 be 27 3d 6b 7d d1 be
       0.040953 -0.40916

3 f4 [50, 50]
000000 cb 46 2d 3b df 7e 8a bc a8 d1 9a 3c 59 f5 5e bd
       0.00264399 -0.0169062 0.0188988 -0.0544332
000010 26 fd 1d 3d 02 c2 3d 3c 94 a1 ea bc fc 01 2a bd
       0.0385715 0.0115819 -0.0286415 -0.0415058
000020 c7 f7 22 bc b4 60 3d 3c ca 17 b4 bc ff ff a4 3c
       -0.00994677 0.0115587 -0.021984 0.0201416
000030 94 e4 14 bc e0 ba 62 3c a0 b0 3c bb 94 91 09 bd
       -0.0090877 0.0138385 -0.00287918 -0.0335861
000040 7a ad 80 bb e0 23 4c bd 6e 48 68 bd a5 f0 c5 bb
       -0.00392693 -0.0498389 -0.0567097 -0.00604065
000050 85 97 e0 bc 60 08 14 bd 89 8e 0e bd cd 12 13 bd
       -0.027416 -0.0361408 -0.0348039 -0.0359066
000060 eb f1 0c bc 91 5a 0d bd 6f f8 18 3d 6f f3 a5 bb
       -0.0086026 -0.0345102 0.0373463 -0.00506442
000070 79 56 f7 bc 62 9b 39 bd 70 78 81 bc 2a 80 73 3c
       -0.0301926 -0.0453142 -0.0158045 0.0148621
000080 11 04 a3 bc d2 c8 06 3c fa 19 e8 3c 91 9b 9f 3a
       -0.0198994 0.00822659 0.0283327 0.00121771
000090 1b d7 3f 3c fa 6e e9 3c 59 a5 74 bd 80 65 25 bd
       0.011709 0.0284953 -0.059728 -0.04038
0000a0 fb ed 08 3b 47 27 22 3c 3b 89 6d bd 05 b9 70 bd
       0.00208938 0.00989706 -0.0579922 -0.0587702
0000b0 c2 30 00 bd 7b 5c 65 3c d2 ce 9f 3c b0 b4 42 3c
       -0.0312965 0.0139991 0.0195078 0.0118839
0000c0 93 1c b0 3c a2 d7 d9 3b 8d b4 d0 bf 10 40 ba c0
       0.021498 0.00664802 -1.63051 -5.82032
0000d0 1e 35 e6 3e c4 ce 28 bf 56 d4 28 c0 e9 4f 51 bb
       0.449624 -0.659405 -2.63796 -0.00319385
0000e0 43 ca c3 bf 6c 78 74 c0 b5 70 d1 be 90 bd 86 bf
       -1.52961 -3.81985 -0.409063 -1.05266
0000f0 b9 a4 6f bd e8 4d dd 3f f5 9e ea 3e 2f 17 b9 be
       -0.0585067 1.72894 0.458244 -0.361505
000100 1f 68 a1 bf 13 61 55 c1 9a cc 18 3f 0a 4b d8 bf
       -1.26099 -13.3362 0.596872 -1.68979
000110 16 fb ef 3f b6 85 6b bf d1 7a f8 be 63 9a c1 be
       1.87485 -0.920009 -0.485312 -0.378131
000120 5a c8 6d 3c 5d e0 c2 3e 3e 1a f3 bc fa 63 b2 3e
       0.0145131 0.380618 -0.0296756 0.348419
000130 a0 4e 81 be 5f 56 a2 3d a0 34 70 3f 9e ef 0b c0
       -0.252553 0.0792663 0.938303 -2.1865
000140 67 fe 27 bd 9f c8 83 bf 2e 02 63 3f 92 ae e1 bf
       -0.0410141 -1.02956 0.886752 -1.76314
000150 f9 f8 78 bf 1c 99 fb bf a1 4c 43 be 07 99 90 bf
       -0.972549 -1.96561 -0.190722 -1.12967
000160 43 38 0e 3f 60 d1 c6 3a d3 f5 64 3e cd e7 0c 3e
       0.555546 0.00151686 0.223594 0.137603
000170 a4 8d 27 bf d4 b7 a8 bf 06 2c 71 bf 5e 2e 0a bf
       -0.654505 -1.31811 -0.942078 -0.53977
000180 0d fc 78 be 5e 9e 5e bf ee cd cf be 26 70 9d c0
       -0.243149 -0.869604 -0.405868 -4.91994
000190 d9 5f 8e bf 9f 93 5e 3c 7d 79 f5 bf 3d 99 f7 3e
       -1.1123 0.013585 -1.91777 0.483591
0001a0 1e 6d 2c 40 6c e8 8b 3c 49 a2 bf c0 87 33 f3 3f
       2.69416 0.0170786 -5.98856 1.90001
0001b0 d0 0a 1e c0 bd a6 5b 3f ab 92 c8 bd 3a 75 e5 bf
       -2.46941 0.858013 -0.097936 -1.79264
0001c0 9d f2 b0 be dc 2e a0 3f 83 86 b6 3f 3f 35 aa bf
       -0.345601 1.25143 1.42598 -1.32975
0001d0 da 55 6a c0 ab 04 5b 3f ec 6c c8 3e b6 db 0e 3f
       -3.66149 0.85554 0.391456 0.55804
0001e0 9d f4 9e bf bb ee 3d 3e 13 8f 15 3d 94 29 ab bd
       -1.24184 0.185481 0.0365134 -0.0835754
0001f0 74 68 09 bb 3b 51 37 3c d1 57 b8 be 54 a9 45 bf
       -0.00209668 0.0111888 -0.360045 -0.772115
000200 98 a3 5f bf 37 4f a5 3f d7 a3 24 c0 66 4c 21 bf
       -0.87359 1.29148 -2.5725 -0.630072
000210 72 69 c1 3d d8 f0 ac 3f f5 85 e0 3e 8b dd 23 3d
       0.0944394 1.3511 0.438522 0.0400062
000220 4b b0 54 bf 41 0c 57 3b 15 c9 f7 bd 64 8d 82 3b
       -0.830815 0.00328137 -0.120989 0.00398414
000230 08 20 d1 bf 01 fb 87 c0 b5 4f 0f 40 72 fc a0 be
       -1.63379 -4.24939 2.23924 -0.314426
000240 30 bb 0b 40 63 d1 ac bf dd 9c 25 bc f5 be 01 40
       2.1833 -1.35014 -0.0101082 2.02728
000250 c6 84 ad bd 5e 95 15 3d 1a 35 0f 3e 9f 71 c1 3e
       -0.0847259 0.0365194 0.139851 0.37782
000260 b5 a9 1a 3e be 83 bf 3e 26 f8 8b bc ea 4a 3a 3c
       0.151038 0.374052 -0.0170861 0.0113704
000270 37 a9 80 be d4 49 1a 3f 42 23 d8 be df 15 91 bf
       -0.251291 0.602689 -0.422144 -1.13348
000280 d0 b4 00 3f 84 9a 01 3d 4a 07 83 be be 9f fa 3d
       0.502759 0.0316415 -0.255915 0.122375
000290 25 7a 99 bd 0e 11 2f 3f 95 ef 79 be 1d ca 20 bf
       -0.07494 0.683854 -0.244078 -0.628084
0002a0 0e bc fa bd 5c 77 8b bf c5 e3 06 bf 6f 65 19 3e
       -0.122429 -1.08958 -0.526913 0.149801
0002b0 b5 31 19 bc c3 2a 8e bf 69 7c 95 3c 1a 36 ca 3e
       -0.00935023 -1.11068 0.0182478 0.394944
0002c0 5b b6 8a c0 ff 92 dc 3e 15 bf 8e bc 3b a8 64 3e
       -4.33476 0.430809 -0.0174251 0.223298
0002d0 70 94 04 3f 5a 2b fa 3d 78 43 02 bf 80 48 ff 3e
       0.51789 0.122153 -0.508842 0.4986
0002e0 4c a7 75 be fd 63 06 3d 94 6c c5 3e ae 12 0c 3e
       -0.239896 0.0328102 0.385594 0.13679
0002f0 fc a6 20 be 5f 8a 9f 3b 99 c6 a5 3c 68 18 b8 3d
       -0.156887 0.00486879 0.0202363 0.0898903
000300 df dd 1a bf 50 df 6a bf 28 9b 62 3f ec a6 74 3e
       -0.604948 -0.91747 0.88518 0.238918
000310 31 b4 5a be 1e fe 2a be 95 82 0d bc b8 1f 80 3e
       -0.213578 -0.166985 -0.00863709 0.250242
000320 80 9d 13 3f 8b 6c 0f c0 41 f1 d3 be f5 9c a8 bf
       0.576622 -2.241 -0.41395 -1.31729
000330 bf 61 1e bf ad 22 82 3d f4 8c 55 bf c7 d7 a6 bf
       -0.618679 0.0635427 -0.834182 -1.30346
000340 f8 fc c8 be 37 1a 20 c0 7d 3c 95 bb 7e c6 57 c0
       -0.392555 -2.5016 -0.00455433 -3.37149
000350 20 97 38 3e 02 b7 b6 3f 38 4a 92 bf 20 ef cd be
       0.180264 1.42746 -1.14289 -0.402215
000360 4d 10 95 be fe d4 f4 bf 44 17 f0 bf 8a c7 41 bf
       -0.29114 -1.91275 -1.87571 -0.756951
000370 5b d1 76 be de 1c 5e 3e ce dc 28 3d 78 b9 58 3e
       -0.241033 0.216907 0.0412262 0.211645
000380 bc 32 7b 3a be da c9 3e 6d ca a9 bf c6 a3 84 be
       0.000958245 0.394247 -1.32649 -0.259062
000390 db e0 40 3f 3b c5 2a be cd ce 22 3f d8 81 63 be
       0.753431 -0.166768 0.635968 -0.222175
0003a0 ee 5c 2c 3f 23 be bb 3f 2a 11 b2 bc d9 d1 30 bf
       0.673293 1.46674 -0.0217367 -0.690702
0003b0 09 6c 52 bf 6b 9f 04 c1 3f 3a 1d 3f dd 80 2a 3d
       -0.821961 -8.28892 0.61417 0.0416268
0003c0 e3 98 db bc 55 34 06 bf 83 30 13 3f 03 d0 34 bf
       -0.0268063 -0.524236 0.574959 -0.706299
0003d0 9c a4 39 be a9 88 7f 3f 28 2c 71 bf 3c 4d 3a 3f
       -0.181292 0.998179 -0.94208 0.727741
0003e0 37 a8 fd 3d 88 7f 88 3e 19 54 2b be fd 53 a5 bd
       0.123856 0.266598 -0.167313 -0.0807266
0003f0 de ae 0b 3f 3d d1 41 3f 67 9e 28 bf e1 9d 17 3d
       0.545637 0.757099 -0.658667 0.0370158

4 f4 [50]
000000 cc 0c db bc e6 e8 99 3f e6 76 8f 3d 70 d4 48 bb
       -0.0267395 1.20242 0.070051 -0.00306442
000010 15 a9 98 3f a1 4a 81 bf 75 55 54 bf 62 21 04 bd
       1.19266 -1.01009 -0.829429 -0.0322584
000020 2b 4b a4 be e3 6b 63 3f 3a d8 51 bc 9e 26 13 bf
       -0.320886 0.888365 -0.0128079 -0.574808
000030 45 42 80 bc 8c b9 c3 3e 2e ff a1 3f ba 14 af be
       -0.0156566 0.382275 1.2656 -0.341955
000040 2d 24 80 bd e0 2d 8c bf 73 f4 84 3f d0 d0 2b 3f
       -0.062569 -1.09515 1.03871 0.671155
000050 ee 15 07 3d c3 28 88 be cd 75 d2 bf 6e c0 cf 3e
       0.0329799 -0.265936 -1.64422 0.405765
000060 6f c0 82 bc dd 08 eb 3e 04 1c a2 3f 07 e2 c4 bb
       -0.0159609 0.459052 1.26648 -0.00600839
000070 01 a1 8d 3e c2 84 01 3e aa 45 94 3e 33 a6 6c 3f
       0.276619 0.126483 0.289594 0.924411
000080 cd e2 aa bc ac e0 e7 3e 47 56 be 3e fc f1 08 bd
       -0.0208601 0.452886 0.371752 -0.0334339
000090 82 fd 07 3e e4 2d 67 3e 5f 5c 62 3f a7 93 8c be
       0.132803 0.225761 0.884222 -0.274564
0000a0 5e f5 a0 be c3 0d b0 be 1a e2 33 3c 30 d9 18 be
       -0.314372 -0.343855 0.0109792 -0.149266
0000b0 9e 44 74 3e 2f 36 ed bd f0 15 7d bf fd 10 fb bd
       0.238543 -0.115826 -0.988616 -0.122591
0000c0 a9 6b 1d bf 13 90 00 bd
       -0.614924 -0.0313874

5 f4 [50, 50]
000000 22 78 b2 bc ef 70 2f 3f 77 a1 89 bf bb d4 68 bf
       -0.0217858 0.685317 -1.07524 -0.909496
000010 f6 f8 b3 3d f2 42 e2 be 88 ba 43 3f 05 f4 07 3d
       0.0878772 -0.441917 0.764565 0.0331917
000020 ee b0 79 be 4a f0 c6 bd 42 8f fd 3c 16 a4 0d 3f
       -0.243839 -0.097138 0.0309521 0.553285
000030 49 90 80 bc 4f 07 e2 3e 0d e2 fb 3e 65 a7 53 3f
       -0.0156938 0.441462 0.491959 0.826773
000040 3e 45 a9 bc 95 1a b0 3d 77 be 9f be cb 83 18 bf
       -0.0206629 0.0859882 -0.312 -0.595761
000050 bd 3a cf be 84 2a 55 3f e0 a2 53 bf 35 d1 b7 3e
       -0.404745 0.83268 -0.826704 0.359018
000060 ec 95 03 bd b8 57 fe be 44 6c 50 be cf 04 39 3d
       -0.0321254 -0.496763 -0.203538 0.0451706
000070 63 45 ad bf 1d 02 c7 3e 37 52 3e bf 58 c5 fb 3e
       -1.35368 0.388688 -0.743442 0.49174
000080 2f c5 0f 3c 82 a8 a3 3f 84 94 a9 3c 79 4b 68 bd
       0.00877504 1.27858 0.0207007 -0.0567126
000090 9d 7f 4b 3e e2 03 b3 3e e7 c4 2e be cb 85 aa be
       0.198729 0.349639 -0.170673 -0.333052
0000a0 3d d4 2a bf a4 19 97 bf 1b bd 6a be a0 df 17 be
       -0.667301 -1.18047 -0.229237 -0.148314
0000b0 db 18 3b 3e 89 b5 a8 3f 6a d4 b8 bd a8 c8 11 3e
       0.182712 1.31804 -0.0902489 0.142367
0000c0 2d 60 8a 3e a8 73 85 bc 82 3d 21 3d 72 a4 e3 3e
       0.270265 -0.0162905 0.0393653 0.444614
0000d0 2a 1d 0c be c0 cf 80 bf 50 17 09 3e f7 06 97 3f
       -0.13683 -1.00634 0.133878 1.1799
0000e0 f7 92 a2 3f 6c 1b ab bc 5a 2b 22 bf 8a 57 39 be
       1.27011 -0.0208871 -0.633474 -0.180998
0000f0 2c e6 11 bd 7f 4d 56 3f b8 bb bd bc d3 6a 18 3f
       -0.0356199 0.83712 -0.0231608 0.59538
000100 b3 25 fb 3e fd 4e 13 bf 85 25 c6 bf 3d 2a 22 3f
       0.490522 -0.575424 -1.54802 0.633457
000110 f7 76 b3 3e bf 60 c7 3f 97 1a 7d bf e6 05 d8 3e
       0.350517 1.55764 -0.988687 0.42192
000120 a4 89 ff be 6f 2f 0b 40 10 ec d3 3c c0 ec 08 c0
       -0.499097 2.17477 0.0258694 -2.13945
000130 d3 68 26 bf ca 82 ae bc 42 09 e3 3f bd fb 2b 40
       -0.650037 -0.0213026 1.77372 2.68724
000140 a7 e0 55 bd 92 b3 84 3f 53 91 2f 3d 4b 1f 6a be
       -0.0522162 1.03673 0.0428632 -0.228635
000150 3a e6 61 bc 08 ca cd be 8d b4 a4 be c8 7b a9 3f
       -0.0137878 -0.401932 -0.32169 1.32409
000160 a3 03 56 3f 52 f0 10 3f 0b 0c 19 3f 23 9f 37 bf
       0.835993 0.566167 0.59784 -0.717272
000170 f0 16 98 3f 2d 08 11 3f a6 2a dd be 35 98 3e 40
       1.1882 0.566531 -0.431966 2.97804
000180 f7 75 dc 3f d2 1c 19 be f5 d6 90 3f 48 ef e5 3c
       1.72235 -0.149524 1.13156 0.0280682
000190 a6 56 29 3d 88 80 af 3f 14 ed da 3e 90 da 80 3f
       0.0413424 1.37111 0.42759 1.00667
0001a0 bc 5b a1 3e 2b 6e 20 bf e4 84 25 3f 20 2c fe 3c
       0.315153 -0.626681 0.646559 0.0310269
0001b0 be 8c ad 3d 6c e2 c9 3c c4 7d 20 3c 89 24 e2 3f
       0.0847411 0.0246441 0.00979561 1.76674
0001c0 4e e0 2c bd 52 44 be bf 68 96 b8 bf 50 c2 dc bf
       -0.0422061 -1.48646 -1.44209 -1.72468
0001d0 b5 6b 6a 3f d4 48 97 bf 65 8e c5 be 6e 66 59 3d
       0.915706 -1.18191 -0.385852 0.0530762
0001e0 cf 3b c6 bb ce 70 af 3f 3e 20 08 bf 57 43 6e 3f
       -0.00604961 1.37063 -0.531742 0.930715
0001f0 32 35 0d 3b 95 b6 08 3e 0e 15 d3 3f 60 72 48 bd
       0.00215466 0.133509 1.64908 -0.0489372
000200 3a 75 b5 3f 37 e1 66 bf f9 82 be be e2 b1 17 3f
       1.41764 -0.901874 -0.372093 0.592558
000210 ec be a3 3c 5d a5 1b 3e de 24 61 3c 92 74 d9 3f
       0.0199885 0.151998 0.0137417 1.69887
000220 4f 05 34 bf 3e e8 89 3f ca 54 89 bf be 87 2f 3f
       -0.703206 1.0774 -1.0729 0.685665
000230 ad 69 8a bf dd 41 d0 40 d6 6e 87 bf 68 91 9d bf
       -1.08135 6.50804 -1.05807 -1.231
000240 be bf 41 be 02 d4 50 40 25 c3 dc 3b b4 e6 c7 3e
       -0.189208 3.26294 0.00673713 0.390432
000250 81 ec dd 3e 97 f3 16 bd 62 a6 c8 3b 38 86 b8 3e
       0.433445 -0.0368534 0.00612335 0.360399
000260 90 d8 1e be 9f b0 84 3e 7e c6 75 3e 0d 28 85 bd
       -0.155123 0.25916 0.240015 -0.0650178
000270 3f 56 d0 3d 63 e8 1e bb 65 c2 87 3e 42 b1 f5 3d
       0.101727 -0.00242474 0.265155 0.119967
000280 65 39 64 bc 95 09 64 bc 1f 91 e5 bc 25 40 bd 3e
       -0.0139297 -0.0139183 -0.0280233 0.36963
000290 1c a7 52 bd d5 93 49 3e da 90 63 bf 2e 79 a7 3d
       -0.0514289 0.196853 -0.888929 0.0817741
0002a0 7a 17 e7 be 6b f0 4e 3e cb 9f f7 3e 42 40 3e bf
       -0.451351 0.202089 0.483641 -0.743168
0002b0 c2 11 c9 3c a1 64 ba 3e 8c 5a eb 3c 0a 75 c7 bd
       0.0245446 0.364049 0.0287297 -0.0973912
0002c0 82 aa 41 3e 31 8a 12 3c 39 97 a6 3f 0e a3 e0 3d
       0.189127 0.00894408 1.30149 0.109686
0002d0 b7 ed 7b 3e 35 1e a1 3d 21 02 8e 3c 34 08 fb 3b
       0.246024 0.0786709 0.017335 0.00766089
0002e0 4a 31 56 3d d0 0d 5d be 1e a9 de 3e f1 f4 82 3f
       0.0522931 -0.215873 0.434884 1.0231
0002f0 de dd 6f 3c 3e 04 dd be 18 22 87 be 8c 9d 04 3f
       0.0146403 -0.431673 -0.263932 0.518029
000300 76 8c 3b 3f ba d7 39 be 39 b6 9e be c0 cf 78 3f
       0.732612 -0.181487 -0.309984 0.97192
000310 0a 4d c2 3e 85 94 9f 3e 61 a5 ca 3e ee 84 8d 3c
       0.379494 0.31168 0.395793 0.0172753
000320 f9 58 30 bd 21 94 07 be d1 c9 72 be 60 93 45 3e
       -0.0430536 -0.132401 -0.237098 0.192945
000330 42 59 9d bd e7 ea bd bd f8 a7 a4 be db 8e c2 3b
       -0.0768304 -0.0927332 -0.321594 0.00593744
000340 f9 f4 d0 be 14 da b8 bd cf fc 45 3d b0 56 95 be
       -0.408119 -0.0902597 0.0483368 -0.291677
000350 83 63 fb 3c f4 df a4 3b 28 9d 28 bd dd 9a 74 3e
       0.0306871 0.00503158 -0.0411655 0.238872
000360 c0 4e 1b 3d f5 2d 0f 3f 64 08 7b 3d 01 18 c7 be
       0.0379169 0.559295 0.0612873 -0.388855
000370 d1 a1 b2 bd 52 63 12 be e4 db 6b 3e cf 49 ef 3e
       -0.0872227 -0.142957 0.230331 0.46736
000380 2d 08 25 3d 8a 22 04 be 1a f9 1c be 78 f9 8c bc
       0.040291 -0.129038 -0.153294 -0.0172088
000390 81 3b b5 bc e9 2a ad be ab 96 84 3e a6 e0 3f 3d
       -0.0221231 -0.338218 0.258962 0.0468451
0003a0 3b bc 31 bc dc 2d 09 3e 18 e5 8e 3d 86 2b d6 3c
       -0.0108481 0.133964 0.0697729 0.0261438
0003b0 bc 3b 02 3e 20 5f 8a 3e 3d 98 9c be 69 fd 1d 3e
       0.127181 0.270257 -0.305849 0.154287
0003c0 f3 76 64 bd 09 50 a3 bf 3a e9 0d be 1e f9 bb 3e
       -0.0557775 -1.27588 -0.138585 0.367135
0003d0 59 31 5c bd be 6a 81 3f 55 f8 d3 3e db 7a 17 bd
       -0.053758 1.01107 0.414004 -0.0369824
0003e0 57 5d ff be 53 4d 5a bc 3a c3 19 bd a8 00 24 3f
       -0.498759 -0.0133241 -0.0375397 0.640635
0003f0 5a a0 69 3f 84 4a 68 3f 07 eb 1f bf 2a 22 20 3c
       0.912603 0.907387 -0.62468 0.00977377

6 f4 [50]
000000 28 d7 ac 3e 0b 0d 34 3e e6 5c 66 bf 29 79 ad bf
       0.337579 0.175831 -0.899855 -1.35526
000010 16 17 23 3f 10 40 b6 bf 49 9d 88 3f 8d 5e 35 bf
       0.637071 -1.42383 1.0673 -0.708474
000020 a8 6f b5 bf 81 3e f1 bd 5b 94 a1 3f 31 3f 03 3f
       -1.41747 -0.117795 1.26234 0.512683
000030 d5 78 09 c0 93 1c a0 3e 38 e2 44 bd 2b 30 60 bf
       -2.148 0.312718 -0.0480673 -0.875735
000040 70 ee 5f be 3e b0 9b 3e 66 13 60 bc f9 be 0c 3f
       -0.218683 0.304079 -0.0136765 0.549789
000050 44 16 a9 3e 65 20 8a 3d 90 83 0c c0 98 fb 04 bf
       0.330248 0.0674446 -2.19553 -0.519464
000060 15 c6 76 be a4 70 c1 bf a0 1a 9f be 7c 9b 2e be
       -0.24099 -1.51125 -0.31075 -0.170515
000070 9e 96 1f 3e 14 22 6c bf d1 11 8e bb 9e 4d bd 3c
       0.155848 -0.922395 -0.00433562 0.0231083
000080 6a 4f b9 3d 9e 29 8c bf b7 90 51 3d ae 5d 8f bd
       0.0904835 -1.09502 0.0511634 -0.0700029
000090 37 4f a5 bf 3d cc c5 bb 67 bc 88 3d 5d 86 07 3f
       -1.29148 -0.00603631 0.0667656 0.529394
0000a0 9a 98 96 3e ed d3 cd 3f 33 a4 ba bd 72 a7 c4 bf
       0.294133 1.60803 -0.0911335 -1.53636
0000b0 e1 97 14 c0 3f 55 8d be 01 67 ae bd 74 e3 b7 bd
       -2.32177 -0.276041 -0.0851574 -0.0897893
0000c0 96 3d 19 3f af 7a 40 3e
       0.598596 0.187968

7 f4 [50, 50]
000000 1b be fd be ac 8e 08 bf c9 c8 57 40 fb e9 2f 3e
       -0.495591 -0.533427 3.37163 0.171791
000010 99 81 7a be 70 cf e3 be 89 d2 4a bf c4 ce ac be
       -0.244635 -0.444942 -0.792275 -0.337515
000020 62 f3 71 3e de 3d 0c 3f 46 07 34 be 84 d8 17 40
       0.23628 0.547819 -0.175809 2.37259
000030 ec a3 e3 bf c0 95 98 3f 66 6c 08 be f1 4b 81 40
       -1.77844 1.19207 -0.133226 4.04052
000040 5e 80 51 c0 8f a8 f0 bd 25 5d c3 be 6c 5b c8 3f
       -3.27346 -0.117509 -0.38157 1.56529
000050 8c ba 06 3e e4 dc be 3e 4e 7f e6 bf c2 2f 63 40
       0.131571 0.372779 -1.80076 3.54979
000060 28 0a 98 3f 21 74 a8 be 74 24 13 40 8e 01 d1 3f
       1.18781 -0.329011 2.2991 1.63286
000070 21 74 10 3e c6 a2 33 40 53 40 5a 3d 59 34 6d 3e
       0.141068 2.80681 0.053284 0.231645
000080 83 30 67 bf 4b cd 16 bf 79 75 16 3f b7 d5 47 3d
       -0.903084 -0.58907 0.58773 0.0487878
000090 da aa 14 3f c9 47 21 bd 14 da 10 3a bd 35 28 bf
       0.580732 -0.0393751 0.000552566 -0.65707
0000a0 24 45 b8 bf f2 42 a2 be 33 8c 4f bf b5 32 e5 3f
       -1.43961 -0.316917 -0.810733 1.79061
0000b0 a9 de 22 40 76 c3 82 3f ae f2 0c 3f 34 b9 50 bf
       2.54484 1.02159 0.550578 -0.815326
0000c0 dc 46 f7 bf 04 e6 5d 3f e9 d4 d5 3e 9d 9c 41 3e
       -1.93185 0.866791 0.41764 0.189074
0000d0 d6 ac 5b 3f ad 8a e0 3e 5a f6 cc be dd b2 b3 be
       0.858106 0.438558 -0.400317 -0.350974
0000e0 37 dd 22 3e 13 b8 c5 3e 67 44 94 c0 6e f9 80 be
       0.159047 0.38617 -4.63335 -0.251903
0000f0 30 39 94 bd b4 ff 96 3d 6d 56 81 3f a6 b8 86 3f
       -0.0723747 0.0737299 1.01045 1.05251
000100 7e 73 57 bf c9 ef c3 bd 2c 65 e1 3f f5 f7 f2 be
       -0.841606 -0.0956722 1.7609 -0.474548
000110 59 49 50 bc 8f c6 71 be c3 64 c2 bf e8 dc 11 3f
       -0.0127128 -0.236109 -1.5187 0.569777
000120 0f ee 9e bf 85 08 c8 3f 5c 1b 46 3f e0 69 82 3e
       -1.24164 1.56276 0.773855 0.254714
000130 00 e3 9d bf 66 f7 5c 3f 37 ae 9a 3c da 72 32 3f
       -1.23349 0.86315 0.0188819 0.697065
000140 df a5 f4 3d 91 e1 c7 3d 94 a4 97 3f 9c a2 37 3f
       0.119457 0.0975982 1.18471 0.717325
000150 9a 7d 12 bf 4e b2 f6 3b 3a b1 23 bf bb 9b 27 3c
       -0.572229 0.00752858 -0.639423 0.01023
000160 2e e6 f7 be f2 61 06 3f e7 d5 aa 3d 44 31 19 3e
       -0.484178 0.524932 0.0834158 0.149602
000170 7c 0d e9 be 31 3f 67 3e 10 41 75 3e 3b f6 5d bd
       -0.455181 0.225827 0.239506 -0.0541899
000180 ff e9 be be 49 43 52 3d ce 19 99 3f ee 41 c0 be
       -0.372879 0.0513337 1.1961 -0.375503
000190 18 93 e6 3e da aa e4 bd dd 42 df be e1 b2 3a 3e
       0.450341 -0.111654 -0.436057 0.182323
0001a0 be 30 f5 3f 48 ab a5 bd 69 aa 47 bf 7b 10 3a 3f
       1.91555 -0.0808931 -0.779944 0.726814
0001b0 6a 6a 85 3f ab 77 34 bf 49 2a 63 be 9b c7 81 3e
       1.04231 -0.704951 -0.221841 0.253476
0001c0 38 2d 3a 40 00 8d 82 3e 99 7e 19 3e 7e 7e 9e bd
       2.90901 0.254982 0.149897 -0.0773897
0001d0 54 3a b8 bf f3 71 85 3f 30 2c 03 bf 0d 6f d6 bd
       -1.43928 1.04254 -0.512393 -0.104704
0001e0 d1 cb e4 3f f8 19 d7 bd 83 31 3e 3f 6e 69 bd bf
       1.78747 -0.10503 0.742943 -1.47978
0001f0 d2 1d 84 3f aa 60 60 3f 5b 99 90 3f fa 7d 6f 3f
       1.03216 0.876475 1.12968 0.935516
000200 eb 8c cf be 9a fb 95 bd 4a 6d 18 bd 17 0c ee 3e
       -0.405372 -0.0732338 -0.0372136 0.464936
000210 a0 c3 f0 3f e0 f5 15 bf 1f 97 5d 3c 78 d3 2d bf
       1.88097 -0.585783 0.0135248 -0.679008
000220 9e 61 8a be 14 b8 10 3c dd 09 1e bf f8 c3 cf 3d
       -0.270276 0.00883295 -0.617338 0.101448
000230 fa ec 58 3f dd e6 92 3d 64 23 9c 3f 61 a6 91 3f
       0.847366 0.0717294 1.21983 1.13789
000240 be a4 a5 3f 70 42 a1 3e 2a 8c 09 3f 8d b6 da be
       1.29409 0.31496 0.537295 -0.427174
000250 42 d1 04 3f c3 2a 8e be 2d d4 a5 3d 0d c4 0e 3f
       0.518818 -0.27767 0.0809711 0.557679
000260 3f 00 5d c0 8e 92 cf 3f bd e2 d9 be 7d 8a 9d bd
       -3.45314 1.62166 -0.425558 -0.0769243
000270 dd a8 5f 3c 51 6a 57 3f 87 4f 1e 3f 16 50 c0 3e
       0.0136511 0.841466 0.618401 0.375611
000280 7a c2 d2 3d a0 6e 28 3f 11 fd 4a 3e e6 a9 93 bd
       0.10291 0.657938 0.198231 -0.0721014
000290 be 2d 34 3f 14 3e 7b be 66 f7 c0 3f a1 d8 ba bd
       0.703823 -0.245354 1.50755 -0.0912335
0002a0 50 e1 c0 be f6 43 9c be 7f a0 6c 3e 3a ad 4b 3f
       -0.376719 -0.305206 0.231081 0.795612
0002b0 57 60 38 bf b6 a0 77 3e c5 ac 8b 3f 89 0b d0 3e
       -0.72022 0.241824 1.09121 0.406338
0002c0 ed 28 2e 3e 1f f1 50 bc 32 55 80 bf de 21 51 bf
       0.170078 -0.0127528 -1.0026 -0.816923
0002d0 b6 be e8 3d 2c a4 d7 bc 76 34 4e 3f 86 20 b7 3f
       0.113645 -0.0263234 0.805488 1.43068
0002e0 2a f4 4b 3d 21 01 23 3e 83 a3 f0 bf a7 a7 14 3d
       0.0497934 0.159184 -1.87999 0.0362927
0002f0 fb e6 32 3f a5 31 e2 3e 4a 09 b9 3e 08 58 fb 3e
       0.698837 0.441785 0.361399 0.490906
000300 18 2e 61 bc 58 e4 3f 3f 4f f5 ba 3d 5f 27 75 3e
       -0.0137439 0.749578 0.0912882 0.239408
000310 a2 98 4c be 92 23 7d be fd dc f0 be ba d7 0d bf
       -0.199801 -0.247206 -0.470436 -0.554073
000320 43 39 e1 3e eb 57 ca 3d d2 e3 93 3f 1e e2 f7 3e
       0.43989 0.0988005 1.15539 0.484147
000330 ab 3e 13 40 55 89 0e bf 51 dd 18 3f c9 ff 48 3f
       2.3007 -0.556783 0.597127 0.785153
000340 4d d6 a4 3f 13 b8 a5 bf b4 3e d5 3e 18 ee ac 3e
       1.28779 -1.29468 0.416494 0.337754
000350 23 15 2e 40 3c 50 27 3f 16 de c5 3f d6 c6 a0 be
       2.72004 0.653568 1.54584 -0.314017
000360 18 60 cb bf 26 3f bd 3c 8d 62 49 be 9e 24 81 bf
       -1.58887 0.0231014 -0.196665 -1.00893
000370 2d 07 aa 3e ef 20 9a bf d2 72 50 be cb 84 03 c0
       0.332086 -1.20413 -0.203563 -2.05498
000380 d7 17 d9 3f a5 83 bd bf 62 9e b5 be a7 77 45 bf
       1.69604 -1.48058 -0.354724 -0.771357
000390 1c 5d 95 be ea 23 e8 3e 8e 5c 92 bd 4b 5b 74 3f
       -0.291726 0.453399 -0.0714656 0.954518
0003a0 63 b9 0b 40 02 63 4d be c1 37 cd 3d 37 fc 8e be
       2.18319 -0.200573 0.100204 -0.279268
0003b0 98 5c bb bc 11 42 b6 bc 5a bb 9d bf 75 3e 10 bf
       -0.0228713 -0.0222483 -1.23228 -0.563453
0003c0 a7 02 2e 3e b0 55 b2 bf 12 17 00 3f 9f 8e eb 3f
       0.169932 -1.39324 0.500352 1.84029
0003d0 76 c1 f8 3e 91 f2 cf 3f 7d 04 4a 3f 27 be 26 3f
       0.485851 1.62459 0.789131 0.651339
0003e0 de 71 ca 3e 57 7c 3f 3f 72 8b 99 be 37 fd f9 3d
       0.3954 0.747991 -0.299892 0.122065
0003f0 66 a5 64 bd c6 8a 7a 3f a6 d0 09 be 98 cd 92 3c
       -0.0558218 0.97868 -0.134585 0.0179203

8 f4 [50]
000000 f0 16 e8 bf e2 3b a9 bf cf 83 bb 3c bf 2b ce bf
       -1.8132 -1.32214 0.02289 -1.61071
000010 df 32 b3 3f e2 75 b9 bf 67 2b 2f bf 96 e7 9d 3f
       1.39999 -1.44891 -0.684256 1.23363
000020 39 d1 4e 3e 50 8d 57 bf ce 88 24 40 1e 33 50 be
       0.20197 -0.842 2.57085 -0.20332
000030 42 94 63 bf f4 4d fa be 4d d7 7f bf d4 b7 80 3f
       -0.888981 -0.488876 -0.999379 1.00561
000040 7e 57 16 c0 8d 7a f8 3f e9 2b fc 3f 6b 2c 75 bf
       -2.34909 1.94124 1.97009 -0.957709
000050 c6 6b b6 be 96 c5 69 bd 60 e9 38 bf 39 98 2d 3d
       -0.356291 -0.0570732 -0.722311 0.0423815
000060 48 fe a0 bc f3 1b 1e 3f 3b e1 95 be 1c ce 88 3f
       -0.0196525 0.617614 -0.292734 1.06879
000070 e2 e9 ad bf da 03 57 c0 33 e1 eb bf 9a 78 73 bf
       -1.3587 -3.35961 -1.84281 -0.951059
000080 98 db 5d 3e 2b a4 c4 bf 47 ac d9 3f 84 83 7d bf
       0.216658 -1.53626 1.70057 -0.990288
000090 d4 2b 4f c0 52 61 9c bf 66 f8 4f 3e 31 78 00 bf
       -3.23705 -1.22172 0.203096 -0.501834
0000a0 83 db 06 3f fb 79 07 3f 9d 66 a1 3e 50 6e ab be
       0.526787 0.529205 0.315236 -0.334826
0000b0 9c bf 09 c0 5b b1 17 40 84 7e 06 3f 0c ca d4 bd
       -2.15232 2.3702 0.525368 -0.103901
0000c0 d1 3f 81 3e eb 3b da bc
       0.25244 -0.0266399

9 f4 [50, 50]
000000 cb 67 09 3f f4 88 b1 be 3e ca 28 3e 48 a3 12 bf
       0.53674 -0.346748 0.164834 -0.572804
000010 72 34 87 3e f8 19 1d 40 e1 7c 6a 3e 99 f1 d6 3d
       0.264072 2.45471 0.228992 0.104953
000020 13 d7 01 3e 6b d2 cd be d8 82 2e be ba 11 86 be
       0.126797 -0.401996 -0.170421 -0.261854
000030 e4 f6 67 bf 52 0f f9 bf d8 d6 b7 be 37 ff 5b bf
       -0.906111 -1.94578 -0.359061 -0.859363
000040 4b 1f 3a bc d7 f9 17 be e1 7a f4 3e 6a 6d 6a 3e
       -0.01136 -0.148414 0.4775 0.228933
000050 4e 97 ad 3f 54 e6 06 bd 18 3e 16 c0 2c 22 0f bd
       1.35618 -0.0329345 -2.34754 -0.0349447
000060 06 9d 0c 3f 95 45 01 be 57 04 3f be f7 93 d1 be
       0.549271 -0.126242 -0.18654 -0.409332
000070 a0 d9 ca bd 03 6d bc 3c ac 72 35 bf a8 72 4a bf
       -0.0990479 0.0230012 -0.708781 -0.790812
000080 1c cf 8f be 20 1f 39 3d 37 ef 6e bc d9 97 4c 3e
       -0.280877 0.0451957 -0.0145834 0.199798
000090 7a a9 60 3f 9d 7f 27 3f bd fc 6e be dd ea c9 3e
       0.877586 0.654291 -0.233386 0.39437
0000a0 b3 6a b6 bd 60 e7 e6 bd 98 75 15 bd 98 86 a1 3e
       -0.0890707 -0.112746 -0.0364891 0.31548
0000b0 e6 06 83 be 00 e5 7f be e5 b8 a7 3f 86 59 20 bf
       -0.255912 -0.249897 1.31033 -0.626366
0000c0 cc b8 09 3e eb 10 8b 3a 2c 61 01 3f 9e b4 30 3e
       0.134494 0.00106099 0.505389 0.172564
0000d0 30 9e 81 bc 3d 0b fa be 9b 3c 19 bf b9 8a bd 3e
       -0.0158225 -0.488367 -0.598581 0.370199
0000e0 78 ee 7d bf 81 5b b7 bf f8 7c 5e 3d 60 5a 8c be
       -0.99192 -1.43248 0.0543184 -0.274127
0000f0 0c b1 da 3e c2 da 58 3e c1 8b 8a bf 6a c1 17 3f
       0.427132 0.211772 -1.08239 0.592795
000100 16 a1 7d bc 87 a8 9a 3e 79 1e 80 3f 1b b9 ce bd
       -0.0154803 0.302067 1.00093 -0.100939
000110 30 9d 26 bf a2 98 bc 3e 90 14 29 c0 7a cb 30 3d
       -0.650836 0.368352 -2.64188 0.0431628
000120 b6 d7 23 3a 0d 65 32 3d ab 94 a6 3e 69 71 4a bf
       0.00062501 0.0435534 0.325353 -0.790793
000130 4a 82 bb 3d 64 93 fc bc 4a 99 3c 3f 8e b2 7e 3c
       0.0915571 -0.030832 0.736714 0.0155455
000140 af 42 fa bf 55 bd 9c be a3 3c 43 be 78 29 09 bf
       -1.95516 -0.306132 -0.190661 -0.535789
000150 4c de a8 be 8e 94 1d 3e c7 d1 ff 3b c6 85 23 bf
       -0.329821 0.153887 0.00780699 -0.63876
000160 ad c3 d1 3e d0 7c 5e be 8a 30 af 3d bb f2 57 c0
       0.409696 -0.217273 0.0855418 -3.37419
000170 e0 b9 f7 bf 93 1e de be ce ff 6b 3d 36 01 3a bf
       -1.93536 -0.433827 0.057617 -0.726581
000180 a5 66 5b bf f3 c9 16 bf 5a 64 8b 3f 28 23 73 3d
       -0.857035 -0.589019 1.089 0.0593597
000190 c7 e4 83 3c f9 bb 98 3b b9 41 a3 bc 1e c3 23 bd
       0.0161003 0.00466108 -0.0199288 -0.039981
0001a0 52 04 02 bd 67 9e 1c bd f6 62 c3 3c 60 0f 5c bc
       -0.0317424 -0.038237 0.0238509 -0.0134314
0001b0 da 3e 7f bd 78 6d 25 bd ef 15 42 bd d3 a6 45 bc
       -0.0623158 -0.0403876 -0.0473842 -0.0120637
0001c0 52 a2 60 bd 31 ab 61 bd 7f 7f ef bc af f5 3b bd
       -0.0548423 -0.0550949 -0.0292356 -0.0458886
0001d0 f9 61 49 bd d0 5b a1 3c 8c da 9e bb e0 06 c6 3c
       -0.0491657 0.0196971 -0.00484783 0.0241732
0001e0 e7 f6 37 bc 53 bd 2b 3d c2 36 bd 3c ef b7 4c bd
       -0.0112283 0.0419286 0.0230974 -0.0499801
0001f0 64 e0 a5 3c cb d0 9d bc ac 2f 3c 3d e2 36 22 3c
       0.0202486 -0.0192646 0.0459439 0.00990078
000200 0a ea e3 3b 66 16 a1 bc fc 8c 28 bb fc 39 60 bc
       0.00695539 -0.019664 -0.00257188 -0.0136857
000210 1f d8 f1 bc 8b 28 37 bd df e7 ae bc 65 b3 19 bd
       -0.029522 -0.0447164 -0.0213508 -0.0375246
000220 84 52 2a bd 0c 07 c2 3c 58 f4 d8 3c 5f cf 57 bd
       -0.0415826 0.023685 0.0264837 -0.052688
000230 6a 26 a0 b9 fb 9c f1 3c 63 1a 57 bd 12 3e ca bc
       -0.000305462 0.0294938 -0.0525154 -0.0246878
000240 0d 09 4e bd 3e 84 27 3c 98 f3 51 bd eb 89 d3 3b
       -0.0503016 0.0102244 -0.0512577 0.00645565
000250 33 9a 85 3b d2 3a 25 3d 3e 96 a2 3f 8e 06 88 3f
       0.00407722 0.0403393 1.27021 1.0627
000260 44 e2 d8 bb 8b 54 0e 40 37 de 1d 3e 2e ae c9 be
       -0.00661877 2.22391 0.154168 -0.393907
000270 f5 db e3 3f 73 d6 6f bf d8 d5 1c bf 11 70 3a c0
       1.78015 -0.936866 -0.612638 -2.91309
000280 f7 af 02 40 c2 4c bb bf e3 df 23 40 64 e9 75 40
       2.04199 -1.46328 2.56054 3.84237
000290 53 b3 65 40 3c 30 7c 3f a3 ce 7c 3f 9e 26 33 3e
       3.58907 0.985111 0.987528 0.174952
0002a0 80 b7 bc bf 87 dc 20 40 c1 c5 96 40 8b a5 c8 bc
       -1.47435 2.51346 4.71164 -0.024493
0002b0 ea 3e 2c 40 70 b1 3a 40 04 71 de 3d ed 2a e8 3f
       2.69134 2.91708 0.108614 1.81381
0002c0 b0 38 0c 3e 9c bf 65 3f 56 82 11 40 e0 2d 98 bf
       0.136935 0.897455 2.27358 -1.1889
0002d0 4d d6 2a c0 b2 4b 54 40 60 02 e3 3f a4 c7 7f 3f
       -2.66933 3.31712 1.77351 0.99914
0002e0 23 2e 20 bf 4b 93 7a 3f e7 36 21 3f 31 cf 5a be
       -0.625704 0.97881 0.629744 -0.213681
0002f0 0b 63 df 3f e4 9e 6e bf 8f e2 dc be 33 6d cf 3f
       1.74521 -0.932112 -0.431416 1.62052
000300 1f d7 0a 40 6d e7 3b 40 b2 80 51 40 2d d2 4c 3f
       2.16938 2.936 3.27348 0.800082
000310 e1 ee 8e 40 01 c1 f8 3f d6 c7 23 bf de 6d 83 bc
       4.46666 1.94339 -0.639768 -0.0160436
000320 0a 20 06 3d 90 b8 0c bd 9b 44 f3 3c 43 91 ee 3c
       0.0327454 -0.0343557 0.0296958 0.029122
000330 d8 22 0e bd 1a 78 64 bd 36 3d a8 bc 59 1b be bc
       -0.0347012 -0.0557786 -0.020537 -0.0232064
000340 d2 5c 5d bc a2 eb 82 bc 13 2a 55 bb 9f 70 5b bd
       -0.0135109 -0.0159815 -0.00325263 -0.0535742
000350 4e cf e0 bc f3 e9 cc bc de 00 f5 bb a2 f1 3f bd
       -0.0274426 -0.0250139 -0.00747691 -0.0468613
000360 18 91 4d bc 33 b0 44 3c a3 d7 95 3c 4d 1a 7e bc
       -0.0125468 0.0120049 0.0182913 -0.0155092
000370 7f cb d2 bc 1f 9d 3f bd b1 b2 0d 3c da 59 0f bd
       -0.0257318 -0.0467807 0.00864856 -0.0349978
000380 2e 1f 09 3d aa 6e c3 bb 85 6c ea bb 22 1a 1d 3d
       0.033477 -0.00596412 -0.00715405 0.038355
000390 1b 55 d9 3b df 10 8f 3c 63 cd 6d bc 9b 8e 04 3b
       0.00663246 0.0174641 -0.0145143 0.00202266
0003a0 c5 e5 78 bc 50 6b 3f 3d 26 ea 40 bd 64 90 60 bc
       -0.0151915 0.0467332 -0.0470983 -0.0137063
0003b0 13 66 98 bb aa 1c 49 bc e2 c6 92 bc d9 36 d6 3c
       -0.00465084 -0.0122749 -0.0179171 0.0261492
0003c0 6a 55 26 bd 0f df 3a bb ce 4c 15 3d 4b f0 21 bd
       -0.0406088 -0.00285143 0.0364502 -0.0395358
0003d0 38 e1 b9 3c 41 e1 20 bc e5 1a f0 bc 18 e6 0a 3c
       0.0226904 -0.00981933 -0.0293097 0.00847771
0003e0 7a 9c 33 bc 51 7d 8c bb 10 d7 00 3d b6 99 2f 3d
       -0.0109626 -0.0042874 0.0314551 0.0428712
0003f0 c0 0d 4c bd 29 38 01 3d ed d0 55 bd ca 27 f5 bc
       -0.0498178 0.0315477 -0.0522012 -0.0299262

10 f4 [50]
000000 1b 9e fa 3f 26 57 c9 be 31 56 00 bd 14 e8 87 bf
       1.95795 -0.393243 -0.0313322 -1.06177
000010 54 aa e1 bb 45 2b 57 bd c2 13 a2 be 5d 53 58 3f
       -0.00688676 -0.0525315 -0.316557 0.845022
000020 27 66 61 40 d2 35 9a c0 50 aa 0f 40 fc 6f 87 c0
       3.52186 -4.81907 2.24477 -4.23242
000030 c3 64 ca bf 1d e7 3a bf 69 c6 86 3f e1 97 34 40
       -1.5812 -0.730089 1.05293 2.82177
000040 47 55 09 40 35 ef 28 40 c8 ea 5a bf a8 33 8c bd
       2.14583 2.6396 -0.855145 -0.0684579
000050 15 19 95 3e bb f0 9b 3e c3 f2 3b bf 8b 89 c5 3f
       0.291207 0.304571 -0.734173 1.54326
000060 15 91 a9 3f ca fd 5e bf 87 a2 30 3f 15 6f c0 3f
       1.32474 -0.87106 0.68998 1.50339
000070 f7 22 3e 3f fb 57 fa 3f f6 25 2f bf 50 a6 96 3d
       0.742721 1.95581 -0.684173 0.0735594
000080 bb f2 b9 bf 57 60 38 40 cb ba 7f be 31 3f 1b bf
       -1.45272 2.88088 -0.249736 -0.606433
000090 2f e0 05 bd ce 8e 64 3f e3 88 15 be b7 64 30 bc
       -0.0326845 0.892804 -0.14603 -0.0107662
0000a0 ae f0 ee bf ca 89 22 c0 74 40 d2 be 2c 2b 8b 40
       -1.86672 -2.53966 -0.410648 4.34902
0000b0 fe 48 3d 40 9b 8f 87 bf 51 14 3c c0 25 5d 1d 40
       2.95758 -1.05907 -2.93874 2.45881
0000c0 b3 9a 7a bf 5d 8a db bf
       -0.978923 -1.71516

11 f4 [50, 50]
000000 71 e6 53 3f de c6 62 bf 7a 2d f0 bb b8 25 8d 3c
       0.827735 -0.885847 -0.00732964 0.0172299
000010 e6 7b 41 3d 9e 12 96 bd e1 60 3b bf c3 0d c4 3f
       0.0472373 -0.0732777 -0.731947 1.53167
000020 b9 c2 ab bf ad 2f b2 be 4c 8e 9b 3f a8 c4 65 be
       -1.34188 -0.34802 1.21528 -0.224383
000030 eb b1 28 bd 5a 88 99 bd 44 69 cb bf f3 54 7d c0
       -0.0411853 -0.0749671 -1.58915 -3.95831
000040 a7 e9 3f 3f 99 4a 73 3f 2c b7 4e c0 e6 ae 45 c0
       0.749659 0.950357 -3.22993 -3.0888
000050 21 ea 2c c0 07 d3 a8 bf 94 6d f0 be ee eb d4 3f
       -2.70179 -1.31894 -0.469586 1.66345
000060 63 45 33 c0 8f c2 8d bf a1 db d7 bf b9 39 4d 3f
       -2.80111 -1.1075 -1.68639 0.801662
000070 43 75 5f 3f a4 36 21 bf 9b ae 37 3f 9c 6b 28 bf
       0.872883 -0.62974 0.717508 -0.657892
000080 d8 2e 71 bf 10 ae 30 be 74 7b b1 be 9f 8f b6 ba
       -0.942121 -0.172539 -0.346645 -0.00139283
000090 57 29 38 bd 1a 34 b0 3f 78 25 39 3e f3 53 01 3d
       -0.0449613 1.37659 0.180807 0.0315742
0000a0 30 f5 17 c0 c5 00 81 be 71 72 db bf 28 ba 0a bf
       -2.37434 -0.251959 -1.71443 -0.541903
0000b0 45 2a 2c c0 1f a2 92 c0 45 0f 18 bf 47 90 0e 3f
       -2.69008 -4.58229 -0.593983 0.556889
0000c0 85 05 0f bf 74 0c a0 3f aa 82 21 be 4d 66 bc 3c
       -0.558678 1.25038 -0.157725 0.022998
0000d0 94 c8 19 3d b0 2a b1 3c 5d 61 cb 3c aa a0 bd bc
       0.0375448 0.0216268 0.0248267 -0.0231479
0000e0 cf bd cf bf 3f 11 75 bd 1a 04 90 bb f7 91 ba 3b
       -1.62298 -0.0598309 -0.00439502 0.00569367
0000f0 1b f8 6c bd 6a c3 bc bc 81 f0 7c bc b2 85 7b 3c
       -0.0578538 -0.0230424 -0.0154382 0.0153517
000100 35 96 55 3c ac 2a aa bc 4c dd 35 bd 1f 8c 4e bd
       0.0130363 -0.0207723 -0.0444005 -0.0504266
000110 5c 96 6a 3d be 4f 55 bc d7 c0 96 bc 3a 15 ba bc
       0.0572723 -0.0130195 -0.0184025 -0.0227152
000120 e0 23 8b 3b 46 8c a8 3c c6 b5 4b 3d 67 19 78 bd
       0.00424622 0.0205747 0.0497339 -0.0605711
000130 c6 5e 7e 3d ce b9 e5 3c 6c d5 49 bd 3f 3c 86 3d
       0.0621021 0.0280427 -0.0492758 0.0655446
000140 41 7d f0 3c 98 d5 e0 3c c5 e1 b1 bc e2 49 21 bd
       0.0293566 0.0274456 -0.0217141 -0.0393771
000150 34 67 bd 3c 4b 74 86 be 06 cb a2 3c 9f 7f 11 bd
       0.0231205 -0.262606 0.0198722 -0.0355221
000160 41 f5 8f 3e 18 35 ca ba d5 e1 82 bd f0 70 16 bd
       0.281168 -0.00154272 -0.0639073 -0.0367288
000170 7f 88 bd bd c3 39 a4 3d f4 0f c7 3d 0f 50 90 bc
       -0.0925455 0.0801883 0.0971984 -0.0176163
000180 78 f7 5b 3c 7e aa c8 3b 56 f7 03 3d 68 d6 28 3d
       0.0134257 0.00612384 0.0322183 0.0412201
000190 f6 ce 00 3f 86 37 23 3f cb 59 a9 3c fa 78 9d 3d
       0.503158 0.637566 0.0206727 0.0768909
0001a0 2d e3 0b bd 5a 53 4f bd 20 25 86 be f0 16 84 3f
       -0.0341522 -0.0506166 -0.262002 1.03195
0001b0 c4 5b 77 3f 65 01 eb be 29 94 ed 3e 44 86 35 be
       0.966244 -0.458995 0.464021 -0.17727
0001c0 0c 02 97 bf ed 2d 45 be a1 85 bc 3e 26 e0 4f bf
       -1.17975 -0.192558 0.368207 -0.812014
0001d0 64 95 82 3e 51 14 d8 3f 16 fb ab 3e e6 e7 ee 3e
       0.255046 1.68812 0.3359 0.466613
0001e0 10 23 7c 3f 80 b5 66 3f 58 1a c8 be 75 f5 99 3d
       0.98491 0.901207 -0.390826 0.0751752
0001f0 ea 06 0a be 94 f9 ef be 6d 39 f7 bf 76 71 87 3f
       -0.134792 -0.468701 -1.93144 1.05815
000200 47 3d 90 3f 50 fc c8 be 0a 2e 82 bf 0d 89 7f 3f
       1.12687 -0.39255 -1.01703 0.998185
000210 1f 4b 4b bf 4e d1 c1 be aa 7f 58 bf 9a 7b 14 bf
       -0.794115 -0.37855 -0.845698 -0.580011
000220 59 95 f1 bb bd a6 3f 3f 22 55 30 3f 72 89 03 bd
       -0.00737254 0.748638 0.688799 -0.0321135
000230 05 8b 2d c0 a9 c0 81 be 89 8f 99 3d ac ac 0d bf
       -2.71161 -0.253423 0.0749808 -0.553416
000240 e8 db 16 3f 3a 75 ed 3e 81 09 ac 3f b1 dc ce 3f
       0.589293 0.463785 1.34404 1.61611
000250 d6 54 42 3f ad 2f aa bf 81 cd 79 3f 11 19 96 bf
       0.759107 -1.32958 0.975792 -1.17264
000260 8d 79 82 3c 71 72 e3 3f 2e 2b 43 bd af 3a 17 bd
       0.0159271 1.77693 -0.0476486 -0.0369212
000270 4d f6 cf bd 24 b8 99 be b7 28 df 3f 34 68 c4 bf
       -0.101544 -0.300233 1.74343 -1.53443
000280 e9 b7 37 40 cb 14 2f 3f 8b 71 1e be f6 d3 bf 3e
       2.8706 0.683911 -0.15473 0.374664
000290 e4 f7 f6 3f 0a 2b 25 be 99 d8 82 40 53 96 c9 3f
       1.92944 -0.161297 4.08894 1.5749
0002a0 a7 94 0b 3f 8c a1 bf c0 34 4b 9a bf c2 c0 1d 40
       0.545237 -5.98847 -1.20542 2.46489
0002b0 8b 54 d0 bf 23 be 65 c0 89 5e 9a 3f a1 67 eb bf
       -1.62758 -3.58973 1.20601 -1.8391
0002c0 7e 57 c4 3f d2 c8 6b 3f 89 7b d0 bf ba bd d7 c0
       1.53392 0.921033 -1.62877 -6.74191
0002d0 ef 54 3c 3f e1 62 21 40 b1 c4 9c c0 8b 6c 2d c0
       0.735671 2.52166 -4.89901 -2.70975
0002e0 19 c5 10 40 5d e1 f0 c0 9f 1e be 3b b8 1e cd bf
       2.26203 -7.52751 0.00580199 -1.6025
0002f0 bf 0c 72 3f fe 15 8d 3c 43 ad 69 c0 84 2b f8 be
       0.945507 0.0172224 -3.6512 -0.484707
000300 a8 72 26 3f 01 de f2 bf 2d 95 85 c0 42 b2 83 c0
       0.650187 -1.8974 -4.17446 -4.11551
000310 ed d7 95 3e 22 fd be bf 50 53 eb bf 5d a4 50 3e
       0.292663 -1.4921 -1.83848 0.203752
000320 3f c9 0d bf 4b 3c 14 c0 d2 fa df ba 54 1d ce bf
       -0.553852 -2.31618 -0.00170883 -1.61027
000330 ea 14 f5 bc 53 15 24 3d ff 21 9d bf fe b8 3d be
       -0.0299172 0.0400594 -1.2276 -0.185276
000340 e0 9f 62 3f bd ac c9 be 30 0f 81 3e de c8 5c be
       0.885252 -0.393896 0.252069 -0.21561
000350 ff 9a 97 bd c1 70 86 3e 3b 38 10 3f 5d 34 70 bf
       -0.0740261 0.262579 0.563358 -0.938299
000360 31 7e 1a 3e 3a 24 51 bf 84 9e 11 3f 25 5d 27 c0
       0.150872 -0.816959 0.568825 -2.61506
000370 2f 6b 0e bf fd 2f 2b bf e3 de 68 bf fc 8f 70 bf
       -0.556323 -0.668701 -0.909651 -0.939697
000380 b0 02 10 3f 01 a1 dd be de 1f bf bf be a0 f5 be
       0.562541 -0.432869 -1.49316 -0.479742
000390 47 72 79 c0 92 96 3a c0 b8 b1 f9 3e 6d 01 21 be
       -3.8976 -2.91544 0.487684 -0.157232
0003a0 e3 70 9e bf 24 97 f7 bf c2 2f e9 3f e4 2c 58 3f
       -1.23782 -1.9343 1.82177 0.844435
0003b0 a6 3e 18 3b 43 72 0e 3f 50 54 22 bf e5 68 a9 3c
       0.00232307 0.556431 -0.634099 0.0206799
0003c0 96 b2 50 c0 20 28 43 bf 36 95 09 bf e2 3e 0e bf
       -3.2609 -0.762331 -0.537433 -0.555647
0003d0 d2 8d e0 be f1 68 83 bf 65 c7 20 c0 8e 0d 33 bd
       -0.438582 -1.02664 -2.51217 -0.0437141
0003e0 c1 73 bb bf c2 6c 76 bf da fe 81 bf db 14 ef 3d
       -1.46447 -0.962597 -1.01559 0.116739
0003f0 3a 52 03 3c 01 8a 39 bf 31 1a 43 3d 7e a8 34 bc
       0.00801521 -0.724762 0.0476324 -0.0110265

12 f4 [50]
000000 1c b1 4e c0 34 bf b2 3e df 32 19 c0 78 45 7c c0
       -3.22956 0.349115 -2.39373 -3.94174
000010 8b fd 87 40 db c4 a4 c0 c5 72 87 bf d4 60 c2 bf
       4.2497 -5.14903 -1.05819 -1.51858
000020 17 65 18 c0 9b 72 91 3f 83 6e 9f 3f d6 1c b0 3f
       -2.38117 1.13631 1.24556 1.37588
000030 7c f2 c4 3f 01 34 56 3f 48 f9 95 bf ec 8f e6 bc
       1.53865 0.836731 -1.17167 -0.0281448
000040 4a 42 aa 3e f0 6d 04 40 81 ec 19 bf 75 1f c8 bf
       0.332537 2.06921 -0.601265 -1.56346
000050 a3 3a 19 bf 70 99 13 3f 82 ab dc 3e 05 17 4b c0
       -0.598551 0.57656 0.430996 -3.17328
000060 b2 9f 3d bf 53 96 89 bf bf 65 68 c0 8c d6 7b c0
       -0.740718 -1.0749 -3.63121 -3.93497
000070 5a 81 8d 40 55 84 8b 3e 71 ac 41 c0 a1 2d 83 3f
       4.42204 0.272494 -3.02615 1.02483
000080 1b 0e 0b 3e c9 58 1d be 87 a7 93 bf 9c 34 95 3e
       0.135796 -0.153659 -1.15355 0.291417
000090 b8 95 d6 3e 91 f2 11 c0 07 42 ba 3e 27 4b 3d bf
       0.419111 -2.28043 0.363785 -0.739428
0000a0 c5 ac 87 3f 4b 93 82 3f b8 e4 91 c0 a6 d6 b3 3e
       1.05996 1.02012 -4.55917 0.351247
0000b0 ab 07 fc 3e 93 3a 5f c0 45 f5 52 c0 fa cf 4a be
       0.492246 -3.48795 -3.29622 -0.198059
0000c0 cf 12 30 3f 38 10 ae 40
       0.687787 5.43948
