configs/networks/acas/acas_5_6.onnx (onnx, 61577 bytes, 14 tensors)

1 f4 [50, 5]
0	0x3d7255f3	0.059164
1	0xbf967d56	-1.1757
2	0x3f9b9a17	1.21564
3	0xbd94d3e7	-0.0726698
4	0x3dee6c09	0.116417
5	0x3ba2cff9	0.00496864
6	0xbf59624a	-0.849156
7	0xbfa813fd	-1.31311
8	0x3d5f912a	0.0545818
9	0xbd18a23e	-0.0372641
10	0x3f823cc9	1.01748
11	0x3bca08f8	0.00616562
12	0x3ac6c1f1	0.0015164
13	0x3b09eca8	0.00210456
14	0xba80050d	-0.000976713
15	0x3e745cff	0.238636
16	0xbedd93c4	-0.432768
17	0xbda77293	-0.0817615
18	0xbefdc1a4	-0.495618
19	0xbe1f99c4	-0.15586
20	0xbf024cb6	-0.508983
21	0xbdf9f2bb	-0.122045
22	0xbc34dc81	-0.0110389
23	0xbf0e9ff1	-0.557128
24	0x3ee1b0ab	0.440801
25	0x3e0a1e3f	0.134881
26	0xbfb1be4d	-1.38862
27	0x3f8dfeda	1.10934
28	0x3e177e5f	0.147943
29	0xbcb6dffb	-0.0223236
30	0x3cfa9202	0.0305872
31	0xbf24c1b9	-0.643581
32	0xbf054930	-0.520648
33	0xbec83383	-0.391018
34	0x3ecefd65	0.404277
35	0x3dc1d2fc	0.0946407
36	0x3fde5658	1.73701
37	0xbf7413fd	-0.95343
38	0x3dea3bde	0.114372
39	0xbc1504b4	-0.00909536
40	0x3d0018da	0.0312737
41	0xbfa25d8d	-1.26848
42	0x3f9c3aa8	1.22054
43	0x3ce9d2cd	0.0285429
44	0x3d02f32f	0.0319702
45	0x3d0c8316	0.0343047
46	0x3f90ede5	1.13226
47	0xbfa7dcf0	-1.31143
48	0xbe0d50ec	-0.138004
49	0x3e9ab607	0.30217
50	0x3e9ff6b2	0.312429
51	0xbefc94b4	-0.493322
52	0x3e597e99	0.212397
53	0x3e4e9dd8	0.201774
54	0xbf07646b	-0.528876
55	0x3d47d20c	0.0487843
56	0x3ff978d5	1.949
57	0xbcfa01b9	-0.0305184
58	0x3cdb976b	0.0268056
59	0xbeb3c70d	-0.351128
60	0x3fd46349	1.65928
61	0x3b241472	0.00250366
62	0x3b3aabe3	0.00284838
63	0x3b8077e0	0.00392054
64	0xbb121e25	-0.00222958
65	0x3d28fcc9	0.0412567
66	0x3e40574b	0.187833
67	0xbda76bc2	-0.0817485
68	0xbe0e4b45	-0.138959
69	0xbf23fb37	-0.640552
70	0x3d8bc0c9	0.0682388
71	0xbff53be2	-1.91589
72	0x3fdc793e	1.72245
73	0xbed1eb85	-0.41
74	0x3f264cd7	0.64961
75	0x3e4b0425	0.198258
76	0xbf607619	-0.876802
77	0x3f94fda0	1.16399
78	0x3eb38d1e	0.350686
79	0x3e7454de	0.238605
80	0xb90afded	-0.000132553
81	0xbb50dd28	-0.00318701
82	0x3ac6a9c8	0.00151568
83	0x3c9e73be	0.0193423
84	0x3aa42b99	0.00125252
85	0x3d3575ce	0.0443018
86	0x3f7609ee	0.961089
87	0x3da16b62	0.0788181
88	0x3ee3d1cc	0.44496
89	0xbf1cc49c	-0.612375
90	0x3c612d42	0.0137437
91	0x3faadaba	1.3348
92	0xbfb8408e	-1.43947
93	0xbe1445aa	-0.144797
94	0x3e16a22b	0.147103
95	0xbebfe026	-0.374757
96	0xbfdc4a0e	-1.72101
97	0x3ffed8c3	1.99099
98	0xbe5f3e8a	-0.218012
99	0x3effb41c	0.499421
100	0x3d96d72d	0.0736526
101	0x3f0a8ac6	0.54118
102	0x3e32c908	0.174595
103	0xbd558d30	-0.0521366
104	0xbd1efeae	-0.0388171
105	0x3c429612	0.0118766
106	0xbd1a3e70	-0.0376572
107	0x3d9b8b4e	0.0759493
108	0xbc7fc03f	-0.0156098
109	0xc002f323	-2.04609
110	0xbc8c3ad7	-0.0171179
111	0x3f07da1f	0.530672
112	0x3f4a1262	0.789343
113	0x3e8f6ec6	0.280142
114	0xbe862824	-0.262025
115	0xbb39ee79	-0.00283709
116	0x3dbc8e69	0.0920685
117	0xbe0fa58f	-0.14028
118	0x3f359418	0.709291
119	0xbf71d367	-0.944632
120	0xbe7a5c1c	-0.244492
121	0x3c7da837	0.015482
122	0x3c3156ba	0.0108239
123	0x3e6e3b04	0.232647
124	0x3e99a049	0.300051
125	0x3d1964db	0.0374497
126	0xbfb09375	-1.3795
127	0xbacc1598	-0.00155704
128	0x3d86ecd4	0.0658814
129	0xbecd8eeb	-0.401481
130	0xbe1a8a83	-0.150919
131	0xbfa2ea74	-1.27278
132	0xbeb813cb	-0.359526
133	0x3ec8f734	0.392511
134	0xbe4bd167	-0.199041
135	0x3e3eed03	0.186451
136	0x3fe9a123	1.82523
137	0xc01b7ebb	-2.42961
138	0xbcc347e9	-0.023838
139	0x3df49f95	0.119445
140	0x3c98d11d	0.0186544
141	0x3e24e098	0.161013
142	0xbe380f99	-0.179747
143	0x3f1cc61e	0.612398
144	0xbf8e9c78	-1.11415
145	0x3a82e990	0.000998782
146	0xbc91159c	-0.0177105
147	0x3902b65c	0.000124657
148	0xbb132891	-0.00224546
149	0xbbee1cd4	-0.00726662
150	0xbe17ecbb	-0.148364
151	0x3faec80c	1.36548
152	0xbf4d7abc	-0.802654
153	0x3db5880d	0.0886384
154	0xbe7b2b77	-0.245283
155	0x3bd51a23	0.00650336
156	0xbf988ce7	-1.1918
157	0x3f9131ba	1.13433
158	0xbe7f9e7c	-0.249628
159	0x3d939a1e	0.0720713
160	0x3eb7eae6	0.359214
161	0xbf9ed3d8	-1.24084
162	0x3c4c2649	0.0124603
163	0x3eda2dd8	0.426131
164	0xbf2431f0	-0.641387
165	0x39fb038e	0.000478771
166	0xb90333b8	-0.000125124
167	0xbb69165a	-0.00355663
168	0xbc948238	-0.0181285
169	0xbaaed23b	-0.00133378
170	0x3d27cda4	0.0409676
171	0xbf180aaf	-0.593913
172	0x3f1e2d51	0.617879
173	0x3d9829f8	0.0742988
174	0xbe8103c9	-0.251982
175	0xbcc851de	-0.0244531
176	0xc0132767	-2.29928
177	0xbbddd8a3	-0.00677021
178	0x3a8b7945	0.0010641
179	0xbadfbf18	-0.00170705
180	0xbed3cdff	-0.413681
181	0x3dead2dd	0.11466
182	0x3b9d1bda	0.00479458
183	0x3e0ae3a4	0.135634
184	0xbf8eff19	-1.11716
185	0xbecae74f	-0.396296
186	0x3fc86f69	1.5659
187	0xbfebbb30	-1.84165
188	0xbe5ccc03	-0.215622
189	0x3f0e2531	0.555255
190	0xbd2af435	-0.0417368
191	0xbcd059b5	-0.0254334
192	0xbdd00d5f	-0.101588
193	0xbf8fc84b	-1.1233
194	0x3c2e9616	0.0106559
195	0xbf3fc6da	-0.749128
196	0xbc861f9f	-0.0163725
197	0xbbad888f	-0.00529582
198	0xbb9b53d9	-0.00474022
199	0xbe9cd291	-0.306294
200	0x3e29da9d	0.165873
201	0x3f694749	0.911244
202	0xbe26cf42	-0.1629
203	0x3e53eee5	0.206966
204	0xbe99a848	-0.300112
205	0x3be43d41	0.00696531
206	0x3c68c983	0.0142082
207	0xbb804230	-0.00391414
208	0x3a5d7a22	0.000844868
209	0x3c4707fc	0.0121479
210	0xbcd989a9	-0.0265549
211	0x3f6d5af3	0.927169
212	0x3f65ffa4	0.898432
213	0x3eebc361	0.460475
214	0xbcc89f76	-0.0244901
215	0xbda1f348	-0.0790773
216	0xbf98cd21	-1.19376
217	0x3f6acabc	0.917156
218	0x3bc0f716	0.00588883
219	0xbedccc68	-0.431247
220	0x3e0826ab	0.13296
221	0xbe87aeff	-0.265007
222	0x3faf1b48	1.36802
223	0xbe08372e	-0.133023
224	0x3e8fc6b9	0.280813
225	0x3e1b8e4c	0.15191
226	0x3fd635e7	1.67352
227	0xbfd4e94f	-1.66337
228	0x3ea28d22	0.317483
229	0xbe6f151e	-0.233479
230	0xbfba2878	-1.45436
231	0x3d10500f	0.0352326
232	0xbb072579	-0.00206217
233	0x3bb1b748	0.00542346
234	0xbce952aa	-0.0284818
235	0xbe46559f	-0.193686
236	0xbbeb484d	-0.00718025
237	0xbe18969a	-0.149012
238	0xbf83ebaf	-1.03063
239	0x3f646499	0.89216
240	0xbe90de4c	-0.282946
241	0xbfb96ead	-1.44869
242	0x3fcfcaea	1.62338
243	0xbe84e571	-0.259563
244	0x3ef46477	0.477329
245	0xbc7c088f	-0.0153829
246	0x3fe1d68c	1.76436
247	0x3ccd9eba	0.0251001
248	0x3ca31005	0.0199051
249	0xbd33d824	-0.0439073

2 f4 [50]
0	0xbf110b31	-0.566577
1	0xbcd248d8	-0.0256695
2	0x3e8ee526	0.279092
3	0xbe7b8b26	-0.245648
4	0xbe61b717	-0.220425
5	0xbeba6ce3	-0.364112
6	0x3dbaf669	0.0912903
7	0xbed06339	-0.407007
8	0xbef47432	-0.477449
9	0xbef5e072	-0.480228
10	0xbecd438d	-0.400906
11	0xbe511277	-0.204172
12	0x3eea45b3	0.457563
13	0xbe1c621b	-0.152718
14	0xbf1c0a9e	-0.609537
15	0xbdefd007	-0.117096
16	0xbc6b9c9c	-0.0143806
17	0xbe16edab	-0.147391
18	0xbf2e584f	-0.681035
19	0xbe5b39e2	-0.214088
20	0x3d7d491c	0.0618373
21	0xbf452418	-0.770082
22	0xbac1e6c0	-0.00147935
23	0x3df0f16f	0.117648
24	0x3e269caa	0.162707
25	0xbe5b6c37	-0.21428
26	0xbeb245d4	-0.348189
27	0x3d3f63de	0.0467261
28	0x3eb5cbbc	0.35507
29	0xbca4a4fb	-0.0200982
30	0xbe1d9c28	-0.153916
31	0xbf206ef4	-0.626693
32	0xbe4754f3	-0.19466
33	0xbcbb63ef	-0.0228748
34	0x3e0b9c30	0.136338
35	0x3c06e019	0.00823214
36	0xbed44b90	-0.414639
37	0xbe8ca3c6	-0.274687
38	0xbebfc548	-0.374552
39	0xbe1fef39	-0.156186
40	0xbe153826	-0.145722
41	0xbcaadc4d	-0.020857
42	0xbdf33db0	-0.11877
43	0xbe6353f8	-0.222
44	0x3db24fde	0.0870664
45	0xbef4ec20	-0.478364
46	0xbe870585	-0.263714
47	0x3df6bfcb	0.120483
48	0xbebc2481	-0.367466
49	0x3bb10d13	0.00540317

3 f4 [50, 50]
0	0x3e99d474	0.300449
1	0x3e4a7c5b	0.19774
2	0x3e3f79c8	0.186988
3	0x3f1ce400	0.612854
4	0xbe86312f	-0.262094
5	0x3e30adcd	0.172538
6	0x3e13ee5f	0.144464
7	0xbfd6fdca	-1.67962
8	0xbcbea7a6	-0.0232733
9	0xbfbed0e5	-1.49075
10	0x3e971e8e	0.295155
11	0x3fcf5bd5	1.61999
12	0x3e51d606	0.204918
13	0x40090404	2.14087
14	0xbe79d55e	-0.243978
15	0x3f142d5a	0.578817
16	0xbc1f5a99	-0.00972619
17	0x3f665ffa	0.899902
18	0xbf9cd0bb	-1.22512
19	0xbdc9ae34	-0.0984768
20	0xbf60fd8f	-0.878869
21	0x3e2dbbe0	0.169662
22	0xbe1a6b0e	-0.150799
23	0x3f537521	0.826006
24	0x3fb80981	1.43779
25	0xbee7a461	-0.452426
26	0xbf948312	-1.16025
27	0xbe877964	-0.264598
28	0xbf83f584	-1.03093
29	0x3ccf42ff	0.0253005
30	0xbe71b003	-0.236023
31	0x3e5da9ca	0.216468
32	0x3e1b399f	0.151587
33	0x3c140acf	0.00903578
34	0xbf889f41	-1.06736
35	0x3f58c49c	0.84675
36	0x40273d86	2.61313
37	0x3e02dc6e	0.127794
38	0x3f0c5d31	0.548297
39	0x3ef47d80	0.47752
40	0x3f0f441c	0.559633
41	0xbcdadaad	-0.0267156
42	0x3f563455	0.836736
43	0xbf86ef0b	-1.05417
44	0x3edf5d14	0.436257
45	0xbf2f3cc5	-0.684521
46	0x3e0e81cb	0.139167
47	0x3e29c1f8	0.165779
48	0x3f020286	0.507851
49	0xbf3f5f81	-0.747551
50	0xbe732831	-0.237458
51	0x3ed2c322	0.411645
52	0x3f16f391	0.589654
53	0x3fbdc098	1.48244
54	0xc00e36e3	-2.2221
55	0xbf1e0d02	-0.617386
56	0x3e309fa5	0.172484
57	0xbf27e5da	-0.655851
58	0xbd823140	-0.0635705
59	0xbee5de59	-0.448962
60	0x3f4fc6eb	0.811629
61	0x3ef6ef80	0.482296
62	0x3f0e94bc	0.556957
63	0x4010c227	2.26185
64	0x3f2a939f	0.666315
65	0xbc9a8303	-0.0188613
66	0xbd048139	-0.0323498
67	0x3f41bf9c	0.75683
68	0x3f58fc50	0.8476
69	0x3e48feac	0.196284
70	0xbe15c6c1	-0.146266
71	0x3eeb9735	0.460138
72	0xbef268b2	-0.473455
73	0xbc16bb02	-0.00919986
74	0x3f8b6263	1.08894
75	0x3e7e618d	0.248419
76	0xbfb967cb	-1.44848
77	0xbe40f883	-0.188448
78	0x3dd6ebd5	0.104942
79	0x3c77560d	0.0150962
80	0xbf097321	-0.536913
81	0xbf987c85	-1.1913
82	0x3f8cb296	1.0992
83	0xbd076ebf	-0.0330646
84	0x3eed0e78	0.463001
85	0xbf8df45e	-1.10902
86	0xc00831cf	-2.12804
87	0x3d7f3768	0.0623087
88	0x3f330da6	0.699427
89	0xbf1882e0	-0.595747
90	0x3e564ae0	0.20927
91	0xbb24a05e	-0.002512
92	0x3e82f683	0.255787
93	0xbdddef85	-0.108367
94	0xbe648b22	-0.223187
95	0x3ef8b9bb	0.485792
96	0x3f18b6fa	0.596542
97	0x3e8bc70d	0.273003
98	0x3d8398a6	0.064256
99	0xbf3eaaf3	-0.744796
100	0x3f2ab6ae	0.66685
101	0x3e2d5c31	0.169297
102	0x3e199d45	0.150014
103	0x3f9d32b5	1.22811
104	0xc012c543	-2.29329
105	0x3cc3f69a	0.0239213
106	0xbf17a355	-0.592336
107	0xbefa4a6b	-0.488849
108	0x3e4e5cd5	0.201526
109	0x3f378fcd	0.717038
110	0xbf0c7e39	-0.548801
111	0xbd236926	-0.0398952
112	0x3d2cbf7c	0.0421748
113	0x3f23e026	0.640139
114	0xbe6b927d	-0.230051
115	0x3ec5b813	0.38617
116	0xbb06e084	-0.00205806
117	0x3f39bcfd	0.72554
118	0xbea06e7e	-0.313343
119	0xbdfc0b9a	-0.123069
120	0xbf9ddd1a	-1.23331
121	0x3e907ad1	0.282187
122	0xbcc8849e	-0.0244773
123	0x3f6645b3	0.899501
124	0x3feb1e8e	1.83687
125	0x3db2bda8	0.0872758
126	0x3ebab778	0.364681
127	0xbe56e19c	-0.209845
128	0x3e479d0a	0.194935
129	0x3cc4e832	0.0240365
130	0xbe2a4f01	-0.166317
131	0xbc9bea0c	-0.0190325
132	0x3e3cfbb9	0.184554
133	0x3cae1afb	0.0212531
134	0xbe8f7597	-0.280194
135	0xbdff7942	-0.124743
136	0x3f2b6fd2	0.669675
137	0x3ec380ed	0.381843
138	0x3fd91a22	1.69611
139	0xbe2e368f	-0.17013
140	0xbeaeb789	-0.341244
141	0x3d1c22e1	0.0381192
142	0xbdbf6307	-0.0934506
143	0x3e3c1765	0.183683
144	0x3df972cd	0.121801
145	0xbe0bca97	-0.136515
146	0xbf473f21	-0.778307
147	0x3f11a37f	0.568901
148	0xbdf04ccf	-0.117334
149	0x3f20cc36	0.628116
150	0x3d08ea6f	0.0334267
151	0xbca4af77	-0.0201032
152	0x3c356ee2	0.0110738
153	0x3d21060a	0.0393124
154	0x3c8d702b	0.0172654
155	0xbd1a50c9	-0.0376747
156	0x39d46dab	0.000405175
157	0x3c0b2aa1	0.00849405
158	0x3cb86170	0.0225074
159	0x3c37eb29	0.0112255
160	0xbca10d2b	-0.0196596
161	0x3c575f62	0.0131453
162	0xbc56e0b7	-0.0131151
163	0xbc5d107c	-0.0134927
164	0x3c88df6d	0.0167081
165	0x3c5ec6ca	0.0135972
166	0x3b94d4b9	0.00454196
167	0xbd405f00	-0.0469656
168	0xbd211b53	-0.0393327
169	0xbcebccd8	-0.0287842
170	0xbca85e58	-0.0205528
171	0xbd4984c9	-0.0491989
172	0x3cea06cf	0.0285677
173	0x38e27578	0.000107984
174	0xbd2ca3e8	-0.0421485
175	0xbd359ba8	-0.0443379
176	0x3c5c7ac0	0.013457
177	0xbc5704ca	-0.0131237
178	0xbc675650	-0.0141197
179	0x3bf89365	0.00758593
180	0xbd2ab92c	-0.0416805
181	0xbad2f1d5	-0.00160938
182	0x3d015aa9	0.0315806
183	0xbc66d15b	-0.014088
184	0x3c1f9ec1	0.00974244
185	0xbd228607	-0.0396786
186	0xbd043b64	-0.0322832
187	0xbc738ed8	-0.0148656
188	0x3bb0d2dc	0.00539623
189	0xbbcf3e82	-0.00632459
190	0x3c4ec9fd	0.0126214
191	0x3ca15cdc	0.0196976
192	0x3cc2e6d0	0.0237917
193	0x3bd3f9a7	0.00646897
194	0xbd103b4c	-0.0352128
195	0x3cdedee8	0.0272059
196	0x3cefd46f	0.0292761
197	0x3b62a01e	0.00345803
198	0x3b9ece37	0.00484636
199	0xbc43b8bc	-0.0119459
200	0xbf405e4e	-0.751439
201	0x3df2c493	0.118539
202	0x3d84e593	0.064891
203	0x3f64301a	0.891359
204	0x3db47164	0.0881069
205	0xbf861523	-1.04752
206	0x3ef4ca0c	0.478104
207	0xbee6eb2d	-0.451013
208	0x3d8e5c92	0.0695125
209	0xbf8236e3	-1.0173
210	0x3fdada66	1.70979
211	0x3f41e68a	0.757424
212	0xbc8811e8	-0.0166101
213	0x3fea88ce	1.8323
214	0xbf04066c	-0.515723
215	0xbe8c9c6f	-0.274631
216	0xbcf48bf9	-0.0298519
217	0x3eb69857	0.356631
218	0xbf5cb7e5	-0.862181
219	0x3e5d7668	0.216272
220	0xbe81bed3	-0.253409
221	0xbf8c710d	-1.0972
222	0x3f3fb7a6	0.748896
223	0xbf8f4396	-1.11925
224	0xbec523d5	-0.385039
225	0x3ed4c20d	0.415543
226	0x3e9f4cd3	0.311133
227	0x3e181840	0.14853
228	0xbf3371da	-0.700956
229	0x3c655193	0.0139965
230	0x3f99ff2e	1.2031
231	0xbeca9ae5	-0.395713
232	0x3e949cd4	0.290259
233	0x3d017368	0.0316042
234	0x3e687379	0.227003
235	0x3f8569c2	1.04229
236	0xc02aa012	-2.66602
237	0x3e34d50f	0.176594
238	0x3f71e54b	0.944905
239	0xbe9dfeb9	-0.308584
240	0x3ec515f0	0.384933
241	0x3c682294	0.0141684
242	0x3f5317be	0.824581
243	0x3e9b9757	0.303889
244	0x3ea6b6e1	0.325614
245	0xbf2b4938	-0.669086
246	0xbd886bdf	-0.066612
247	0x3f09df01	0.538559
248	0x3e0f60e1	0.140018
249	0x3f627f1b	0.884752
250	0xbf878cfc	-1.05899
251	0x3d44cb77	0.0480456
252	0x3e403298	0.187693
253	0xbf1db4ab	-0.616038
254	0x3e9c5500	0.305336
255	0x3f8c302b	1.09522

4 f4 [50]
0	0x3e9908e6	0.298896
1	0xbe15c076	-0.146242
2	0xbf907dd4	-1.12884
3	0xbbc99738	-0.00615206
4	0xbf220f2c	-0.633044
5	0x3f36b6e1	0.713728
6	0xbbd74373	-0.00656932
7	0x3fb79c0f	1.43445
8	0xbc3460c5	-0.0110094
9	0xbf902d8c	-1.12639
10	0xbdd420b4	-0.103578
11	0xbe0bf056	-0.136659
12	0xbe810abb	-0.252035
13	0xbbacfd7a	-0.00527924
14	0xbf8ad091	-1.08449
15	0xbd3ce8d9	-0.0461205
16	0x3e841ca4	0.258031
17	0xbda4a1ad	-0.0803865
18	0xbf86fb7f	-1.05455
19	0xbd1dceb3	-0.0385272
20	0xbcf7a589	-0.0302303
21	0x3e5d71f3	0.216255
22	0xbf56a572	-0.838462
23	0xbf8379fb	-1.02716
24	0xbf68e315	-0.909715
25	0x3f3bc5ac	0.733485
26	0xbea7d6b6	-0.32781
27	0xbc242437	-0.0100184
28	0x3e7702a3	0.241221
29	0x3f56b724	0.838732
30	0xbf888d3b	-1.06681
31	0x3fd34e66	1.65083
32	0x3f907fcc	1.1289
33	0xbcc28b96	-0.0237482
34	0x3ee372c5	0.444235
35	0xbc0456a7	-0.0080773
36	0xbe9ecd08	-0.310158
37	0xbeaa0d78	-0.332134
38	0xbdc08a4f	-0.0940138
39	0x3f0628dd	0.524061
40	0x3f400000	0.75
41	0xbca8fcae	-0.0206283
42	0xbf3312c2	-0.699505
43	0xbc699d53	-0.0142587
44	0x3f1887a9	0.59582
45	0x3fa70ae5	1.30502
46	0x3f4431f0	0.766387
47	0x3f092f0a	0.535874
48	0x3efb51bd	0.490858
49	0xbccdc982	-0.0251205

5 f4 [50, 50]
0	0x3e42da98	0.190287
1	0x3c82e44b	0.015978
2	0xbd45e31e	-0.0483123
3	0x3d15d0b7	0.036576
4	0xbe04c9c9	-0.129676
5	0xbd06470c	-0.0327826
6	0x3c8c39ca	0.0171174
7	0xbf0c8cd6	-0.549024
8	0x3d0b0186	0.033937
9	0x3eb65eab	0.356191
10	0xbde7503c	-0.112946
11	0x3f2c2eba	0.672588
12	0xbdbcb22b	-0.0921367
13	0xbc49e0f5	-0.0123217
14	0x3ea9dc51	0.331759
15	0xbd8d7d8a	-0.0690871
16	0x3e7ead92	0.248709
17	0x3eda3077	0.426151
18	0xbdcf8402	-0.101326
19	0xbd03c27d	-0.0321679
20	0xbbd6168d	-0.00653345
21	0x3e25c6c1	0.161891
22	0x3c2b8702	0.0104692
23	0x3ec35d03	0.381569
24	0x3ce45cd7	0.0278763
25	0x3dda9004	0.10672
26	0x3ecff66f	0.406177
27	0xbcf864cb	-0.0303215
28	0x3ec3022e	0.380876
29	0x3e87d5cb	0.265303
30	0x3e74ab60	0.238935
31	0x3eb3a776	0.350887
32	0x3e20ca60	0.157022
33	0xbd896356	-0.067084
34	0xbe23a366	-0.159803
35	0xbca933a0	-0.0206545
36	0xbe644d87	-0.222952
37	0xbdd5f0b3	-0.104463
38	0x3c9fbfef	0.0195007
39	0xbd8cead7	-0.0688073
40	0xbfdd9e84	-1.7314
41	0x3bef3c8e	0.00730092
42	0xbe9487fd	-0.2901
43	0xbe415a8e	-0.188822
44	0xbdbf4822	-0.0933993
45	0x3d046f66	0.0323328
46	0xbeaaa433	-0.333284
47	0xbe7f5a53	-0.249368
48	0xbe99b64e	-0.300219
49	0x3d201eb9	0.0390918
50	0xbed7aa8b	-0.421223
51	0x3f8a0371	1.07823
52	0x404d7510	3.21027
53	0x3d003a17	0.0313054
54	0xbe49552e	-0.196614
55	0x3f21c26e	0.631873
56	0xbb95e1ff	-0.00457406
57	0x3dafbbd8	0.0858075
58	0xbd2ea92b	-0.0426418
59	0x3d978649	0.0739866
60	0x3e6b50f4	0.229801
61	0xbea46a7f	-0.321125
62	0x3f93d955	1.15507
63	0xbbc3bc6d	-0.00597339
64	0xbfbf2713	-1.49338
65	0x3f78e67d	0.972267
66	0xbed36c16	-0.412934
67	0xbf3d35ca	-0.739102
68	0x3f6f861a	0.93564
69	0x3cdfb3fa	0.0273075
70	0x3c072d46	0.00825054
71	0xbf2dbced	-0.678664
72	0x3f83a6df	1.02853
73	0x3fe02f30	1.75144
74	0x3f87d662	1.06123
75	0xbefb90c9	-0.491339
76	0xbd416d1d	-0.0472232
77	0x3d2ca4bf	0.0421493
78	0x3f739f99	0.951654
79	0x3e827525	0.2548
80	0xbd7e7e3b	-0.0621321
81	0x3f7f8ab1	0.99821
82	0x3dd09396	0.101844
83	0xbfb54856	-1.41627
84	0x3ff3de40	1.90522
85	0x3b1b8fbe	0.00237368
86	0xbef0fc2f	-0.470674
87	0x3fd5d053	1.67042
88	0x3fdcf323	1.72617
89	0x3fc46541	1.53434
90	0xbf79f080	-0.976326
91	0x3d1fba45	0.038996
92	0x4074425b	3.81655
93	0x3f8f8d50	1.1215
94	0x3f0405f7	0.515716
95	0xbf7a41b3	-0.977565
96	0x3f0a7ee9	0.540999
97	0xbe9671ce	-0.293837
98	0x3ea34b73	0.318935
99	0x3d04b2d2	0.0323971
100	0xbe781c71	-0.242296
101	0xbe041d8f	-0.129019
102	0xbf05b21c	-0.522249
103	0x3c8996ed	0.0167956
104	0xbe5dab9f	-0.216475
105	0xbcc6f22d	-0.0242854
106	0xbc898a22	-0.0167895
107	0xbe2ef6f9	-0.170864
108	0x3c1189d6	0.00888296
109	0xbf2d51a4	-0.677027
110	0x3e652ce0	0.223804
111	0xbe110d7c	-0.141653
112	0xbf2a5615	-0.665376
113	0xbc8aaf1b	-0.0169292
114	0x3d90510e	0.0704671
115	0xbf0f0ea2	-0.558817
116	0xbcecd805	-0.0289116
117	0xbf2c95d1	-0.674161
118	0xbf138445	-0.576237
119	0x3cc85894	0.0244563
120	0xbc05a749	-0.00815756
121	0x3e45c24c	0.193124
122	0xbe84a2ba	-0.259054
123	0x4007f1bf	2.12413
124	0x3d99c0df	0.0750749
125	0xbc8b7af3	-0.0170264
126	0x3d50f3a3	0.0510136
127	0x3d15c25a	0.0365623
128	0xbf74154d	-0.95345
129	0xbee26c7f	-0.442234
130	0xbfb61672	-1.42256
131	0x3d4852b5	0.048907
132	0xbd007b1a	-0.0313674
133	0x3e6c1df3	0.230583
134	0xbf62ee42	-0.886448
135	0x3b336674	0.00273743
136	0x3cb85f57	0.0225064
137	0x3f2e1544	0.680012
138	0xbe7ff79d	-0.249968
139	0x3f6638eb	0.899306
140	0xc02fc0ec	-2.74615
141	0x3af6e377	0.00188361
142	0x3e8c8f54	0.274531
143	0x3dcc4835	0.0997471
144	0x3e947b89	0.290005
145	0xbe62a950	-0.221349
146	0x3f515e4a	0.817845
147	0xbda5186e	-0.080613
148	0x3ea1a416	0.315705
149	0x3d1a3bb6	0.0376546
150	0x3fab32df	1.33749
151	0xbf483116	-0.781999
152	0xc123147b	-10.1925
153	0xbcf71ccd	-0.0301651
154	0xbf75d97f	-0.96035
155	0x3f0e4f66	0.555899
156	0x3c810f5f	0.0157544
157	0x3f5fe73a	0.874622
158	0x3cc83233	0.024438
159	0x3e93c771	0.288631
160	0xbf056c51	-0.521184
161	0xbf4f8833	-0.810672
162	0x3d1cf081	0.0383153
163	0xbcbd116e	-0.0230796
164	0xbf3e37df	-0.74304
165	0x3e00aa65	0.12565
166	0xbcd08afd	-0.0254569
167	0xbfc0c4f0	-1.50601
168	0xbf9c1798	-1.21947
169	0x3d12794a	0.0357602
170	0xbb964a6f	-0.00458651
171	0x3eea7d67	0.457988
172	0xbfa3ca97	-1.27962
173	0xbf06e0a0	-0.526865
174	0xbf997bc8	-1.19909
175	0x3fd16a16	1.63605
176	0x3f424053	0.758794
177	0x3cd0eed0	0.0255045
178	0xbe71d7dc	-0.236175
179	0xbefecc60	-0.497653
180	0xbcac18c2	-0.0210079
181	0x3e48bdec	0.196037
182	0xbe4ae89f	-0.198153
183	0x3f7fa094	0.998544
184	0xbf924207	-1.14264
185	0x3b5eb1a7	0.00339804
186	0x3f5a8006	0.853516
187	0x3f3c21f3	0.734893
188	0xbf4a4f98	-0.790277
189	0xbe93f20a	-0.288956
190	0xbf995df6	-1.19818
191	0x3d0a812e	0.0338146
192	0x3f11307b	0.567146
193	0xbff887a9	-1.94164
194	0x3f280ae1	0.656416
195	0xbeecc33b	-0.462427
196	0xbe8a31c6	-0.269911
197	0xbe7150db	-0.23566
198	0xbf334c3c	-0.700382
199	0xbd498387	-0.0491977
200	0x3e70e304	0.235241
201	0xbf1c5e0b	-0.61081
202	0x3f040315	0.515672
203	0x3c031abd	0.00800198
204	0xbf8985f0	-1.0744
205	0x3eba6b0e	0.364098
206	0xbd071d96	-0.0329872
207	0x3f15669d	0.583597
208	0x3be5f3fb	0.00701761
209	0x3fc2d5d0	1.52215
210	0x3f1e1f3a	0.617664
211	0xbf31b38d	-0.694146
212	0xbff54706	-1.91623
213	0x3d4f6472	0.0506329
214	0xbec478ea	-0.383735
215	0x3eaf1045	0.341921
216	0xbf4680bf	-0.775402
217	0xbf3b7857	-0.732305
218	0xbefb50f4	-0.490852
219	0xbce3d1cc	-0.02781
220	0xbcaa66dc	-0.020801
221	0x3f18a490	0.596261
222	0x402be282	2.6857
223	0xc00b49cf	-2.17638
224	0xbfbf52a8	-1.49471
225	0xbe2ef49d	-0.170855
226	0x3f36480f	0.712037
227	0x3caafa80	0.0208714
228	0xbfc389b5	-1.52764
229	0x3e9d0e78	0.306751
230	0x3dae9970	0.0852536
231	0x3f7fe500	0.999588
232	0x3f283a54	0.65714
233	0x3fc96abe	1.57357
234	0xbfd4c597	-1.66228
235	0xbba0bf3d	-0.00490561
236	0x3f1f5382	0.622368
237	0x3f7fb9ae	0.998927
238	0x3f3c2785	0.734978
239	0x3ffb0a3d	1.96125
240	0xc0035f1c	-2.05268
241	0x3a5436e8	0.000809534
242	0x3dda97e1	0.106735
243	0x400bdb23	2.18525
244	0xbf20067d	-0.625099
245	0xbf228dfc	-0.634979
246	0xbe466a55	-0.193765
247	0xbd3cd49d	-0.0461012
248	0x3fdee979	1.7415
249	0xbcf28dbc	-0.0296086
250	0x3e39ac79	0.181322
251	0x3df0cdc8	0.11758
252	0x3fb5feda	1.42184
253	0x3c2217b8	0.00989335
254	0xbecaaeb0	-0.395864
255	0xbf30a59c	-0.690027

6 f4 [50]
0	0x3e859e62	0.260974
1	0xbfaabe8c	-1.33394
2	0x3f1ab51c	0.604326
3	0xc00e7b35	-2.22627
4	0xbfc585f0	-1.54315
5	0xbea0e193	-0.314221
6	0xbfe28e61	-1.76997
7	0x3fc149a5	1.51006
8	0xbf4df666	-0.804541
9	0xbef42fc7	-0.476927
10	0x3f6e1262	0.929968
11	0x3f2eaa7e	0.682289
12	0x3e17df1a	0.148312
13	0x3ea3dc27	0.320039
14	0x3fac46c7	1.34591
15	0x3d9e4522	0.0772803
16	0xbeddf6dc	-0.433524
17	0xbcfb2570	-0.0306575
18	0xbf8ddbcb	-1.10827
19	0xbf030953	-0.511861
20	0x3c05ace8	0.0081589
21	0xbc2ead27	-0.0106614
22	0xbeaf8488	-0.342808
23	0xbf4a8e2e	-0.791232
24	0x3f1d1e21	0.613741
25	0xbe5681ed	-0.20948
26	0xc0430457	-3.04714
27	0xbf48df05	-0.784653
28	0xbfd42d38	-1.65763
29	0xbcbaa9ea	-0.0227861
30	0xc03d3c36	-2.9568
31	0x3dce3b47	0.100699
32	0xbf26ce57	-0.651586
33	0xbe36ea85	-0.178629
34	0xbd1cfd9c	-0.0383278
35	0xbf125d3a	-0.571735
36	0x3f7e3811	0.993043
37	0x3f6c5b18	0.923265
38	0xbe2650a4	-0.162417
39	0xbebb3700	-0.365654
40	0x3f427642	0.759617
41	0xbf1044bf	-0.563549
42	0xbf9c35bd	-1.22039
43	0xbf4ae5ef	-0.792571
44	0x3ec74ea9	0.389272
45	0x3e1e4ead	0.154597
46	0xbfb636e3	-1.42355
47	0x3cd20d13	0.025641
48	0xbe884a73	-0.266193
49	0xbc21ae71	-0.00986825

7 f4 [50, 50]
0	0x3ec45eb3	0.383535
1	0x3e8dbf6a	0.276851
2	0x3f374ce4	0.716017
3	0xbe18d478	-0.149248
4	0xbe0def41	-0.138608
5	0x3e275254	0.1634
6	0x3e4feb8e	0.203047
7	0xbe8f0f39	-0.279413
8	0xbda23be5	-0.0792158
9	0xbdaff20e	-0.0859109
10	0xbf065343	-0.524708
11	0x3ebb9e49	0.366442
12	0x3effb2cc	0.499411
13	0xbf8921ab	-1.07134
14	0x3c8990a2	0.0167926
15	0xbd257efb	-0.0404043
16	0x3f8448bf	1.03347
17	0x3ad9abd8	0.0016607
18	0x3e6ec893	0.233187
19	0x3f9dcac1	1.23275
20	0xbeaabae0	-0.333457
21	0x3cc35123	0.0238424
22	0x3f5bcf3e	0.858631
23	0xbf1d7742	-0.615101
24	0xbf18aada	-0.596357
25	0x3f847842	1.03492
26	0x3f280fcb	0.656491
27	0xbeb80cd8	-0.359473
28	0x3fc7be77	1.5605
29	0x3d3f9b06	0.0467787
30	0x3c0003bc	0.00781339
31	0xbe0445ed	-0.129173
32	0x3eba45b3	0.363813
33	0x3ef03cb0	0.469213
34	0xbd0bbfa1	-0.0341183
35	0xbec67c4a	-0.387667
36	0x3df6837f	0.120368
37	0xbeb3a366	-0.350856
38	0xbea42720	-0.320611
39	0xbe9f32be	-0.310934
40	0xbeec99d0	-0.462111
41	0x3f37ae36	0.717502
42	0x3ebe9fae	0.372312
43	0xbf0aaa5c	-0.541662
44	0xbe60a351	-0.219373
45	0x3fb5898b	1.41826
46	0xbcef92ca	-0.0292448
47	0xbe55af29	-0.208676
48	0x3ee459da	0.445998
49	0x3c2355bb	0.00996917
50	0x3f2b4d16	0.669145
51	0x3e40be0e	0.188225
52	0x3e356abe	0.177165
53	0x3f8123f6	1.00891
54	0x3ea2350d	0.316811
55	0xbf87c361	-1.06065
56	0xbee051a8	-0.438123
57	0xbca92238	-0.0206462
58	0xbfa0bb6f	-1.25572
59	0x3cc54af8	0.0240836
60	0x3e44ef03	0.192318
61	0xc0005bea	-2.00561
62	0xbeb20924	-0.347726
63	0x3fce8eb4	1.61373
64	0xbe50b9dc	-0.203834
65	0x3f65b6e5	0.897322
66	0x3f9921ab	1.19634
67	0x3d452b33	0.0481369
68	0xbe625248	-0.221017
69	0xbf1c5dfb	-0.610809
70	0x3d0f3908	0.0349665
71	0xbcae78ef	-0.0212979
72	0xbf8bbb30	-1.09165
73	0xbe98c4df	-0.298377
74	0x3f45dffc	0.772949
75	0x3e06dfc6	0.131713
76	0x3ddb1b7a	0.106986
77	0xbdc05fd7	-0.0939328
78	0x3ee970b5	0.455938
79	0x3cce9c45	0.025221
80	0xbf3aec18	-0.730165
81	0xbde1e0c6	-0.110292
82	0x3f3defd8	0.741941
83	0xbebbdc48	-0.366915
84	0xbd9a5d0e	-0.0753728
85	0x3d9e1f70	0.0772084
86	0x3dde742a	0.10862
87	0xbc0ef256	-0.00872477
88	0x3dc1bade	0.0945947
89	0xbf0289db	-0.509916
90	0xbf25ea25	-0.648104
91	0x3f84f2d0	1.03866
92	0x3f362f27	0.711657
93	0xbd9bae62	-0.0760162
94	0x3f86a401	1.05188
95	0x3fe5c38b	1.79503
96	0x3f34651f	0.704668
97	0x3f90a3d7	1.13
98	0xbda068c1	-0.0783248
99	0xbd17be63	-0.0370468
100	0x3efdc465	0.495639
101	0x3eb5ae3e	0.354845
102	0x3ff47c85	1.91005
103	0x3e1aca79	0.151163
104	0xbedef630	-0.435472
105	0xbe9f4107	-0.311043
106	0xbea8e53f	-0.329874
107	0xbca904a6	-0.0206321
108	0xbf049518	-0.5179
109	0xbe9904d5	-0.298865
110	0xbe4dd723	-0.201016
111	0x3f0ff4aa	0.562327
112	0x3f5bc6c9	0.858502
113	0xbdab6ac0	-0.0836997
114	0x3e0b2420	0.13588
115	0x403af9b1	2.92149
116	0xbf5e9c67	-0.869574
117	0x3d128eae	0.0357806
118	0xbed970d6	-0.424689
119	0x3e1502ac	0.145518
120	0xbf035c9e	-0.513132
121	0xbcda7272	-0.0266659
122	0xbe39a283	-0.181284
123	0xbea97f20	-0.331048
124	0x3f97079e	1.17992
125	0x402256d6	2.53655
126	0x3e0bfca8	0.136706
127	0x3f2379ea	0.638579
128	0xbf21c90c	-0.631974
129	0xbc9f72c2	-0.0194639
130	0x4004dd59	2.07601
131	0x3f83fa1a	1.03107
132	0x3ee1a8ce	0.440741
133	0xbf51c25d	-0.819372
134	0xbd2526cb	-0.0403202
135	0x3efb6cbe	0.491064
136	0x3e4b35f4	0.198448
137	0x3f0efbb1	0.558528
138	0xbfc42d8c	-1.53264
139	0xbea07e7c	-0.313465
140	0xbf4057b0	-0.751338
141	0x3f8c0f13	1.09421
142	0xbfac7c31	-1.34754
143	0x3f46325d	0.774206
144	0x3e30f495	0.172808
145	0xbec3cfb3	-0.382444
146	0xbef6961c	-0.481614
147	0xbed4cf4a	-0.415644
148	0xbe6a6ca0	-0.22893
149	0xbc75975c	-0.0149897
150	0xbd402f65	-0.0469202
151	0xbedfc71d	-0.437066
152	0xbf9b313c	-1.21244
153	0x3f2a2a6f	0.66471
154	0x3eb70de9	0.357528
155	0xbef54563	-0.479045
156	0xbf32d8c3	-0.69862
157	0xbeb0a88f	-0.345036
158	0xbe592924	-0.212071
159	0x3ea2d7f9	0.318054
160	0x3e02d235	0.127755
161	0xc02062a2	-2.50602
162	0x3f119ea5	0.568827
163	0x3f0f84ba	0.560619
164	0xbdc123c4	-0.0943065
165	0xbff9bda5	-1.9511
166	0x3f477176	0.779075
167	0x3cefff6c	0.0292966
168	0x3e2fc5ce	0.171653
169	0x3e1bdec6	0.152217
170	0x3fbc67e0	1.47192
171	0xbbe3fd2b	-0.00695767
172	0xbeb444bf	-0.352087
173	0xbf0407ee	-0.515746
174	0x3f73f994	0.953027
175	0xbfac764b	-1.34736
176	0xbe9df352	-0.308497
177	0x3edaa25e	0.42702
178	0xbdac2bcb	-0.0840679
179	0xbb8eba02	-0.00435567
180	0x3f933ffb	1.15039
181	0x3f45d6f1	0.772811
182	0x3ef15593	0.471356
183	0x3f39a1cb	0.725125
184	0x3d7f6e0a	0.0623608
185	0x3d88aee0	0.0667398
186	0xbe9f7425	-0.311433
187	0xbec47454	-0.3837
188	0x3f57fc65	0.843695
189	0xbd7dc055	-0.061951
190	0x3f3aa2b1	0.729045
191	0x4023967d	2.55606
192	0x3f844b0a	1.03354
193	0x3e0caf71	0.137388
194	0x40259e30	2.58778
195	0xc00256ac	-2.03654
196	0x3d5afeda	0.0534657
197	0xbfabe521	-1.34293
198	0x3d57824d	0.0526145
199	0x3d10e886	0.035378
200	0xc082cd21	-4.08754
201	0x3ec91212	0.392716
202	0x3fa07747	1.25364
203	0xbefd069a	-0.494191
204	0x3edcd22d	0.431291
205	0x3f704589	0.938561
206	0x3e8ebd4d	0.278788
207	0xbf3ef1aa	-0.745875
208	0x3ed1d841	0.409853
209	0x3f96368f	1.17354
210	0x3b3bb1c7	0.00286399
211	0x3e6da76e	0.232084
212	0x3ef67382	0.48135
213	0xbf57d61f	-0.843111
214	0x3ef5eb10	0.480309
215	0xbe57707a	-0.21039
216	0x3f8d83a5	1.10558
217	0xbd63948f	-0.0555616
218	0x3ea0b0af	0.313848
219	0x400201a3	2.03135
220	0x3feb6502	1.83902
221	0xbcf64389	-0.0300615
222	0x3f63866e	0.88877
223	0xbd9520f9	-0.0728168
224	0xbd45c033	-0.048279
225	0x4015667b	2.33438
226	0x3d880489	0.0664149
227	0x3f86b40f	1.05237
228	0x3ecfd5ed	0.405929
229	0x3d2111ae	0.0393235
230	0x3f91374c	1.1345
231	0x3e418def	0.189018
232	0x3fa30846	1.27369
233	0x3f79450f	0.97371
234	0x3d00515f	0.0313276
235	0xbf401a69	-0.750403
236	0xc03623e2	-2.84594
237	0x3e4ac6ce	0.198024
238	0x3fb1db77	1.38951
239	0xbf6fd2c8	-0.93681
240	0xc03d21ab	-2.95518
241	0x402f8b2f	2.74287
242	0x3f5d7e78	0.865211
243	0x3edb2053	0.427981
244	0xc01e2b95	-2.47141
245	0x3fee2a1b	1.86066
246	0x3f4f5169	0.809836
247	0x402a0831	2.65675
248	0x3ed68b7e	0.419033
249	0x3cd98c99	0.0265563
250	0x3f7a1405	0.976868
251	0x3f2d8c5d	0.677923
252	0xbdc727dd	-0.097244
253	0xbf85a1cb	-1.044
254	0xbe9d2978	-0.306957
255	0xbccf9b49	-0.0253426

8 f4 [50]
0	0xbe4ea4a9	-0.2018
1	0xbf93227d	-1.14949
2	0xbf81a0cf	-1.01272
3	0xc0044fa0	-2.06736
4	0xc0501ef7	-3.25189
5	0xbf0782e4	-0.529341
6	0x3fd63b79	1.67369
7	0xbea96441	-0.330843
8	0xc0049ec3	-2.07219
9	0xbf471716	-0.777696
10	0x400c0514	2.18781
11	0x3f179160	0.592062
12	0xbe5a63b7	-0.213271
13	0x3f1287e4	0.572386
14	0x3fc22b6b	1.51695
15	0xbed94f27	-0.424432
16	0xbf6baa8b	-0.920571
17	0xbf21d649	-0.632176
18	0x4004801f	2.07032
19	0xbfadd29e	-1.35799
20	0xbfb47b35	-1.41001
21	0xbfa62bbf	-1.29821
22	0xbf9858cd	-1.19021
23	0x3ee6a2d3	0.450461
24	0xbffce1c6	-1.97564
25	0x3fc24e27	1.51801
26	0x3f3f96f2	0.748397
27	0x3fc9465f	1.57246
28	0xbc28ef0d	-0.0103109
29	0x3f47afc9	0.780026
30	0x3edfc009	0.437012
31	0xc00c16c6	-2.18889
32	0xbf6db6e5	-0.928572
33	0xbfc12839	-1.50904
34	0xbfd8307f	-1.68898
35	0xbfbf165d	-1.49287
36	0x3ff68e61	1.92622
37	0xbfe4aff7	-1.78662
38	0xbfd5e743	-1.67112
39	0x3e786e7e	0.242609
40	0xbfa69e1b	-1.3017
41	0x3efe6a55	0.496905
42	0x3f6e26e5	0.930281
43	0xbf355305	-0.708298
44	0xbe555001	-0.208313
45	0xbeb0474e	-0.344294
46	0xbfbc6b7b	-1.47203
47	0xbf28f744	-0.660023
48	0xbf885879	-1.0652
49	0xbf1a03b4	-0.601619

9 f4 [50, 50]
0	0xbe91a47b	-0.284458
1	0xc03a201d	-2.90821
2	0xbfadf40a	-1.35901
3	0xbf87f7cf	-1.06225
4	0x3fae88ce	1.36355
5	0x3fb2ed67	1.39787
6	0xbf885879	-1.0652
7	0xbefa4d4d	-0.488871
8	0xbeb9797d	-0.362255
9	0xbfae2047	-1.36036
10	0xbf719243	-0.943638
11	0xc0604381	-3.50412
12	0x3ccf2d2f	0.0252901
13	0xbfbf9cb7	-1.49697
14	0xc02028a2	-2.50248
15	0xbf9a33f0	-1.20471
16	0xc0f13444	-7.53763
17	0x3cea39fb	0.0285921
18	0x3f952b80	1.16539
19	0x3fce39d6	1.61114
20	0xc00b0165	-2.17196
21	0x3f4fbecb	0.811505
22	0xc0f81798	-7.75288
23	0xbf569186	-0.838158
24	0x3e21e929	0.158116
25	0x3e64f3ba	0.223586
26	0x3fe8b72c	1.81809
27	0xbf72a0fd	-0.947769
28	0x3c195257	0.00935801
29	0xc002c250	-2.04311
30	0xc02f3e03	-2.73816
31	0x3fc64fca	1.54931
32	0x3fb83276	1.43904
33	0xbe485165	-0.195623
34	0xc01a7065	-2.41311
35	0x3ee56e8b	0.448109
36	0xbe419115	-0.18903
37	0x3fa6eac8	1.30404
38	0xc01e73ac	-2.47581
39	0xc0d40981	-6.62616
40	0xc0377026	-2.86622
41	0xc003244a	-2.04909
42	0xc06cdc87	-3.70096
43	0x3cbcef75	0.0230634
44	0xbe1253da	-0.142898
45	0xc0b4d0fa	-5.65051
46	0xc0417881	-3.02298
47	0xc0e9ffc1	-7.31247
48	0x3eae74f3	0.340736
49	0xbf0cd77b	-0.550163
50	0x3f248cc5	0.642773
51	0xbd6ff053	-0.0585788
52	0xbf0d28e1	-0.551405
53	0xbcc259ac	-0.0237244
54	0x3e80624e	0.25075
55	0x3f453459	0.77033
56	0x3ce95c50	0.0284864
57	0x3e3a686e	0.182039
58	0xbf0f571d	-0.559923
59	0xbfe51926	-1.78983
60	0x3de366d8	0.111036
61	0x3f4dcee1	0.803938
62	0x3f6d65f5	0.927337
63	0xbdecf6be	-0.115705
64	0xbf24f0c7	-0.644299
65	0x3f897b74	1.07408
66	0x3e26b54e	0.162801
67	0x3e9d10d4	0.306769
68	0xbdfe58e6	-0.124193
69	0xbf9dbf48	-1.2324
70	0xbf77b741	-0.96764
71	0x3c5c6dbf	0.0134539
72	0xbd97c6c6	-0.0741096
73	0x3ed05272	0.406879
74	0x3e08ca82	0.133585
75	0xbee6f523	-0.451089
76	0xbf2de604	-0.679291
77	0x3f32f406	0.699036
78	0x3c5f1d9d	0.0136179
79	0xbdd32bdc	-0.103111
80	0xbf162e0a	-0.58664
81	0x3e993e1d	0.299302
82	0xc0553919	-3.33161
83	0xc00a6c76	-2.16287
84	0x3ead4d62	0.338481
85	0x3f64e182	0.894066
86	0xbef24ebe	-0.473257
87	0x3edd4ac3	0.432211
88	0xbf7b723f	-0.982212
89	0x3f0ff7e0	0.562376
90	0xbfeeffc1	-1.86718
91	0xbf5fcf5f	-0.874258
92	0xbd8236a7	-0.0635808
93	0x3fb4c78f	1.41234
94	0xbebf32be	-0.373434
95	0xbf993459	-1.19691
96	0xbdf3cff6	-0.119049
97	0xc0629e1b	-3.5409
98	0xbf0e93d1	-0.556943
99	0xbf8f0fd0	-1.11767
100	0xbd6d720e	-0.0579701
101	0xbe83c48f	-0.257359
102	0x3f4f4795	0.809686
103	0xbf4c066c	-0.796973
104	0x3e75abc1	0.239913
105	0xc003089a	-2.0474
106	0xbee5e0f8	-0.448982
107	0xbe796a27	-0.243569
108	0x3d9fd56e	0.0780438
109	0xbfe63055	-1.79835
110	0x3eb2c237	0.349138
111	0xbebc4806	-0.367737
112	0xbddacf74	-0.106841
113	0xc0bab94e	-5.83512
114	0x3fd55769	1.66673
115	0x40224817	2.53565
116	0x3de3b689	0.111188
117	0x3effe6f7	0.499809
118	0x3eb95f03	0.362053
119	0x3ec9e3c9	0.394316
120	0x3ed6c8f7	0.419502
121	0x3f23835a	0.638723
122	0xc01830d3	-2.37798
123	0xc01f4b73	-2.48898
124	0xbcc09338	-0.0235077
125	0xc00d6fa8	-2.20994
126	0xbe892a52	-0.267901
127	0x3e124181	0.142828
128	0x3cec1100	0.0288167
129	0xbfc6b11c	-1.55228
130	0xbf432fdc	-0.762449
131	0xbf0b7fd0	-0.544919
132	0xc07c8d3b	-3.94612
133	0x3fa9f0c3	1.32766
134	0xc08dc005	-4.42969
135	0x3e300608	0.171898
136	0xbfa8fdf4	-1.32025
137	0xbeebc4d2	-0.460486
138	0xbe4a7158	-0.197698
139	0xbdc66bb2	-0.0968851
140	0xbecb7282	-0.397358
141	0x3f5e33be	0.867977
142	0xbf9627d0	-1.17309
143	0xc067b3fa	-3.62036
144	0xc0954928	-4.66518
145	0xc01ad749	-2.41939
146	0xc097fcce	-4.74961
147	0xbf0e26a2	-0.555277
148	0xbec738a4	-0.389104
149	0x3eac0336	0.335962
150	0x3ec925ff	0.392868
151	0x3ec00432	0.375032
152	0x3e5a72eb	0.213329
153	0x3f59755c	0.849447
154	0xbd591ced	-0.0530061
155	0x3e9668e4	0.293769
156	0x3d073cd5	0.033017
157	0x3e44de3c	0.192254
158	0x3e0a3ad2	0.13499
159	0xbe87296f	-0.263988
160	0x3e9b8a1a	0.303788
161	0xbf339f02	-0.701645
162	0xbdbb7ce4	-0.0915468
163	0x3f00e011	0.503419
164	0xbefeb724	-0.497491
165	0xbdffbd6a	-0.124873
166	0x3f8d4cec	1.10391
167	0xbe371194	-0.178778
168	0xbe2579af	-0.161597
169	0xbeb59e62	-0.354724
170	0x3f255044	0.645756
171	0x3f1fdd44	0.62447
172	0x3dc04c99	0.0938961
173	0xbe98f430	-0.298738
174	0x3dc36d3d	0.0954232
175	0xbe9ba605	-0.304001
176	0xbefe5061	-0.496707
177	0xbf831d93	-1.02434
178	0x3af5ad16	0.00187436
179	0xbf2b9fdc	-0.670408
180	0x3fa7bc7f	1.31044
181	0x3f8d2f6f	1.10301
182	0x3f97a882	1.18483
183	0x3f7fc84b	0.99915
184	0xbea50247	-0.322283
185	0x3e4eb5f6	0.201866
186	0xbe33c925	-0.175572
187	0x3f6685fd	0.900482
188	0x3d053cd0	0.0325287
189	0x3ed60264	0.417987
190	0x3eb0980b	0.34491
191	0x3ef4408e	0.477055
192	0xbe178c00	-0.147995
193	0xbe9759cd	-0.295607
194	0x3ea505af	0.322309
195	0xbf9f4b1f	-1.24448
196	0x3db07cba	0.0861754
197	0xbf084977	-0.532371
198	0x3e87c8d2	0.265204
199	0x3ece6080	0.40308
200	0x3f0e5d4a	0.556111
201	0xbfef97cc	-1.87182
202	0x3da3a81e	0.0799105
203	0x3eba8544	0.364298
204	0x3e6ddca5	0.232287
205	0x3fc8cc25	1.56873
206	0x3e218efc	0.157772
207	0x3ec18890	0.377995
208	0x3f44ffeb	0.76953
209	0xc01a5825	-2.41163
210	0x3f8123f6	1.00891
211	0xbf06c354	-0.526418
212	0xc004fb55	-2.07784
213	0x3fb6f4f1	1.42935
214	0xbf67bb95	-0.905206
215	0xbf614941	-0.880024
216	0x3d890b92	0.0669166
217	0xc06391bc	-3.55577
218	0xbff4ea4b	-1.9134
219	0x3eca80ae	0.395513
220	0xbfa37708	-1.27707
221	0xbe3dc7ef	-0.185333
222	0x3e72f838	0.237275
223	0xbfe1c971	-1.76396
224	0xbbf017ab	-0.00732704
225	0x3f23e34c	0.640187
226	0xbefd794a	-0.495066
227	0x3f2eac00	0.682312
228	0xbb0aaff2	-0.0021162
229	0xc02af228	-2.67103
230	0xbe72aae3	-0.23698
231	0xbe586552	-0.211324
232	0xbd27cba6	-0.0409657
233	0xc0094730	-2.14497
234	0x3f420eb6	0.758037
235	0xbf9b2baa	-1.21227
236	0xbdfbd8be	-0.122972
237	0x3fecfbfc	1.85144
238	0xbfb01c2e	-1.37586
239	0xbe3f6e83	-0.186945
240	0x3e8cb535	0.27482
241	0x3fa90fa6	1.32079
242	0xbfd40ebf	-1.6567
243	0xbed1c53f	-0.409708
244	0xbd18fdad	-0.0373513
245	0xbf13506e	-0.575446
246	0xbf4c9518	-0.79915
247	0xc06226fe	-3.53363
248	0x3e1ebbfd	0.155014
249	0xbfd0a4d3	-1.63003
250	0xbecca83b	-0.399721
251	0x3e08d21c	0.133614
252	0x3e8ea034	0.278566
253	0xbd75860f	-0.0599423
254	0xbc3cad2f	-0.0115159
255	0xbd8061d5	-0.0626866

10 f4 [50]
0	0xbfdfd75e	-1.74876
1	0x3e820019	0.253907
2	0x3fd641b3	1.67388
3	0xbe24eb9a	-0.161055
4	0x3fa08217	1.25397
5	0x3f7f68f1	0.997695
6	0x3eaf2fba	0.342161
7	0x3ee5d24a	0.44887
8	0xbff72e49	-1.9311
9	0xbf484f6e	-0.782462
10	0xbf92f156	-1.14799
11	0x3fd367f5	1.65161
12	0xc01f6e2f	-2.4911
13	0x40e91523	7.28383
14	0xbf60e347	-0.878468
15	0xbfa32181	-1.27446
16	0xbff7d417	-1.93616
17	0x40607770	3.50729
18	0xbe7c5c9a	-0.246447
19	0xc041daf9	-3.02899
20	0xc02615f4	-2.59509
21	0x3e74d37c	0.239088
22	0x4099f1fe	4.81079
23	0xbe7bb0e6	-0.245792
24	0xbf39c769	-0.725699
25	0x4055797d	3.33554
26	0xbea50df1	-0.322372
27	0xbf03fa09	-0.515534
28	0xc015fc8f	-2.34354
29	0x3fca848c	1.58217
30	0x3f84a383	1.03624
31	0x3eb19b6f	0.346889
32	0xbff35547	-1.90104
33	0x3fcbf62b	1.59345
34	0xbfadd92b	-1.35819
35	0x3ff72767	1.93089
36	0xbf5df57b	-0.867027
37	0x3fb906cd	1.44552
38	0x40203e6c	2.50381
39	0xc0429614	-3.04041
40	0x400d40a3	2.20707
41	0x40561b09	3.3454
42	0x403cbde4	2.94909
43	0x3f93404f	1.1504
44	0xbfdc9aaa	-1.72347
45	0x3f876998	1.05791
46	0x3f070fd0	0.527585
47	0x40639581	3.556
48	0xbebead92	-0.372418
49	0x4061e83e	3.5298

11 f4 [50, 50]
0	0xbf938423	-1.15247
1	0xbf641b54	-0.891042
2	0xc06b8ca8	-3.68046
3	0xc0cfcd75	-6.49383
4	0xbea57abc	-0.323202
5	0xc0a461a6	-5.13692
6	0xbf05208e	-0.520028
7	0xbf966bf8	-1.17517
8	0xc085b59e	-4.17842
9	0x3fe681ed	1.80084
10	0xbf49758e	-0.78695
11	0xc0d30f13	-6.59559
12	0xc0c2becb	-6.08579
13	0x3eb27b4e	0.348597
14	0xc0930e02	-4.59546
15	0xbffc0e17	-1.96918
16	0xbe1b0857	-0.151399
17	0x3e2d76ee	0.169399
18	0xc0f989ca	-7.79807
19	0xbe8e0547	-0.277384
20	0xc0a606cd	-5.18833
21	0xbf7cb4e1	-0.987135
22	0x3f4f687b	0.810188
23	0xbffb7cee	-1.96475
24	0xc1047dd4	-8.28072
25	0xbfa11926	-1.25858
26	0x3e90fb22	0.283166
27	0xbfd5a177	-1.66899
28	0xc1132d38	-9.19854
29	0xbe8302d6	-0.255881
30	0xc0069ca2	-2.10331
31	0xc08c7d41	-4.39029
32	0xc0733722	-3.80024
33	0xbfb981ae	-1.44927
34	0xbf98245f	-1.18861
35	0x3f955960	1.16679
36	0x3ea59a31	0.323442
37	0xc083c7a4	-4.11812
38	0xbef987e8	-0.487365
39	0xc0d17acc	-6.54624
40	0xbfaa8bc1	-1.33239
41	0x3fc38f9b	1.52782
42	0xc0561ea3	-3.34562
43	0xbfa99ed8	-1.32516
44	0x404a378b	3.15964
45	0xc0aed4fe	-5.4635
46	0xc0005c68	-2.00564
47	0xbebcea8e	-0.368977
48	0xc106189e	-8.38101
49	0xc02e2e5e	-2.72158
50	0x3e1f1cb9	0.155383
51	0x3e555ffe	0.208374
52	0x3fb5eb85	1.42125
53	0xbeb9819d	-0.362317
54	0x3f159685	0.584328
55	0x3ff668b2	1.92507
56	0x3f370fd0	0.715085
57	0x3fab9874	1.34059
58	0xbfd48701	-1.66037
59	0xbef5eb96	-0.480313
60	0x3fc73483	1.55629
61	0x3e665237	0.224923
62	0xbe25271c	-0.161282
63	0xbed107fb	-0.408264
64	0x400a0d45	2.15706
65	0x3f705f6c	0.938956
66	0x3f196fa8	0.59936
67	0xc041928e	-3.02457
68	0x3f0c45dd	0.547941
69	0x3db25156	0.0870692
70	0x3ef77510	0.483315
71	0xc0b66a94	-5.70051
72	0x3c8af1cc	0.016961
73	0x3fb334d7	1.40005
74	0x3e73c7d6	0.238067
75	0xbe564495	-0.209246
76	0x3fd986ec	1.69943
77	0xc037c23b	-2.87123
78	0x3eedf00b	0.464722
79	0xbf12ca9b	-0.573404
80	0xbf288fb8	-0.658443
81	0xbe919b6f	-0.284389
82	0x3ffd8256	1.98054
83	0x3f80c1fd	1.00592
84	0xbf9b7de9	-1.21478
85	0xc092f0ed	-4.59191
86	0x4019f0ed	2.40533
87	0xbe80c2e7	-0.251487
88	0xbd287916	-0.0411311
89	0x3f3c05d5	0.734464
90	0x3fc7d0d0	1.56106
91	0x3ecca127	0.399667
92	0x3e1c4c9d	0.152636
93	0xc0266128	-2.59968
94	0x3eb52913	0.353829
95	0xbfbaa5f8	-1.45819
96	0xbeb4ea4b	-0.35335
97	0x3f8baf10	1.09128
98	0xc02aba49	-2.66762
99	0xbf98bc6a	-1.19325
100	0xc08ed902	-4.46399
101	0x400c5aee	2.19305
102	0x4054fc7a	3.32791
103	0xc011fb94	-2.28098
104	0xc01804ea	-2.3753
105	0x403d2863	2.95559
106	0xc0d002c9	-6.50034
107	0xc02bdc9c	-2.68534
108	0x400fc2b9	2.24626
109	0xbf4614be	-0.773754
110	0x3ff8f3cb	1.94494
111	0xbddb8455	-0.107186
112	0x404e79e6	3.22619
113	0xbf674257	-0.903356
114	0x403257a8	2.7866
115	0x3fac6fbd	1.34716
116	0x40512b2c	3.26826
117	0xc0221f9f	-2.53318
118	0xc05704ff	-3.35968
119	0x3ed34d49	0.412699
120	0xbff6353f	-1.9235
121	0xc034bd12	-2.82404
122	0x3f12275b	0.570913
123	0xbebc2268	-0.36745
124	0x40672767	3.61178
125	0xbfeb5f1c	-1.83884
126	0x40531538	3.29817
127	0x3fa8063a	1.31269
128	0x4041f8cb	3.03081
129	0xbeaee3f8	-0.341583
130	0xbd5e265c	-0.0542358
131	0x3f6b2a9d	0.918619
132	0x403bd07d	2.9346
133	0xbf996095	-1.19826
134	0xbfa2baf1	-1.27133
135	0x3fc707f2	1.55493
136	0x3f014802	0.505005
137	0x3f2c09b3	0.672023
138	0x3eea7efa	0.458
139	0x3fb8346e	1.4391
140	0x400ba8ac	2.18217
141	0xc0713943	-3.76912
142	0x3fe96580	1.82341
143	0x3fc929dc	1.57159
144	0x407b859d	3.93003
145	0xbf83e814	-1.03052
146	0xbf85aee6	-1.0444
147	0x3fc6ae29	1.55219
148	0x3f993943	1.19706
149	0xbe2d9b5f	-0.169538
150	0xbf3127a2	-0.692011
151	0x3ebdbe1b	0.370591
152	0x3f98de2b	1.19428
153	0xbecb8024	-0.397462
154	0xbdce91c9	-0.100864
155	0x3f2cc2f8	0.67485
156	0x3fe29931	1.7703
157	0x3fc12e73	1.50923
158	0xbf9deecc	-1.23385
159	0xc044137f	-3.06369
160	0x3f84c1fd	1.03717
161	0xc00c9bfa	-2.19702
162	0xc1079dc7	-8.47602
163	0xbeec5f39	-0.461664
164	0x401e2585	2.47104
165	0xbf926b51	-1.1439
166	0xbe603b82	-0.218977
167	0xc036a305	-2.8537
168	0x3f26f651	0.652196
169	0xbe7a2db6	-0.244315
170	0xc0bb5c29	-5.855
171	0xbecb1e19	-0.396714
172	0x3f1c3276	0.610145
173	0x3f8fbc2c	1.12293
174	0x3fa786c2	1.3088
175	0x3d870055	0.0659186
176	0xbf9ad5d0	-1.20965
177	0x400bcc3a	2.18434
178	0xc0d3aa11	-6.61451
179	0x3efec893	0.497624
180	0xbeea6d48	-0.457865
181	0xbf778b9c	-0.966974
182	0x3ebe7a31	0.372026
183	0x3d8c386d	0.068467
184	0xbee20297	-0.441426
185	0x3f5aa9f8	0.854156
186	0x3f104c6a	0.563666
187	0xbfe90386	-1.82042
188	0xbf105cee	-0.563918
189	0xc01aedbb	-2.42076
190	0xc048617c	-3.13095
191	0xbdfcce1c	-0.12344
192	0x3f937564	1.15202
193	0xbc077fbc	-0.0082702
194	0x3f86b94e	1.05253
195	0xbe825b75	-0.254604
196	0x3e648cf8	0.223194
197	0x3e21537a	0.157545
198	0xbe5ac472	-0.21364
199	0xbcb4e4ae	-0.0220817
200	0xbf24e1b5	-0.644069
201	0xbf17f6e4	-0.593611
202	0xbf91bc56	-1.13856
203	0x3f228a2f	0.634921
204	0xbdde4799	-0.108535
205	0xc09a583a	-4.82327
206	0xc0ab1f36	-5.34756
207	0xbf8525ee	-1.04022
208	0xc0470bb7	-3.11009
209	0xc00ad624	-2.16932
210	0xbf2c2214	-0.672395
211	0xbd7a2e65	-0.0610794
212	0xbf4efee7	-0.808577
213	0xbd43d9fa	-0.0478153
214	0xc0c21759	-6.06535
215	0xbffba398	-1.96593
216	0x3d580baa	0.0527455
217	0xbcd783aa	-0.0263079
218	0xbea73733	-0.326593
219	0xbf371e4b	-0.715306
220	0xc0a5afcd	-5.17771
221	0xbe223cc9	-0.158435
222	0x3f258b1e	0.646654
223	0xbffee48f	-1.99135
224	0xbf85c8c9	-1.04519
225	0xc00eaa8f	-2.22916
226	0xc06b0b0f	-3.67255
227	0xc054d384	-3.32541
228	0xbee89bd8	-0.454314
229	0x3ed519bd	0.416212
230	0x3ec89d8c	0.391827
231	0xc052703b	-3.2881
232	0xc06970ce	-3.64751
233	0xc098aea7	-4.77132
234	0xbe018091	-0.126467
235	0x3fa01840	1.25074
236	0x3f74e52e	0.956622
237	0x3d83eb62	0.0644138
238	0xbf46264e	-0.774022
239	0xc01367f5	-2.30322
240	0xc009497b	-2.14511
241	0xbe8f4730	-0.27984
242	0x3f68d5a6	0.90951
243	0xbe9da9eb	-0.307937
244	0xc0324f4c	-2.78609
245	0xbfef0165	-1.86723
246	0xbf804cad	-1.00234
247	0xbe24f1e5	-0.161079
248	0xbfb6afcd	-1.42724
249	0xc02c31cf	-2.69054
250	0xbf0ad352	-0.542287
251	0xbd8af6c7	-0.0678535
252	0x3ca40563	0.0200221
253	0xbe271d1d	-0.163197
254	0xbac10543	-0.00147263
255	0x3e54c9c9	0.207801

12 f4 [50]
0	0x400510f5	2.07916
1	0xbfb31af4	-1.39926
2	0xc0b1e743	-5.55948
3	0xc02adf7a	-2.66989
4	0x405cd6a1	3.4506
5	0x3e4ffe2a	0.203118
6	0xc00d104d	-2.20412
7	0x3fdbd9a9	1.71758
8	0xc01c7842	-2.44484
9	0x3fb7381d	1.4314
10	0x3f6c33c6	0.922665
11	0xbd333044	-0.0437472
12	0xbede08f2	-0.433662
13	0x3f1c5d31	0.610797
14	0x3e84bf2b	0.259271
15	0x3fcb5bd5	1.58874
16	0x3e64afd5	0.223327
17	0xbf8067e0	-1.00317
18	0xbec96590	-0.393353
19	0x40270f52	2.61031
20	0x3f55464e	0.833104
21	0x3fd00831	1.62525
22	0xc0935de1	-4.60521
23	0x40914a0e	4.54029
24	0x3e4c4b0a	0.199505
25	0x3f7750e3	0.966078
26	0xbf01e647	-0.50742
27	0x3fe79a17	1.80939
28	0x3f0eaae3	0.557295
29	0xc0444135	-3.06648
30	0xbf1717ce	-0.590207
31	0xc048d1b7	-3.1378
32	0xbfd1aee6	-1.63815
33	0x3fae0179	1.35942
34	0x3ed7aace	0.421225
35	0x3eb485c2	0.352583
36	0xbe07e069	-0.132692
37	0xbf74ffeb	-0.95703
38	0x4026447c	2.59793
39	0xbf22846a	-0.634833
40	0x3fff19f8	1.99298
41	0xbf0a9c88	-0.541451
42	0x3f3486be	0.705181
43	0x3eccc6e7	0.399955
44	0xbd20cc94	-0.0392576
45	0xbf15fcc2	-0.585888
46	0xbfa3abc9	-1.27868
47	0xc0135e9e	-2.30265
48	0x40120ebf	2.28215
49	0xc0e05293	-7.01008
