configs/networks/acas/acas_3_4.onnx (onnx, 61577 bytes, 14 tensors)

1 f4 [50, 5]
000000 5c 3e 92 be 23 25 b7 3d 97 1f 04 bf ef 81 c7 bd
       -0.285632 0.0894263 -0.516107 -0.0974158
000010 ea ca 8b bf 76 fd e1 bb 30 bc 2a 3f 78 08 37 bf
       -1.09213 -0.00689667 0.666934 -0.714973
000020 55 3a 33 bc dc 10 77 bf 57 2e 0a bc 13 dd 0a bb
       -0.0109392 -0.965101 -0.0084339 -0.00211889
000030 3c b0 2d bc f1 75 46 3b 97 6e 16 3b fa 44 1e bb
       -0.0106011 0.00302827 0.00229541 -0.002415
000040 59 41 ad bd 13 d7 39 bf 99 61 07 bf 2e 55 a9 3e
       -0.0845973 -0.725938 -0.528833 0.330728
000050 21 e8 b8 3e 67 f2 29 c0 34 bb 1e be ff de 57 bd
       0.361146 -2.65542 -0.155011 -0.0527029
000060 2b dc 62 3e 0a ba fd bf 63 86 21 bd 54 a3 1c 3d
       0.221543 -1.98224 -0.0394348 0.0382417
000070 91 0c 89 bd 0d 2e e7 bb b4 97 88 3c b2 9f 51 3f
       -0.0669185 -0.00705505 0.0166739 0.818843
000080 fc 36 bc be 5b d3 4c be 97 ac 5a 3e bb 2a 90 be
       -0.367607 -0.200025 0.213549 -0.281576
000090 6c 40 46 bb 95 ed 85 3a d1 6c a8 3d af 06 08 3f
       -0.00302508 0.00102179 0.0822388 0.531352
0000a0 83 a9 01 3d 45 b3 17 3c 60 da 05 bc 31 94 af bf
       0.0316558 0.00925905 -0.00816974 -1.37171
0000b0 11 70 74 bf 56 30 26 bb 13 0b fc be 0e 87 29 3f
       -0.954835 -0.00253584 -0.492272 0.662217
0000c0 cc 7a bd bf f6 eb 3a 3f 0e 9f 34 3d 69 e0 9f 3e
       -1.48031 0.730163 0.044097 0.312259
0000d0 08 27 5c bb 7a 38 e9 be 83 2f 04 c0 50 f5 12 bc
       -0.00335926 -0.455509 -2.0654 -0.00896962
0000e0 37 88 c6 3d 1b 83 8e 3e a3 01 b4 3f 56 65 93 bf
       0.0969395 0.278344 1.4063 -1.15153
0000f0 6c 5b f0 bf 49 f3 37 3e 72 c4 0a be ec 6f 44 bd
       -1.87779 0.179639 -0.135515 -0.0479583
000100 45 1b 36 bd cf db d8 bc f7 06 ab 3f e8 c1 a5 be
       -0.0444596 -0.026472 1.33615 -0.323745
000110 9d 9b ee be 60 ef 84 3d 48 95 f6 ba a3 56 44 bf
       -0.466031 0.0649097 -0.00188128 -0.766947
000120 e2 75 41 3f be 6c fb 3d 71 1d 7f bf 2f 8b e9 3e
       0.755705 0.122766 -0.996543 0.45614
000130 7c 9c 29 3d 9a b3 fe bd 8e 3e 96 3e ad 2f 62 be
       0.041409 -0.124366 0.293446 -0.220885
000140 1b 84 39 bc 43 3c a2 3d ec df 95 bd b0 8f a2 3f
       -0.011323 0.0792165 -0.073181 1.27001
000150 cc d1 8b bf 8b 38 09 3f 04 cd 82 bd c3 f1 ac be
       -1.09234 0.536019 -0.0638676 -0.337782
000160 f3 ff 6a 3d c9 ab 83 bf 38 86 1c bf 69 3b 8e 3e
       0.057373 -1.02868 -0.611423 0.277797
000170 00 bc af 3d d8 66 9e 3d 15 22 1b 3d 0a 5e 19 bd
       0.0858078 0.0773446 0.0378743 -0.0374432
000180 53 b7 6e 3d 8a 1d fd be d7 f8 f4 be 78 b3 9e 3e
       0.0582803 -0.494366 -0.478461 0.309963
000190 4c 54 a3 bf 2c 0e 07 be a0 bf b5 3d ca 4a 38 3d
       -1.27601 -0.13189 0.0887444 0.0449932
0001a0 a3 5c 92 be 5c 43 44 3d 6a 10 c9 3b 54 14 74 bd
       -0.285863 0.0479158 0.00613599 -0.0595897
0001b0 0e 4c 1a 3f 6c 5f 10 3e cf 15 55 3e 2a 1e d7 3e
       0.602723 0.140989 0.208091 0.420152
0001c0 61 51 91 3c c9 cc 15 be 6d c4 b8 3c d6 a3 a5 b8
       0.017739 -0.146289 0.0225546 -7.89833e-05
0001d0 8e 58 eb bd 4a 5e 0d bf 8a 00 1b bf 88 9c 7e 3e
       -0.114915 -0.55222 -0.605477 0.248644
0001e0 f2 cc f0 3c 45 0d 92 bf 1a 17 8a 3f fd 1c 7a 3c
       0.0293946 -1.14103 1.07883 0.0152657
0001f0 41 23 9e bb ae b6 e2 3d e8 d8 c1 3e 7e c9 26 be
       -0.00482598 0.1107 0.378608 -0.162878
000200 72 fa ba be 1f f2 0a 3f 9a 8e 8a bd 74 d0 45 3e
       -0.365192 0.542757 -0.0676548 0.193178
000210 d7 51 4d 3f 57 08 1b 3e c9 e8 e0 bd 9f 19 a9 bc
       0.80203 0.151399 -0.109819 -0.0206421
000220 62 d6 a3 3e b4 ca 4c be 63 9c af bf 63 d4 09 3f
       0.319995 -0.199992 -1.37196 0.538397
000230 36 d8 8a bd 33 d0 8b bd cd 92 02 c0 48 02 e8 bc
       -0.0677952 -0.0682682 -2.04021 -0.0283214
000240 70 7c cd 3d ad b6 8b ba ce fe b0 3e a2 b3 9c be
       0.100335 -0.00106593 0.345694 -0.306058
000250 30 0d e3 bf 20 f1 37 3f 58 59 fb bd d2 52 a9 3f
       -1.77384 0.718523 -0.122729 1.32284
000260 00 c5 54 bf fe 9e 88 be 77 82 8d 3e 66 4f 1d 3d
       -0.831131 -0.266838 0.276386 0.0384058
000270 83 15 3f 3f 88 2b 3f bf 34 82 8d 3d 1a a3 7d bf
       0.746422 -0.746758 0.069096 -0.99077
000280 28 9e 1f bf 42 d2 97 3e 3d d3 b3 be 0e 69 24 3e
       -0.623507 0.296526 -0.351221 0.160557
000290 8e e2 b1 bd c5 1e 5a 3b b1 8a 01 40 a7 2a c8 bb
       -0.0868579 0.00332825 2.02409 -0.0061086
0002a0 11 d2 09 bd d9 25 ca 3e 6f d7 8b 3c 50 a6 61 be
       -0.0336476 0.39482 0.0170705 -0.220361
0002b0 d3 30 b4 3e 2b f9 b0 be 64 05 57 bf 66 83 8c bf
       0.351935 -0.345651 -0.839926 -1.09776
0002c0 ec bc 32 3c 2c 02 2d bb 65 8a f9 3d ec 31 21 3e
       0.0109093 -0.0026399 0.121846 0.157417
0002d0 43 ac 1d bc a2 53 01 bd 48 10 f4 3b 91 0f 86 bf
       -0.00962359 -0.0315739 0.00744823 -1.04735
0002e0 c5 fe b2 bf 5a 3a 55 bc 2a 36 36 3e 81 41 9a be
       -1.3984 -0.0130144 0.177941 -0.301281
0002f0 19 c5 92 be 56 d4 a8 3f 14 40 15 bf db e6 21 bd
       -0.28666 1.31898 -0.583009 -0.0395268
000300 f5 b4 08 bd 5f 9a 22 be e8 bc 16 be 1e 25 65 bc
       -0.0333757 -0.158792 -0.147205 -0.0139859
000310 30 38 80 ba 3e 90 e1 bb 10 39 a2 3c 35 07 79 ba
       -0.000978237 -0.00688365 0.0198026 -0.000949967
000320 30 2e 55 3c 49 05 bf bd 9d 2e 83 3f 94 f9 c7 be
       0.0130115 -0.0932718 1.02486 -0.390576
000330 e4 d9 ed 3e ca 6c e8 3e bb ef 50 3f d1 20 21 bf
       0.464553 0.453955 0.816158 -0.629407
000340 ff 96 00 be 58 e8 20 3c 7f f7 0e bd e4 65 05 bf
       -0.125576 0.00982102 -0.034904 -0.521086
000350 14 98 26 3f df a8 d5 3d c1 8b 6e be 00 d9 35 3c
       0.650758 0.104326 -0.232955 0.0110991
000360 19 39 8b be d6 8b 9d bf 85 02 db bc f9 08 c6 3d
       -0.27192 -1.23083 -0.0267346 0.0966968
000370 9a ba 86 3c 3f 52 d4 be 94 db ae 3e 19 76 d0 be
       0.0164464 -0.41469 0.341519 -0.407151
000380 3b 3a ce 3e 3d 94 8d 3d 8b 6c a7 bf b1 c4 a3 3f
       0.402788 0.0691304 -1.308 1.27944
000390 05 c0 e8 be 6a 32 4b bf 15 84 bc bc f2 36 80 bb
       -0.45459 -0.793738 -0.0230122 -0.0039128
0003a0 cb fc fe bc 35 df f3 bb f8 b1 04 3a 37 78 75 3d
       -0.0311264 -0.00744238 0.000506192 0.0599291
0003b0 d8 f5 ab bf 19 8d d4 be 8c 67 10 3f 34 10 6f bf
       -1.34344 -0.415139 0.56408 -0.933841
0003c0 dd d3 30 bc 18 23 62 3e b0 ad 6f be 07 7c be bf
       -0.0107927 0.220837 -0.234061 -1.48816
0003d0 93 90 b8 3e c8 41 8d bf e6 8e b3 bd 8f 90 dc bc
       0.360478 -1.10357 -0.0876749 -0.0269244
0003e0 e9 d3 0a be 4d ef 49 bb
       -0.135574 -0.00308128

2 f4 [50]
000000 c9 aa 98 be 13 ba 1b be 0f ba 9f bc ce 39 28 3e
       -0.298178 -0.152077 -0.0194979 0.164283
000010 1a 8a 93 3e e3 fa bf be d0 9c 65 3e bc cb 55 3e
       0.288163 -0.374961 0.224231 0.208785
000020 ea ae e4 be d5 05 3c bc 7b dc d7 be dc 51 92 3c
       -0.446647 -0.011476 -0.421604 0.0178613
000030 86 37 b3 be f9 f3 0d bf ea 75 6b bd b6 0e 5e 3e
       -0.350033 -0.554504 -0.0574855 0.216853
000040 ae 45 83 3e e7 fe 8a bd 4c a0 0d 3d 2d a1 f1 3c
       0.256391 -0.067869 0.0345767 0.0294958
000050 55 15 b2 be 7e 1b 62 3e 04 57 f9 3d 06 82 10 be
       -0.347819 0.220808 0.121748 -0.141121
000060 22 fe 39 3f ac 95 44 3d 64 3d 05 3e 94 6a 7f bd
       0.726534 0.0479943 0.130117 -0.0623575
000070 ef 8e 2c 3e 30 f3 21 bf a0 19 3c 3f f2 10 e1 3c
       0.168514 -0.632617 0.734766 0.0274739
000080 cb be ab bc 95 9e 89 3e 61 e2 9f 3e 94 14 18 be
       -0.020965 0.268788 0.312274 -0.148516
000090 f2 5e f5 be e5 63 67 3e c8 08 e8 3d 14 44 b8 bc
       -0.47924 0.225967 0.113298 -0.0224934
0000a0 1f 68 55 3e 20 ed cf 3e af b3 51 3e c8 96 45 3e
       0.208405 0.406106 0.204787 0.192958
0000b0 b2 0b 9b 3d 25 94 b6 be bb 64 f7 bc a7 1f 54 3d
       0.0757059 -0.356599 -0.0301994 0.051788
0000c0 7b 4a 0e bf e6 78 b5 bd
       -0.555824 -0.0886095

3 f4 [50, 50]
000000 1d ca 50 bf 84 f5 9f be 4a b2 33 3c 99 49 14 3c
       -0.815584 -0.31242 0.0109678 0.00905075
000010 c2 db b3 3e c6 50 2e be 95 b9 0d 3f f2 b5 b7 bd
       0.351286 -0.17023 0.553613 -0.0897025
000020 25 e7 04 3e d8 10 b4 be 57 79 a2 be 03 7d 9a bf
       0.129788 -0.351691 -0.317332 -1.20694
000030 72 c5 ad 3e fa 27 80 3e d5 ce 4c 3f e2 55 7b bc
       0.339397 0.250305 0.800031 -0.0153403
000040 40 c0 12 3f 4e 46 d5 3d 22 df a5 be a1 4a ad 3e
       0.573246 0.104138 -0.323968 0.33846
000050 b9 8c d3 be 30 d7 4e bf db 4c e5 3e 08 af 1d 3e
       -0.413183 -0.807971 0.447852 0.153988
000060 c0 ed 99 3e 23 84 a7 3d a5 c0 a2 3e 0d 51 35 3f
       0.300642 0.081795 0.317876 0.708268
000070 d9 0a a2 be d8 bb 05 c0 1c 5d 9d 3e 82 00 09 be
       -0.316489 -2.08959 0.307351 -0.133791
000080 6c 5a 11 3f 82 03 da bd 60 3f 64 be fc 8f b4 be
       0.567786 -0.106452 -0.222898 -0.352661
000090 97 e6 be 3e 37 22 2e bd 2f 88 d0 be 68 64 26 3d
       0.372853 -0.0425131 -0.407289 0.0406231
0000a0 cd 78 8b 3e 5c 56 31 be 11 e3 c5 be 33 96 8f bd
       0.272406 -0.173181 -0.386498 -0.0701107
0000b0 ca e8 ab bd 25 76 95 3e 8a 9c 36 3b d8 cc 8c 3b
       -0.0839401 0.291917 0.00278643 0.00429688
0000c0 75 59 b0 3f b4 c7 7b be 8c 2d 44 be 7a 8e d0 3e
       1.37773 -0.245879 -0.19158 0.407337
0000d0 ba 85 0d 3b 1f 47 33 be 5e d5 49 be 00 fe f9 3e
       0.00215946 -0.175076 -0.197103 0.488266
0000e0 87 16 29 3e 01 a4 66 bf 2c f1 84 3f 57 af 26 3f
       0.165125 -0.90094 1.03861 0.651113
0000f0 4d d6 60 3f 34 86 2d bf ef 1e f8 be 1a 33 39 be
       0.87827 -0.677829 -0.484611 -0.180859
000100 44 4c 81 bf 80 2a 2e bf 42 76 1a bf 53 cf a2 be
       -1.01014 -0.680336 -0.603367 -0.317988
000110 94 dc 61 3e 9e f0 12 be ef e6 a1 3e c5 c9 b1 3f
       0.220568 -0.143496 0.316215 1.38897
000120 44 4e 1f 3e 2b 8a 32 3d f7 22 4a 3e d2 fd 4c 3f
       0.155572 0.0435888 0.197399 0.800748
000130 3f 3a 45 be 09 19 38 3e 27 34 24 3d a1 da 4c 3f
       -0.192605 0.179783 0.0400888 0.800211
000140 12 f6 95 be 93 fc 18 be d1 05 55 3e 30 9e e1 bd
       -0.292893 -0.149401 0.20803 -0.110165
000150 7f a1 97 3e 10 79 2f bf 5a d7 54 3f 6d 1e d7 be
       0.296154 -0.685441 0.831411 -0.420154
000160 66 db a9 bc 41 1e 2b bd 58 ed a5 bd 39 7b e7 bd
       -0.0207345 -0.0417769 -0.0810191 -0.113028
000170 d5 41 52 bf 11 90 6f 3e 8d 70 94 bd f8 34 07 3f
       -0.821317 0.233948 -0.0724803 0.528152
000180 80 76 11 3d 13 ea 8e 3c bf f4 26 be 8d f7 8e bd
       0.0355134 0.0174456 -0.163043 -0.0698081
000190 cc 0a bd be a0 c6 49 3f e8 cf 48 bc d3 05 6b bd
       -0.369223 0.788187 -0.0122566 -0.0573786
0001a0 6d a9 b3 be b2 85 10 be b3 d0 06 bf c5 e4 0d bf
       -0.350902 -0.141135 -0.526622 -0.554272
0001b0 77 f7 70 3e 56 7d 2e 3e 0d 55 11 3e 01 13 a8 be
       0.235319 0.1704 0.141926 -0.32827
0001c0 60 ab 74 3e 3e 04 f5 3e 25 3f da 3e 82 36 19 3e
       0.238935 0.478548 0.426263 0.149622
0001d0 90 14 ad 3f c6 19 83 bd f9 e6 bd 3d 8b 34 31 3d
       1.35219 -0.064014 0.0927257 0.043263
0001e0 1a 54 a6 3d bb ee 01 bf 16 de a5 be 49 f2 24 3f
       0.0812151 -0.507549 -0.32396 0.644322
0001f0 a6 7b a5 3e 02 ba d7 3e a7 40 26 3e ac c5 09 c0
       0.323209 0.421341 0.162356 -2.15269
000200 51 16 0e bf 94 c1 94 c0 48 fd 39 3f 5f 9b a8 3c
       -0.555028 -4.64863 0.726521 0.0205819
000210 d8 62 57 be cc 98 56 bf 0f 7f 2d be 01 f8 37 be
       -0.210338 -0.838269 -0.16943 -0.179657
000220 cf f4 d2 be 74 5c 7d 3e ff ae d7 3e cf 99 39 3d
       -0.412024 0.247423 0.421257 0.0453127
000230 14 96 88 3e 87 bf 36 3e 28 8a 86 bc 11 3e 0f 3d
       0.26677 0.178465 -0.0164233 0.0349713
000240 c1 8b 92 3f 66 d9 f3 bd 5e 05 a1 3b 20 5a 90 3c
       1.14489 -0.119067 0.00491397 0.0176211
000250 76 fd 4a 40 25 65 41 3d f1 48 c4 be a2 d3 2b bf
       3.17172 0.0472156 -0.383369 -0.671198
000260 6b b4 ff bb 01 68 cc be 8c f7 13 3e e3 9f 23 3d
       -0.00780349 -0.399231 0.144499 0.0399474
000270 28 32 89 3d 2c 2b 81 3f 50 36 ad 3f 7f 33 01 3f
       0.0669902 1.00913 1.35322 0.504692
000280 ca c2 77 be e2 e6 24 3e 19 c1 2b bd f7 77 de be
       -0.241954 0.161037 -0.0419322 -0.434509
000290 ed f0 c7 3e e6 83 14 bd 4e 09 38 3f 57 a4 53 bc
       0.39051 -0.0362586 0.718892 -0.0129176
0002a0 d8 82 ce be b8 e8 d4 be 83 30 03 bf 45 81 96 3f
       -0.403342 -0.415838 -0.512459 1.17582
0002b0 6d 37 d1 be 9c 88 86 be 07 b3 21 bf 62 0f fd 3e
       -0.408626 -0.262761 -0.631638 0.494258
0002c0 74 52 09 3d bb d6 3e be c3 f2 a7 3e 8b 4f e1 3f
       0.0335259 -0.186366 0.328024 1.76024
0002d0 c4 a8 f5 3c 4b 01 19 be 09 e0 a6 3c 2a 72 38 3e
       0.0299877 -0.149419 0.0203705 0.180123
0002e0 bf 2a 5f bf c1 71 39 be 84 f5 e7 3e cb 09 1f 3d
       -0.871746 -0.181098 0.453045 0.0388277
0002f0 22 00 93 3c fd af c6 bb ff ef 04 3c 6a 4e fe 3e
       0.0179444 -0.00606346 0.00811386 0.496692
000300 47 c9 97 3f a2 76 94 bd 91 27 69 3f 9b 1f 6f be
       1.18583 -0.0724919 0.91076 -0.233519
000310 7f 0a d1 bc ac 70 6b be 67 27 b3 bf f0 16 98 3e
       -0.0255177 -0.229922 -1.39964 0.29705
000320 27 d8 4f 3e 03 0b dc 3b 3f 35 03 3d 94 16 ce 3d
       0.202973 0.00671518 0.0320332 0.100629
000330 c8 b2 e0 be f4 a7 11 3f 2d d2 9c be b3 07 62 bf
       -0.438864 0.568969 -0.306291 -0.88293
000340 4d f3 0e be 58 37 6e 3e ea 21 b2 3e 4b e4 8a 3e
       -0.1396 0.232633 0.347915 0.271273
000350 cc 46 a7 3e 41 2e 91 be b9 06 31 bd da e4 10 3f
       0.326712 -0.283556 -0.0432193 0.565992
000360 a3 57 0f bf 5a d4 37 bf 2b 4f 30 3e e2 90 1d 3e
       -0.559931 -0.718084 0.172177 0.153873
000370 b7 d1 d0 3e 8d 60 03 3e 85 3f 13 3e 41 9e dd bd
       0.40785 0.128298 0.143797 -0.108212
000380 72 41 cc 3d 5b 94 41 3f e7 50 b6 3e 9a b0 fd 3d
       0.0997342 0.75617 0.356086 0.123872
000390 92 ac 88 bd 94 a2 b5 3e e4 d9 55 be cc 7e 8d 3e
       -0.0667354 0.354756 -0.208839 0.276358
0003a0 df 7b 0e bd 01 fc f3 3e f1 4b dd 3d 04 21 9d bf
       -0.0347861 0.476532 0.108055 -1.22757
0003b0 7d 4b 6f 3c dc 10 a3 be 0e 8d 7d bd fe 74 4d bd
       0.0146054 -0.318488 -0.0619021 -0.0501604
0003c0 fb ac ea be 1f bd d9 be 8f 33 35 bf 39 d4 ef bc
       -0.458351 -0.425271 -0.707818 -0.029276
0003d0 25 91 3d be f8 9e 16 bd 93 97 0b bd 83 86 e6 be
       -0.185124 -0.0367727 -0.0340801 -0.450245
0003e0 9e 7e 10 3e 08 8f d6 3e 5d 33 2d 3f f6 64 89 3d
       0.141108 0.41906 0.676565 0.0670871
0003f0 e5 b8 53 bd 94 c2 7c bd ff 52 50 bc 83 f7 8d be
       -0.05169 -0.061709 -0.0127151 -0.277279

4 f4 [50]
000000 e9 27 fc bd 65 aa 00 bf cb 0f 1c be 6b 7f 13 bf
       -0.123123 -0.5026 -0.152404 -0.576163
000010 ca e0 e8 bd 57 3d 30 3e 55 25 5b bc d9 07 25 bf
       -0.11371 0.172109 -0.0133756 -0.644651
000020 5e b3 22 bc 4a 28 5d 3e 00 00 00 00 f7 cd ed be
       -0.00993046 0.215974 0.0 -0.464462
000030 d1 eb d7 be 68 af 1a bf b2 81 74 be 5e a0 2c bf
       -0.421721 -0.604239 -0.238776 -0.674322
000040 4c 6c 12 bf 10 d5 0c bc 30 9f 8c be 12 f6 21 bf
       -0.571965 -0.00859572 -0.274652 -0.632661
000050 c9 57 26 3f a1 bd 3a 3f ed 9d 15 3f c0 25 90 3e
       0.649777 0.729456 0.584441 0.281538
000060 40 91 5d bc 4e d5 c5 3e d1 03 74 3a 1c 06 c8 3d
       -0.0135234 0.386393 0.000930843 0.0976679
000070 d9 24 3b bf 38 15 a4 bd 80 f0 f9 be d3 be a1 3e
       -0.731031 -0.0801186 -0.488163 0.315909
000080 e8 94 91 bc ac 6f d0 3e 46 5b 01 bf f3 20 31 bf
       -0.0177712 0.407102 -0.505299 -0.691909
000090 be 0d 16 bc c7 7d 90 bc 0c 20 3c 3e d8 78 97 bb
       -0.00915855 -0.0176381 0.183716 -0.00462256
0000a0 25 e9 c6 bf 12 4b 2a 3e e1 ee 00 bf 06 0d 85 bf
       -1.55399 0.166302 -0.503645 -1.03946
0000b0 e9 9a 81 3f 37 c6 c6 be c1 e3 bb be 78 7c 4b bf
       1.01254 -0.388231 -0.366972 -0.794868
0000c0 71 b1 7d bc ce 17 fb 3e
       -0.0154842 0.490416

5 f4 [50, 50]
000000 ed 2b 2b 3f 95 03 97 bd 81 0f c4 bd 90 27 ae bc
       0.668639 -0.0737373 -0.0957327 -0.0212591
000010 62 15 13 3f e7 fe 4a 3e d0 b9 36 3c 77 86 c1 3e
       0.574545 0.198238 0.0111527 0.377979
000020 e2 5d 29 bd a8 1a ed be ea b8 15 bd c6 f9 0b be
       -0.0413493 -0.463094 -0.0365533 -0.136695
000030 14 93 07 bf d7 5e 15 bd 67 ba f7 be 3c 12 2f 3e
       -0.529588 -0.0364674 -0.483844 0.170968
000040 64 b2 90 3e 72 f7 9e 3c bb 5b 7e 3c c9 c7 ae be
       0.282611 0.0194051 0.0155248 -0.341368
000050 c0 41 2b be 9a 5d 37 be 1a 3c a2 bd 34 12 c1 3e
       -0.167243 -0.179068 -0.0792162 0.377092
000060 0e 7e 87 3c 77 86 c1 3e 20 b6 f4 3d 19 a9 ef be
       0.0165396 0.377979 0.119488 -0.468087
000070 43 ff 90 bf 63 a8 59 3d e6 e7 46 3d 96 98 d7 be
       -1.13279 0.0531391 0.048561 -0.421086
000080 44 de 72 3c f3 1b 56 be 40 dd b8 be 37 c6 a6 be
       0.0148235 -0.209091 -0.361063 -0.325731
000090 b5 fc c0 bc 06 4a 08 bc 0a f4 d9 be 97 39 1d bd
       -0.023558 -0.00831843 -0.42569 -0.038385
0000a0 2f 33 bc 3e f7 20 9c be ae d9 ea bd 94 f7 01 be
       0.367578 -0.304939 -0.114673 -0.126921
0000b0 b3 35 cc bd 04 f9 be bd b0 90 09 3e a8 fb c5 3d
       -0.0997118 -0.0932484 0.134341 0.0966714
0000c0 dd 5a 2f ba e9 c1 b3 bd d0 56 ef bc a3 ae 14 3b
       -0.000668926 -0.0877722 -0.0292162 0.00226871
0000d0 c9 02 26 bc 17 e4 3d bd 6b 6a 34 bd 4f 3d d2 3c
       -0.0101325 -0.0463601 -0.0440468 0.025664
0000e0 56 9f 86 3c cc f3 9e ba a5 ff 20 bd 2c 3d 64 3c
       0.0164334 -0.00121271 -0.0393063 0.0139306
0000f0 44 55 31 3a a0 17 6e bc f0 a6 5b bc 9a fd 4b bd
       0.000676472 -0.014532 -0.0134065 -0.0498024
000100 65 db 2e bd b5 1c 43 3d c2 fc 70 bc 15 52 3e bd
       -0.0426897 0.0476348 -0.0147087 -0.046465
000110 48 9b 74 bb a4 c7 8a bc fc 98 c5 3c 8d 26 17 bd
       -0.0037324 -0.0169409 0.0241208 -0.036902
000120 d6 60 d0 3c 08 e4 92 3c 4d f0 32 3d b8 d0 b2 bb
       0.0254368 0.017931 0.0436862 -0.00545701
000130 03 1b e1 3c c0 4e 20 bd 1e 5b 05 bc 16 56 45 bd
       0.0274787 -0.0391376 -0.0081394 -0.0481778
000140 ee 2c 15 bd 23 82 11 bd 58 0a f9 3b 26 0c 19 bd
       -0.0364198 -0.0355245 0.00760011 -0.0373651
000150 44 cb 10 3d e1 fc bc 3c 70 e2 75 3c 4b f4 68 bc
       0.0353501 0.0230698 0.0150076 -0.0142184
000160 ba 57 1c 3d 6e 63 bb 3b 8a 37 37 bd af 0b 1f bd
       0.0381696 0.00571864 -0.0447307 -0.0388295
000170 0f d7 c5 bc 91 fe cd 3c fb e1 cc bc a7 f1 66 bc
       -0.0241504 0.0251458 -0.0250101 -0.0140957
000180 66 70 90 bb 13 2e 3f 3d c9 cd ec 3a 6d ae 9a 3c
       -0.00440793 0.0466748 0.00180667 0.018882
000190 e9 5b ab 3d 6a a5 20 3e 73 d8 61 bf 31 cb c3 3d
       0.0836714 0.156881 -0.882209 0.0956024
0001a0 7d b1 5f bf 49 2a f3 3e 80 80 b5 bc 4f 22 52 3e
       -0.873802 0.474932 -0.022156 0.205209
0001b0 1c e2 e9 bc 73 f6 e6 3e c7 07 87 bb c0 96 3f bf
       -0.0285502 0.451099 -0.0041208 -0.748394
0001c0 5f 41 3a be f7 e7 fa be 22 54 c9 be a2 b0 c0 bd
       -0.18189 -0.490051 -0.39322 -0.0940869
0001d0 ea 95 aa be 99 68 ef bb da 55 f8 3f 68 b1 08 bf
       -0.333175 -0.00730617 1.94012 -0.533957
0001e0 a2 ee bb 3e 46 b2 8f 3e 39 22 44 3d 2a 89 b1 bd
       0.367055 0.280657 0.0478842 -0.0866874
0001f0 97 df ed 3b e9 9a c5 3f 9b aa 8b be 9d 3b 30 bc
       0.00725932 1.54379 -0.272786 -0.0107564
000200 f7 cb 1b bf 71 55 25 3f 00 ac 0e 3e 24 28 96 3e
       -0.608581 0.645835 0.139328 0.293275
000210 85 b8 0f 3c f8 6f 9e be b2 2a e7 bc 7d d0 c3 3d
       0.00877202 -0.309448 -0.0282186 0.0956125
000220 42 38 30 bd e7 73 cd bb 92 5c 9e be 90 ea 45 3d
       -0.0430224 -0.00626992 -0.3093 0.0483194
000230 67 d7 4d be 87 fe 59 be 3f ad 62 3e 46 4a e9 bc
       -0.201017 -0.212885 0.221364 -0.0284778
000240 3a e6 dc 3e a7 9f c6 3d 98 16 01 bf bb b7 12 3f
       0.431444 0.0969842 -0.504251 0.573116
000250 f1 76 8e 3c 0d 8d 97 3e ba c0 05 bf 23 4c 81 be
       0.0173907 0.295998 -0.522472 -0.252534
000260 f4 ba 6a 3c 1e a5 62 3e 76 61 15 3d c1 e3 fb bd
       0.0143268 0.221333 0.0364699 -0.122993
000270 28 6c 54 3b cd 01 1e 3f a1 e3 19 bd d0 0d 71 3f
       0.00324131 0.617215 -0.0375706 0.941617
000280 e3 cf 46 bd 0d aa ed 3d 6b 44 f0 3d 84 2d b6 3e
       -0.0485381 0.116047 0.117318 0.355816
000290 f3 c8 df 3d 07 eb ef 3e 6a c2 56 be b9 8a e6 3b
       0.10927 0.46859 -0.209726 0.00703558
0002a0 54 39 4d 3d 50 fd 53 be 68 3c 21 be 9b ff f7 3d
       0.0501035 -0.207021 -0.157457 0.121093
0002b0 7f 2f e5 bd 60 ae 75 be 5f 68 e4 bc 07 ed e5 3e
       -0.111907 -0.239923 -0.0278818 0.449074
0002c0 c1 55 be 3e 32 ff cd bc a0 a7 3d 3f 15 e1 9e be
       0.371748 -0.0251461 0.740839 -0.310311
0002d0 e6 c9 75 3e 10 a7 b8 bd ce b2 9d 3c b6 2b f4 3e
       0.240028 -0.0901624 0.0192503 0.476896
0002e0 bf 81 e1 3e e6 ac b4 3d 81 cd 39 bd f0 e3 83 3c
       0.440443 0.0882204 -0.045362 0.0160999
0002f0 4e b8 77 3e 64 8b 09 3d 42 97 60 3e 41 38 55 3c
       0.241914 0.0335802 0.219327 0.0130139
000300 16 de ad 3e f2 60 6b be e9 2a 9d bc c3 45 6e 3e
       0.339585 -0.229862 -0.0191855 0.232688
000310 a1 2f dd 3e 40 85 cb be 51 db 06 3d ac 8f c7 3e
       0.432004 -0.397501 0.032924 0.389768
000320 c7 2d fe 3e 4e 64 ae 3e 63 68 80 3d 90 6a d8 be
       0.496443 0.340609 0.0626991 -0.422688
000330 8e 95 90 3e ba 9e c8 3e 19 29 ca bc 42 b5 51 be
       0.282391 0.391836 -0.0246778 -0.204793
000340 ab 92 ed 3c 09 53 34 bf 52 fd 39 bd 43 ae 64 be
       0.0290006 -0.704392 -0.0454076 -0.223321
000350 d1 22 a3 be 72 bc 47 bd 28 49 23 3f e1 f1 ed 3e
       -0.318625 -0.0487637 0.637835 0.464736
000360 91 ed 1c 3e cb 89 71 3d 86 5a f3 3d eb b3 99 bd
       0.15325 0.0589693 0.118825 -0.0750502
000370 88 2a e4 3e 3e 94 90 3e 3e 3c b3 3e 94 a1 5a 3e
       0.445637 0.282381 0.350069 0.213507
000380 4d fa d6 bc 85 06 62 3e 9f c9 0e 3f 57 e0 a5 bd
       -0.0262424 0.220728 0.557764 -0.0809943
000390 95 46 68 bf eb 52 b3 be 84 a2 54 bc 4a 45 13 3e
       -0.907327 -0.350242 -0.0129782 0.143819
0003a0 2a 45 e1 3c 0e f4 c0 be dc 9f 2b be a9 4f da 3e
       0.0274988 -0.376862 -0.167602 0.426389
0003b0 1f 38 1d bd f5 8e 0b 3c e9 0f 4d 3e e3 f1 1e bd
       -0.0383836 0.00851797 0.200256 -0.0388049
0003c0 96 5d f8 be 5f 29 cb 3f a0 18 09 3e c1 58 3f 3e
       -0.485089 1.5872 0.133883 0.186862
0003d0 0e a2 25 be 56 d2 9a 3e f7 34 0c 3d 8c 30 85 be
       -0.161751 0.302386 0.0342302 -0.260136
0003e0 de 99 e4 bb cd 73 24 3e 53 b1 a9 be 1b f1 24 be
       -0.00697635 0.160598 -0.331431 -0.161076
0003f0 c7 f6 ca be 5d 8b f6 3d 3e e9 8c be 29 3f e1 3e
       -0.396414 0.120383 -0.275217 0.439935

6 f4 [50]
000000 14 3f 86 3f a6 1d 88 bc d8 7f 1d 3f 5f 24 9c bf
       1.0488 -0.0166157 0.615232 -1.21986
000010 e5 46 e9 be 8f c7 a4 bf 1a 86 cb bf c9 8e c5 be
       -0.455619 -1.28734 -1.59003 -0.385855
000020 1b 81 8c 3f 85 97 a0 3e 96 42 5c bf a5 a0 fb bf
       1.09769 0.313656 -0.860391 -1.96584
000030 d6 02 0b 3e 67 e3 52 bc 85 5c e9 3d 46 42 8b bf
       0.135753 -0.0128716 0.113946 -1.08796
000040 57 26 8c bf 0e f8 fc bf 25 e8 1b bf da cb 42 bf
       -1.09492 -1.97632 -0.609011 -0.760923
000050 95 b9 b1 be db fb 78 bf 7d e8 08 c0 ca 89 be 3e
       -0.347119 -0.972593 -2.13919 0.372145
000060 c7 77 f3 bc 4e 97 c5 bf 12 32 90 be 52 b8 92 bf
       -0.0297202 -1.54368 -0.281632 -1.14625
000070 1b 47 a0 3f 9b 73 f0 bd 60 59 91 3f 09 32 e2 bd
       1.25217 -0.117408 1.13554 -0.110447
000080 18 3e f6 bf 09 1a 6b 3f f0 fd 71 bf f9 f3 7d 3e
       -1.92377 0.918366 -0.945281 0.248001
000090 24 d1 37 3f 5b 99 a4 bf d1 05 69 bf a5 31 12 3f
       0.718035 -1.28593 -0.910245 0.57107
0000a0 c2 12 93 bf 36 56 ca be 64 5d 04 bf ba a2 ec 3e
       -1.14901 -0.395189 -0.51705 0.462179
0000b0 52 44 82 bf 3a 07 f7 3e 6c 06 b8 bc 7f 84 59 3f
       -1.01771 0.482477 -0.022464 0.849678
0000c0 c7 63 8e 3f ed 2d c5 be
       1.11242 -0.385116

7 f4 [50, 50]
000000 fd 68 58 be c9 f3 4f 3c 21 56 17 3f c1 58 b7 3e
       -0.211338 0.0126924 0.591158 0.358099
000010 77 15 ae 3f 72 cf 29 3c 27 86 c4 be 15 1a 1c bf
       1.36003 0.0103644 -0.383836 -0.609773
000020 4c 54 9f 3f 58 59 1b bf 61 e0 f9 3f 43 ff b0 bf
       1.24476 -0.606832 1.95216 -1.38279
000030 a5 4c d2 3e 41 36 ff 3b 7f df 0f 3f ed 83 ac be
       0.410741 0.00778845 0.562004 -0.336944
000040 f5 f5 dc bd 05 c5 d7 bf 05 35 cc be 59 69 c6 3f
       -0.107891 -1.6857 -0.398842 1.55009
000050 e8 30 21 40 0f 5f ce 3e 55 6c 8c be 08 94 33 c0
       2.51861 0.403069 -0.274264 -2.80591
000060 29 28 80 bd 70 5f af 3e 65 e0 70 3f 07 73 a0 bd
       -0.0625766 0.342525 0.940924 -0.0783444
000070 d6 6e 87 3f f5 bc 1b bf db 16 91 3f 85 d1 7c bf
       1.05807 -0.608352 1.13351 -0.987572
000080 7c f3 3f bf 80 2d 6b 3f c4 ea 5b bf ed 45 e4 be
       -0.749809 0.918663 -0.859051 -0.445846
000090 a0 57 b7 3d 16 dd 3a 3e 06 9d 68 3f 91 b9 62 3e
       0.0895226 0.182484 0.908646 0.221411
0000a0 35 24 2a bf 11 aa 88 3f e1 28 0f 40 06 ba 72 3f
       -0.664615 1.06769 2.23687 0.948151
0000b0 ea 88 cd 3c 04 39 30 3f 63 79 bc 3c 1a c4 03 3f
       0.0250897 0.68837 0.0230071 0.514711
0000c0 e2 03 6b 3f d6 56 c0 bf 65 53 00 c0 1d 59 f9 bc
       0.918028 -1.50265 -2.00509 -0.030438
0000d0 e3 e1 cd be 40 a2 11 3f a0 1a 05 c0 51 a5 4a c0
       -0.402114 0.568882 -2.07975 -3.16634
0000e0 b1 16 a3 3f 70 5b ab 3e 48 6d e6 bf 2c 02 ad 3d
       1.27413 0.334682 -1.80021 0.0844768
0000f0 20 29 8e bf 7e 35 17 40 c4 46 34 bd 36 b0 15 bd
       -1.11063 2.36264 -0.0440128 -0.036545
000100 af 77 c7 bf 8b 54 68 3e d0 97 ae 3e d5 21 25 40
       -1.55834 0.226885 0.341002 2.58019
000110 a5 67 66 3f d7 30 53 bf dc d6 66 3e b1 c4 63 be
       0.900019 -0.824964 0.225429 -0.22243
000120 cc 7c 5b bf 18 cd 06 3f bc 4d c9 bc 1b 2f 35 c0
       -0.857373 0.526567 -0.0245732 -2.831
000130 49 84 46 3e bb 0f 2e c0 77 a1 0f c0 e7 70 2d bf
       0.193864 -2.71971 -2.24423 -0.677504
000140 a5 49 fd bf 0f b9 f9 bf a9 17 97 3c 4d 84 89 bf
       -1.97881 -1.95096 0.0184439 -1.07435
000150 0e 15 0f 3f 9c a6 57 3f 89 29 4f c0 3f 19 a3 3e
       0.558915 0.842386 -3.23691 0.318552
000160 cd e4 83 bf 7c f2 ac bf 73 85 9b bf b8 40 10 c0
       -1.03042 -1.35115 -1.21501 -2.25395
000170 7a c7 89 bf 85 ee 42 3e c4 af 80 be 24 7f b4 bf
       -1.0764 0.190363 -0.251341 -1.41013
000180 ed d0 55 3c f6 97 81 bf 62 67 46 bf f2 ea 66 40
       0.0130503 -1.01245 -0.775015 3.60809
000190 8e 07 cb 3e a6 ea 43 bc e7 8d eb 3e b5 37 a4 3f
       0.396542 -0.0119578 0.460067 1.28295
0001a0 f9 2e b5 3e 75 1f b4 bf 98 51 b4 bf 6c 23 2e 3e
       0.353874 -1.40721 -1.40874 0.170057
0001b0 d6 02 9b 3e 87 e1 c3 3e 82 8b a1 3f 3b 00 1e bf
       0.302756 0.38258 1.26207 -0.617191
0001c0 be 66 35 3f da ef d7 b9 95 0b 95 be 13 0f a0 bf
       0.708599 -0.000411867 -0.291104 -1.25046
0001d0 fd d9 31 c0 cf a4 35 bf aa b9 6c be 11 37 df 3e
       -2.77893 -0.709546 -0.231177 0.435967
0001e0 72 c3 af 3c bd 54 cc 3e 00 a9 e5 bf c1 1b 62 3e
       0.0214555 0.399084 -1.79422 0.220809
0001f0 b7 31 4c bd 39 d0 67 bf b5 e1 80 3e 3b aa e6 3f
       -0.0498521 -0.905521 0.251722 1.80207
000200 d4 10 e5 3e dc 83 20 3e 08 55 4a 3e 21 e4 20 bf
       0.447394 0.156753 0.19759 -0.628481
000210 3e e7 6e 3c 27 a0 55 bf 42 ab 98 bd cf a1 94 be
       0.0145815 -0.834475 -0.0745454 -0.290297
000220 d0 b5 0f be 35 0b 58 3f d5 7b da 3e 48 32 d3 3e
       -0.140342 0.843921 0.426726 0.412493
000230 5e 67 13 bf d9 7c dc 3e f0 6e ed 3e 46 44 81 be
       -0.575796 0.43064 0.463737 -0.252474
000240 1d 94 30 c0 76 55 bb bd 38 a5 17 bd 67 74 71 bd
       -2.75904 -0.0914716 -0.0370228 -0.0589489
000250 50 71 ec be ca c1 6c be d1 79 ed 3e 5d 0c af bc
       -0.461802 -0.231208 0.46382 -0.0213682
000260 5f 95 1b 3e b4 3a 05 bf 2c d6 f0 3d 96 5a cf 3d
       0.151937 -0.520427 0.117596 0.101247
000270 00 1c 3b 3f b9 8e d1 bd 4d d6 d8 be d0 5f 18 3f
       0.730896 -0.102323 -0.42351 0.595212
000280 05 e0 3b 3f 0e 66 0b 3f 07 0c 92 3d 74 09 87 bb
       0.733887 0.544526 0.071312 -0.004121
000290 c2 6d a5 be 85 79 ff be 01 f9 72 bf d8 82 be 3e
       -0.323103 -0.498974 -0.949112 0.372092
0002a0 c7 4a ac be d4 bb 18 3e e9 7c 28 be 2a 90 05 3f
       -0.336508 0.149154 -0.164539 0.521731
0002b0 d2 2b 2f bd b2 d6 24 bf ec df 50 3d 1a 6d 75 bd
       -0.0427664 -0.643901 0.0509948 -0.0599185
0002c0 b8 1e 0f c0 1b c9 84 bd 78 65 12 bd 23 dc 68 bf
       -2.23625 -0.0648367 -0.0357413 -0.909609
0002d0 4d 86 53 be 95 be 8b bd 4a 95 28 3e d5 5d f9 be
       -0.206567 -0.0682346 0.164632 -0.487044
0002e0 1b 4a 21 3f 4a 9a 1f 3e d5 96 92 3e 98 e4 1b bd
       0.630037 0.155862 0.286307 -0.0380598
0002f0 24 62 4a bd 20 3a 40 3a 5e 82 3b 3f 52 be 7b bd
       -0.04941 0.000733288 0.732458 -0.0614608
000300 fb 76 7a 3f b2 e5 46 3d 5e d8 12 3f 21 74 48 bf
       0.978378 0.0485589 0.573614 -0.783022
000310 9a 5e e2 bc f4 16 cf be 24 5f e9 3d a3 75 84 bf
       -0.027633 -0.404472 0.113951 -1.03484
000320 11 8d d2 bf 03 50 16 bd 0a 67 e7 be d1 22 ab 3e
       -1.64493 -0.0366974 -0.451958 0.33425
000330 99 28 32 be f7 58 ba 3f 84 b7 43 3f ee 5f b4 bb
       -0.173983 1.45584 0.764519 -0.0055046
000340 b5 37 bc 3f 20 b5 b1 bf dd 7a 95 be cd 3c 99 bd
       1.47045 -1.38834 -0.291953 -0.074823
000350 6c 3f 49 be 11 47 e8 3c 5b cd 5a be e0 69 f2 be
       -0.196531 0.0283542 -0.213674 -0.473464
000360 c6 16 82 3f 99 06 0f 3d 92 58 06 3f bc 40 79 3e
       1.01632 0.0349184 0.524789 0.243411
000370 8a 91 05 be 03 b6 9b 3e af 06 28 3e 9c c0 74 be
       -0.130438 0.304123 0.164088 -0.239016
000380 9f 4a 37 bd f9 66 87 3f bb fb b1 bb 32 e5 63 be
       -0.0447489 1.05783 -0.00543162 -0.222554
000390 60 1d 57 be 78 9c 22 3e e7 38 77 be 17 00 59 bd
       -0.210073 0.1588 -0.241428 -0.0529786
0003a0 20 45 5d 3e 67 d5 9b bf 72 15 c3 3e eb c6 3b 3e
       0.216084 -1.21745 0.381023 0.183376
0003b0 3c b9 2b 3d d7 6d 98 be 4a 90 cb 3d c4 ec e5 bd
       0.0419247 -0.297713 0.0993963 -0.112268
0003c0 ab 59 a7 3e 13 0f c4 bf 59 6a 41 bf 9d 9f a2 be
       0.326856 -1.53171 -0.755529 -0.317624
0003d0 34 f8 ab be 11 d1 de bc 34 5f 8a bc 9f 03 27 bf
       -0.335878 -0.0271993 -0.0168911 -0.652399
0003e0 50 52 e0 be 58 f8 44 bd c8 b8 fd 3c d1 1d e9 bc
       -0.438128 -0.0480884 0.0309719 -0.0284566
0003f0 6e fb ce be a2 d4 d6 3e 96 eb fd be bd 18 32 40
       -0.404262 0.419591 -0.495938 2.78276

8 f4 [50]
000000 a7 05 87 3e bf 29 64 bf cc 40 01 c0 94 a4 4b be
       0.263715 -0.891262 -2.01958 -0.19887
000010 19 ca a1 3e 8e 1d 19 bd 34 9a c1 bc d4 65 05 c0
       0.315995 -0.0373817 -0.0236331 -2.08434
000020 62 10 94 3f 4d 9e 06 bf 92 eb e6 bc cc 46 07 3f
       1.15675 -0.525853 -0.0281885 0.528424
000030 a4 55 b5 3e 1d 20 40 bf 2f 4f 13 bf 4c c3 a4 bf
       0.354169 -0.75049 -0.575427 -1.28721
000040 c1 8d 74 3d b7 d1 a4 bf ac ff 9f bf 4b ea 34 bf
       0.0597055 -1.28765 -1.24999 -0.7067
000050 6f 8b 68 3c 99 b7 f2 be 15 fe 78 3f 40 15 4b 3f
       0.0141934 -0.474057 0.972627 0.793293
000060 cf d9 22 3e f0 18 66 bf ea ca d3 bf 4c e2 64 bf
       0.159034 -0.898818 -1.65463 -0.894078
000070 be 6b b8 3e b1 fc d9 bd e2 23 16 c0 43 f8 e1 bc
       0.360197 -0.106439 -2.34594 -0.0275842
000080 8b 32 97 bf 1e 52 ec bd 85 94 13 bf 51 9f 78 3f
       -1.18123 -0.115391 -0.576485 0.971181
000090 92 21 27 3f 41 3d 07 bd 60 92 d2 be 90 c1 2a 3e
       0.652856 -0.0330174 -0.411273 0.166754
0000a0 53 05 9f bf e7 00 ad bf 74 46 f8 bf cf d8 6f bf
       -1.24235 -1.35159 -1.93965 -0.936902
0000b0 6a c0 4c bf 58 73 a8 bf 93 00 89 bf e8 c1 15 c0
       -0.799811 -1.31602 -1.07033 -2.33996
0000c0 f5 9c 0c c0 5f 97 29 3f
       -2.19708 0.662466

9 f4 [50, 50]
000000 c5 55 15 be e7 55 9d bd 51 be 00 3e 1d 22 6e 3e
       -0.145835 -0.076824 0.125726 0.232552
000010 4e 33 33 3d f1 46 e6 3d 53 05 43 3e 0c ca 54 3e
       0.0437501 0.11244 0.19045 0.207802
000020 9d 4d 82 3d cd ae 0b be 17 0d f8 3b 7e 3c 8f 3c
       0.0636246 -0.136409 0.00756992 0.0174849
000030 d8 50 a0 bd 24 f0 87 3d 59 a2 23 3e 9d 2f 36 3e
       -0.0782792 0.066376 0.159799 0.177916
000040 2b 7f a5 3a 14 94 62 be 26 5a 4d bc fc 5c 08 3d
       0.00126264 -0.221268 -0.0125337 0.0332918
000050 b9 51 cc 3e 43 59 a8 bd 35 0a 81 be fe 45 20 3e
       0.399061 -0.0822015 -0.252031 0.156517
000060 cf c4 8f bc 5c 01 a6 ba 5b 4a c1 bd 03 0b 98 be
       -0.0175499 -0.00126652 -0.0943801 -0.296959
000070 48 c3 09 3e bc c9 8f bd 20 d2 87 3f 8e 40 1c 3d
       0.134534 -0.070209 1.0611 0.0381475
000080 8d 62 59 be 98 51 3c be 67 9a d8 be 97 8f 10 3f
       -0.21229 -0.183905 -0.423053 0.564691
000090 0d 50 9a 3e 0f e8 f1 bc e1 40 a8 3d b2 0e 27 3e
       0.301392 -0.0295296 0.082155 0.163142
0000a0 e9 10 98 3e d1 cc 83 3e 18 c4 d1 3c dc 61 38 bd
       0.297004 0.257422 0.0256062 -0.0450152
0000b0 60 12 c8 bd 6a 24 b3 bd 12 b2 5d bd ea 22 35 be
       -0.0976913 -0.0874718 -0.0541249 -0.176891
0000c0 1e c1 7d 3e db 6e 12 3e 4f 35 af 3d 10 b3 f7 3d
       0.247807 0.143001 0.0855509 0.120947
0000d0 9e d3 97 3d cd ab 1a 3d c6 6b 0e be 05 18 f6 3d
       0.0741341 0.0377615 -0.139083 0.120163
0000e0 07 0a 6c bf 5e bd 02 bf a4 e4 b5 bf 2e ff 23 c0
       -0.922028 -0.510702 -1.42104 -2.56245
0000f0 e1 fa a4 3b 8e 1e f7 bf 63 d2 3f 3e 4b 3c 44 bf
       0.00503479 -1.93062 0.187326 -0.766545
000100 f4 c2 19 bf a3 cc 26 3f 31 95 ca b9 74 ef ad 3f
       -0.600631 0.65156 -0.000386396 1.35887
000110 e1 ec 16 3e ac e5 ce 3e d3 9f 07 c0 fa 7f 2d bf
       0.147388 0.404096 -2.11913 -0.677734
000120 58 55 0f be 29 ea 0c 3e bb 7e c9 bf 35 d1 b7 be
       -0.139974 0.137612 -1.57418 -0.359018
000130 b0 ca 9d 3e 97 ca 9b bf 37 89 89 3f 33 c5 6c 3e
       0.308187 -1.21712 1.0745 0.231221
000140 1a 86 9f 3e 26 b6 11 3d a7 91 f6 be 47 20 a2 3f
       0.31157 0.0355741 -0.48158 1.26661
000150 77 2b b3 3e 2c 0f 52 be 4a 40 fc 3e 51 16 99 3c
       0.349941 -0.205136 0.492678 0.0186874
000160 0f 43 67 3f 7a 1c 66 3f 50 8a 86 be b6 10 90 bf
       0.903367 0.898872 -0.262774 -1.12551
000170 99 0d ba be 23 14 ba 3b 85 b1 8d bf 7c 2b d2 3d
       -0.363385 0.00567867 -1.10698 0.102622
000180 2c 2e 42 bf f7 5a 14 3f 64 40 9a bf b9 8b b0 be
       -0.758517 0.579513 -1.20509 -0.344816
000190 f3 82 b9 bd c5 46 2f 3d 9b c8 ec 3d c6 fb d0 3b
       -0.0905818 0.0427921 0.115617 0.00637767
0001a0 f3 5a c9 3e 70 7b 8a be 45 f5 b6 be 74 7d cf 3e
       0.393272 -0.270473 -0.35734 0.405254
0001b0 6e dc 22 3f f6 5d 31 bd f4 45 4c 3d a3 1e 8a 3f
       0.636176 -0.0433025 0.0498714 1.07906
0001c0 f6 b2 2d 3d 1a 30 c0 be 65 de 1a be 99 81 2a be
       0.042407 -0.375367 -0.151239 -0.16651
0001d0 59 fc 9e 3e 81 af 20 3f a7 e8 e8 3d aa 2c 5a 3e
       0.310519 0.627678 0.113725 0.213061
0001e0 59 f7 d7 be 1d 90 e3 3b 46 eb d8 3e 21 89 43 bd
       -0.421809 0.00694467 0.42367 -0.0477382
0001f0 0a 11 84 bf 7c ef 6f be 27 c1 93 3e e4 2d 97 be
       -1.03177 -0.234312 0.288583 -0.295272
000200 16 88 a6 3e 85 01 10 3d 94 bc 36 3f 45 c0 1d bc
       0.325257 0.0351577 0.713815 -0.00962836
000210 6e 8b 52 be c5 73 be 3e 6b 7e 00 3f 53 eb a5 3e
       -0.20561 0.371977 0.501929 0.324061
000220 ae 81 a5 3e bb 1a 8f bc 13 2a e0 be 75 58 29 3f
       0.323255 -0.0174688 -0.437821 0.661506
000230 12 89 22 bf f9 49 ad 3e 68 4d 20 3c 93 e4 39 3c
       -0.634904 0.338455 0.00978408 0.011346
000240 51 11 47 be d2 1c 69 3e 48 89 ad 3e e1 5e d9 bd
       -0.194402 0.227649 0.338938 -0.106138
000250 6e 90 a4 bd eb be bd 3d cf 4b 8d 3e e1 29 34 3e
       -0.0803536 0.0926493 0.275969 0.175941
000260 a7 cd 00 bf de 92 0c 3f d9 26 c5 3e 9d b9 37 be
       -0.503138 0.549116 0.385062 -0.179419
000270 5b d3 8c be 92 07 42 be 21 3e 0c bf ed 65 4b 3e
       -0.27505 -0.189482 -0.547823 0.198631
000280 61 f2 10 bc 58 39 ec 3f 44 87 a0 3e 02 f4 9b 3e
       -0.00884685 1.8455 0.313532 0.304596
000290 b9 53 4a 3e c9 55 94 be e6 1e 32 be 8b 6b 50 3f
       0.197585 -0.289717 -0.173946 0.814141
0002a0 63 75 a0 3d dd c0 53 3c a0 51 36 bf 28 9c dd bd
       0.0783489 0.0129244 -0.712183 -0.108208
0002b0 79 05 7e 3f 0f 0d 07 bf 2f dd ec 3e ca de 32 be
       0.992271 -0.527543 0.462625 -0.174678
0002c0 a7 03 29 3f d9 7c c4 3e d4 b8 6f 3f 3f db 4f 3d
       0.660212 0.383765 0.936414 0.0507462
0002d0 2a 01 09 3f 9b 73 50 3d 69 fd 3d 3e 98 db 1d 3f
       0.535174 0.0508915 0.185537 0.616632
0002e0 a0 ff de 3e 14 05 92 bf f5 f1 b0 be f5 0d b1 3c
       0.435544 -1.14078 -0.345596 0.0216131
0002f0 88 84 67 bf 00 3c f2 3e 9b 76 99 be 5a d7 e0 3e
       -0.904366 0.473114 -0.299733 0.439143
000300 1c 9a 9a be 1f cb 8c bd f1 1a 0a bd f3 cc 6b be
       -0.301957 -0.0687468 -0.0337171 -0.230274
000310 06 64 2b c0 1f 79 a1 3d 88 80 b7 bf 9f cd 6a bf
       -2.67798 0.0788443 -1.43361 -0.9172
000320 73 b6 c2 bb a5 00 c7 3c 65 0c c2 3d 09 d4 8f 3b
       -0.00594216 0.0242923 0.0947502 0.00438929
000330 6f 7e 4f bf b9 c3 46 3e 9d b9 2b bf 48 a6 53 3e
       -0.810523 0.194106 -0.670801 0.206689
000340 91 d2 ec be a6 9b 94 be 68 6e ca 39 e9 39 c3 bd
       -0.462544 -0.29025 0.000386107 -0.0953253
000350 dc 4c 40 3d f9 f7 99 be 73 82 be be d5 88 e8 3b
       0.0469483 -0.30072 -0.372089 0.00709639
000360 51 a3 10 be b1 6a 90 be 0c 5b 73 3e 31 d2 6b be
       -0.141248 -0.282064 0.237652 -0.230294
000370 b8 cb 1e 3e d5 46 af 3b 2a 3a 9a 3f f8 ba b6 bd
       0.155074 0.00534902 1.2049 -0.0892238
000380 ba bc f9 3d 7d 47 93 bd 8f c6 41 3e d5 b3 40 be
       0.121942 -0.0719137 0.189234 -0.188186
000390 13 64 34 3f fe 65 92 bd 46 91 1a bd b6 71 7a bc
       0.704652 -0.0714836 -0.0377362 -0.0152859
0003a0 b0 c8 8f 3e d0 61 2e 3e 2c 2b 35 bf f1 48 0c 3e
       0.280828 0.170295 -0.70769 0.136997
0003b0 77 19 39 bd 0c 5d 04 3d df 18 6a bf 5c 38 30 be
       -0.0451903 0.0323153 -0.914442 -0.17209
0003c0 c5 91 07 3e 17 ef 47 3d b6 b9 96 3d d9 0f 2c bd
       0.132392 0.048812 0.0735964 -0.0420073
0003d0 a9 30 ce 3e de 1c 9e be ed 7f 04 3f 76 3a 4b bd
       0.402715 -0.308814 0.517577 -0.0496163
0003e0 4b e5 8d bf 88 80 03 be 68 31 42 bb 9c 68 bc 3c
       -1.10856 -0.12842 -0.00296315 0.0229991
0003f0 2d 25 43 bf a5 86 52 bf b5 a6 09 3f 6d 73 63 be
       -0.762286 -0.822367 0.5377 -0.22212

10 f4 [50]
000000 c8 7b b9 3f 49 2e bf bf 0b ef be bf b1 e1 57 c0
       1.44909 -1.4936 -1.49167 -3.37315
000010 ba 31 cd be 12 d8 8c 3e 8b 1b 2b 3f b9 df 3b c0
       -0.40077 0.275086 0.668389 -2.93553
000020 b0 38 f4 bf e7 6f 2c c0 0f ee 0c 40 aa f1 de bf
       -1.90798 -2.69433 2.20203 -1.74175
000030 a4 19 af 3f f1 68 7f c0 96 94 27 3f 9d ba 8e 3f
       1.36797 -3.99078 0.654611 1.11507
000040 76 54 89 bf 3a 57 44 3e 1a c1 46 bf b9 70 f4 bf
       -1.07289 0.191739 -0.776384 -1.90969
000050 8a 58 d4 3e 79 1e e8 3f 27 bc e4 3e c0 05 e1 be
       0.414738 1.81343 0.446748 -0.439497
000060 87 50 e5 bc 14 cc 7c bf f9 a0 af bf c0 cf 88 3f
       -0.0279925 -0.987489 -1.3721 1.06884
000070 16 35 d0 bf 03 eb 40 3f eb e6 42 3e 01 18 15 40
       -1.62662 0.753586 0.190334 2.32959
000080 e5 b3 02 40 56 7d 2e bf 77 d9 5f 3e cf da 29 bf
       2.04223 -0.6816 0.218603 -0.663495
000090 60 bf a1 3d 16 fb 9b 3f 4e 0b e6 3f cb c6 19 3d
       0.0789783 1.2186 1.79722 0.0375431
0000a0 ff 09 4c c0 60 77 c2 3e 22 8b 44 3f dd 44 ed bd
       -3.18811 0.379817 0.767748 -0.115854
0000b0 a3 40 cb bf e5 09 ac be de ac 69 bf 07 ce bd 3f
       -1.58791 -0.336013 -0.912794 1.48285
0000c0 04 8d 81 3e c8 0c b0 bf
       0.253029 -1.37539

11 f4 [50, 50]
000000 5c 5a 25 bf 8d 9c 9d be f6 b4 ab 3f e8 a0 0b 3e
       -0.64591 -0.307835 1.34146 0.136356
000010 43 73 41 c0 97 fd 22 bf 92 e8 5d c0 99 67 65 be
       -3.02266 -0.636682 -3.46732 -0.224028
000020 c1 8b 02 bf ea 07 31 3f 81 c1 1f bd ca 34 4a 3e
       -0.509945 0.691527 -0.0390029 0.197467
000030 f7 06 bb bf 33 1a f9 3c 6d 38 b4 3e a9 6a 02 bf
       -1.46115 0.030408 0.351993 -0.50944
000040 ca c1 4c be f1 d4 8b 3e 8a 67 ba bd 1e 16 32 c0
       -0.199958 0.273109 -0.0910178 -2.7826
000050 de 1e 38 bf 5b 5e d1 3e 87 c2 1b 3f d7 34 6f bc
       -0.719221 0.408923 0.608437 -0.0146
000060 3b f7 43 3c 94 6a 3b 3f 66 31 80 c0 af ce 35 bf
       0.0119608 0.732095 -4.00603 -0.710185
000070 cc 28 da bf 3d e5 02 bd 60 c8 1a be 76 52 3f 3e
       -1.70437 -0.0319569 -0.151155 0.186838
000080 10 59 ac be f4 c2 71 bf 05 16 c8 be 87 43 20 bd
       -0.336617 -0.944381 -0.390793 -0.0391269
000090 bc 68 9e 3d 58 73 90 bd 88 64 f0 be c4 95 73 bf
       0.0773482 -0.0705325 -0.469517 -0.951504
0000a0 6d 6f 87 be db 85 ae c0 f1 63 99 c0 40 6a 53 bd
       -0.264522 -5.45384 -4.79345 -0.051615
0000b0 ca 85 6f 3c 2f 86 f6 bf 7d ea b8 be 43 4b 48 bd
       0.0146193 -1.92597 -0.361164 -0.0488999
0000c0 6d 1e 9f be e3 8c c9 be 10 ae 00 3e 87 f5 eb bc
       -0.310779 -0.393653 0.125664 -0.0288036
0000d0 e1 24 ed bd eb fe 71 3e 3d 57 95 3d ae 9c 1c bc
       -0.115793 0.236324 0.0729203 -0.00955884
0000e0 fd 74 c2 3d 6f 4d 55 bd 2f 78 a8 3a 76 73 0c 3d
       0.0949497 -0.0520758 0.00128532 0.0342898
0000f0 d7 16 0e be 0f 7c bc be 6b 17 89 bd 66 c2 ca bc
       -0.138759 -0.368134 -0.0669392 -0.0247509
000100 56 b0 17 3d 3c 04 00 bc 48 6c 47 be b8 eb 40 3d
       0.0370334 -0.00781351 -0.194749 0.0470998
000110 aa 29 e9 bd d9 76 ba 3d de 76 01 be 8e b0 09 bc
       -0.113849 0.091047 -0.12643 -0.00840391
000120 e2 91 48 be 02 27 a0 3d 3d b4 b4 3c 71 45 38 3d
       -0.195869 0.0781994 0.0220586 0.0449881
000130 de b5 9f 3d 0d a9 12 3e 74 61 44 3e 64 58 75 3e
       0.0779836 0.143223 0.191778 0.239595
000140 e5 98 cc bd 07 43 3d 3e eb c9 97 bd bb d6 19 bd
       -0.099901 0.184826 -0.0741156 -0.0375583
000150 dd ef 90 3e 97 8c 63 3e d4 f9 26 bd cc a7 bd 3c
       0.28308 0.222216 -0.0407656 0.0231513
000160 a6 28 d7 bd af 21 5d bd da 58 c7 bb 53 3c 86 be
       -0.105058 -0.0539872 -0.00608359 -0.262179
000170 7d 68 55 bb a1 8b 1d 3c f5 7d bc 3b 3d 18 97 bd
       -0.00325635 0.00961581 0.00575232 -0.0737767
000180 7d 88 a7 bd 34 f3 e4 3c 41 64 91 3c db 25 60 bc
       -0.0818033 0.027948 0.017748 -0.0136809
000190 4f e9 c5 c0 5b 79 51 3f c9 c8 53 c0 7f bc f3 c0
       -6.18473 0.818258 -3.30913 -7.61676
0001a0 ff ca e6 3f 5b 5f 18 c0 0b b8 27 bf 78 9c 1e bf
       1.80307 -2.38082 -0.655152 -0.619575
0001b0 ab 95 1d c1 42 b2 d9 c0 db a2 81 c0 1f db 62 be
       -9.84904 -6.80301 -4.05113 -0.221539
0001c0 cc ee 59 c0 22 1a dd bf 26 8d a5 bf 3e e8 fd bf
       -3.4052 -1.72736 -1.29337 -1.98365
0001d0 f7 74 69 3f 89 b6 7f bf ac 52 da be 7d 05 a5 bf
       0.911941 -0.998879 -0.426412 -1.28923
0001e0 d9 25 92 bf 52 b4 97 bc db 14 df be f6 40 bf 3f
       -1.14178 -0.0185186 -0.435706 1.49417
0001f0 d3 2f 95 3b b8 23 a4 be ac e5 0a 3f 8c da 49 bf
       0.00455282 -0.320585 0.542567 -0.788491
000200 9d d9 c6 3e cf f9 59 3e d0 ed 35 c0 a7 5c 9a c0
       0.388379 0.212867 -2.84264 -4.82381
000210 f8 36 09 3f fb 04 64 3f f7 cb 27 bf d3 4e c5 3e
       0.535995 0.890701 -0.655456 0.385367
000220 53 91 c6 bf 9d 68 27 3f 98 64 89 3d 72 dc 9d bf
       -1.55131 0.65394 0.0670864 -1.23329
000230 9b fe 68 bf cc 5e be 3e b9 df 29 c0 40 2f a4 3e
       -0.910135 0.371817 -2.65428 0.320673
000240 4c 37 e1 bf 35 43 66 bf 52 f1 47 3f ca 71 c2 bc
       -1.7595 -0.899463 0.781026 -0.0237359
000250 b0 ab 1d 3f be f7 6b 3f 13 09 cb bb 3c 26 ac bd
       0.615901 0.921749 -0.00619615 -0.0840573
000260 16 13 e3 be ec 30 e6 3d 6d 71 ad 3d 67 9d 41 be
       -0.443505 0.112398 0.084689 -0.189077
000270 80 44 78 3d 9d e6 6e bd e1 a4 7f bd 4a a2 8d 3d
       0.0606122 -0.0583254 -0.0624131 0.0691572
000280 e4 1f e8 ba 05 42 61 bd 89 9e af 3c d4 fc 62 3a
       -0.00177097 -0.0549946 0.0214379 0.000865889
000290 64 34 3c bc 81 ef 31 3d 17 b1 f4 bc 79 a7 a7 bd
       -0.0114871 0.0434413 -0.0298696 -0.0818624
0002a0 30 b8 06 3e 46 36 02 3c 79 ac 09 be b3 b4 43 be
       0.131562 0.00794751 -0.134447 -0.191119
0002b0 46 7b dc bd 84 80 fc 3d 3a 17 b1 3b a0 a0 a9 bd
       -0.107657 0.123292 0.00540438 -0.0828259
0002c0 27 cb 1f bd a8 1c 13 bd d1 12 5a bd 30 17 2c 3d
       -0.0390121 -0.035916 -0.0532406 0.0420143
0002d0 fc df 71 3e 95 80 f8 3d 2c 29 a7 be cc c7 9f bd
       0.236206 0.121339 -0.326486 -0.0780178
0002e0 b1 6e 2c 3e 8b 8d 89 bd 4c e1 41 3e 90 88 e7 39
       0.168391 -0.0671645 0.189336 0.000441615
0002f0 2c b6 ae bc 1c 07 ae 3d d3 60 3f 3c 69 90 32 be
       -0.0213271 0.0849745 0.0116808 -0.174379
000300 00 a8 42 3d 2c db b2 bd 04 7d 98 bc 3f a2 73 3d
       0.0475235 -0.0873321 -0.0186143 0.0594809
000310 12 d8 fc bd 42 b2 a0 3d e9 15 2a 3c e3 a7 21 be
       -0.123459 0.078465 0.0103812 -0.157867
000320 e3 16 f3 3d a1 bf 6b bd cb 2f 03 3c 32 63 80 3d
       0.118696 -0.0575558 0.008007 0.0626892
000330 6b 47 b1 bd b3 d8 01 bd 23 7e aa 3c 0a 1f 40 3d
       -0.086562 -0.0317008 0.0208121 0.0469046
000340 32 e7 f9 bd 4b 02 84 be ec 1f 5a 3d 65 da a3 3c
       -0.122023 -0.25783 0.0532531 0.0200016
000350 94 6b 2a 3e cd b0 d1 bd 47 b0 ac 3d c2 87 12 3e
       0.166426 -0.102388 0.0843206 0.143096
000360 ef e2 bd bd a3 73 83 3d c8 e2 c8 3c 79 96 cb 3d
       -0.092718 0.0641854 0.0245222 0.0994081
000370 2d f4 9c 3d 94 6a df bd ae 49 37 3d 5b 78 0e be
       0.0766376 -0.10909 0.044748 -0.139131
000380 07 c9 27 bd fe a0 c9 3c 3f 58 81 bd 6c f9 c2 3d
       -0.0409632 0.0246129 -0.0631566 0.0952023
000390 78 df e7 bc 73 d4 f6 bc 2e dd c9 3c 90 f5 24 3e
       -0.0283048 -0.0301306 0.0246416 0.161093
0003a0 e1 b0 79 bd e9 ca a1 bd 4b 8f a6 3c 14 cb 7d be
       -0.0609597 -0.0790003 0.020332 -0.247845
0003b0 45 ce 67 3d 15 30 2b 3d 43 ce f7 bb c1 ae 81 3d
       0.0565932 0.0417939 -0.00756243 0.0633216
0003c0 a6 7f 49 3d fb a4 64 bd 6a a1 44 3e 19 4b 22 bd
       0.049194 -0.0558214 0.192022 -0.0396224
0003d0 5b 0a 28 3e 3f 8e 86 be e2 a6 70 bd 3c f9 d4 bd
       0.164102 -0.262804 -0.0587529 -0.103991
0003e0 2d 06 4f bd 41 0d 1f 3e 31 b4 8a 3e 33 8a a1 bf
       -0.050543 0.155324 0.270906 -1.26203
0003f0 a5 82 22 bf b4 15 85 bc 02 a7 ed bc a3 21 73 3e
       -0.634806 -0.0162457 -0.0290103 0.237433

12 f4 [50]
000000 b1 c3 0c bf 10 41 f5 3d 1c 5f df bf 47 1c 52 bd
       -0.549861 0.119753 -1.74509 -0.0512965
000010 e2 af 79 3e b7 7a 82 bf d8 f0 48 3f ad 69 aa bf
       0.243835 -1.01937 0.784925 -1.33135
000020 4b c8 83 3f ce fa 8c be 62 86 56 be b1 29 a1 3c
       1.02955 -0.275351 -0.209497 0.0196732
000030 2e c7 1b 3e 70 5d 19 bf b9 37 9f 3e 5e 9e 0e bf
       0.152127 -0.599082 0.310972 -0.557104
000040 ff 7a b5 be d5 ec b9 be 15 80 50 3d 21 3b 0f 3f
       -0.354454 -0.363135 0.0509034 0.559496
000050 0a 29 04 bd 81 78 dd bc e6 03 9a 3e 8f fa bb 3e
       -0.0322657 -0.027035 0.300811 0.367146
000060 57 ec e7 3e 01 32 94 3e 62 f8 3c c0 b0 55 92 3e
       0.452975 0.289444 -2.95266 0.28581
000070 24 5f 09 3e 1b 08 be bd b8 cb 1e 3e 01 b8 7e 3c
       0.134152 -0.0927889 0.155074 0.0155468
000080 8c be 92 be 5e 6a 39 b9 d0 7d 25 bf 9d d7 b8 3f
       -0.28661 -0.000176826 -0.646451 1.44408
000090 f5 66 b4 3e 9f 8f 1a 3f 48 88 da 3e 6c 97 5e 3f
       0.352348 0.603754 0.426821 0.869498
0000a0 3b 37 f5 3e 09 19 90 3e 44 36 e0 be b9 a8 16 3c
       0.478937 0.281441 -0.437914 0.0091955
0000b0 33 e1 a7 be a5 10 28 3e ad df 6c be cf 2d 08 3f
       -0.32789 0.164126 -0.231322 0.531949
0000c0 5f 5d b5 3e 92 79 0a c0
       0.354228 -2.16367
