configs/networks/acas/acas_3_5.onnx (onnx, 61577 bytes, 14 tensors)

1 f4 [50, 5]
0	0x3cd87146	0.0264212
1	0x3e7eee52	0.248956
2	0xbe5ebd0a	-0.217518
3	0xbeb7c350	-0.358912
4	0xbf042a99	-0.516275
5	0xbe4079a3	-0.187964
6	0x3eb6b463	0.356845
7	0xbe2ac4f8	-0.166767
8	0xbfd5883c	-1.66822
9	0x3ec21230	0.379045
10	0xbdef37fc	-0.116806
11	0x3dde7d9a	0.108638
12	0x3f6304ff	0.886795
13	0xbd8fb91e	-0.0701773
14	0x3d0c2acc	0.0342205
15	0x3bdd5da9	0.00675555
16	0xbe267946	-0.162572
17	0xbe1890d6	-0.14899
18	0xbdece465	-0.11567
19	0xbb4befad	-0.00311182
20	0x3caaccc8	0.0208496
21	0x3f5d285b	0.863897
22	0xbf65dc0e	-0.897889
23	0x3da708b8	0.0815596
24	0x3db550e5	0.0885332
25	0xbc37288b	-0.0111791
26	0xbf695fee	-0.91162
27	0xbf82c7b9	-1.02172
28	0x3f0cb557	0.549642
29	0x3ccd37c1	0.025051
30	0xbc8d18ed	-0.0172238
31	0x3f14d089	0.581307
32	0x3c0e9336	0.00870209
33	0xbde0e172	-0.109805
34	0xbfa79e06	-1.30951
35	0x3da13844	0.0787206
36	0xbfe7165d	-1.80537
37	0x402207b3	2.53172
38	0x3e15b574	0.1462
39	0xbd29430a	-0.0413237
40	0x3f540e7c	0.828346
41	0x3e539d1b	0.206654
42	0xbbda43d9	-0.00666092
43	0x3c8cfb26	0.0172096
44	0x3d346166	0.0440382
45	0xbb026f06	-0.00199026
46	0x3e460dcc	0.193412
47	0xbe4d8ba4	-0.200728
48	0x3f1ef08d	0.620858
49	0x3edd2eb6	0.431997
50	0xbdb04669	-0.0860718
51	0xbec74385	-0.389187
52	0x3e3d6020	0.184937
53	0xbc744ac0	-0.0149104
54	0xbfba82e8	-1.45712
55	0x3dc79d4e	0.097468
56	0xc006a897	-2.10404
57	0x3c8e6264	0.0173809
58	0x3e2792d1	0.163646
59	0xbece54f8	-0.402992
60	0x3e5be9c9	0.214759
61	0xbd1eb57d	-0.0387473
62	0xbdf9d1b3	-0.121982
63	0x3f1fe89b	0.624643
64	0xbf2618ad	-0.648814
65	0xbeccd1c8	-0.400038
66	0x3bf5b564	0.00749843
67	0x3e01c326	0.126721
68	0xbe659c49	-0.224229
69	0xbca6aef6	-0.0203471
70	0x3c42f182	0.0118984
71	0xbdc4562e	-0.0958675
72	0xbf2700ac	-0.652354
73	0xbf064745	-0.524525
74	0x3eba9308	0.364403
75	0xbd3788e8	-0.0448083
76	0x3e0b6135	0.136113
77	0x3cba86e5	0.0227694
78	0xbe4912dc	-0.196361
79	0x3c37d0bc	0.0112192
80	0xbfa80bcc	-1.31286
81	0x3eb8db05	0.361046
82	0xbec479d5	-0.383742
83	0x3bdce182	0.00674075
84	0xbe6a9e2c	-0.229119
85	0xbe8162f1	-0.252708
86	0x3ca27fbc	0.0198363
87	0x3c54f9c2	0.012999
88	0x3e510386	0.204115
89	0x3ebf67f5	0.37384
90	0x3d20a908	0.0392237
91	0x3d9576f5	0.0729808
92	0x3e214fce	0.157531
93	0xbf0c3ec9	-0.547833
94	0xbfce70e3	-1.61282
95	0x3c561b96	0.0130681
96	0x401df972	2.46835
97	0x3d0ff774	0.0351481
98	0xbde01bca	-0.109428
99	0x3ebbc03c	0.366701
100	0xc0265edd	-2.59954
101	0x3c8095bd	0.0156964
102	0x3ce75650	0.0282394
103	0x3cb08bef	0.0215511
104	0xbc6ee591	-0.0145811
105	0x3dcd0f62	0.100127
106	0x3fa608af	1.29714
107	0x3f871b9b	1.05553
108	0x3f89fc3b	1.07801
109	0xbec8c1b9	-0.392103
110	0xbf01780c	-0.505738
111	0xbd3ba344	-0.04581
112	0x3d849fd8	0.064758
113	0x3cb143a5	0.0216387
114	0x3df4bb5e	0.119498
115	0xbb47850f	-0.00304443
116	0x3bad24e7	0.00528394
117	0xc0199db2	-2.40025
118	0x3cbd4f4c	0.0231091
119	0xbbad96e7	-0.00529753
120	0x3f3069f9	0.689117
121	0xbf43d007	-0.764893
122	0xba95f6a2	-0.00114413
123	0xbd00dc33	-0.03146
124	0xbd7038e3	-0.058648
125	0x3ceade9b	0.0286706
126	0x3c7dd94a	0.0154937
127	0x3f152c6b	0.582709
128	0x3f66be49	0.901341
129	0xbf701c50	-0.937932
130	0x3d5eeaa7	0.054423
131	0x3f99d441	1.20179
132	0xbf904189	-1.127
133	0x3e433bda	0.190658
134	0xbe0f1f58	-0.139768
135	0x3c463f7f	0.0121001
136	0xbba6943e	-0.00508359
137	0x3a5f4c00	0.00085181
138	0x3b8315f5	0.00400042
139	0xba0d3cea	-0.00053878
140	0xbd319afd	-0.0433607
141	0x3d73b5f5	0.0594997
142	0x3f023001	0.508545
143	0xbebfea3e	-0.374834
144	0x3eba0f6f	0.363399
145	0x3f59056c	0.847739
146	0xbcf621fb	-0.0300455
147	0xba7c60ca	-0.000962746
148	0x3cc9136f	0.0245454
149	0xbdca4c7d	-0.0987787
150	0x3d8ba055	0.0681769
151	0x3f120243	0.570347
152	0x3e93d87b	0.288761
153	0x3b3e299c	0.00290165
154	0xbce72284	-0.0282147
155	0xbacb524e	-0.00155122
156	0x3e843bf7	0.25827
157	0xbe704a73	-0.234659
158	0x3e951dac	0.291242
159	0xbfc42b95	-1.53258
160	0xb9001ce8	-0.000122178
161	0x39836832	0.000250639
162	0xbc3800f8	-0.0112307
163	0x3a04e24a	0.000506912
164	0xbaa9e948	-0.00129632
165	0x3c87ae80	0.0165627
166	0xc01ab607	-2.41736
167	0x3c2ea381	0.0106591
168	0x3dad59e3	0.0846441
169	0x3f305b18	0.68889
170	0xbce3e39f	-0.0278185
171	0x3e323fee	0.174072
172	0xbe6ac797	-0.229277
173	0x3f639c52	0.889104
174	0xbfa306f7	-1.27365
175	0xbf1b8822	-0.607546
176	0xbda11ee4	-0.0786722
177	0x3ca5ca95	0.0202382
178	0xbe4cb0c0	-0.199893
179	0x3e602646	0.218896
180	0xbed76fd2	-0.420775
181	0x3e0e3327	0.138867
182	0xbd376110	-0.0447703
183	0xbc07e2f8	-0.00829386
184	0x3e1708ab	0.147494
185	0x3d50ef06	0.0510092
186	0xbd27b1c0	-0.040941
187	0x3ff52c28	1.91541
188	0x3e80be2f	0.251451
189	0xbdb545f0	-0.0885123
190	0x3d8edc72	0.0697564
191	0xbf504f09	-0.813706
192	0x3f4e1f8e	0.805169
193	0xbf373f31	-0.715808
194	0x3f3851b9	0.719997
195	0xbf5973eb	-0.849425
196	0xbdaf3cea	-0.0855654
197	0x3d60460b	0.0547543
198	0xbe0c84f9	-0.137226
199	0xbd36d026	-0.0446321
200	0xbf4dd26b	-0.803992
201	0xbd12b6f2	-0.035819
202	0x3bc0ea2b	0.00588729
203	0x3e131f47	0.143674
204	0xbe0b1b7a	-0.135847
205	0xb9cc1937	-0.000389287
206	0xb9c1e0c7	-0.000369793
207	0xbab29b48	-0.00136266
208	0x3cce57b2	0.0251883
209	0x3c10a4f4	0.00882839
210	0xbd30b179	-0.043138
211	0x3f298288	0.662148
212	0x3e8af72b	0.271417
213	0xbe869553	-0.262858
214	0x3ed2dd9c	0.411847
215	0x3cc50848	0.0240518
216	0xbf6a4cc7	-0.915234
217	0xbe2074a7	-0.156695
218	0x3ec74e66	0.38927
219	0xbefe2d62	-0.49644
220	0xbcb8ded9	-0.0225672
221	0x3e71fcd2	0.236316
222	0xbe854328	-0.260278
223	0xbf99c5d6	-1.20135
224	0xbec93a93	-0.393025
225	0xbf906e6e	-1.12837
226	0x3e316e37	0.173272
227	0x3ab189d0	0.00135451
228	0x3d582a99	0.052775
229	0xbdd62739	-0.104567
230	0x3ba77c30	0.00511124
231	0x3f0fd790	0.561883
232	0xbeff07e1	-0.498107
233	0xbda0b0e5	-0.0784624
234	0x3e1159c5	0.141944
235	0xbd4f3776	-0.05059
236	0xbe9bf39d	-0.304593
237	0x3e0eafab	0.139342
238	0xbf9cb828	-1.22437
239	0xbf037da6	-0.513636
240	0x3bdd8e10	0.00676132
241	0x3d508503	0.0509081
242	0xbd37c2af	-0.0448634
243	0x3eac74da	0.336829
244	0xbdfd6e05	-0.123745
245	0x3ddc07ee	0.107437
246	0x3f84995b	1.03593
247	0xbf7b5ad9	-0.981855
248	0xbcc02c76	-0.0234587
249	0x3dce29fa	0.100666

2 f4 [50]
0	0xbc81cb7c	-0.0158441
1	0xbee29025	-0.442506
2	0x3d8e7211	0.0695535
3	0x3c4db1cf	0.0125546
4	0xbea5f5ae	-0.32414
5	0xbe3fc2a9	-0.187266
6	0xbe901472	-0.281406
7	0xbf06923e	-0.525669
8	0xbe62630f	-0.221081
9	0x3e524f22	0.20538
10	0xbeaa5eff	-0.332756
11	0xbe3d4068	-0.184816
12	0x3e09b23e	0.134469
13	0xba871634	-0.00103063
14	0x3e4bc6eb	0.199001
15	0x3df1116b	0.117709
16	0xbe90d951	-0.282908
17	0x3e000d1b	0.12505
18	0xbf3a8662	-0.728613
19	0x3e89526e	0.268207
20	0xbee2b68d	-0.442799
21	0x3dc74589	0.0973006
22	0xbd8d0fb3	-0.0688776
23	0x3db76394	0.0895454
24	0xbe8e71ce	-0.278212
25	0x3d9698fe	0.073534
26	0xbeac6dc6	-0.336775
27	0xbc5f0117	-0.0136111
28	0x3d1aad10	0.0377627
29	0x3e95d399	0.29263
30	0x3ded21bc	0.115787
31	0x3ebfbd27	0.37449
32	0xbc2ac901	-0.0104239
33	0x3ebd640f	0.369904
34	0x3f2f10ed	0.683852
35	0xbdf44fe3	-0.119293
36	0xbd39d9fc	-0.0453739
37	0x3dc20840	0.0947423
38	0x3e5c1590	0.214926
39	0xbe060419	-0.130875
40	0xbe1c1590	-0.152426
41	0xbc941348	-0.0180756
42	0x3dba6c6b	0.0910271
43	0x3d1b9f63	0.0379938
44	0xbe90c75c	-0.282771
45	0xbd36cce6	-0.044629
46	0x3e90e66d	0.283008
47	0xbefa5f42	-0.489008
48	0x3e0704bc	0.131854
49	0x3aaef4cb	0.00133481

3 f4 [50, 50]
0	0x3f3beb29	0.734057
1	0x3e8907fb	0.267639
2	0x3e813144	0.252329
3	0x3ea46f58	0.321162
4	0x3e507faa	0.203612
5	0x3ce81959	0.0283324
6	0x3f9abd90	1.20891
7	0xbdaf97ee	-0.085739
8	0xbf254813	-0.645631
9	0x3d269794	0.0406719
10	0x3f8243fe	1.0177
11	0x3fa4c597	1.28728
12	0x3ea1b845	0.315859
13	0xbf66de12	-0.901826
14	0xbdeafab5	-0.114736
15	0xbfc319f8	-1.52423
16	0x3f9810b6	1.18801
17	0xc033760c	-2.80408
18	0x3edfd7a1	0.437192
19	0xc0c37dfe	-6.10913
20	0xbf6478fb	-0.892471
21	0xbdf84a94	-0.121236
22	0xc08317c2	-4.09665
23	0xbea05597	-0.313153
24	0x3fa64fca	1.29931
25	0xbdfcfd4c	-0.12353
26	0xbdff84cb	-0.124765
27	0x3c88f217	0.016717
28	0xbef00f77	-0.468868
29	0xbf2b400c	-0.668946
30	0xbff7c45d	-1.93568
31	0x3f36ff7e	0.714836
32	0x3ccb8499	0.0248435
33	0xbf74560c	-0.954438
34	0x3ea89b0f	0.329308
35	0x3f50f2bf	0.816204
36	0x3f408249	0.751988
37	0x3ee9691a	0.45588
38	0xbe87e2a4	-0.265401
39	0x3f19d7dc	0.60095
40	0x3f02c860	0.51087
41	0x3c4330d7	0.0119135
42	0xbf8e0ded	-1.1098
43	0x3ebe496f	0.371654
44	0x3e723034	0.236512
45	0xbf7884e8	-0.970778
46	0xbfc27382	-1.51915
47	0x3f7bbfa5	0.983393
48	0xbedca8a0	-0.430974
49	0x3e32b064	0.174501
50	0x3fc1104d	1.50831
51	0x3f78a116	0.971208
52	0x3eed896a	0.463939
53	0x3e8a33df	0.269927
54	0xbf95e00d	-1.1709
55	0xbcdefb38	-0.0272194
56	0xbfa9a027	-1.3252
57	0xc006137f	-2.09494
58	0xbe9709d9	-0.294997
59	0xbecac109	-0.396004
60	0x3edae9cd	0.427565
61	0xbd8fe45f	-0.0702598
62	0xbcfb909a	-0.0307086
63	0x3f9517d7	1.16479
64	0x3e1c8e26	0.152886
65	0x3e9c1c3f	0.304903
66	0xbfc77e3d	-1.55854
67	0xbf19275f	-0.598257
68	0xbf82a162	-1.02055
69	0xbef6963e	-0.481615
70	0x3f05156a	0.519858
71	0xbe27c632	-0.163842
72	0x3e5362a6	0.206431
73	0x3e81611c	0.252694
74	0x3ee75c6c	0.451877
75	0xbf3fae25	-0.748751
76	0xbffeb075	-1.98976
77	0xbceeb33c	-0.0291382
78	0x3f29055c	0.660238
79	0xbe284620	-0.16433
80	0x3f6b20b8	0.918468
81	0xbfd38da4	-1.65276
82	0xbcda6465	-0.0266592
83	0x3eb871c5	0.360243
84	0x3d59d6a1	0.0531832
85	0x3f27b69a	0.65513
86	0xbe955b68	-0.291713
87	0xbed7dd44	-0.42161
88	0x3e80fa9c	0.251912
89	0x3f9421c0	1.15728
90	0x3e45e248	0.193246
91	0x3cc077f5	0.0234947
92	0xbf064f55	-0.524648
93	0x3eef7c67	0.467746
94	0x3f924d2b	1.14298
95	0xbf09c444	-0.538151
96	0x3ee7ec14	0.452973
97	0x3f83d9a9	1.03008
98	0x3ee1b36c	0.440822
99	0xbd81bc12	-0.063347
100	0x3e23ffac	0.160155
101	0xbe743c3a	-0.238511
102	0x3f3ad85e	0.729864
103	0xbe41f601	-0.189415
104	0x3ee5a48b	0.448521
105	0x3e81c843	0.253481
106	0x3f7af6a5	0.980326
107	0xbe920254	-0.285174
108	0xbfeaa20a	-1.83307
109	0x3ebc8adf	0.368247
110	0x3f6ae350	0.917531
111	0xbee309c8	-0.443434
112	0x3e246738	0.16055
113	0x3f0fc70d	0.561631
114	0x3e322fad	0.17401
115	0xbe79bbf1	-0.243881
116	0xbf28cb3a	-0.659351
117	0xc006afcd	-2.10448
118	0x4013fbbd	2.31224
119	0x3e332485	0.174944
120	0x3ef0fc93	0.470677
121	0x3e1b8dc5	0.151908
122	0xbfe1b185	-1.76323
123	0x3e77e6f7	0.242092
124	0xc0829c39	-4.08157
125	0xbf565300	-0.837204
126	0x3eafb15b	0.34315
127	0xbd12560e	-0.0357266
128	0x3f28e5f7	0.659759
129	0xbf9e2a1b	-1.23566
130	0xbf0815f4	-0.531585
131	0x3e7d69d3	0.247474
132	0xbcdf32cb	-0.0272459
133	0xbf32cd08	-0.698441
134	0xbe85182b	-0.25995
135	0xbf4263e9	-0.759337
136	0xbf56b474	-0.838691
137	0xbe9a5e9a	-0.301503
138	0xbeee6c6e	-0.465671
139	0xbf1eee52	-0.620824
140	0xbf552902	-0.832657
141	0xbc1793a5	-0.00925151
142	0xbf2597f6	-0.64685
143	0xbf125b21	-0.571703
144	0x3e5f7597	0.218222
145	0xbcda4fd8	-0.0266494
146	0xbe9ba8e7	-0.304023
147	0x3f6bffac	0.92187
148	0x3cd9e6c6	0.0265993
149	0xbeafb6fe	-0.343193
150	0x3c94c448	0.01816
151	0xbc35abb3	-0.0110883
152	0x3c2cce95	0.0105473
153	0x3d087b2e	0.0333206
154	0xbd0949c0	-0.0335176
155	0x3c871568	0.0164897
156	0x3c20865d	0.00979766
157	0xbcf57bad	-0.0299662
158	0xbd4122c5	-0.0471523
159	0xbd64dd14	-0.0558749
160	0xbbb9f1ff	-0.0056746
161	0x3cd42c3d	0.0259
162	0xbd036b90	-0.032085
163	0xbbcc0b71	-0.00622695
164	0x3cec24ec	0.0288262
165	0xbd4ff35d	-0.0507692
166	0xbba829d5	-0.00513194
167	0xbd1d4e75	-0.0384049
168	0xbc972f92	-0.0184553
169	0xbcba9d1f	-0.02278
170	0xbc1c7683	-0.00954974
171	0xbd3dc147	-0.0463269
172	0xbc416cb2	-0.0118057
173	0xbd45f4f2	-0.0483293
174	0xbd32074f	-0.043464
175	0xbc20e4a7	-0.00982014
176	0x3b7c9592	0.00385413
177	0xbb3a7b91	-0.0028455
178	0xbd16a2bf	-0.0367763
179	0xbc9c0336	-0.0190445
180	0xbd076768	-0.0330576
181	0x3d34837a	0.0440707
182	0xbd00bdb0	-0.0314309
183	0x3c8b92a6	0.0170377
184	0xbd3379c5	-0.0438173
185	0x3ca7cee7	0.0204844
186	0x3d0bec32	0.0341608
187	0xbd2e7925	-0.042596
188	0xbc174b40	-0.00923425
189	0x3c9d2ee5	0.0191874
190	0xbce5c87c	-0.0280497
191	0xbcd99b11	-0.0265632
192	0x3bbfbdb0	0.00585147
193	0xbd4dce1f	-0.0502454
194	0xbd4b0c89	-0.0495725
195	0xbd2c8fab	-0.0421292
196	0x3b565059	0.00327017
197	0xbc845d93	-0.0161579
198	0xba5b3683	-0.000836231
199	0x3d2da9a1	0.0423981
200	0xbed2f9a9	-0.412061
201	0x3f5bc686	0.858498
202	0xbe8bf141	-0.273325
203	0xbf9f150e	-1.24283
204	0x3c01485f	0.00789079
205	0xbfe26fe7	-1.76904
206	0xbf696302	-0.911667
207	0x4042523f	3.03627
208	0x3e93951c	0.288247
209	0xbec120e2	-0.377204
210	0x3f446b7b	0.767265
211	0x3f135200	0.57547
212	0x3f60c08b	0.877938
213	0xbf82a10e	-1.02054
214	0xc00a6b27	-2.16279
215	0xc00380b2	-2.05473
216	0x410040cc	8.01582
217	0x3f1768cf	0.591443
218	0x3e69fc6e	0.228502
219	0xbfa29931	-1.2703
220	0xbdd29ed4	-0.102842
221	0xbf8631a5	-1.04839
222	0xbe4f3238	-0.20234
223	0xc0eecbbc	-7.46237
224	0xbcc2cbc2	-0.0237788
225	0xbfb55033	-1.41651
226	0x3d09f872	0.0336842
227	0xbd41a27d	-0.0472741
228	0x3c35adcc	0.0110888
229	0xbf155c85	-0.583443
230	0xbfc86e1a	-1.56586
231	0x3eec8e8a	0.462025
232	0x3c9cdf6a	0.0191495
233	0x3ef4f1a2	0.478406
234	0x3ee867ae	0.453916
235	0xbdc976bc	-0.098371
236	0xbfd7c99b	-1.68584
237	0x3f0be48a	0.546456
238	0x3f10fe26	0.566378
239	0xbee58b3f	-0.448328
240	0xbfbbced9	-1.46725
241	0xbcb53cf9	-0.0221238
242	0xbf410679	-0.754005
243	0xbd35068d	-0.0441957
244	0xbf999b3d	-1.20005
245	0x3e80b0f2	0.25135
246	0xc0457122	-3.08503
247	0xbea9b478	-0.331455
248	0x3fa21911	1.26639
249	0xbdf6adf7	-0.120449
250	0x3f732420	0.94977
251	0x3f2eb863	0.682501
252	0xbece66cb	-0.403128
253	0x3ee0915c	0.438609
254	0xc0110c0b	-2.26636
255	0x3facb3e5	1.34924

4 f4 [50]
0	0xbef3f594	-0.476483
1	0x3f9697e1	1.17651
2	0xbf4539c9	-0.770413
3	0xbc9b2ec5	-0.0189432
4	0xbf41be6e	-0.756812
5	0x3f551dcd	0.832486
6	0xbf5a604e	-0.853032
7	0x3d4be3b4	0.0497777
8	0xbeefd588	-0.468426
9	0xbf5eeb4f	-0.870778
10	0xbf9b1077	-1.21144
11	0xbf482b1f	-0.781908
12	0xbbae17c0	-0.00531289
13	0xbecc33b5	-0.398832
14	0xbeb97d07	-0.362282
15	0xbe8496ee	-0.258964
16	0x3f1294ee	0.572585
17	0xbb8a1d25	-0.0042149
18	0xbc90c0e3	-0.0176701
19	0x3e74994a	0.238866
20	0xbe1cab82	-0.152998
21	0x3eab49e0	0.334548
22	0x3c80ccaf	0.0157226
23	0xbc1304ea	-0.00897334
24	0xbf9916db	-1.19601
25	0x3f10c597	0.565515
26	0x3ec4df26	0.384515
27	0xbfa4aefb	-1.28659
28	0xbf8f2df5	-1.11859
29	0x3f105575	0.563804
30	0xbf18cccd	-0.596875
31	0x3d9664fc	0.0734348
32	0xbf200af2	-0.625167
33	0xbe34d6a1	-0.1766
34	0xbe201755	-0.156339
35	0xbc568548	-0.0130933
36	0xbcb42b4b	-0.0219933
37	0x3f6bd242	0.921177
38	0xbed8b029	-0.423219
39	0xbf1974c5	-0.599438
40	0xbf153997	-0.58291
41	0xbc516690	-0.0127808
42	0xbd869b75	-0.0657262
43	0xbf7dfdbd	-0.992153
44	0xbf144966	-0.579245
45	0xbc0dc937	-0.00865393
46	0x3e4a326e	0.197458
47	0xbeaa9931	-0.3332
48	0xbc55f4ff	-0.0130589
49	0xbfb68588	-1.42595

5 f4 [50, 50]
0	0xbd58dd11	-0.0529452
1	0x3df39b89	0.118949
2	0x3da4ecc1	0.0805297
3	0xbba9e2bd	-0.0051845
4	0xbebecce6	-0.372657
5	0x3e1fc7a4	0.156035
6	0xbdf56191	-0.119815
7	0xbe9540cc	-0.29151
8	0xbddaf428	-0.106911
9	0xbd305964	-0.043054
10	0xbe72a130	-0.236943
11	0x3d61f7d7	0.055168
12	0xbd397edc	-0.045287
13	0xbec94834	-0.393129
14	0x3f001f75	0.50048
15	0xbecd3f9e	-0.400876
16	0x3f25d80e	0.647828
17	0x3c5888c3	0.0132162
18	0xbce2dfc9	-0.0276946
19	0x3efeea42	0.497881
20	0xbddbaa15	-0.107258
21	0x3edc5c36	0.430391
22	0xbf34e63a	-0.706638
23	0xbd0a43bb	-0.033756
24	0x3ef8928a	0.485493
25	0x3eab25d5	0.334273
26	0xbd83db9a	-0.0643837
27	0xbf615172	-0.880149
28	0x3ef82d17	0.484719
29	0x3e12d624	0.143395
30	0xbe81014b	-0.251963
31	0xbf0fe015	-0.562013
32	0xbef55f9a	-0.479245
33	0x3f49f299	0.788858
34	0xbf4ff64d	-0.812352
35	0xbcd504aa	-0.0260032
36	0x3d48f507	0.0490618
37	0x3ddbe015	0.107361
38	0xbf5f9d6f	-0.873496
39	0x3ec537e3	0.385192
40	0x3ea5e52a	0.324014
41	0xbc4e95fb	-0.012609
42	0x3eb9209f	0.361577
43	0x3df911cf	0.121616
44	0x3fa23dc5	1.26751
45	0x3c62e756	0.0138491
46	0x3a451bf6	0.000751912
47	0x3e99bc34	0.300264
48	0xbd5bb3f0	-0.0536384
49	0xbd957314	-0.0729734
50	0xbde03687	-0.109479
51	0xbd79483b	-0.0608599
52	0xc0e8d0a6	-7.27547
53	0x3d05ad1e	0.0326358
54	0xbe082fd7	-0.132995
55	0x3f2a8987	0.666161
56	0xbe4f7165	-0.202581
57	0xbafbf402	-0.00192225
58	0xbd9fdd15	-0.0780584
59	0xbee21251	-0.441546
60	0xbef94962	-0.486888
61	0x3f272eae	0.653056
62	0xbd0ee053	-0.0348819
63	0x3e81ff50	0.253901
64	0xbf36e686	-0.714455
65	0x3e73c255	0.238046
66	0xbe2b23dd	-0.167129
67	0x3bf8d8da	0.00759421
68	0x3d1bf0c2	0.0380714
69	0xbeae1933	-0.340036
70	0x3ee4e161	0.447032
71	0xbf0e8177	-0.556663
72	0xbe56733f	-0.209424
73	0x3d315f89	0.043304
74	0xbf412913	-0.754533
75	0xbe298f1d	-0.165585
76	0xbc7df0c7	-0.0154993
77	0x3e7e4e27	0.248345
78	0x3ceb0c1d	0.0286923
79	0x3f211fc5	0.629391
80	0x3d883912	0.0665151
81	0xbded0e56	-0.11575
82	0xbf2956d2	-0.661481
83	0x3fa7d75e	1.31126
84	0x3eb86424	0.360139
85	0x3ce7ded7	0.0283045
86	0x3c82e98a	0.0159805
87	0xbf7acca3	-0.979685
88	0x3eb54a80	0.354084
89	0xbf6ce853	-0.92542
90	0x3bc49d53	0.0060002
91	0xbc55376a	-0.0130137
92	0x3e81335d	0.252345
93	0x3d7b0a2d	0.061289
94	0xbc824265	-0.0159008
95	0xbd43e766	-0.0478281
96	0x3e3c115e	0.18366
97	0xbe612168	-0.219854
98	0xbccefed6	-0.025268
99	0xbf5cee07	-0.863007
100	0xbfa09082	-1.25441
101	0xbf16c860	-0.588995
102	0xbe7eafee	-0.248718
103	0xbd0a2014	-0.033722
104	0xbe221683	-0.158289
105	0x3f1ae6eb	0.605086
106	0x3e544285	0.207285
107	0x3ec7e048	0.390383
108	0xbe8cc122	-0.274911
109	0x3f0ad0f6	0.542251
110	0x3db2ab18	0.0872404
111	0xbf1bb8f5	-0.608291
112	0xbc584754	-0.0132006
113	0xbf113187	-0.567162
114	0x3ef3076c	0.474666
115	0x3f702b84	0.938164
116	0x3edd08d5	0.431708
117	0xbc9817b9	-0.018566
118	0x3d7b3220	0.0613271
119	0x3fad320e	1.35309
120	0x3f3e9308	0.744431
121	0x3dc836f9	0.0977611
122	0xbeacb407	-0.337311
123	0x3d19983d	0.0374987
124	0x3e383947	0.179906
125	0x3e7800a8	0.24219
126	0xbda4f151	-0.0805384
127	0x3e8193d5	0.253081
128	0xbec87443	-0.391512
129	0xbe8e325d	-0.277728
130	0x3e036cdf	0.128345
131	0x3f86656b	1.04997
132	0x3e93dba1	0.288785
133	0x3f421156	0.758077
134	0xbbce8198	-0.00630207
135	0xbc589705	-0.0132196
136	0x3cdd94d1	0.0270485
137	0xbeb38b69	-0.350673
138	0xbfffe133	-1.99906
139	0x3f4cbaf9	0.799728
140	0x3e8c397a	0.273876
141	0xbc1d19c1	-0.00958866
142	0x3f86ddad	1.05364
143	0x3dd0ae53	0.101895
144	0x3fb9a2c6	1.45028
145	0x3c891700	0.0167346
146	0x3f42eee9	0.761458
147	0xbf9d11f1	-1.22711
148	0xbce05144	-0.0273825
149	0x3eaf3d3a	0.342264
150	0xbc80b532	-0.0157114
151	0xbd45326f	-0.0481438
152	0xbcccf5e7	-0.0250196
153	0x3c9600f3	0.018311
154	0x3cf02272	0.0293133
155	0x3c20122f	0.00976996
156	0x3cf42d64	0.0298068
157	0x3c1714da	0.00922128
158	0x3d057e3f	0.0325911
159	0x3c38edf3	0.0112872
160	0xbd24901d	-0.0401765
161	0x3d26cd0e	0.0407229
162	0x3caa97b9	0.0208243
163	0xb9c48b8b	-0.00037488
164	0x3beb9072	0.00718885
165	0xbd435a78	-0.0476937
166	0xbd0ba641	-0.0340941
167	0xbd4ce71f	-0.0500251
168	0x3d3f21e9	0.0466632
169	0xbd3c833e	-0.0460236
170	0xbcf30f57	-0.0296704
171	0x3cfb3e2f	0.0306693
172	0xbd347f13	-0.0440665
173	0xbd1e483a	-0.0386431
174	0xbcad7bcf	-0.0211772
175	0xbbe7fd14	-0.00707973
176	0x3caafd6f	0.0208728
177	0xbc39fba4	-0.0113515
178	0x3beebca1	0.00728567
179	0x3c883ce5	0.0166306
180	0xbd0ee236	-0.0348837
181	0x3b98ff80	0.00466913
182	0x3bb3181b	0.00546552
183	0xbccee17a	-0.025254
184	0xbc91ef4b	-0.0178143
185	0xbc8c62af	-0.0171369
186	0xbc8636b1	-0.0163835
187	0xbd4feb80	-0.0507617
188	0x3aab7df3	0.00130838
189	0xbd2b0cd9	-0.0417603
190	0x3d1e52b7	0.0386531
191	0x3c537cea	0.0129082
192	0xbcf58446	-0.0299703
193	0xbcc3dff4	-0.0239105
194	0xbcdc545f	-0.0268957
195	0xbd08ed95	-0.0334297
196	0x3d074737	0.0330269
197	0x3c5f61fb	0.0136342
198	0x3cd3f00c	0.0258713
199	0xbd50b143	-0.0509503
200	0x40113b64	2.26925
201	0xbf76a4a9	-0.96345
202	0xbec54f7b	-0.385372
203	0xbc8f4d0f	-0.0174928
204	0xbf6549b6	-0.895656
205	0xbfab497b	-1.33818
206	0x3ee79ca6	0.452367
207	0xc00feda6	-2.24888
208	0x3d4c95c0	0.0499475
209	0x3bef76c6	0.00730786
210	0x3e48cb08	0.196087
211	0x3f21246c	0.629462
212	0xbd0de383	-0.0346408
213	0x3e328e50	0.174371
214	0xbf8a9bd0	-1.08288
215	0xbe96b3ff	-0.294342
216	0xbfdadff8	-1.70996
217	0x3c2d4dac	0.0105776
218	0x3c8d9b94	0.0172861
219	0xbf466c5d	-0.775091
220	0x3f1e2a0b	0.617829
221	0x3e24ad36	0.160817
222	0xbf26fbd2	-0.65228
223	0xbd006028	-0.0313417
224	0xbf1aed35	-0.605182
225	0x3f2855fc	0.657562
226	0x3cd5ea17	0.0261126
227	0x3ee8fcf8	0.455055
228	0x3f3637ac	0.711787
229	0xc03d522a	-2.95814
230	0x3f683383	0.907036
231	0x4001357e	2.01889
232	0x3ebb2746	0.365534
233	0xbf93a398	-1.15343
234	0x3e916378	0.283962
235	0xbcbfc39a	-0.0234087
236	0x3cfd71e6	0.0309381
237	0xc0393eff	-2.89447
238	0xc048aa3b	-3.13539
239	0xbd7c38cb	-0.0615776
240	0x3ecbaf53	0.397822
241	0x3c3d9232	0.0115705
242	0x3f1856b4	0.595073
243	0xbf8f2086	-1.11818
244	0xbf8ebd3c	-1.11515
245	0x3ce55ace	0.0279974
246	0xbf622425	-0.883364
247	0x3fb3b2ff	1.4039
248	0xbc7fabb2	-0.0156049
249	0x3fe9a3c2	1.82531
250	0xbf2c941d	-0.674135
251	0xbfa76263	-1.30769
252	0x3f91cf03	1.13913
253	0x3ce8aee0	0.0284037
254	0x3eb83255	0.359759
255	0xbfe94e90	-1.82271

6 f4 [50]
0	0x3ddd4068	0.108033
1	0xbe70a02c	-0.234986
2	0xbf23ab11	-0.639329
3	0xbbba49bd	-0.00568506
4	0x3dd83e85	0.105588
5	0xbea5d3fe	-0.323883
6	0x3fa02310	1.25107
7	0xbfc9b5c8	-1.57586
8	0x3df09d06	0.117487
9	0xbfe42be9	-1.78259
10	0x3d4b257d	0.0495963
11	0x3fe20e41	1.76606
12	0xbe2fa765	-0.171537
13	0xbe384be4	-0.179977
14	0xbccb5823	-0.0248223
15	0xbfc876f3	-1.56613
16	0x3f1f8d2e	0.623248
17	0x3e986983	0.29768
18	0xc006f0ae	-2.10844
19	0xbc95ed72	-0.0183017
20	0xbea5aa2e	-0.323564
21	0xc02276f3	-2.53851
22	0xbf9cb978	-1.22441
23	0xbeff2086	-0.498295
24	0xbe345565	-0.176107
25	0xbf02a62b	-0.510348
26	0xbed0ae10	-0.407578
27	0xbd395d34	-0.0452549
28	0x3d763be1	0.0601157
29	0xbfb54ee4	-1.41647
30	0xbd0cf23c	-0.0344107
31	0xbf87eb07	-1.06186
32	0x3e8d1b2e	0.275598
33	0xbfc8cf18	-1.56882
34	0xbe40e9d5	-0.188392
35	0xc0303372	-2.75314
36	0x3fec2e34	1.84516
37	0xbeb997a2	-0.362485
38	0xbdb3db2f	-0.0878204
39	0xbde60c39	-0.112328
40	0x3f8597f6	1.0437
41	0xbb4100bc	-0.00294499
42	0xbfd72cf9	-1.68106
43	0xbf26e9cd	-0.652005
44	0x3f890918	1.07059
45	0xbea3b518	-0.319741
46	0xbe36f694	-0.178675
47	0xbfa3f291	-1.28084
48	0xbf2282f9	-0.634811
49	0xbfc29c78	-1.5204

7 f4 [50, 50]
0	0x3df301eb	0.118656
1	0x3fa11c19	1.25867
2	0xbf16d2aa	-0.589152
3	0xbc5a43ae	-0.0133218
4	0xbe9edfa4	-0.3103
5	0x3e8fbf40	0.280756
6	0x3eb5d745	0.355158
7	0x3f0b3dd1	0.543912
8	0x3c6af0a4	0.0143396
9	0xbef79ebf	-0.483633
10	0xbf0e7f1b	-0.556627
11	0x3eb7a7eb	0.358703
12	0x3f1bfd82	0.609337
13	0xbf2c5cff	-0.673294
14	0xbbb69e4d	-0.00557307
15	0x3de676a7	0.112531
16	0x3db79a86	0.0896502
17	0x3fd76998	1.68291
18	0x3f68297c	0.906883
19	0x3d29a00c	0.0414124
20	0x3f1aabde	0.604185
21	0x3ead20d1	0.338141
22	0xbf630b07	-0.886887
23	0x3de4a72f	0.111647
24	0x3e8af2fa	0.271385
25	0xbe365387	-0.178053
26	0x3f1ae1ef	0.60501
27	0x3e9f63e5	0.311309
28	0x3dff0f5a	0.124541
29	0x3f181616	0.594087
30	0x3c9ef376	0.0194032
31	0xbf0dac8a	-0.553414
32	0xbf27749b	-0.654123
33	0xbf186e6e	-0.595435
34	0xbf230ea2	-0.636942
35	0xbe677293	-0.226023
36	0xbea1a2c6	-0.315695
37	0xbeb88484	-0.360386
38	0x3d3074c2	0.0430801
39	0xbcce3c03	-0.0251751
40	0xbd06367b	-0.0327668
41	0x3c53a457	0.0129176
42	0x3ebaa583	0.364544
43	0x3f09c0ba	0.538097
44	0x3efeaf68	0.497432
45	0xbeaab021	-0.333375
46	0xbf3f291c	-0.746721
47	0xbe2d9f4d	-0.169553
48	0xbe28e9f7	-0.164955
49	0xbfb8a969	-1.44267
50	0x3f7e80f1	0.994155
51	0xbfe41fc9	-1.78222
52	0xbfb2b9a1	-1.39629
53	0x3bb1f32d	0.0054306
54	0x3ff0db38	1.88169
55	0xbf2caa65	-0.674475
56	0x40219ae9	2.52508
57	0xbec3484d	-0.381411
58	0x3eaec2ad	0.341329
59	0x3df48f54	0.119414
60	0xbf3f0953	-0.746236
61	0x3f22f805	0.636597
62	0xc0236a16	-2.55335
63	0x3e9f5d14	0.311257
64	0x3cefa82f	0.029255
65	0xbf826cf4	-1.01895
66	0xbf774edb	-0.966047
67	0x3e29170d	0.165127
68	0xbf433d8e	-0.762658
69	0xbd8b7c42	-0.0681081
70	0xbe2004fb	-0.156269
71	0xbf4c66b2	-0.798442
72	0xbf5cdca9	-0.862742
73	0x3dad298c	0.0845519
74	0xbe3a558f	-0.181967
75	0x3f9cf9b1	1.22637
76	0xbf1432db	-0.578901
77	0x3f85c044	1.04493
78	0x3e78e4fc	0.243061
79	0xbf145b6c	-0.57952
80	0xbf750b52	-0.957204
81	0xbf965e35	-1.17475
82	0x3f1b7b9e	0.607355
83	0xbe8e82f9	-0.278343
84	0x3ec649d4	0.387282
85	0xbeb551f8	-0.354141
86	0x3f3ae59b	0.730066
87	0x3fb86888	1.44069
88	0xbf9e6a01	-1.23761
89	0x3d30eb25	0.043193
90	0x3f770d20	0.965044
91	0x3d133a04	0.035944
92	0x3f8b01b8	1.08599
93	0xc002ff97	-2.04685
94	0xbf11d862	-0.569708
95	0xbfc8d994	-1.56914
96	0xc01b1316	-2.42304
97	0xbf87851f	-1.05875
98	0x3fe8cb7d	1.81871
99	0x3dd4b945	0.103869
100	0x3e8ccd31	0.275003
101	0x3f3976ab	0.724467
102	0xbd900a54	-0.0703322
103	0xbcfd3e85	-0.0309136
104	0x3e4ba238	0.198861
105	0x3e47f5a5	0.195273
106	0xbe6c8649	-0.230981
107	0x3ef1233e	0.470972
108	0x3ee5655e	0.448039
109	0xbe80257d	-0.250286
110	0x3e09b845	0.134492
111	0x3e06c11a	0.131596
112	0xbde95b79	-0.113944
113	0xbdc14933	-0.0943779
114	0x3baf926a	0.00535803
115	0xbece98fe	-0.403511
116	0x3c8cd7ea	0.0171928
117	0xbe93dfb1	-0.288816
118	0x3c55b5aa	0.0130438
119	0x3b1e9be2	0.00242018
120	0x3f4d9f0a	0.803208
121	0xbddd81f1	-0.108158
122	0xbe74ed70	-0.239187
123	0x3f2af502	0.667801
124	0xbe7adcd3	-0.244983
125	0xbea1b64e	-0.315844
126	0xbe09a240	-0.134408
127	0x3fc269ad	1.51885
128	0x3e93a1b2	0.288343
129	0xbdce99a6	-0.100879
130	0x3f0593e6	0.521788
131	0x3f49c161	0.788107
132	0x3ebd0375	0.369167
133	0xbe1ef6b6	-0.155238
134	0x3ef4929b	0.477681
135	0xbc8f3ad1	-0.0174841
136	0x3ec16d2b	0.377786
137	0x3e818762	0.252986
138	0x3f71c22b	0.944369
139	0xbc85be86	-0.0163262
140	0x3d71f779	0.0590739
141	0x3cce5888	0.0251887
142	0xbd8a03aa	-0.0673898
143	0xbe8d1c5c	-0.275607
144	0xbdb11ac0	-0.0864768
145	0x3e69c0ec	0.228275
146	0xbeab584b	-0.334658
147	0x3d4db46e	0.0502209
148	0xbda8080c	-0.0820466
149	0xbf14382a	-0.578982
150	0xbf3ecfb7	-0.745357
151	0x3f6d52b1	0.927043
152	0x3d89a33f	0.0672059
153	0xbd142b15	-0.0361739
154	0xbec60f1b	-0.386834
155	0x3f08e076	0.534675
156	0x3e7c4114	0.246342
157	0xbe6872b0	-0.227
158	0x3ec4dad3	0.384482
159	0xbf112a20	-0.567049
160	0x3edf01fc	0.435562
161	0x3bd96f48	0.00663558
162	0xbdea2014	-0.114319
163	0x3e93866e	0.288135
164	0xbcf0149b	-0.0293067
165	0xbe6e2718	-0.232571
166	0x3ea03383	0.312893
167	0xbfd5c194	-1.66997
168	0x3dc5dd24	0.0966132
169	0x3d037d12	0.0321017
170	0xbe953869	-0.291446
171	0xbe3e5eab	-0.185908
172	0x3e1a1e3f	0.150506
173	0x3f227c7c	0.634712
174	0xbf148ffc	-0.580322
175	0xbe338b8b	-0.175337
176	0x3fe2a305	1.7706
177	0x3e859381	0.260891
178	0x3f320792	0.695428
179	0xbf8d3501	-1.10318
180	0x3eeb0b7c	0.459072
181	0x3f84a81a	1.03638
182	0x3cbcdd00	0.0230546
183	0xbe887725	-0.266534
184	0x3e089b95	0.133406
185	0x3f21563b	0.630222
186	0x3f2ebcb6	0.682567
187	0xbf74242d	-0.953677
188	0x3ecc0cc8	0.398535
189	0x3db24796	0.0870506
190	0xbecfa69c	-0.405568
191	0xbc69d5f2	-0.0142722
192	0x3f792ba1	0.973322
193	0x3d75d22f	0.0600149
194	0xbfa94d40	-1.32267
195	0x3f6b8b59	0.920095
196	0x3f49690a	0.786759
197	0x3f87d417	1.06116
198	0xbe79fc6e	-0.244127
199	0xbdb4558d	-0.0880538
200	0xbe27baed	-0.163799
201	0x3ecafcf0	0.396461
202	0x3f00e7de	0.503538
203	0xb947c585	-0.000190517
204	0x3f0e0dbb	0.554897
205	0x3d0271af	0.0318467
206	0xbe6e5cd5	-0.232776
207	0x3f059115	0.521745
208	0x3ed7e953	0.421702
209	0x3d2ce322	0.0422088
210	0x3d928749	0.0715471
211	0xbd73db9a	-0.0595356
212	0x3f157636	0.583835
213	0xbc4ee038	-0.0126267
214	0xbc89f517	-0.0168405
215	0x3d6682d1	0.0562771
216	0x3cbe2a07	0.0232134
217	0xbf48255b	-0.78182
218	0xbe2a009f	-0.166018
219	0xbbdbdd76	-0.00670975
220	0x3e355eaf	0.177119
221	0xbe50afe6	-0.203796
222	0xbff8a969	-1.94267
223	0xbe26aa4c	-0.162759
224	0x3e2f17be	0.170989
225	0x3cdbb781	0.0268209
226	0xbdcb1290	-0.0991565
227	0xbf288ba8	-0.658381
228	0xbe8ba53c	-0.272745
229	0xbd4fa971	-0.0506987
230	0xbf159136	-0.584247
231	0x3ddc05d5	0.107433
232	0x3d588659	0.0528625
233	0x3ec0e304	0.376732
234	0xbeaf8d93	-0.342877
235	0x3d80f0ce	0.0629593
236	0xbe704ccf	-0.234668
237	0x3e509310	0.203686
238	0xbf19c6a0	-0.600687
239	0xbd03df89	-0.0321956
240	0x3d34f759	0.0441812
241	0xbd24c1d1	-0.0402239
242	0xbf506456	-0.814031
243	0x3ea9713b	0.330942
244	0xbefa8566	-0.489299
245	0x3f3c98a2	0.736704
246	0x3e73e4ac	0.238177
247	0x3da8b073	0.0823678
248	0xbe345953	-0.176122
249	0xbe621427	-0.22078
250	0xbffb8c00	-1.96521
251	0xc00bb329	-2.18281
252	0xbea9971c	-0.331231
253	0x3d45499b	0.0481659
254	0xbf0c0768	-0.546988
255	0x3f8d5df6	1.10443

8 f4 [50]
0	0xbd1560d5	-0.0364693
1	0xc000c9da	-2.01232
2	0xbfef1ee2	-1.86813
3	0x3f56cf31	0.839099
4	0xbf0b81d8	-0.54495
5	0x3e821be3	0.254119
6	0xbf7eabac	-0.994807
7	0xbe67bfe8	-0.226318
8	0x3dbe7c72	0.0930108
9	0xbfd7c505	-1.6857
10	0x3eafaca3	0.343114
11	0x400a4620	2.16053
12	0xbf633440	-0.887516
13	0xbfd6872b	-1.676
14	0xbf5e9fcf	-0.869626
15	0xbfbe60d4	-1.48733
16	0x3fe4cfc0	1.78759
17	0x3e8d3f5b	0.275874
18	0xbf327371	-0.697074
19	0xbe869d0f	-0.262917
20	0xbf012125	-0.504412
21	0x3f355369	0.708304
22	0x3f6ce821	0.925417
23	0xbe0566cf	-0.130275
24	0xbc87d00e	-0.0165787
25	0x3edc5a1d	0.430375
26	0x3fe00735	1.75022
27	0x3faa4ecf	1.33053
28	0x3f066623	0.524996
29	0x3dd98c7e	0.106225
30	0x3fa5119d	1.2896
31	0xbf8860fe	-1.06546
32	0xbf30e9a3	-0.691065
33	0xbf22083a	-0.632938
34	0x3dfbfdf8	0.123043
35	0xbfa4f084	-1.28859
36	0xbcf60ccd	-0.0300354
37	0xbdecce5f	-0.115628
38	0xbfbe602d	-1.48731
39	0xbdfb60af	-0.122743
40	0xbd7e33fd	-0.0620613
41	0x3f5cfaf0	0.863204
42	0xbf8dba0a	-1.10724
43	0xbe06f3f5	-0.13179
44	0xc004a64c	-2.07265
45	0xbecc8ece	-0.399527
46	0x3f51ef95	0.820062
47	0xbf9a703b	-1.20655
48	0xbe01ad64	-0.126638
49	0x3f8a1c58	1.07899

9 f4 [50, 50]
0	0xbd60350f	-0.0547381
1	0x3f14984e	0.580449
2	0x3e8273b4	0.254789
3	0xbf14b018	-0.580812
4	0xc01c28f6	-2.44
5	0xbf73b83d	-0.95203
6	0xc00cfba9	-2.20286
7	0xbb93ec86	-0.00451428
8	0x3c7a5a39	0.0152803
9	0xbf606ca9	-0.876658
10	0xbf550ecb	-0.832257
11	0xbfe95e4a	-1.82319
12	0x3f0e1416	0.554994
13	0xbf0d0881	-0.550911
14	0x3fb33722	1.40012
15	0xbf9944bb	-1.19741
16	0x3df496ab	0.119428
17	0x3e8231e8	0.254287
18	0xbfcbadc1	-1.59124
19	0xbf17162b	-0.590182
20	0x3f2feb8e	0.687188
21	0xbfb5cbbc	-1.42028
22	0x3f56312f	0.836688
23	0x3c28650e	0.010278
24	0x3c2d920a	0.0105939
25	0x3f756f33	0.958728
26	0xbe38c9b8	-0.180457
27	0xbf4632c2	-0.774212
28	0x3f96877f	1.17601
29	0x3ea9bb49	0.331507
30	0xbfdd8ec9	-1.73092
31	0xbeb8ec53	-0.361178
32	0x3db06e93	0.0861484
33	0x3eb94b7b	0.361904
34	0xbf5c026d	-0.859412
35	0xbdcbbcb2	-0.099481
36	0xbe0370ce	-0.12836
37	0x3f662e3c	0.899143
38	0xbfd0ef35	-1.6323
39	0xbb064f90	-0.00204942
40	0xc0290cb3	-2.6414
41	0xc02cf1aa	-2.70225
42	0x3f454c66	0.770697
43	0x3b8b1f99	0.00424571
44	0xbf05116b	-0.519797
45	0x3e832f23	0.256219
46	0xbdfb9496	-0.122842
47	0xbd9585a3	-0.0730088
48	0xbd18845b	-0.0372356
49	0xbd8e40a0	-0.0694592
50	0xbdb19d59	-0.0867259
51	0xbd856b87	-0.0651465
52	0x3c998a4a	0.0187427
53	0xbe405c46	-0.187852
54	0x3fcd18d2	1.60232
55	0xbf5c8228	-0.861361
56	0x3debfa8f	0.115224
57	0xbe2b5d03	-0.167347
58	0x3d8e9715	0.0696241
59	0x3e9be2d6	0.304465
60	0x3eb0a4a0	0.345006
61	0xbe434507	-0.190693
62	0x3ecacaff	0.39608
63	0xbdbca8e3	-0.092119
64	0x3fb5003f	1.41407
65	0x3ceb5767	0.0287282
66	0x3ee70542	0.451212
67	0x3edb6849	0.42853
68	0xbfad2642	-1.35273
69	0xbead6de3	-0.338729
70	0xbd8dad5a	-0.0691783
71	0x3f668284	0.900429
72	0x3ed28827	0.411195
73	0xbbff240d	-0.00778628
74	0xbc30f063	-0.0107995
75	0xbe6de871	-0.232332
76	0x3d9bf021	0.0761416
77	0xbd9cdd43	-0.0765939
78	0xbf302763	-0.688101
79	0xbf02a7bd	-0.510372
80	0xbf5bbc3c	-0.858341
81	0x3ec68c69	0.38779
82	0x3d027708	0.0318518
83	0xbed96a6a	-0.42464
84	0xbe839e49	-0.257067
85	0x3f047f78	0.51757
86	0xc01d10cb	-2.45415
87	0x3e13c6c9	0.144313
88	0xc095ef0b	-4.68543
89	0xbc5d9e41	-0.0135265
90	0x3e94fa05	0.29097
91	0x3f27c201	0.655304
92	0xbe16fe72	-0.147455
93	0x3d11eb35	0.0356247
94	0xbdace2d2	-0.084417
95	0xbf521017	-0.820558
96	0xbf350f84	-0.707268
97	0xbf83876a	-1.02757
98	0xbc6c54bd	-0.0144245
99	0xbfe5782d	-1.79273
100	0x3e3a5f85	0.182005
101	0xbede4c51	-0.434176
102	0xbf1ec871	-0.620246
103	0xbde440f2	-0.111452
104	0x3f07caa7	0.530436
105	0xbe69231c	-0.227673
106	0x3f6b2baa	0.918635
107	0xbf7a8672	-0.978614
108	0x3d0764c9	0.0330551
109	0xbfe65de1	-1.79974
110	0xbe15c0ba	-0.146243
111	0xbea79208	-0.327286
112	0xbfd026ab	-1.62618
113	0xbd0381e5	-0.0321063
114	0x3e9a3290	0.301167
115	0xbeb5141a	-0.353669
116	0xbfd9d884	-1.70192
117	0x3e151c5c	0.145616
118	0x3d6d7a3c	0.0579779
119	0x3d92d78e	0.0717002
120	0xbda1bba7	-0.0789712
121	0xbca5ab8b	-0.0202234
122	0x3cf25f99	0.0295866
123	0x3c429896	0.0118772
124	0xbbd3e067	-0.00646596
125	0xbea86c87	-0.328953
126	0xbf60f5a1	-0.878748
127	0xbeed42a2	-0.463399
128	0xbe8beaf7	-0.273277
129	0xbcc6e66e	-0.0242798
130	0xbf9b861a	-1.21503
131	0xbefb9410	-0.491364
132	0xbe2d551d	-0.16927
133	0xbf4d25cc	-0.801358
134	0x3bec0e46	0.00720385
135	0x3f056ebd	0.521221
136	0x3f978da4	1.18401
137	0xbe3cb578	-0.184286
138	0xbfe99e30	-1.82514
139	0x3c658164	0.0140079
140	0xbe794e5d	-0.243463
141	0x3e1950b9	0.149722
142	0x3e5e9ee4	0.217403
143	0xbb2ed5c1	-0.00266777
144	0x3daf01b8	0.0854525
145	0xbdbe05da	-0.0927846
146	0xbf4ac1d3	-0.79202
147	0xbf2144dd	-0.629957
148	0x3d48cc72	0.0490231
149	0x3da0fd3b	0.078608
150	0x3f36acc9	0.713574
151	0x3fe06f69	1.7534
152	0xbf8eaae3	-1.11459
153	0x3e38fbca	0.180648
154	0xbfa6e782	-1.30394
155	0xc04d4d16	-3.20783
156	0x3e60cae6	0.219524
157	0xc00a5db7	-2.16197
158	0x3c7ac6db	0.0153062
159	0xbefc2dae	-0.492536
160	0xbee0f16f	-0.439342
161	0xbdb96887	-0.0905314
162	0xc05a5586	-3.41147
163	0xbf757d07	-0.958939
164	0xc0a7e465	-5.24663
165	0xc0ab3b64	-5.351
166	0xc09bcddd	-4.86888
167	0x3f110cc3	0.566601
168	0xc087cd36	-4.2438
169	0xbfcc562e	-1.59638
170	0xbf6d68f9	-0.927383
171	0x3f5f4352	0.872121
172	0xbeb5af08	-0.354851
173	0xbd34251b	-0.0439807
174	0xbc406c01	-0.0117445
175	0x3f2d0f73	0.676017
176	0xbe9a595c	-0.301463
177	0x3e9d5fdd	0.307372
178	0xbf313101	-0.692154
179	0xbf641301	-0.890915
180	0xc013551d	-2.30207
181	0xbfe6a162	-1.8018
182	0xbfeae782	-1.83519
183	0x3e0d1d47	0.137807
184	0x3f9f7d41	1.24601
185	0x3e08d75a	0.133634
186	0xbf718890	-0.94349
187	0x3e50b73d	0.203824
188	0x3f3aba8c	0.729409
189	0x3d240655	0.0400451
190	0xbf8e392e	-1.11112
191	0xbee9159c	-0.455243
192	0xbc67ca7f	-0.0141474
193	0xbc9f014d	-0.0194098
194	0xbec1fea8	-0.378896
195	0xbe0af5ba	-0.135703
196	0xc01fd830	-2.49757
197	0xbf2cf484	-0.675606
198	0xbd1f02e0	-0.0388211
199	0xbc5e4d28	-0.0135682
200	0xc05adb62	-3.41964
201	0x3e9d740c	0.307526
202	0xbe858c6d	-0.260837
203	0xc0309c4e	-2.75954
204	0xc04ed677	-3.23184
205	0xbfc984f5	-1.57437
206	0xbf91e796	-1.13988
207	0xbf5a5eee	-0.853011
208	0xbfdbe521	-1.71793
209	0x3d7e79ee	0.062128
210	0xbea3400c	-0.318848
211	0xbe9ab713	-0.302178
212	0xc03f9c8d	-2.99393
213	0xbe923034	-0.285524
214	0xc03d8e22	-2.9618
215	0xbf55ed29	-0.83565
216	0xbfe2132b	-1.76621
217	0xbf6ee7e6	-0.933226
218	0xc018e411	-2.38892
219	0x401a4189	2.41025
220	0x4011c84b	2.27785
221	0x402d35fc	2.70642
222	0xbfbac56d	-1.45915
223	0x3b166d95	0.00229535
224	0xbd2922be	-0.0412929
225	0xc0bbdd44	-5.87076
226	0x3d9cbe1f	0.0765345
227	0xbfda01cd	-1.70318
228	0xc0dd95ab	-6.92452
229	0xc10a6b70	-8.65123
230	0xbe0c5f7c	-0.137083
231	0x3e53e100	0.206913
232	0xc0902dcb	-4.50559
233	0xbfbdd0fa	-1.48294
234	0xbf8dbb5a	-1.10728
235	0xbfe5013b	-1.7891
236	0xc0430870	-3.04739
237	0x3f32731d	0.697069
238	0xbb7f62cc	-0.00389688
239	0x3c1cd873	0.00957309
240	0x3ffef640	1.99189
241	0x402e6e1a	2.72547
242	0xbccf4c6e	-0.025305
243	0xbc13fbcb	-0.0090322
244	0xc0594dbe	-3.39537
245	0xc0846777	-4.13763
246	0xc0a7ad2e	-5.23989
247	0xbc8ff2f2	-0.0175719
248	0x3c6ae049	0.0143357
249	0xbfc0cc25	-1.50623
250	0xbda26a66	-0.0793045
251	0xbd7d9019	-0.061905
252	0xbf13482c	-0.57532
253	0x3e390e67	0.180719
254	0xbf076b6e	-0.528983
255	0x3b6600fb	0.00350958

10 f4 [50]
0	0x3fad07c8	1.3518
1	0xbfb5197a	-1.41484
2	0x3ed84c8c	0.422459
3	0xbe8ae3c5	-0.271269
4	0xbf182fb6	-0.594478
5	0xbfb3212d	-1.39945
6	0xbfd76ddb	-1.68304
7	0x402bfeda	2.68743
8	0x3edefcdf	0.435523
9	0xbfd009d5	-1.6253
10	0xbfc1cf57	-1.51414
11	0x3e80a655	0.251269
12	0xbe855582	-0.260418
13	0x3e5a0b1c	0.212933
14	0x3eabed74	0.335796
15	0x3f5b79b7	0.857326
16	0x3ff811b2	1.93804
17	0xbea16ca4	-0.315282
18	0xbf2ee664	-0.683203
19	0x3f2d199c	0.676172
20	0x3f8e934b	1.11387
21	0xc04e00d2	-3.2188
22	0x3edb647c	0.428501
23	0x3f36bd1b	0.713823
24	0xbe22d55a	-0.159017
25	0x3fb2d480	1.39711
26	0x3fadd68c	1.35811
27	0xbffcdc33	-1.97547
28	0xbeb0d34a	-0.345362
29	0x401ff751	2.49947
30	0x40130a13	2.29749
31	0x3ea0aa43	0.313799
32	0x3f5c625f	0.860876
33	0x3f03b82c	0.514529
34	0x3f02dddf	0.511198
35	0x3f407ee1	0.751936
36	0xbe133051	-0.143739
37	0x3e160781	0.146513
38	0xbfb1aee6	-1.38815
39	0x3e98eb03	0.298668
40	0xbe3925bb	-0.180808
41	0xbc86f446	-0.0164739
42	0xbf253dd9	-0.645475
43	0xbff1a805	-1.88794
44	0xbf42ec18	-0.761415
45	0x3f590e56	0.847875
46	0x3f01bbae	0.50677
47	0xbf1710ba	-0.590099
48	0xbfc0ed91	-1.50725
49	0x3fb05293	1.37752

11 f4 [50, 50]
0	0xbdf6b6e1	-0.120466
1	0x3fc9d4e9	1.57681
2	0xbe90114d	-0.281382
3	0xbf42a4fd	-0.76033
4	0x3e0f6901	0.140049
5	0xbfd67382	-1.6754
6	0xc024f80e	-2.57764
7	0x3d181a23	0.0371343
8	0xc0c72767	-6.22356
9	0x3ee912dc	0.455222
10	0xbfc31173	-1.52397
11	0xc09bcd8a	-4.86884
12	0x3f21ddc2	0.63229
13	0xbeefa3db	-0.468047
14	0x3f8e39d6	1.11114
15	0x4008f3a1	2.13987
16	0xbf6d0386	-0.925835
17	0xbe8a55b0	-0.270185
18	0x3ef0fc72	0.470676
19	0xbf98ad58	-1.19279
20	0xbe796e9c	-0.243586
21	0xc01ed8ed	-2.48199
22	0x3e960419	0.293
23	0x3eafad08	0.343117
24	0x3f5e0d02	0.867386
25	0x3eb30425	0.349641
26	0xbd0550bd	-0.0325477
27	0xbf72351e	-0.946123
28	0xbe362889	-0.177889
29	0xbe8c3915	-0.273873
30	0xbec7eae6	-0.390464
31	0x3eb1702e	0.346559
32	0x3f84ca82	1.03743
33	0x3f53d1ab	0.827418
34	0x3f153544	0.582844
35	0xbcd77adb	-0.0263037
36	0xbfc15ef2	-1.51071
37	0x3b8fb0e3	0.0043851
38	0x3ef42b95	0.476895
39	0xc0204e27	-2.50477
40	0xbfd4d25f	-1.66267
41	0x3d956268	0.0729416
42	0xc02d8d50	-2.71175
43	0x400aaf4f	2.16695
44	0xbd3f906e	-0.0467686
45	0x3e027bf6	0.127426
46	0xc000fd22	-2.01545
47	0x3ec736f0	0.389091
48	0xbf041472	-0.515937
49	0xbe38de2b	-0.180535
50	0xbdb3cb31	-0.0877899
51	0x3ef8ea5b	0.486163
52	0x3e4aa10e	0.19788
53	0xbed9ac15	-0.425141
54	0xc01ea287	-2.47867
55	0xbff61911	-1.92264
56	0x3e21f794	0.158171
57	0xbe34a622	-0.176415
58	0x3d03afb8	0.03215
59	0x3dfb224b	0.122624
60	0xbf22e7d5	-0.63635
61	0xbe258eeb	-0.161678
62	0x3c496b18	0.0122936
63	0x3c4d0b4c	0.0125149
64	0xbe049b20	-0.129498
65	0xbe659c06	-0.224228
66	0xbb8e5dbc	-0.00434467
67	0x3d5dc5e4	0.0541438
68	0xbe3c1e36	-0.183709
69	0xbe330165	-0.17481
70	0xbeb84f2b	-0.359979
71	0xbbce600a	-0.00629807
72	0xbebed3fa	-0.372711
73	0x3e85faa9	0.261678
74	0xbed75211	-0.420548
75	0x3e093709	0.133999
76	0x3ed0b806	0.407654
77	0x3e0a1cef	0.134876
78	0xbdb45cbc	-0.0880675
79	0x3d316db1	0.0433175
80	0xbced0f98	-0.0289381
81	0xbdc0e4cd	-0.0941864
82	0xbea9e3a8	-0.331815
83	0xbd0aa8b6	-0.0338523
84	0xbe7178f7	-0.235813
85	0x3c08a017	0.00833895
86	0xbcc2c973	-0.0237777
87	0x3d65bd5f	0.0560888
88	0x3d91036b	0.0708073
89	0xbecb5419	-0.397126
90	0x3e727fe5	0.236816
91	0xbe5db1a7	-0.216498
92	0xbef3b2bc	-0.475973
93	0xbdce95fb	-0.100872
94	0xbc38f00c	-0.0112877
95	0x3f163151	0.58669
96	0xbe90d307	-0.28286
97	0xbdb9c08e	-0.0906993
98	0x3d639c37	0.0555689
99	0xbe0e208a	-0.138796
100	0x3ea19829	0.315614
101	0x3f7f79ea	0.997954
102	0x3f8d7929	1.10526
103	0xbf7f59bc	-0.997463
104	0x3c7d2483	0.0154506
105	0xbea9b2e6	-0.331443
106	0x3f90a287	1.12996
107	0x3e15f9df	0.146461
108	0xbff465e9	-1.90936
109	0x3f12d05f	0.573492
110	0x3eef5afb	0.467491
111	0xc1551412	-13.3174
112	0xbec2bead	-0.380361
113	0x3e903148	0.281626
114	0x3f794c01	0.973816
115	0xbd5437e0	-0.0518111
116	0xbfe0fa59	-1.75764
117	0xbf99af3a	-1.20066
118	0xbe3250f8	-0.174137
119	0xc06c8605	-3.69568
120	0x3f806003	1.00293
121	0xbf2774de	-0.654127
122	0x3fcf5d79	1.62004
123	0x3f94f80e	1.16382
124	0x3ff44135	1.90824
125	0xc0129fbe	-2.291
126	0xbee116ec	-0.439628
127	0x3ec1569f	0.377614
128	0xbf8a2f5a	-1.07957
129	0xbeede8f7	-0.464668
130	0x3f2ac376	0.667045
131	0x3faf9bbb	1.37194
132	0x402db424	2.71412
133	0x3f07c393	0.530328
134	0x3e8ee2ca	0.279074
135	0xbe98cb29	-0.298425
136	0x3f12862f	0.57236
137	0x3f5b2f01	0.856186
138	0x3fae6080	1.36232
139	0xc01c8eb4	-2.44621
140	0x3fd5a900	1.66922
141	0xc0f91394	-7.78364
142	0xbe9e2585	-0.30888
143	0xbd149a06	-0.0362797
144	0xbf03ead5	-0.515302
145	0x3fe57fb7	1.79296
146	0xbf8b5350	-1.08848
147	0xbf8fe6c5	-1.12423
148	0x3c588f0d	0.0132177
149	0xbf1bc0b1	-0.608409
150	0xbc2d8c2a	-0.0105925
151	0xbc11cfec	-0.00889967
152	0xbd0320b1	-0.0320136
153	0xbbfe4210	-0.00775934
154	0xbb6685db	-0.0035175
155	0xbcccf86c	-0.0250208
156	0x3d6d661a	0.0579587
157	0xbab509b8	-0.00138121
158	0x3d3a77b0	0.0455243
159	0x3c70ce34	0.0146976
160	0x3ef0d6f5	0.47039
161	0xbd97e8da	-0.0741746
162	0xbcc680ee	-0.0242314
163	0x3c6df4d0	0.0145237
164	0xbd9a2eb5	-0.0752844
165	0x3e2c1765	0.168058
166	0x3c0dd474	0.00865661
167	0x3ce5e31e	0.0280624
168	0xbe3a743a	-0.182084
169	0xbc8a078b	-0.0168493
170	0x3c81c74b	0.0158421
171	0xbd1305e7	-0.0358943
172	0x3d0d1775	0.0344462
173	0x3a7ac7f7	0.000956654
174	0x3d79dd21	0.0610019
175	0xbc49a63c	-0.0123077
176	0x3dfc1483	0.123086
177	0x3ae0ee17	0.00171608
178	0xbb121f52	-0.00222965
179	0xbb1af05c	-0.00236418
180	0xba76cbe9	-0.000941454
181	0xbb1977b6	-0.00234173
182	0x3b6496ee	0.003488
183	0x3c3073d1	0.0107698
184	0xbc4bf4cb	-0.0124485
185	0xbb49640d	-0.00307298
186	0x3c30ac70	0.0107833
187	0x3dac7adb	0.0842187
188	0x3c28c65d	0.0103012
189	0x3d70fc57	0.0588344
190	0x3e179d91	0.148062
191	0x3e1e392e	0.154515
192	0xbc8d693f	-0.0172621
193	0x3daaabcd	0.0833355
194	0xbc6619a5	-0.0140442
195	0x3e10ec31	0.141526
196	0x3c15b386	0.00913704
197	0xbb4decdd	-0.00314217
198	0xbce0bd45	-0.027434
199	0x3ca0c49c	0.019625
200	0xbc0792f1	-0.00827478
201	0x3d5e5d4e	0.0542882
202	0x3c869545	0.0164286
203	0xbd353719	-0.044242
204	0xbd539a61	-0.0516609
205	0x3eb18eda	0.346793
206	0x3e1c5825	0.15268
207	0xbd2e1e3b	-0.0425093
208	0x3da531b3	0.0806612
209	0x3d69d36e	0.0570864
210	0x3c116456	0.00887402
211	0x3ebf04de	0.373084
212	0x3adaae37	0.0016684
213	0x3ca2a0a9	0.019852
214	0x3c365b71	0.0111302
215	0xbd4c5111	-0.049882
216	0x3d8f94bb	0.0701079
217	0xbbb30aaf	-0.00546392
218	0x3e0eebb3	0.139571
219	0xbdf4d50f	-0.119547
220	0xbe0b2208	-0.135872
221	0xbe94cad5	-0.29061
222	0x3eb28501	0.348671
223	0x3d435702	0.0476904
224	0x3e4d05af	0.200217
225	0xbd42dc53	-0.0475734
226	0x3d464d21	0.0484134
227	0xbcc85fb5	-0.0244597
228	0xbc41673e	-0.0118044
229	0x3b4beaa5	0.00311152
230	0x3ca0058f	0.0195339
231	0x3c868b6a	0.0164239
232	0xbd9a09b1	-0.0752138
233	0x3b44e19c	0.00300417
234	0xbe9f2da1	-0.310895
235	0xbcea57f8	-0.0286064
236	0x3e0021d1	0.125129
237	0xbcfb927d	-0.0307095
238	0x3d880446	0.0664144
239	0x3e5da61e	0.216454
240	0xbe398809	-0.181183
241	0xbce2f7b1	-0.027706
242	0xbbfe1788	-0.00775427
243	0xbc8f6be3	-0.0175075
244	0xbce7c393	-0.0282915
245	0x3eb52c17	0.353852
246	0x3d4f62fa	0.0506315
247	0x3d1d1db3	0.0383584
248	0x3cd5cc1a	0.0260983
249	0xbcdbd549	-0.0268351
250	0xbdb111c8	-0.0864597
251	0xbce5082d	-0.027958
252	0x3cf90c26	0.0304013
253	0xbc86fdeb	-0.0164785
254	0xbc0217b2	-0.00794022
255	0xbe2e7c8d	-0.170397

12 f4 [50]
0	0xc0210b39	-2.51631
1	0xbf41eb85	-0.7575
2	0xc099b40f	-4.80323
3	0x3e091cd2	0.133899
4	0xbf1b0a5f	-0.605627
5	0xbf4ddef0	-0.804183
6	0xbf7462d4	-0.954633
7	0xbf0026cc	-0.500592
8	0xbfe8c2f8	-1.81845
9	0xbfc27968	-1.51933
10	0xbf9c6a7f	-1.222
11	0xbdd87f02	-0.105711
12	0xbde70b8d	-0.112815
13	0xbe3d5454	-0.184892
14	0xbf4c4828	-0.797976
15	0xbdaaae95	-0.0833408
16	0xbd86291c	-0.0655081
17	0xbe819674	-0.253101
18	0xbea54da5	-0.322858
19	0xbe29988d	-0.165621
20	0x3cb072fa	0.0215392
21	0xbf170fbf	-0.590084
22	0xbfabd513	-1.34244
23	0x3dfec461	0.124398
24	0x3e7c3761	0.246305
25	0x3e83302f	0.256227
26	0xbf6f2f23	-0.934313
27	0xbeec341a	-0.461335
28	0xbf3c7022	-0.736086
29	0xbeddbc23	-0.433076
30	0xc001bef5	-2.02728
31	0x3d56a6bb	0.0524051
32	0x3d3afe03	0.0456524
33	0xc0a8c34c	-5.27384
34	0xc051e37e	-3.27951
35	0x3dba09bf	0.0908389
36	0xbeacd37c	-0.337551
37	0x3e5ae9ab	0.213782
38	0xc0580150	-3.37508
39	0xbe843937	-0.258249
40	0x3ddf87f0	0.109146
41	0xbee4f638	-0.447191
42	0xbdf6c509	-0.120493
43	0xbdf87a4a	-0.121327
44	0x3e141787	0.144621
45	0xbf8c8605	-1.09784
46	0xc0cc6f69	-6.3886
47	0xbd0fb275	-0.0350823
48	0xbf84840e	-1.03528
49	0xbf2ba711	-0.670518
