configs/networks/acas/acas_1_8.onnx (onnx, 61577 bytes, 14 tensors)

1 f4 [50, 5]
000000 b1 ad 15 3d 38 e8 c1 bc d4 5f 4f be 2a e6 90 3e
       0.0365426 -0.0236703 -0.202514 0.283006
000010 82 3c db be c1 ad b3 bf d3 da 54 be 6d 3d 3e bd
       -0.428196 -1.40374 -0.207866 -0.0464453
000020 d8 b8 3e 3e 8c 65 1a be e4 8d 27 3c fd 2d 11 be
       0.186252 -0.150778 0.0102267 -0.141777
000030 66 69 27 3e b2 c6 2f bd 8a 54 bd 3c 3e 51 40 bb
       0.163488 -0.0429141 0.0231116 -0.00293453
000040 4d ba ad be 27 fa 37 3d dc f2 21 be 30 4b 03 3f
       -0.339312 0.0449163 -0.158153 0.512866
000050 96 cd 84 be ce 9b d4 3c 07 f1 dc bc 72 6c dd be
       -0.259381 0.0259532 -0.0269704 -0.432468
000060 50 6e 0f 3f 8e b2 99 bc fa f2 ca 3e c5 02 0f 3e
       0.560277 -0.0187619 0.396385 0.139659
000070 02 12 68 3d ff 53 d6 bc 78 96 e0 bc 66 35 b8 3b
       0.0566578 -0.0261631 -0.0274155 0.0056216
000080 04 be 2a bb a1 05 f4 3a 81 62 9e 3b 83 8a ea bd
       -0.00260532 0.00186174 0.00483352 -0.114522
000090 d5 71 a1 bd b2 be c1 be 2f be 38 3e f2 b3 11 3f
       -0.0788304 -0.378408 0.180413 0.569152
0000a0 a6 ef f5 3e 32 21 ae 3e 22 f4 58 3c b0 1f 06 3f
       0.480344 0.340097 0.0132418 0.523921
0000b0 ba 83 08 bf a2 e2 ac 3b ee b4 dd be 0c 8f 4d be
       -0.53326 0.00527604 -0.433021 -0.200741
0000c0 c0 ea 04 3f 2e 91 07 bf a4 eb 88 3d 17 f4 c6 3e
       0.519207 -0.529559 0.0668557 0.388581
0000d0 0f c1 07 bd 54 49 be 3d 79 cb 45 be 09 33 5d bf
       -0.0331431 0.0929133 -0.193159 -0.86406
0000e0 5a 95 cc 3b 50 ad f3 39 99 3b b4 3d 89 a3 23 bb
       0.00624339 0.000464777 0.0880043 -0.00249693
0000f0 9f 05 69 3f 70 d8 91 3c b2 14 07 3b c6 c2 00 3e
       0.910242 0.0178034 0.00206117 0.125743
000100 32 77 0d be 27 62 36 bc 57 a5 3e bc 5b 1c 5f 3c
       -0.13815 -0.0111318 -0.0116361 0.0136176
000110 84 91 28 bb 3b b6 94 3c 87 92 7f bc 49 a1 3c bf
       -0.00257215 0.0181533 -0.0155989 -0.736836
000120 8f 6d 49 3f dc f0 dc bb dc d9 92 3d 19 8e 27 3e
       0.786828 -0.00674258 0.0717046 0.163628
000130 76 6e 4a be 82 38 af 3e c7 bb 33 3e 63 0e 9a 3e
       -0.197687 0.342228 0.175521 0.300891
000140 fb ea 3a 3e 22 c2 0f be 49 71 c4 bc 0e a1 6a be
       0.182537 -0.140389 -0.0239798 -0.22913
000150 24 5f 19 3e e5 d4 de be ab a2 cb bb ff ec 23 bf
       0.149777 -0.435218 -0.00621446 -0.640335
000160 d0 f5 18 bd d6 3b dc 3e 73 d8 dd bd f5 ad 20 3d
       -0.0373438 0.430144 -0.108323 0.0392284
000170 64 91 22 3f ad 51 2f 3d 5f b2 15 3f 12 6e 4d 3d
       0.635031 0.0428025 0.584753 0.0501538
000180 cd 79 a1 3d 1a 4d 91 bb e3 c4 03 bf ed d8 43 bd
       0.0788456 -0.00443424 -0.514723 -0.0478143
000190 e9 78 12 3c 2c 64 2e be a9 d8 48 3e c5 58 36 3e
       0.00893996 -0.170304 0.196139 0.178073
0001a0 c6 a4 e7 be a3 94 c8 be 50 69 69 bd c5 56 98 3e
       -0.452429 -0.391759 -0.0569852 0.297537
0001b0 15 44 83 bd dd 9a fc 3e f2 4d c9 bc ef e2 dd 3e
       -0.0640947 0.493369 -0.0245733 0.433372
0001c0 b2 34 cb bc 4f e7 fa 3e ac 1d 19 bf df 37 fe 3c
       -0.0248054 0.490046 -0.598109 0.0310325
0001d0 8b 67 95 3d a6 48 1e 3e 88 da e6 3e 39 5e 89 be
       0.0729514 0.154574 0.450886 -0.268297
0001e0 41 d6 1f 3f 18 77 33 be 35 6f a8 3b 50 73 02 3f
       0.624363 -0.175259 0.00514021 0.509572
0001f0 39 ef bf be 2d 98 18 be 34 66 22 3e 50 27 8f 3d
       -0.374872 -0.149018 0.158593 0.0698992
000200 b9 e3 7d 3e 30 93 a2 3d 1e c0 b2 3e a3 cd 11 be
       0.247939 0.0793823 0.349122 -0.142386
000210 93 72 b7 3c ca 25 44 3d 3b 1d c8 be bb 88 a5 3b
       0.0223935 0.0478876 -0.390848 0.0050517
000220 8d 0d 5d 3e d5 09 a0 3e fb 7d ba 3d 42 64 ec bc
       0.215872 0.312575 0.0910606 -0.0288564
000230 bb ef 04 bf 15 56 2a 3e 42 38 a0 3d 37 18 6a 3d
       -0.519283 0.166344 0.0782323 0.057152
000240 46 9a 38 be 7e 03 6e bc a7 94 ef 3e f2 aa a8 bd
       -0.180276 -0.0145272 0.467931 -0.0823573
000250 aa 79 b3 3c b9 25 28 3d 7c 0f af bf ae 61 69 3b
       0.0219086 0.0410516 -1.36766 0.00356112
000260 3d 3a e0 ba af 5a 59 be a7 06 0a 3e f2 44 e8 3e
       -0.00171072 -0.21226 0.134791 0.453651
000270 bd c6 be be db 7b 42 3d 4e 26 96 3e 51 4b eb be
       -0.37261 0.0474814 0.293261 -0.459559
000280 6e 30 84 bd d2 51 2e be 17 28 2d b9 8f a9 ab be
       -0.0645455 -0.170234 -0.000165135 -0.335278
000290 d9 77 75 3e 63 0b b1 be 86 54 13 3a ab 3c e4 ba
       0.239715 -0.34579 0.00056202 -0.00174131
0002a0 f4 c5 3e 3e 08 00 2e 3e ea e7 91 bf b1 01 6c 3d
       0.186302 0.169922 -1.13989 0.0576188
0002b0 bb 3c 92 3d f9 71 aa 3d c8 ee a2 be d5 b9 d8 bb
       0.0714049 0.0832252 -0.318228 -0.00661395
0002c0 b1 8a 37 bd 60 d4 b4 3d 24 9a e0 3d 95 d8 15 be
       -0.04481 0.0882957 0.109669 -0.146334
0002d0 ab d0 9b bc 49 2a eb be f4 3b a8 bd 88 49 98 3e
       -0.0190204 -0.459307 -0.0821456 0.297436
0002e0 7d 1f 2e be 55 56 2e bc 35 c1 26 bc 27 9f 52 3f
       -0.170042 -0.0106407 -0.0101779 0.822741
0002f0 4a 62 e9 3d 3b 17 eb 3a 80 c2 cf bc 87 bf e6 bc
       0.113957 0.0017936 -0.0253613 -0.0281675
000300 96 25 ba be 55 67 f5 3d 54 32 25 bc fa 5e d3 be
       -0.363568 0.119826 -0.0100828 -0.412834
000310 a0 33 09 be 3b 6a 31 3d 14 a5 8e bd c8 42 94 3d
       -0.133986 0.0433142 -0.0696508 0.072393
000320 7f 7f 6f bc 18 7d 95 be c5 1d 1f be d7 1d a4 bb
       -0.0146178 -0.29197 -0.155387 -0.00500844
000330 b7 ed 9b 3e d1 41 07 be b8 ed 56 3d 3d 62 10 bf
       0.304548 -0.132087 0.0524728 -0.563999
000340 73 2f 70 3d a1 2f 8d be 0b a1 a9 3d 43 31 9e bc
       0.058639 -0.275754 0.0828267 -0.0193106
000350 29 37 db 3c 10 b0 36 be fd 2d 19 bf 9a cc 9d 3c
       0.0267597 -0.178406 -0.598358 0.0192626
000360 68 93 db 3e 7e e3 d3 be 0b 1b 2f 3d b7 5d 68 3c
       0.428859 -0.413845 0.0427504 0.0141825
000370 bb 54 15 3b fc a7 eb be 9e d1 e6 3e ff c5 38 3d
       0.00227861 -0.460266 0.450818 0.0451107
000380 db 0d e8 bb c7 48 26 be bc 8b 9c bc f7 28 52 3d
       -0.00708173 -0.162387 -0.0191096 0.0513086
000390 ba da ba be 57 5f b8 bc 75 ce 8a 3d 03 78 bb be
       -0.36495 -0.0225064 0.0677766 -0.36615
0003a0 4a 88 6a 3b be 61 c7 3c f8 b0 8d bc 2a 91 8c be
       0.00357868 0.0243386 -0.0172963 -0.274545
0003b0 f0 12 41 3d 68 76 1d bc 22 e0 70 3e 4f 75 d8 3e
       0.0471372 -0.00961075 0.23523 0.42277
0003c0 97 8f 24 3c b3 cc 05 3b 6d 65 82 ba 15 83 51 3c
       0.010044 0.00204162 -0.000994844 0.0127876
0003d0 4d c6 67 3c 94 6b 8a bb 86 74 88 be e4 2e 42 bc
       0.0141464 -0.00422425 -0.266514 -0.011852
0003e0 c1 ad 3b 3d 2e 42 0c bd
       0.04582 -0.0342428

2 f4 [50]
000000 43 14 7d 3d cc 0d e6 bd 32 22 6c 3d 69 6c 16 bb
       0.0617869 -0.112331 0.0576498 -0.00229528
000010 a6 36 a7 bc 3d b0 08 bd 83 0f 8a bc 10 40 92 3e
       -0.0204118 -0.0333712 -0.0168531 0.285645
000020 1c 3c 98 3d c4 d5 8c bd c2 b5 64 bd f4 35 4b be
       0.0743334 -0.0687671 -0.0558374 -0.198448
000030 a1 12 77 3e 92 a1 d9 bc 20 98 23 be 7d 16 85 3d
       0.241282 -0.0265663 -0.15976 0.0649843
000040 e2 af ea bb c7 10 00 3d 86 5a 73 3e f0 36 3f be
       -0.00716208 0.031266 0.23765 -0.186733
000050 bd e0 23 be 0e aa 08 3d 9c bc 0d bd 29 3d 33 3e
       -0.160037 0.0333653 -0.0346037 0.175038
000060 03 42 4b 3e 61 a5 02 3e 5c ca f9 bd c5 8b 2a bc
       0.198494 0.127584 -0.121968 -0.0104093
000070 03 6b 8b bd b4 bb 91 3d 50 8c ac be 17 0d 59 3d
       -0.0680752 0.0711588 -0.337008 0.052991
000080 36 ca 3a bd 7a e4 bf 3d 24 f0 97 be 60 5c e4 3b
       -0.045603 0.0936975 -0.296754 0.00696902
000090 20 1f c9 3d bc 6b aa 3d a4 df 5e 3d 60 c5 9e bd
       0.0982039 0.0832133 0.0544125 -0.0775249
0000a0 98 69 1b 3e 83 69 78 be ea cf 9e be 88 81 0e be
       0.15177 -0.24259 -0.31018 -0.139166
0000b0 ee 77 28 be 1b 12 67 be 9f dd ab bc b6 64 85 3e
       -0.16452 -0.225655 -0.0209797 0.260534
0000c0 85 d8 b4 bc e7 9f 2a 3c
       -0.0220759 0.0104141

3 f4 [50, 50]
000000 cd 72 b9 3e af 5e 85 3c 99 bc 81 3e 17 9e b7 3d
       0.362204 0.0162805 0.253392 0.089657
000010 4d 14 31 3e 14 24 46 be 84 a5 15 bd 66 bf 5e be
       0.172929 -0.193497 -0.0365348 -0.217527
000020 9c 14 96 be b0 84 1f bd 1a f9 28 3f d0 0f eb bf
       -0.293126 -0.0389449 0.660051 -1.83642
000030 93 10 c6 3d 45 f6 c1 3c 28 b5 df be d4 f0 7d be
       0.0967113 0.023677 -0.436929 -0.247989
000040 e6 c9 55 3e 4d 32 6d bd 65 c5 f0 bd f0 50 04 be
       0.208778 -0.0579093 -0.117564 -0.129215
000050 48 6f 38 bb 62 bc e6 bd 6e c3 38 be b6 67 d6 3d
       -0.00281425 -0.112664 -0.180433 0.10469
000060 0a 10 25 3d b3 7e 93 be f9 86 aa be 72 33 8c be
       0.0402985 -0.288076 -0.333061 -0.27383
000070 cb 05 f8 3c 3b 8d f4 3d 1f f2 86 be fa 7f d5 3d
       0.0302762 0.11941 -0.263566 0.104248
000080 02 33 8a 3d bb 45 88 3e c0 66 6f bd df 8d e0 3c
       0.0674801 0.266157 -0.0584476 0.0274114
000090 97 3a 38 be 57 b1 d8 3e 17 9c 91 3e 0e 69 b3 3b
       -0.179911 0.423228 0.284394 0.00547517
0000a0 6d 1c b1 bc ba 6b a9 bd b1 db 67 be ba f9 41 3d
       -0.02162 -0.082725 -0.226424 0.0473573
0000b0 f3 cb 48 bf 5b 0b f3 bd 4a f0 c6 3e 76 16 fd 3d
       -0.784362 -0.118674 0.388552 0.123578
0000c0 d2 40 c7 3c af 09 d1 3e 09 36 7e 3e b4 3d c2 3e
       0.0243229 0.408277 0.248253 0.379377
0000d0 db 30 3a 3e 52 ef 39 3e 17 65 66 be 4e 45 32 bf
       0.181827 0.181577 -0.224995 -0.69637
0000e0 9b b7 e0 bc 0a 48 3b 3e 1e 1a 2e 3f c9 3b c7 be
       -0.0274313 0.182892 0.680086 -0.389128
0000f0 60 22 4e be 73 2e d5 3f 14 92 91 3d 1c f4 be 3a
       -0.201303 1.66548 0.0710794 0.00145686
000100 00 73 ad 3e c3 47 8c bf d4 06 0c bd 42 c0 a0 3d
       0.338768 -1.09594 -0.0341862 0.0784917
000110 85 5a 88 3d 24 62 06 bf f8 fe 96 be 74 27 a8 3e
       0.0665789 -0.524935 -0.294914 0.328426
000120 7f 6b 5b 3f 15 e5 72 be 11 39 39 bf 10 33 45 3c
       0.857109 -0.237202 -0.723527 0.0120361
000130 d8 2e 3d bf fa 0b 0d 3e 28 d1 9a 3e b3 09 00 be
       -0.738996 0.137741 0.302377 -0.125037
000140 ab ec 93 3e 31 f0 c7 3d cf 4e 16 3e f7 91 07 3f
       0.288915 0.0976261 0.146785 0.529571
000150 82 ad 9a 3e b1 a3 51 3e 47 3d 44 bc f4 cb bb bc
       0.302105 0.204726 -0.0119775 -0.0229244
000160 c5 8d 4b 3e 1e c2 c8 3e 7a 71 fa be 19 bb 8e bc
       0.198783 0.392106 -0.489147 -0.0174232
000170 5c 5a 1d be e5 b7 78 3e 25 3c 31 3e 3b 0f f8 bc
       -0.153665 0.242889 0.173081 -0.0302807
000180 01 51 a8 be d2 71 95 be 40 0b 13 bc 73 0e ce 3e
       -0.328743 -0.291884 -0.00897485 0.402454
000190 04 ad 00 3e 0b 84 c8 3d ac ac 1d 3e aa 48 b5 bf
       0.12566 0.0979081 0.153979 -1.41628
0001a0 14 06 ad 3e bd 8d 3d 3e 8a 15 1f bd 96 43 8b be
       0.337937 0.185111 -0.0388389 -0.272
0001b0 d2 a7 b5 be 98 69 8f bf 4f 20 a4 3e cc 45 48 c0
       -0.354796 -1.12041 0.320559 -3.12926
0001c0 e8 56 5e 3d 6a 3a 51 3d e9 0e 22 be 60 c8 52 3f
       0.0542821 0.0510811 -0.15826 0.82337
0001d0 98 a5 19 3f 43 08 83 3d 22 72 da be ec c2 4a bd
       0.600183 0.0639806 -0.426652 -0.0495023
0001e0 ab 3e 47 3f 89 18 a5 bc a7 95 56 bf ee 93 e3 3d
       0.7783 -0.0201533 -0.838221 0.111122
0001f0 64 7f 14 3d 79 3a 23 3f 2e c2 a9 3d 16 6a bd be
       0.0362543 0.637611 0.0828899 -0.36995
000200 26 38 01 bf a2 63 13 3f 38 87 93 be cd 5b ad be
       -0.504763 0.575739 -0.288141 -0.338591
000210 05 4d 93 3e af ef ae bd fc 94 99 bc 1f d9 2c 3f
       0.287697 -0.0854181 -0.0187478 0.675188
000220 fe 5f 25 be 71 71 bc 3e c1 54 eb 3e 52 64 ce bb
       -0.161499 0.368053 0.459631 -0.00629858
000230 73 10 ac 3e 1c 43 40 3e ab 78 6b 3f 40 88 1c bf
       0.336063 0.187756 0.91981 -0.611454
000240 a3 91 97 be 88 ce 8c 3d d2 1d 5c 3f 26 8e 5c be
       -0.296033 0.0687533 0.85983 -0.215386
000250 d7 a2 c5 3c 11 8c a3 3e bc af d2 3e 0c ca 84 be
       0.0241255 0.319428 0.411497 -0.259354
000260 4a 7c 02 bf cd 81 54 bc e1 25 d8 3d 2b 18 1d bf
       -0.509709 -0.0129704 0.105541 -0.61365
000270 df 5e e7 bb c5 01 b4 3e 51 bc 1a be ca a8 9a be
       -0.00706087 0.351576 -0.151109 -0.302069
000280 03 23 2b 3f 07 40 b4 3e 34 2d 11 3e e3 9b 16 bb
       0.668503 0.352051 0.141774 -0.00229811
000290 73 63 ce 3f 48 e0 d7 3e d6 fe 16 3f a6 b5 19 3f
       1.61241 0.421633 0.589826 0.600428
0002a0 91 43 00 bf 78 ee 15 3f f1 67 c8 be 99 d3 81 bf
       -0.501031 0.58567 -0.391418 -1.01427
0002b0 21 9b 8f bd dd ef d8 be a0 35 9f 3d e2 06 7c 3e
       -0.0701201 -0.423705 0.077739 0.24612
0002c0 b6 d2 50 3d 52 9e 59 3e 85 0a 86 be f4 86 c3 3e
       0.0509822 0.212518 -0.261799 0.381889
0002d0 da 91 42 3f 47 e4 1b 3d 7d e8 e2 3e 17 d5 62 3e
       0.760038 0.0380595 0.44318 0.221516
0002e0 78 47 be be f6 61 11 bf 6a c2 ee be 97 73 19 bf
       -0.371639 -0.567901 -0.466327 -0.59942
0002f0 a3 1e 8a 3f d0 25 ec be 71 cc 12 3e 50 c6 68 bf
       1.07906 -0.461226 0.143358 -0.909276
000300 08 72 ac bf 67 d5 23 40 e4 14 53 40 39 3a 98 3d
       -1.34723 2.5599 3.29815 0.0743298
000310 d0 ee 10 3e 8d 44 28 3e 59 f0 ec bc 33 18 ab be
       0.141536 0.164324 -0.0289232 -0.334169
000320 02 82 39 3e 4a 9b 8a 3e 26 a8 99 3e 99 85 91 3c
       0.18116 0.270716 0.300111 0.0177639
000330 13 36 b2 3d 74 03 ca bd 63 18 05 bc 16 a2 53 3e
       0.0870172 -0.0986394 -0.00812349 0.206673
000340 78 61 8b be f0 0d 8d 3b 8f 1c 39 be 44 a4 36 be
       -0.272228 0.00430464 -0.180773 -0.178361
000350 c2 f9 54 be f5 bd 82 bb f0 de d1 be 4b f5 d3 bc
       -0.207984 -0.00398993 -0.409904 -0.0258738
000360 a3 e5 60 be 67 b9 08 3f 31 07 61 be 5f ed 78 be
       -0.219626 0.534079 -0.219754 -0.243093
000370 7f 6b e7 3e 85 d1 4c be 19 ad f3 be 19 8d 5c 3e
       0.451992 -0.200018 -0.47593 0.215382
000380 6f 8a fd 3c e9 2c 83 3e 98 be b7 3e b8 ce ef be
       0.0309498 0.256202 0.358876 -0.468374
000390 af 7c 71 3d b9 e3 ad 3e 88 82 59 be c4 0b d2 3e
       0.0589568 0.339628 -0.212412 0.410246
0003a0 d9 5a 6f be 2d c2 be bd 96 0a ea 3c 72 6d 30 3f
       -0.233745 -0.0931438 0.0285695 0.68917
0003b0 a3 b5 3d 3d 7d 77 4b 3e c9 55 1c 3e 96 7b 5c 3d
       0.0463158 0.198698 0.152671 0.0538288
0003c0 6c 94 65 be ff fa f2 3c f4 dd bd 3e dc 10 9b be
       -0.224199 0.0296607 0.370834 -0.302863
0003d0 74 b3 1f bf 80 b9 96 3d 87 98 9c 3c 45 f6 61 be
       -0.623832 0.073596 0.0191157 -0.220666
0003e0 8b 72 04 bd d6 c4 87 3d ca 16 a9 3e 2d 13 74 bd
       -0.0323358 0.0662934 0.330252 -0.0595886
0003f0 40 87 d9 be 91 2c 28 bf 07 c8 9c bd a7 78 14 3f
       -0.42486 -0.65693 -0.0765534 0.579966

4 f4 [50]
000000 e6 90 99 bd 93 32 6e bd ae a0 e9 bd 70 24 40 3e
       -0.0749834 -0.0581537 -0.114076 0.187639
000010 43 82 a3 bd e5 ec 0d be 47 e4 5c bb 68 fd a2 bd
       -0.0798383 -0.138599 -0.00337054 -0.0795849
000020 ba d2 a7 3d 11 8d 6e bd 2d 54 c8 bc 60 3f 9f bc
       0.0819449 -0.05824 -0.0244542 -0.0194394
000030 bb fb a2 3d 99 2f ba bd 4c c3 b8 be 6e 69 35 bc
       0.0795817 -0.0909111 -0.360865 -0.0110725
000040 6f 13 c9 bc 6e c9 60 3d cd 02 1d be ad 3e ae 3b
       -0.0245454 0.0548796 -0.153331 0.00531753
000050 93 35 4a be ff 06 ad 3e 62 10 48 3e 22 00 18 3e
       -0.19747 0.337944 0.195375 0.148438
000060 2e 1d f3 bd 63 b7 b7 3e 08 22 4b be 8c d8 08 bc
       -0.118708 0.358821 -0.198372 -0.00835241
000070 f9 03 94 3c 0e 82 4e be 7a 3c a9 ba 88 54 05 bc
       0.0180683 -0.201668 -0.00129117 -0.00813783
000080 b6 13 25 3e cd 1f f3 3d 62 81 1f be db 14 0f 3e
       0.161208 0.118713 -0.155767 0.139728
000090 43 e2 2e 3e b4 b4 2e bc 3b a7 09 3e 66 4c 21 be
       0.170785 -0.0106632 0.134427 -0.157518
0000a0 92 5b 43 be de e2 3b ba 6d 03 27 3e 71 81 ba bd
       -0.190779 -0.000716729 0.163099 -0.0910672
0000b0 95 47 f7 bd d7 68 1c bc 28 d5 3e 3c 56 f5 f2 bd
       -0.120742 -0.00954648 0.0116475 -0.118632
0000c0 33 f9 16 be 39 a8 8e bd
       -0.147435 -0.0696568

5 f4 [50, 50]
000000 ec 4b 56 3f a6 b7 37 3f 9d 9a c0 bd d5 3d 06 bf
       0.837096 0.717646 -0.0940449 -0.524381
000010 d1 03 4f be 21 c9 f4 3e 29 00 ab bc 1c d3 d3 3e
       -0.202163 0.478097 -0.0208741 0.41372
000020 e2 ca 99 3e 93 73 12 be e7 6e 0f bf 3a 40 a0 3f
       0.300376 -0.143019 -0.560286 1.25196
000030 72 a1 17 bd 1b 04 67 bc b0 6a 7a bd 4d 92 b8 bc
       -0.0370192 -0.0141001 -0.0611369 -0.0225307
000040 7f 58 a5 3c 7a e3 40 bf 9f 8e af 3f 96 51 a1 39
       0.0201838 -0.753471 1.37154 0.000307691
000050 3d 7d 10 3f bf 88 31 bd 16 fc 56 bd a3 03 aa be
       0.564411 -0.0433433 -0.0524865 -0.332059
000060 fe ee 05 3f 9a 03 69 bd 97 57 46 3f 29 f9 a2 bc
       0.523178 -0.0568882 0.774774 -0.0198942
000070 d3 c1 2a 3e 6d 90 89 3f f5 6d 5c 3d ef ab f2 bc
       0.166755 1.07472 0.0538158 -0.029623
000080 33 a5 75 be 9c 8a 94 be ff 95 3d 3f fb 64 7b 3c
       -0.239888 -0.29012 0.74057 0.0153439
000090 ef 74 cf be 64 af b7 3e 1d c8 56 3f 23 4e 77 3e
       -0.405189 0.35876 0.838991 0.241509
0000a0 67 7c ff 3e 1e 07 94 bc 2c 49 2e bf 00 6f 2d bf
       0.498996 -0.0180698 -0.680804 -0.677475
0000b0 1d e3 5a 3e 4e 74 47 3d 66 6b 8d 3f 06 ba d6 3d
       0.213757 0.0486949 1.10484 0.104847
0000c0 4f e9 a0 3e ca 15 6a bf f5 68 56 bf fa 8e bb bd
       0.31428 -0.914395 -0.837539 -0.0915813
0000d0 de 93 b3 bf 65 6f 59 3e ae 61 06 be 76 6b e1 3e
       -1.40295 0.212339 -0.131232 0.440273
0000e0 83 f1 1d 3d 9e 95 cc 3e 01 86 e5 3d fe 44 9d 3e
       0.0385604 0.399579 0.112072 0.307167
0000f0 c2 68 26 3e 6f 62 a8 be 9f 3c ec be 7b 33 aa be
       0.162509 -0.328876 -0.4614 -0.332424
000100 b6 80 c0 3e 70 15 3a bd 5e ff a4 3c 9c c4 34 3f
       0.375982 -0.0454306 0.0201413 0.706125
000110 1f a2 a9 3f 1d 2d 1d 3d b5 4e 18 bf 78 7a 8d 3e
       1.32526 0.0383731 -0.594951 0.276325
000120 e1 10 05 3d 43 ad 08 bc 9b af da be bc 10 61 3c
       0.0324868 -0.00834209 -0.427121 0.0137369
000130 4c 6c 3e 3e 76 21 0e 3c b8 8c 60 bd c2 d3 f5 bc
       0.18596 0.00867497 -0.0548217 -0.0300082
000140 6c dd bc 3c be 78 35 bd 55 c0 7d 3e e4 f6 93 3e
       0.0230548 -0.0443046 0.247804 0.288993
000150 92 03 db bc d9 93 20 be 86 03 e1 be 87 c5 88 3e
       -0.0267351 -0.156814 -0.43948 0.267132
000160 4d db 9b bf 6f 11 b0 3e d9 75 34 bd 6a 93 39 bd
       -1.21763 0.343883 -0.0440577 -0.0453066
000170 5d 50 2f be aa 89 94 bd c4 ed f0 3d 65 b1 08 bd
       -0.171205 -0.0725282 0.117641 -0.0333723
000180 e9 0d 9f 3e 0f 26 31 bf 7b 2e 83 3e 7f 32 e6 3d
       0.310653 -0.691987 0.256214 0.112401
000190 d4 2a 0a 3e 94 b4 2c 3d b5 19 47 3e 5f 9b 6d be
       0.134929 0.0421644 0.194434 -0.232038
0001a0 87 52 7b be bd 22 53 bc f0 3c 27 bc f4 6d 55 3f
       -0.245432 -0.0128867 -0.0102074 0.833709
0001b0 7d b2 22 bf b3 ef 7a 3e d1 f7 e4 3c 4d 9f 19 3f
       -0.635536 0.245055 0.0279502 0.600087
0001c0 c6 dd 8f b7 88 f4 db be 7b 66 e9 bd 72 07 a0 3c
       -1.71502e-05 -0.4296 -0.113965 0.0195348
0001d0 6f b2 12 3d 4f 23 89 bf 87 03 8c bd c5 52 49 bc
       0.0358147 -1.07139 -0.0683661 -0.0122878
0001e0 10 cd 0c be fb af d3 3d 20 d1 9c 3e 9e 60 bf be
       -0.137501 0.103363 0.306283 -0.373784
0001f0 f4 2b 07 bd 41 c5 e7 bc f0 a4 55 be 83 d6 13 3a
       -0.0330009 -0.0282923 -0.208637 0.000563957
000200 ae d4 d3 3d 68 92 90 3e 5b 9a 5b bd 49 51 c2 3c
       0.103433 0.282367 -0.053614 0.0237204
000210 bf 9d 61 3b 37 36 13 3f 0e 66 33 3e b2 46 02 bd
       0.00344263 0.575046 0.175194 -0.0318057
000220 78 61 83 be 23 16 d1 3d fa 46 74 be 39 0b 2b be
       -0.256603 0.102093 -0.238552 -0.167035
000230 af 59 32 bb 4e 61 25 3c a7 91 96 bd d4 9c 9c bd
       -0.00272141 0.010094 -0.07352 -0.076471
000240 31 27 a0 be bf 10 4d 3d 79 01 76 3e ed 99 c5 3e
       -0.312799 0.0500648 0.24024 0.38594
000250 d9 b6 03 bd 28 10 b6 3e 4a 97 3e be 5d f8 61 3e
       -0.0321568 0.355592 -0.186124 0.220674
000260 50 c5 85 be 70 26 26 be 2a 39 2f 3f 32 bb 7d bd
       -0.261271 -0.162256 0.684466 -0.0619461
000270 b7 12 b2 ba a9 ca 2d 3b fa 0f 44 bd fd bd bc be
       -0.00135859 0.00265185 -0.0478668 -0.368637
000280 4b 02 b4 3e d7 8a 06 3f 8a e4 47 3f 1e 21 b9 bc
       0.35158 0.525556 0.780831 -0.0225988
000290 8b 1b 67 3e 0f 70 d6 3b a5 b8 11 3b 67 7c 57 3f
       0.225691 0.00654412 0.00222353 0.841742
0002a0 b1 f7 0e bf 38 53 f8 bb d1 57 88 3e 92 3e 0d 3e
       -0.558467 -0.00757828 0.266295 0.137934
0002b0 c6 6f 2a bd a8 c8 11 3e e7 34 db 3e a9 17 dc bd
       -0.0416105 0.142367 0.428138 -0.107467
0002c0 f0 18 1a 3f b4 23 b0 bc 4f b2 a5 3d da 8f 1c 3f
       0.601943 -0.0215014 0.0809065 0.61157
0002d0 8a 22 bf bc c4 ac dd bb eb 70 84 be e0 64 8b 3e
       -0.0233319 -0.00676498 -0.258674 0.272254
0002e0 e9 de 79 3d 83 17 0d be a9 dc 84 3e 62 dc 85 3e
       0.0610036 -0.137785 0.259496 0.261447
0002f0 6a 85 45 bf a8 38 ae be 7c 9a 3b bf dc 58 9a 3c
       -0.771567 -0.340276 -0.732826 0.0188412
000300 26 c8 08 3e 68 4d 3d 3c ba 14 23 3f e0 6f cd bb
       0.133576 0.0115541 0.637035 -0.00626944
000310 0c 21 2b bf cf da 13 c0 a2 ee 13 3e 64 58 05 be
       -0.668473 -2.31023 0.144465 -0.13022
000320 4f 20 ec 3c 1b 20 83 3b 96 0b b0 bc 21 1c 98 bc
       0.028824 0.00400163 -0.0214899 -0.0185681
000330 33 6d 7f 3c 1f d6 9b bc 59 61 04 3d d5 9d 5d 3c
       0.01559 -0.019023 0.0323194 0.0135264
000340 90 33 28 bd b3 9c 3f bd 42 d0 51 bc b0 c4 28 3d
       -0.0410648 -0.0467803 -0.012806 0.0412032
000350 41 70 2b 3d fb 54 ba bc b3 2c f3 3c 4d 63 40 3d
       0.0418551 -0.0227456 0.0296844 0.0469697
000360 02 09 0f 3d be bc a5 3c f2 87 55 bc c6 66 ec bc
       0.0349207 0.0202316 -0.0130329 -0.0288576
000370 95 5d 35 bd 0b 19 1e bd 8b 47 14 bc 6a b3 fb bc
       -0.0442787 -0.0385981 -0.00905026 -0.0307252
000380 62 38 ff b9 e9 11 7e bc 75 59 0c bc c5 eb 55 bd
       -0.000486794 -0.0155072 -0.00856625 -0.0522268
000390 1f b4 43 3c 7d e4 7b 3c 3c c3 d0 3b 02 b7 d3 bc
       0.0119448 0.0153743 0.00637093 -0.0258441
0003a0 64 34 fc 3c b8 c6 8c 3c 5a a5 4f 3c 5b fe cd bc
       0.0307867 0.0171846 0.0126737 -0.0251457
0003b0 a0 6c 4a bb 03 53 37 bd 35 c9 34 bc 49 85 31 bd
       -0.00308875 -0.0447569 -0.0110343 -0.04334
0003c0 fd 83 48 bd d1 d1 05 bd 10 66 ea ba 03 9e 8f bc
       -0.048954 -0.0326708 -0.00178832 -0.0175314
0003d0 36 53 46 bc fb 5e 1e 3d a6 29 02 bd d4 7d c0 bc
       -0.0121048 0.0386648 -0.031778 -0.0234975
0003e0 1e d0 28 bd c2 18 2c 3d 2a e0 72 3f 3f eb c0 bd
       -0.0412141 0.0420158 0.948733 -0.0941987
0003f0 3c a0 1c be 7c 1c 17 bd 41 82 ba 3e 6a be 1a be
       -0.152955 -0.0368924 0.364275 -0.151117

6 f4 [50]
000000 56 f4 27 3e 3e 76 87 be ab 8d 98 3b 32 3b 6b bd
       0.164018 -0.264574 0.00465556 -0.0574295
000010 4c bb 62 bc 5b eb eb bd 54 39 8d bd c2 fe 86 3d
       -0.0138386 -0.115195 -0.068957 0.0659156
000020 1c cf 03 bf a0 c6 fd 3d 42 e9 4b 3d 34 83 f8 bd
       -0.514879 0.123914 0.049783 -0.121344
000030 cf 9f 02 bf 58 95 d8 3c ab af e6 be b5 6e 63 3e
       -0.510251 0.0264384 -0.450559 0.222102
000040 01 10 5c 3d 12 6e ae bb 39 b4 58 be 1f b9 35 3c
       0.0537262 -0.00532318 -0.211625 0.0110915
000050 bb 2a 50 bc 1a fd 38 be 10 ea 72 be 68 58 7c 3e
       -0.0127055 -0.180653 -0.237221 0.246431
000060 1d 01 a4 be 59 32 07 be b2 9a cf bb 54 57 9e 3e
       -0.320321 -0.132028 -0.00633558 0.30926
000070 07 b5 bf be 9a 5b 86 bc 2a fd 74 be 71 3c 0f be
       -0.374428 -0.0164011 -0.239247 -0.139879
000080 64 e2 8b 3d 5f 9e eb 3b 9f 21 58 bf f2 50 a5 bd
       0.0683029 0.00719051 -0.844263 -0.0807208
000090 37 43 40 3d 59 de 85 3e ab 98 6a 3e 84 3b 02 3c
       0.0469391 0.261462 0.229098 0.00794876
0000a0 de ac e1 3d b6 bd 6d be 19 80 bc bd e7 c1 a2 bd
       0.110193 -0.232169 -0.0920412 -0.0794714
0000b0 63 97 38 3e b3 07 7a be e7 11 6d bc 58 ac 51 be
       0.180265 -0.24417 -0.0144696 -0.204759
0000c0 02 2d ad be 85 22 9d 3c
       -0.338234 0.0191815

7 f4 [50, 50]
000000 6e a5 33 3f ae 2d 18 3f 35 07 38 be 57 77 ac 3e
       0.701743 0.594447 -0.179715 0.336848
000010 05 5b be bb 1b 9e 7e 3f aa 2c ea be 03 7a 49 3f
       -0.00580919 0.9946 -0.457372 0.787018
000020 b7 b5 f5 be a7 c6 70 bd b1 6e dc 3e 88 07 1e 3d
       -0.479902 -0.0587832 0.430532 0.0385814
000030 bd 0d a0 bc 48 a3 22 3e 15 3a cf 3d 12 8b c3 3d
       -0.0195378 0.158826 0.101185 0.0954801
000040 ba 2d c1 3d 9a b1 48 be 99 11 2e be 7d 45 50 3b
       0.0943255 -0.19599 -0.169989 0.00317797
000050 04 03 d8 3e 5e 2e 02 be c3 82 9b be ee cd 77 3f
       0.421898 -0.12713 -0.303732 0.967986
000060 15 1f 1f be d4 29 53 3f 7b 2f e6 be a8 e9 6e 3d
       -0.155392 0.824857 -0.449581 0.0583283
000070 82 e4 39 bf 9f c0 c5 bc 59 13 0b 3e f6 95 cf be
       -0.726143 -0.0241397 0.135816 -0.405441
000080 81 cd f9 be b8 56 37 3f be ee 9d ba da c5 a4 be
       -0.487896 0.716167 -0.00120493 -0.321822
000090 11 c6 0f 3d 66 a4 5e be d1 1e 1f be ad c6 2f bb
       0.035101 -0.217424 -0.155391 -0.00268213
0000a0 3a 79 09 3f bb 61 87 bf f9 87 b5 3e 9b e2 15 3f
       0.537006 -1.05767 0.354553 0.585489
0000b0 aa 9e 8c be 19 56 d9 3e cb 47 f2 3d 58 1f f7 3e
       -0.274648 0.424485 0.118301 0.482661
0000c0 8d 96 93 be 1c b1 ba 3f 14 79 b2 3e 3f e0 c9 be
       -0.288258 1.45853 0.34858 -0.394289
0000d0 da 55 8c 3f db 52 6b bf 40 a7 bb 3c 1c 97 f9 3e
       1.09637 -0.919233 0.0229069 0.487481
0000e0 10 61 77 bd e7 19 23 bf 02 2e 63 bd af 5e bd be
       -0.0603953 -0.637114 -0.0554638 -0.369863
0000f0 2f 14 10 be 24 47 da be 7a a6 c7 3e d9 3e 38 bf
       -0.140702 -0.426324 0.389942 -0.719709
000100 93 36 95 3d 29 94 9d 3e f9 49 b5 be 15 91 0d 3f
       0.072858 0.307771 -0.35408 0.552995
000110 7c ed f1 3e 56 1a e7 bb ed 66 36 3e 33 2e 81 3c
       0.472515 -0.0070527 0.178127 0.0157691
000120 96 21 9a 3f c3 aa 4d bb 63 41 71 be 10 d6 b5 3d
       1.20415 -0.00313823 -0.235601 0.0887872
000130 39 5e 99 3e 51 2d 52 be c0 5b c0 3f 63 4c d5 3c
       0.299547 -0.205251 1.5028 0.0260374
000140 6c 04 0e 3f 0b f7 25 3d 26 17 98 bd b6 8e 40 bd
       0.554755 0.0405188 -0.0742629 -0.0470111
000150 cd c8 40 3e a4 fe 4e bf 54 c5 54 3e d5 3e 81 bf
       0.188266 -0.808573 0.207784 -1.00973
000160 af 0b d7 3e 70 7c a5 bf a0 dc ae be 9a 25 01 c0
       0.420011 -1.29286 -0.341527 -2.01792
000170 5b 7a 64 3e 34 0e fd 3e 21 cb 62 3e 8d 55 74 bd
       0.223123 0.494249 0.221478 -0.0596519
000180 3e 97 79 be 7a c0 21 bd 24 18 7d bd a0 89 d0 be
       -0.243741 -0.0394902 -0.0617906 -0.4073
000190 71 af cc be e6 20 a0 3e 58 a8 9d bf c6 86 52 3f
       -0.399776 0.312751 -1.2317 0.822369
0001a0 35 9b 47 3c 1b 63 0f bf 30 c4 90 3d af e9 b1 be
       0.012183 -0.560106 0.0706867 -0.347486
0001b0 bc 13 1e 3c 16 f9 01 bf c6 90 a7 3d 38 a0 45 3d
       0.00964826 -0.507707 0.0818191 0.0482485
0001c0 0f 9b b0 be 32 bb 5d 3d ba d8 cc 3e 6a a5 c0 bd
       -0.344933 0.0541336 0.400091 -0.0940655
0001d0 b9 6c d4 3d d6 73 4a bf 0d 44 c0 bd 3f b1 09 bd
       0.103723 -0.79083 -0.0938798 -0.0336163
0001e0 a1 4d 3e 3f 49 d6 31 be 66 bf 56 bf 9d 2a 24 3d
       0.743372 -0.173669 -0.838858 0.0400797
0001f0 54 8d 3e 3f dc f4 8f 3e 19 74 82 be 65 d0 5f bd
       0.744344 0.281165 -0.254792 -0.0546421
000200 95 49 bd 3e a6 e6 bc bc 63 27 28 3f 9b 91 11 3e
       0.369702 -0.0230592 0.656851 0.142157
000210 b2 12 57 bf dc 9c e2 3e d7 1d b6 bd d7 15 3b 3f
       -0.840129 0.442603 -0.0889241 0.730802
000220 ca 31 49 3e 2b 31 1f be 8a 59 3f be 40 17 85 3e
       0.196479 -0.155461 -0.186865 0.259943
000230 0d 1b fd 3e 27 ec ac 3c e7 c5 e9 3d 59 86 18 3f
       0.494347 0.0211087 0.114147 0.5958
000240 ef e7 9f 3d 57 3f e6 3e 0d 7d 21 bd 6e 4d aa be
       0.0780791 0.449702 -0.0394259 -0.332622
000250 5f 07 aa bf be dd e2 3e c0 03 33 3e 0e 13 cd bd
       -1.32835 0.443098 0.174819 -0.100134
000260 82 73 82 3f 72 04 9f bc 99 e4 36 3d 62 2d 3e 3e
       1.01915 -0.0194113 0.0446516 0.18572
000270 78 42 af bc ee 60 74 be 8e 76 38 3f 68 40 d5 3e
       -0.021394 -0.238651 0.720559 0.416507
000280 e2 1e df bf d7 4d 2d 3f ae 66 6d 3f a9 a4 9e be
       -1.74313 0.676969 0.927348 -0.30985
000290 ad c0 90 be ea ec bc 3e 14 96 b8 3f a3 22 ae 3e
       -0.28272 0.368995 1.44208 0.340108
0002a0 6a fa ec 3e ef 29 af bc 74 ce 6f 3f 21 92 b1 be
       0.462848 -0.0213823 0.936744 -0.346818
0002b0 f5 9f 05 be de c8 f8 3f f8 8c e4 3e 55 4f b6 be
       -0.130493 1.94363 0.446388 -0.356074
0002c0 42 1b 95 bd 27 28 9f 3d 6a 87 47 3f 9b 26 42 3d
       -0.0728059 0.0777133 0.77941 0.0474001
0002d0 cd 82 af 3d 52 0a 1a be a3 75 94 be 9f 3a 06 bf
       0.0856987 -0.15043 -0.28996 -0.524332
0002e0 ab b0 35 bf 28 44 b8 3e 19 ae 6e 3e 2e 8e 02 3f
       -0.709727 0.359895 0.233086 0.509982
0002f0 16 6d 42 bf e6 57 a7 3f 2b 04 98 3d cf bd ff 3e
       -0.759477 1.30737 0.0742267 0.499495
000300 a7 02 02 bf a0 40 be bd eb 1a 4d be 62 d2 04 3d
       -0.507853 -0.0928967 -0.200298 0.0324272
000310 1c 5f 9b 3e 05 a6 23 be 4d be 8d bf 22 8e dd 3f
       0.30346 -0.159813 -1.10737 1.7309
000320 44 4e 4f be e2 5c f3 3e 6b 2b de 3e cf da ed 3d
       -0.202447 0.475318 0.433925 0.11614
000330 36 01 c6 3c 2e 56 ec 3e 0e 15 e3 3d c6 c1 55 3e
       0.0241705 0.461595 0.11088 0.208747
000340 b3 4b 0f bd 49 2d d4 3d f3 26 9a 3d 87 e1 e3 3e
       -0.0349843 0.103602 0.0752696 0.44508
000350 0e d9 a8 be 4d 0d 59 bc bb ed 8a be 7a 38 31 3e
       -0.329781 -0.0132478 -0.271345 0.173067
000360 96 43 3b 3e f5 b9 8a 3e 66 da fe 3e c0 5c 2b 3d
       0.182875 0.27095 0.49776 0.0418365
000370 27 d3 cd 3c 6c 5c df 3d 69 ac 25 bf 94 ec a2 bc
       0.0251251 0.109063 -0.647162 -0.0198882
000380 4d c0 0f 3e 80 0d 28 bd 88 66 6e 3e ae b6 87 bc
       0.140382 -0.0410285 0.232813 -0.0165666
000390 d4 2e c1 3c 1e e8 bc 3c e2 c4 ac 3d 69 3a 1b be
       0.0235819 0.0230599 0.0843599 -0.15159
0003a0 2a 73 03 be 83 8e 81 3d 75 56 93 be 37 8a 3c be
       -0.128369 0.0632601 -0.287769 -0.184121
0003b0 fb 5c 0d 3e 3f 45 04 bd 24 5e fe 3d 66 66 8a 3f
       0.13805 -0.0322926 0.124203 1.08125
0003c0 9c a5 b4 3e e3 fe 63 be 4f 1f e1 3d 74 2e c0 bd
       0.352826 -0.222652 0.109923 -0.0938386
0003d0 3d 8f cb bd 36 b0 f5 be 37 e3 bc be 47 ff 83 3e
       -0.0993943 -0.47986 -0.368921 0.257807
0003e0 83 30 87 be b9 c1 3c 3f 3a 3b 69 3e d2 8d 80 3e
       -0.264042 0.737331 0.227765 0.251082
0003f0 64 ca 87 3d 37 71 b2 be 46 78 33 3a 16 a6 4f bf
       0.066304 -0.34852 0.000684623 -0.811128

8 f4 [50]
000000 fc 95 a4 3d 45 da c6 be 28 48 5c be 71 d3 b8 bb
       0.0803642 -0.388384 -0.215119 -0.00564044
000010 8f e1 81 be d4 1e c0 bd 63 99 de 3d 4f 79 e4 be
       -0.253674 -0.0938088 0.108691 -0.446238
000020 6c 09 49 bf 6b 99 3c be 44 b3 7c bc 00 56 7f bf
       -0.7853 -0.184179 -0.0154236 -0.997406
000030 86 76 8e 3d 4d 7f dd 3b 34 4b 82 bb 75 fb 15 bc
       0.069562 0.00675956 -0.00397625 -0.00915419
000040 33 32 a8 be 96 5a 4f be a2 fb 08 bd 0e 82 9e be
       -0.328508 -0.202494 -0.0334431 -0.309586
000050 eb 4c eb bc 5d fd a0 be a0 c8 8e 3d f3 f4 1b 3d
       -0.0287232 -0.314433 0.0697186 0.0380754
000060 f4 32 ba 3d 30 f1 27 3e 5a 8f 51 bd 3f c4 86 bc
       0.0909175 0.164006 -0.0511621 -0.016451
000070 e1 24 95 3e ea ca cc bc 28 44 2c 3f cf a0 b1 3e
       0.291297 -0.0249991 0.672915 0.34693
000080 16 be 9e be c3 9f e1 bd ec da 16 bf b7 62 5f be
       -0.310044 -0.110168 -0.589278 -0.21815
000090 0f 27 90 3d 26 c4 94 be a1 a0 34 bd 85 24 43 be
       0.070387 -0.290559 -0.0440985 -0.190569
0000a0 3b 55 2e be 42 b3 3b 3e 4b c0 16 3c 1d 3b 98 be
       -0.170247 0.183301 0.00920112 -0.297326
0000b0 22 e2 06 be ac aa 5b bf be 08 64 bc 12 bf e2 bd
       -0.131722 -0.858073 -0.0139181 -0.110716
0000c0 9e 09 d5 be 1c 22 a3 3d
       -0.416089 0.0796549

9 f4 [50, 50]
000000 43 9a a7 bc 69 1d e1 bf a6 27 b0 bf 72 87 51 3f
       -0.0204593 -1.75871 -1.37621 0.818473
000010 53 b3 43 bf 74 08 1c bf c3 f3 f2 3d c5 53 63 bf
       -0.764455 -0.609504 0.118629 -0.887997
000020 ff 3e 83 bf 83 51 a5 bf 1e 0f 47 3d 33 dc e4 bf
       -1.02536 -1.29155 0.0485984 -1.78797
000030 32 73 b1 bd 1d 93 d5 be 6d a8 a8 bd cb b9 08 c0
       -0.0866455 -0.417138 -0.0823525 -2.13634
000040 9f e3 57 3f b7 2a 39 be b6 0b 92 3d ef ac f1 bf
       0.843317 -0.180827 0.0713114 -1.88809
000050 29 85 ef 3c d5 5e ac be 28 9b 06 3f f6 fc 7a 3d
       0.0292383 -0.336661 0.525805 0.0612764
000060 b0 e8 06 3f ab cc 34 be 7f 4e f9 3e c6 8b 3d bf
       0.526988 -0.176562 0.486927 -0.740414
000070 61 17 45 3e 9e 89 1a bd 5d f8 51 be 55 51 0c be
       0.192472 -0.0377289 -0.205049 -0.137029
000080 85 5b 16 bf 26 e4 ab bf bb d0 ec bf f2 b2 8e 3e
       -0.587334 -1.3429 -1.85012 0.278709
000090 49 2a b8 3c 45 bb ea 3f c6 ae 03 3d c8 41 b9 bf
       0.0224811 1.83384 0.0321491 -1.44732
0000a0 5d 6d 95 3e e9 9e 25 be 6a 89 0d bf ec fa 03 c0
       0.29185 -0.161739 -0.552878 -2.06219
0000b0 a1 66 48 bf d3 50 fb be 3a 11 b3 3c e7 e2 47 3f
       -0.782816 -0.490851 0.0218588 0.780806
0000c0 d4 82 9b bf 46 eb 9c 3f 31 de 00 3d 3e 04 39 bf
       -1.21493 1.22593 0.0314619 -0.722721
0000d0 e1 61 1a bf ec 84 f7 3d 83 02 a5 3d a1 2c 3c bd
       -0.603056 0.120859 0.0805712 -0.045941
0000e0 67 64 0c 3f e6 e5 f0 be 0d 96 a0 bd af 7d 21 be
       0.548407 -0.470504 -0.0784112 -0.157706
0000f0 99 87 a7 3c ae f0 42 bf 6d f7 fc 3c 05 99 be 3d
       0.0204504 -0.761485 0.0308797 0.0930653
000100 9e bd a9 bd 4a 62 49 be 37 8c 4e 3f 6c ea fc 3d
       -0.0828812 -0.196664 0.806827 0.123494
000110 a8 38 9e 3e d2 e1 b9 3e 18 cf 00 bd 9c 6b 98 3e
       0.309026 0.363051 -0.0314475 0.297696
000120 66 c0 a1 3e 66 4d 48 bf b8 1c d4 bc c0 ce 0d 3e
       0.315921 -0.782431 -0.0258926 0.138484
000130 d3 d8 2a 3f ed 88 79 bc f6 d3 8f be 2a ec 38 bd
       0.667371 -0.0152304 -0.280914 -0.0451471
000140 21 3d a5 bd c6 a3 04 3e b2 da e4 3e 13 d6 fe 3e
       -0.080683 0.129531 0.446981 0.497727
000150 f7 06 0f 3e 72 14 68 bf a6 81 af bd 01 8a 71 3e
       0.139675 -0.906562 -0.0856965 0.235878
000160 f9 7f ba bc 45 9f bf be f8 df a6 bf 78 d0 3c 3e
       -0.0227661 -0.374262 -1.30371 0.184389
000170 73 a1 06 bf 51 f7 85 bf 28 0a 24 be ba d9 87 be
       -0.525901 -1.04661 -0.160195 -0.265333
000180 8d f0 d5 3a 75 9b 66 bd 86 2c 9c bd fa 27 48 3e
       0.00163223 -0.0563006 -0.0762568 0.195465
000190 34 d7 81 bf 94 13 8a 40 fd dd 33 3f ae b8 c0 be
       -1.01438 4.31489 0.702606 -0.376409
0001a0 62 67 9e 3f ea b0 c2 3e 4a 7b db 3f ec da 1e be
       1.23753 0.380256 1.7147 -0.155132
0001b0 8c b9 8b 3f c2 51 52 3f 72 0a 3c 3c df dd 2a 3e
       1.0916 0.82156 0.0114771 0.166862
0001c0 fd 7a 4f 3d 35 63 2d 3f 2c fc 0f bd dd 1e 49 bd
       0.0506544 0.677295 -0.0351526 -0.0491017
0001d0 53 97 18 bf ab e7 9c be f9 30 a3 3e 10 23 42 40
       -0.596059 -0.306455 0.318733 3.03339
0001e0 99 a6 03 bd 13 7c 18 bd c9 71 01 40 83 14 7c be
       -0.0321413 -0.0372277 2.02257 -0.246172
0001f0 66 49 b4 3f 51 bc 8a be 8e 05 25 3f aa ef 1c be
       1.40849 -0.270968 0.644616 -0.153258
000200 b2 9f 85 be 77 44 33 ba 92 5e 10 bf 86 95 a5 3d
       -0.260984 -0.000683851 -0.563943 0.0808516
000210 e8 bc de 3f 42 95 ba 3f 28 d7 04 be 90 14 85 3f
       1.74014 1.45768 -0.129727 1.03969
000220 a7 96 b9 3f 75 1f 5c 40 e2 94 f9 bc 0a bd 66 3f
       1.44991 3.43942 -0.0304665 0.901322
000230 a1 67 9f 3f b0 00 76 3f 0b 7b 9e 3f 99 2a 84 3f
       1.24535 0.960948 1.23813 1.03255
000240 68 24 56 3f 30 da f3 be e7 44 51 3d e7 fb e1 3f
       0.836493 -0.476274 0.0510911 1.7655
000250 2f 7a 38 3c b2 46 e1 3f a1 b3 96 3c 97 80 2e bd
       0.0112596 1.75997 0.0183962 -0.0426031
000260 ee 22 cc 3c ea 16 8b 3c cd 9c a4 bc e3 6f 1a 3c
       0.024919 0.0169787 -0.0200943 0.00942609
000270 8f a8 42 3a bf 54 60 bb bb 72 07 3d 93 6d 22 3c
       0.000742563 -0.00342302 0.0330684 0.00991382
000280 ff cf 41 bd 3e 37 1e 3d 95 71 42 3c fc 5c 23 bd
       -0.0473175 0.0386269 0.0118679 -0.0398836
000290 9d 1b c9 3c 10 a9 0e bd bb 18 59 bd 8f 0d 8f 3b
       0.0245493 -0.0348292 -0.0530021 0.00436563
0002a0 0e 9f b4 bc 58 4e 07 3d bb 4d 13 bd 41 9b a0 ba
       -0.0220485 0.0330337 -0.0359628 -0.00122533
0002b0 ee 8b 57 3b 9d 6d 82 b9 fa 7b 00 b7 4e 8c 9b 3c
       0.00328898 -0.000248772 -7.65826e-06 0.0189878
0002c0 e4 18 83 bb 27 f9 11 3d f5 2f 09 bd cb af 10 3d
       -0.00400077 0.035638 -0.033493 0.0353239
0002d0 64 90 e0 bc 5c 1e eb bb 01 3e 2e bd 12 3d 9f bc
       -0.0274126 -0.00717525 -0.0425396 -0.0194383
0002e0 9b da e3 bc 83 1f 0d 3c 38 29 71 3c 0c ac 88 3c
       -0.0278142 0.00861347 0.0147193 0.0166836
0002f0 d1 ed 1f bc c7 bf 2a 3d f6 9c 8f 3c 2b 66 e9 bc
       -0.00976129 0.0416868 0.0175309 -0.0284911
000300 ba 04 71 3c 5c 4b 92 3c a3 1c 81 bd ac e6 d4 bc
       0.0147106 0.0178582 -0.0630429 -0.0259889
000310 fc c5 6c bc a7 31 2b 3d 82 cd d4 3c c6 6a b5 bb
       -0.0144515 0.0417954 0.0259769 -0.00553641
000320 fc 8a 05 be 62 93 26 bd 06 10 fe 3d 51 86 0a bd
       -0.130413 -0.0406679 0.124054 -0.0338195
000330 09 4e 1d be 91 c2 ab 3c d6 8f b5 be 4f 75 28 bd
       -0.153618 0.0209668 -0.354613 -0.0411275
000340 48 52 82 be d2 28 93 3c 88 c1 d7 bc 04 6b 41 bc
       -0.254534 0.0179638 -0.0263374 -0.0118053
000350 95 2c b7 3e be 99 62 bc 6f f0 9d be e5 14 f8 bc
       0.357762 -0.0138306 -0.308475 -0.0302834
000360 a1 c2 ac bd 5a 84 62 bc 2e 1c 38 be 7a c4 04 bf
       -0.0843556 -0.0138255 -0.179795 -0.518623
000370 b9 88 94 bc 93 55 01 3e 77 37 45 3d d9 f9 98 bd
       -0.0181316 0.126303 0.0481486 -0.0746953
000380 62 66 df be a6 aa 5a 3d 4a 3a 2f 3d 5c db 85 3d
       -0.436328 0.0533854 0.0427802 0.0653598
000390 89 1f a8 3d f5 fc a3 bb e9 92 bb 3d 9e de 7b bc
       0.0820914 -0.00500452 0.0915888 -0.0153729
0003a0 34 9e e0 be 7b f4 c6 3e 04 dd 03 bd e6 49 98 3d
       -0.438707 0.388584 -0.0321932 0.0743597
0003b0 1c ee bb 3e f7 b0 cf be 76 3b d6 bc f7 16 a0 bc
       0.367051 -0.405647 -0.0261514 -0.0195422
0003c0 3a b1 47 be 51 3f b9 3d 90 85 68 be a2 42 15 3e
       -0.195012 0.0904528 -0.227072 0.145762
0003d0 2f dc f9 bd a2 14 03 3d 93 f3 5f 3a c8 b3 4b 3e
       -0.122002 0.0320021 0.000854307 0.198928
0003e0 cf f7 33 be a8 fd a6 be 63 ef 09 bf 88 65 83 be
       -0.17575 -0.326154 -0.538809 -0.256634
0003f0 01 6a ca 3f a6 d3 8a bd 94 bc a2 bf 8c f2 cc bd
       1.58136 -0.0677865 -1.27138 -0.100072

10 f4 [50]
000000 b0 8c ed bd 61 05 d3 bc 1f 31 26 bf 6a 80 17 bd
       -0.115991 -0.0257594 -0.649187 -0.0369877
000010 52 74 2e 3d ca 6b 1d bf 7c d5 b2 bf 85 5f da be
       0.0425914 -0.614926 -1.39714 -0.42651
000020 8d ee b0 3f 9e ec ae be 77 cc 8a bb f5 58 c4 bc
       1.38228 -0.341649 -0.0042358 -0.0239682
000030 7c 43 e9 be 19 72 2c 3e 81 48 ca 3d 68 ea c5 3e
       -0.455593 0.168404 0.0987711 0.386554
000040 00 36 70 be 96 ce 17 be d9 ee 39 bd 20 c3 d9 bc
       -0.234581 -0.148249 -0.0453938 -0.0265823
000050 a6 91 e0 bc 91 f0 dd be 19 8a 20 3d 60 9a 98 bc
       -0.0274132 -0.433476 0.0391942 -0.0186283
000060 65 1c e3 3d a8 aa 20 3e 2f a6 4d bf 33 79 c9 3d
       0.110894 0.156901 -0.803317 0.0983757
000070 77 dc 30 be 1e 1b 21 3e aa 5e 63 3d 69 3b b6 be
       -0.172716 0.15733 0.0555102 -0.355922
000080 a2 5d a5 3e 00 c6 8b bf 60 77 82 be 3d 47 44 bd
       0.32298 -1.09198 -0.254817 -0.0479195
000090 ff ec a2 bc 71 e4 31 3e c0 cd 52 be 37 37 da bf
       -0.0198884 0.173723 -0.205863 -1.70481
0000a0 3f c9 a8 bd 99 f1 6a bf bd 3a 13 c0 e4 a0 44 bf
       -0.0824151 -0.917749 -2.30046 -0.76808
0000b0 36 c8 1c c0 8b c0 08 be 77 13 bc be 97 1a 21 3e
       -2.44972 -0.133547 -0.367336 0.157328
0000c0 4f 1e bb 3d 1f f6 22 be
       0.0913664 -0.159142

11 f4 [50, 50]
000000 ea 96 3d 3e 1a 36 1a bf 13 2c 0e bd e4 4a 1d bd
       0.185146 -0.602388 -0.03471 -0.0384015
000010 35 9a c4 be 45 7f 08 be 6f 6c 51 3c ed 7e 15 be
       -0.383989 -0.133298 0.0127822 -0.145992
000020 bb 56 0c bd be 32 af 3c ea 8b 0e 3c d5 af f4 3d
       -0.0342624 0.0213865 0.00870035 0.119476
000030 6f 66 64 3e 8f 34 88 3d 9b e4 b7 3d 72 a7 a4 bd
       0.223047 0.0665065 0.0897915 -0.0803975
000040 ef ff 0f bf f2 5f 40 bd eb d6 8c bd 4c 8c 15 be
       -0.562499 -0.0469665 -0.0687693 -0.146043
000050 e5 04 c2 3d 17 29 04 3e af 22 1f bf 8c aa 95 3d
       0.0947359 0.129063 -0.621623 0.0730792
000060 42 9e b8 3d a1 1d a6 3c 34 78 09 bd 9a 23 0b be
       0.0901456 0.0202778 -0.0335619 -0.135878
000070 11 4f d9 bb cc 76 8a 3d ad a5 00 be 69 28 64 bd
       -0.00663174 0.0676094 -0.125632 -0.0557026
000080 31 66 a6 3c ce 60 92 3d ff 3c cd bd 85 22 ed 3e
       0.0203124 0.0714737 -0.100214 0.463154
000090 76 f4 09 3d 1c 10 bc 3c ad 32 23 3e da 20 83 bf
       0.0336804 0.0229569 0.159373 -1.02444
0000a0 bc e8 bb bd 1f f6 42 be af 5c 61 b9 65 34 f6 bb
       -0.0917525 -0.190392 -0.000214922 -0.00751357
0000b0 6d 3a 02 bc 03 46 f2 3c 30 66 3b be 38 9e cf 3d
       -0.0079485 0.0295744 -0.183007 0.101376
0000c0 34 c1 4b bd 0c 5a e8 3d 82 e7 e6 3e a1 68 0e 3f
       -0.0497448 0.113453 0.450985 0.556284
0000d0 b2 49 4e 3e 11 8e 19 bd 63 d4 fd 3e 39 b4 98 3e
       0.201453 -0.037489 0.495761 0.29825
0000e0 55 62 c8 bd 96 93 00 be 77 82 9d be 0d 17 91 be
       -0.0978438 -0.125563 -0.307636 -0.283379
0000f0 40 b9 52 bd 65 8e 01 3f aa 82 c1 3e d8 d6 8f bd
       -0.0514462 0.506079 0.37795 -0.070234
000100 da ca 9b 3e 31 35 53 3d 77 bb 1e bd 0f d6 87 3e
       0.304282 0.0515644 -0.038753 0.265305
000110 50 f1 09 bd dc 2f 2f 3e fe ed 3a 3f 52 a6 c7 3c
       -0.0336774 0.171081 0.730194 0.0243713
000120 e2 af 05 3f a1 ea c1 bd f5 10 95 3e 2f c1 d9 3e
       0.522215 -0.0946858 0.291145 0.425302
000130 ce 98 b8 bc a8 aa 20 3e d4 d3 47 3e 82 ac 57 3e
       -0.0225338 0.156901 0.195144 0.210619
000140 f0 b5 51 3d ab 5c 28 be ba 32 88 3e e2 5f 9f bc
       0.0511989 -0.164416 0.266012 -0.0194549
000150 87 43 80 3d 40 84 14 3f 09 cd 04 3d 57 24 a6 3e
       0.0626288 0.580143 0.0324221 0.324496
000160 36 cf 0c 3d 29 c5 98 3d 4b 91 84 3e fe 64 6c be
       0.0343773 0.0745948 0.258921 -0.230854
000170 4f 5b 63 be c1 7a f7 bc e9 99 2e be 3d 9e 56 3e
       -0.222028 -0.0302099 -0.170509 0.209588
000180 ad e8 c5 bd 55 67 0d 3f 26 ed 9c 3d fc 20 96 3d
       -0.0966352 0.552358 0.0766242 0.0733051
000190 69 02 25 be 8b c0 38 3e 29 d4 ae bc a4 7d a2 bc
       -0.161142 0.180422 -0.0213414 -0.0198353
0001a0 96 7b 61 3d 9f c7 68 3e ab c6 17 3d ba 2d 21 3e
       0.0550495 0.227324 0.0370547 0.157401
0001b0 ce 3e ea bc 81 79 98 bd 1a a7 e1 3d fd 35 14 bd
       -0.0285944 -0.0744505 0.110182 -0.0361843
0001c0 76 8c 0b be f5 47 28 be 67 2a e4 3d 93 eb 3c 3d
       -0.136278 -0.164337 0.111409 0.0461231
0001d0 74 7e 2a be 6c 9e 59 3d 42 b9 98 3d 80 45 c6 3e
       -0.166498 0.0531296 0.0745721 0.387249
0001e0 37 4f c5 3e 8c 84 76 be 57 95 41 3f 3a 3c e4 bd
       0.38537 -0.24074 0.756185 -0.111443
0001f0 7c 26 db 3d 2f 6c 8d bd 73 2a 69 be d8 0d 4b 3e
       0.107007 -0.069054 -0.227701 0.198295
000200 c4 23 81 3e 5c 74 a2 be 03 ec e3 3d 74 cf 2a bf
       0.252226 -0.317294 0.11129 -0.667228
000210 94 88 b0 3e 21 0b ac 3d 75 78 48 be a1 0f 26 3e
       0.344792 0.0840056 -0.195772 0.162169
000220 eb c9 57 3c ce fa 94 3e 53 c3 a8 bd bf c9 20 3d
       0.0131707 0.290976 -0.0824038 0.0392549
000230 75 a3 fa 3b 58 b2 8e bd 81 6f a4 bc b4 f5 80 3b
       0.00764888 -0.0696761 -0.0200727 0.00393554
000240 a3 c8 1a bf 89 98 0e bf 78 ed 52 bd df a5 ac 3e
       -0.604624 -0.557015 -0.051496 0.337203
000250 dd ba 86 3d 62 4a 44 bf 44 1b 1b 3d 69 08 e2 bc
       0.0657861 -0.76676 0.0378678 -0.0275919
000260 4f 0a 2e bd b9 4a 21 3d 25 08 f2 3c de a9 05 3d
       -0.0424903 0.0393779 0.0295449 0.0326327
000270 24 3c 86 bc 64 a4 08 3d 51 77 54 bc cb b9 19 3d
       -0.0163861 0.0333599 -0.0129679 0.0375307
000280 8b b8 ca bc fd e7 1b bb b8 25 4d bc 38 61 27 3d
       -0.0247462 -0.00237894 -0.0125212 0.0408642
000290 3b c6 b2 ba a3 18 6a bd ed d9 0e 3d cd 08 4a bd
       -0.00136394 -0.0571524 0.0348758 -0.0493248
0002a0 fb 95 a9 bc 40 56 4b bc 37 56 1c bc a5 e0 c4 3c
       -0.0207014 -0.0124107 -0.00954204 0.0240329
0002b0 38 86 20 3d 4b 6d 0e bc 32 0b 04 bc 00 fd 5e bd
       0.0391905 -0.00869305 -0.00805931 -0.0544405
0002c0 16 2a 6b ba b5 8b 09 3d b6 67 56 bd 39 0c a6 bc
       -0.000897081 0.0335805 -0.052345 -0.0202695
0002d0 ae 06 4d bd 27 53 01 bc 09 af d3 3c 97 19 db bc
       -0.0500552 -0.00789336 0.0258403 -0.0267456
0002e0 38 47 02 3d 21 e7 3d bd 59 82 11 3d 25 82 07 bd
       0.0318062 -0.046363 0.0355247 -0.0330831
0002f0 d0 82 2b bd 86 d0 9c 3c de d7 17 bd be 6f 99 3b
       -0.0418728 0.0191424 -0.0370711 0.00468251
000300 a9 5f 10 bc 6f 1a 51 bd 78 a8 9c bc ea c0 23 bd
       -0.00881187 -0.0510506 -0.0191233 -0.0399789
000310 dd 95 bc bb b1 2a c0 39 ea a6 1c bc e1 76 4d bd
       -0.00575517 0.000366529 -0.00956128 -0.0501622
000320 de 49 ba 3c b3 45 2d bd d6 b3 1b 3d 55 b6 d9 3c
       0.0227403 -0.0423028 0.0380133 0.0265762
000330 3a 3d af bc a7 c5 85 bc 35 80 12 3d db a2 11 3d
       -0.0213915 -0.0163296 0.0357668 0.0355557
000340 f6 c5 4f bd 87 52 7b bc 94 d0 a7 bc 41 af 49 bd
       -0.0507259 -0.0153395 -0.0204852 -0.0492394
000350 af 23 0e bc 4b 4a 10 bd e2 70 0b 3d 3c 60 68 bd
       -0.0086755 -0.0352271 0.0340432 -0.0567324
000360 0c a7 71 3c 88 32 ef bc 4c 43 23 bd 7b ff ba bc
       0.0147493 -0.0291989 -0.0398591 -0.0228269
000370 dd 41 0b 3c 42 c2 c1 3b ed 6d a9 bc e2 83 48 bd
       0.00849959 0.00591305 -0.0206823 -0.0489539
000380 26 83 ad 3c 99 ea ae bc 55 95 0c bd c8 fb 07 3d
       0.0211807 -0.0213521 -0.0343221 0.0331991
000390 36 a7 37 bd 3c 73 45 bd 28 3e e7 3b 1b 9a 57 bd
       -0.0448372 -0.0482056 0.00705697 -0.0526372
0003a0 67 de a0 3c b6 d4 66 bc 98 f6 b0 3b cc 6e b7 3c
       0.0196373 -0.0140888 0.00540049 0.0223917
0003b0 0b 62 20 3b c1 89 2d bd 09 f7 4f bd a8 0a bc 3c
       0.00244725 -0.0423677 -0.0507727 0.0229543
0003c0 9b 96 13 3d da 7d 7d bc d5 d3 22 bd 1b e4 43 3b
       0.0360323 -0.0154719 -0.0397528 0.00298906
0003d0 05 b9 10 bd 91 ed df bb dd e4 c1 bc 59 28 63 3c
       -0.0353327 -0.00683374 -0.0236687 0.0138646
0003e0 0c a9 07 bd 40 27 ef bb 32 01 63 3f 8f 65 9b bd
       -0.0331202 -0.00729838 0.886737 -0.0758773
0003f0 5e fa f2 bc 15 8f cb 3c 70 ce 08 3e 20 ee ea 3d
       -0.0296604 0.0248485 0.1336 0.114712

12 f4 [50]
000000 e9 62 d3 3d 1c b5 aa be c5 c4 0b 3d 53 c2 9d bc
       0.103216 -0.333413 0.0341232 -0.0192577
000010 44 bc 9a bc 70 01 4d 3d 9b 5f b8 3d 1f d7 26 3f
       -0.0188886 0.0500502 0.0900261 0.65172
000020 b4 e9 80 3e 9a d5 86 bd 6b 52 00 bd b2 3f 9a bd
       0.251783 -0.0658371 -0.0313286 -0.0753168
000030 f1 2e 93 bf 99 2b 6b bf 64 05 6f 3e 17 9f 82 3c
       -1.14987 -0.918634 0.233419 0.015945
000040 5c 2c fb 3c cf a4 25 bf f9 f5 b3 3e c9 67 43 bd
       0.0306608 -0.647046 0.351486 -0.0477064
000050 06 0d 8d 3e 06 fb 8a bd 2f bf c3 be 59 fa 50 bb
       0.27549 -0.0678616 -0.382318 -0.00318875
000060 01 30 9a bf c4 5f 13 3e 36 06 e5 3e 25 7a 05 3f
       -1.20459 0.14392 0.447313 0.521395
000070 87 f8 57 3f 94 e6 45 bd 8f 81 b6 3d 8f 36 8e 3d
       0.843636 -0.0483156 0.0891143 0.06944
000080 67 d5 9b bf 05 8c ee bd 08 04 1a bd 89 b7 ce 3d
       -1.21745 -0.116478 -0.0376015 0.100936
000090 56 0b 28 3f 53 23 14 3e c9 2d 77 bc 81 b4 1f 3e
       0.656423 0.144666 -0.0150866 0.155962
0000a0 45 4f e5 bc ed f3 08 3e cd f5 bc 3d 7f 4b 20 3e
       -0.0279919 0.133743 0.0922657 0.156538
0000b0 74 41 59 3f 6f b0 a1 3d 14 72 9a 3d cc d0 38 3e
       0.848655 0.0789498 0.0754129 0.180484
0000c0 76 4a 2c bc 12 40 9b 3d
       -0.0105158 0.0758058
