configs/networks/acas/acas_3_3.onnx (onnx, 61577 bytes, 14 tensors)

1 f4 [50, 5]
00000000: 2e71 64be 910a a73f ff3e a7bf 5996 a93d
00000010: 079b fa3c 26e7 9f3c dee6 ed3e 09df 033f
00000020: d5eb eebe 9ca5 443e b17c 073d 3a90 25be
00000030: 691c 2a3e 8cbb 41be 2d95 a7bf c898 13c0
00000040: c723 82bc 774e 8ebc 3b5e f5ba e989 db3b
00000050: 526e ae3b bff1 353e eecc 54be ad6e 85bf
00000060: 5f61 713f d4b0 e7ba b9fd 62be bf10 623e
00000070: d028 6dbf 7e8c a13e acdd 1bbd 7a5b 9fbd
00000080: aa7d c2bf fa90 213d e340 bcba a892 1e3b
00000090: 12ba 503d 945e 45bd c0ec b6bf c993 ccbf
000000a0: 2f2b da3b 783a 7239 e278 fc3a c9e1 17bc
000000b0: bc62 1fbc 13f1 f6bd 23bd 603f 80b7 88bf
000000c0: 923f d83d e606 bb3e 5966 15bc ee76 7d3e
000000d0: e815 33bf 4623 4f3e c8cf aebe 10e3 7438
000000e0: f241 a73e e2ea b8be 0b97 59bf 6984 6eba
000000f0: 7bdf d33c 6a16 543f aa65 fb3e 5bd1 42bf
00000100: 2a57 a03e 79db b73b 9d9a f03b e71e 6d3c
00000110: a1f7 223f c39b 01bf f8fc 183f c1c8 ebbd
00000120: 9fd2 fb3b 3f64 dbbc 7861 7b3e eaba b6bd
00000130: e86c 213e 8e3a 8abe 6685 a2be 16de d1bf
00000140: 3e82 773a 22a8 5abd b1c4 0bc0 5d29 953c
00000150: 3757 0bbc 1b47 acbf 07f5 633c 9904 793d
00000160: 454a 93be 6d59 0e3e 7ba6 b23d 213c 0c40
00000170: da74 64bd ac60 9a3d f89f b6bd 257a 9dbf
00000180: 739f 3c3e ac1d e5bd a303 42be 3f1d 9fbe
00000190: 47ec 6e3c 453b a8bd 7608 b23d 61ea ad3d
000001a0: e3c2 b9bf 44ea 2cbd 2dd2 74be 26ac ad3e
000001b0: 04e8 d73e 374f a9bf 3b4c 403d 0da6 23c0
000001c0: fb77 1d3d 525e 503c 4568 e3bb 7b91 3fbb
000001d0: 4c9c 073c 35c9 59bb 5ffe 543c 9f3b c13a
000001e0: 69dc 80bc edb6 8bbe 9947 2e3e fb3a b0bf
000001f0: 9e5d 86be fb02 5fbd 3ee9 343e 897a 89be
00000200: 8603 a1bf c807 ddbf dfc1 afbe fe64 58bf
00000210: 58cb 5d3f b6f3 0d3e 4f76 d3be 133a b7ba
00000220: 4e1c 8a3c d9cf 33ba 7d08 2a3c fb8f 2fbb
00000230: 7e1d acbf c64d cfbb 852f 02bd 6ebe 21be
00000240: c631 b2be 47e3 a0be 4703 28be bc96 0bbd
00000250: 6bb9 33bf 2442 433e e320 bcbc a567 92be
00000260: 4302 a63e f129 e8bf 384a 8ebe 5f7b aabf
00000270: 44c2 8fbe 2234 ca3e 7ecd cd3a a5a4 77be
00000280: 8e01 ae3d 3832 afbf 444c b13f 4584 5abc
00000290: 301c 3ebc 53b0 26bd 24d6 9e3f 5abb 993f
000002a0: 525f 023f fc39 85be 3963 b8bd 7558 3dbf
000002b0: 7620 04bc 8690 23bf ff40 a9be 1249 ba3b
000002c0: 8523 08bc 87fa 5dbc 7097 4dbf 807d 98bf
000002d0: feb7 0ac0 3351 e43d d428 e4bd da8d df3b
000002e0: 5a85 073c 392a df3e 062b 6e3f 268e 043f
000002f0: 0ca4 c53d da72 eebd 54e5 7bbc 94ff 163a
00000300: 636e 0c3b e207 423c 3c39 9ebc 585f 173c
00000310: 8752 7b3d ab15 97bd 0071 ffbe bfd4 c3bf
00000320: ad6e 91bf 42e8 b53d ac49 e4bb f247 2c3d
00000330: 554b 5f3c 6b9f ae3d cd23 c33f a1d9 79bf
00000340: d0d5 d63d 22e3 89be 121e 23bc f986 8a3e
00000350: 2ae0 2ebe a488 04bf 179f c2bf c97a 45bc
00000360: 0647 15bf dd60 08bf bdc7 79be 4299 063e
00000370: f297 16bd 3c31 6bbe 67ef 7c3e f303 633f
00000380: 1d5a 8cbf b27a ecbc cc0b ccbf 6a30 fd3f
00000390: 92ad 86be d8b7 b33e 17bc d4bf d647 c13d
000003a0: 446a 4e3f bec2 5dbc 73c8 ac3d b7f2 4d3d
000003b0: abb2 cfbd e676 ef3d 2cd4 96bf 6d00 b6be
000003c0: 4cfd 3c3f f660 7abf 8f70 d23e 5bad c8bd
000003d0: 5c20 51be 0130 fe3d c0cb 3cbf 45d8 28bf
000003e0: c973 1d3e 8ced 8abd
-0.223088 1.30501 -1.30661 0.0828063 0.0305915 0.0195194 0.464652 0.515122
-0.466643 0.192038 0.0330779 -0.161683 0.166124 -0.189192 -1.30924 -2.3062
-0.0158862 -0.0173714 -0.00187201 0.00669979 0.00532321 0.17768 -0.207813 -1.04244
0.942892 -0.00176766 -0.221671 0.220767 -0.926404 0.315525 -0.0380532 -0.0778112
-1.51946 0.0394449 -0.00143626 0.00241963 0.0509587 -0.0481859 -1.4291 -1.59826
0.00665798 0.000231007 0.00192621 -0.00927014 -0.00972813 -0.120577 0.877886 -1.0681
0.10559 0.365287 -0.00911864 0.247524 -0.699553 0.202283 -0.341429 5.83856e-05
0.326675 -0.361167 -0.849961 -0.000909871 0.0258634 0.828467 0.49101 -0.761007
0.313165 0.00561088 0.00734265 0.0144727 0.636591 -0.506283 0.59761 -0.115129
0.00768502 -0.0267812 0.245489 -0.0892237 0.157642 -0.269978 -0.317424 -1.63959
0.000944171 -0.053383 -2.18388 0.0182082 -0.00850468 -1.34592 0.0139134 0.0607954
-0.287676 0.139013 0.0872316 2.19117 -0.0557755 0.0753797 -0.0891723 -1.23029
0.184202 -0.111873 -0.189467 -0.31077 0.0145827 -0.0821443 0.0869302 0.0849197
-1.45126 -0.0422156 -0.239083 0.339204 0.421692 -1.32273 0.0469477 -2.55701
0.0384445 0.0127178 -0.00693992 -0.0029231 0.00827701 -0.00332315 0.0130001 0.00147425
-0.0157301 -0.27288 0.170195 -1.3768 -0.262433 -0.0544462 0.176671 -0.268513
-1.25792 -1.7268 -0.343276 -0.845291 0.866384 0.138625 -0.413012 -0.00139791
0.0168592 -0.000685928 0.010378 -0.00267887 -1.34465 -0.00632641 -0.0317836 -0.157953
-0.348036 -0.314234 -0.164075 -0.0340793 -0.702048 0.190682 -0.0229649 -0.285947
0.324236 -1.81378 -0.27791 -1.33189 -0.280779 0.394929 0.00157015 -0.241839
0.0849639 -1.36872 1.38514 -0.0133372 -0.0116034 -0.0406955 1.24091 1.20103
0.509267 -0.260208 -0.090033 -0.739631 -0.00806438 -0.638924 -0.330574 0.00568498
-0.00830925 -0.0135485 -0.803092 -1.19133 -2.16748 0.111483 -0.111406 0.00682233
0.00827154 0.435869 0.930344 0.517794 0.0965043 -0.11643 -0.0153745 0.000576013
0.00214281 0.0118427 -0.0193144 0.00923904 0.061358 -0.0737718 -0.498909 -1.52993
-1.13619 0.0888219 -0.00696679 0.0420608 0.0136288 0.085265 1.52453 -0.975977
0.1049 -0.269311 -0.0099559 0.270561 -0.170777 -0.51771 -1.52048 -0.0120532
-0.583115 -0.532728 -0.243926 0.131444 -0.036766 -0.22968 0.247007 0.886779
-1.0965 -0.0288671 -1.59411 1.97804 -0.263043 0.351012 -1.66199 0.0943753
0.806309 -0.0135352 0.0843667 0.0502803 -0.101415 0.116926 -1.17835 -0.355472
0.73824 -0.978042 0.411015 -0.0979869 -0.204225 0.124115 -0.737484 -0.65955
0.153762 -0.0678359

2 f4 [50]
00000000: 077c febe 4bfb 503d 7b11 adbe 3b70 1abf
00000010: db14 bf3d eecf f5be 07f0 163e cf11 19be
00000020: ec01 8ebc 03ff a5bd 8ba5 083e 4c89 44be
00000030: 0f99 42be fd15 023f e4bb 843e 221a ddbe
00000040: e3db 803d 5e82 bbbe 4af1 9c3d f0fa acbe
00000050: ce8c b63e b1c2 85be 6e1f a8bc 474c 9abc
00000060: 344c d5be 0c05 24bf 1e6e 173e 5c4f bebc
00000070: f019 f9be 9acd 8bbe 78d4 d03e 6ee0 a6be
00000080: 179a e3be a016 63be a25f dbbd b187 5abf
00000090: f0be a2be 8331 523e cc9b c3bc dae7 1d3f
000000a0: 706d 723c 1ac0 1bbe 76ca 3ebd 024a c3bc
000000b0: eae9 c33e c4cf 87be f86c e5be cfbf 11bf
000000c0: 0a75 c23d 451a ab3d
-0.49704 0.0510209 -0.338024 -0.603275 0.0933015 -0.480102 0.1474 -0.149482
-0.0173349 -0.0810528 0.133444 -0.19193 -0.190037 0.508148 0.259246 -0.43184
0.0629194 -0.366229 0.0766321 -0.337852 0.356543 -0.261251 -0.0205228 -0.0188352
-0.416597 -0.640702 0.147881 -0.0232312 -0.486526 -0.273053 0.407871 -0.325931
-0.444535 -0.221766 -0.107116 -0.853633 -0.317863 0.205267 -0.023878 0.616819
0.0147966 -0.1521 -0.0465798 -0.023839 0.382644 -0.265257 -0.448097 -0.569333
0.0949498 0.0835462

3 f4 [50, 50]
00000000: 7343 983d 462e 0e3d 347a 7b3b 94de d23c
00000010: 0f65 833c a26e f13c 61a8 23be 433c 4d3d
00000020: 7b43 863c 07fb b03d 48af 5c3d a4ea 8dbc
00000030: 3604 673d 82f8 85bd 22a7 efbd 4510 e73c
00000040: 062a 03be 7d4a 843a d9dd 82bd a406 2ebc
00000050: 6494 873d 7e25 863d 1ff9 5ebd 17a5 fa3c
00000060: 3381 873c bec9 25bc ce53 7d3d 7d52 b73c
00000070: 061c c83d 730a 373d 5476 95bc 454d 4f3d
00000080: b223 8f3d 9345 503d 344f cb3b 6054 353b
00000090: df28 633d 9565 38be 1d07 fbba 344c edbd
000000a0: 1698 00bc 187f b6bd 6ca7 773c 0558 ff3c
000000b0: 6c1d 013d ed33 42bc 4fcf 5b3d b4c6 85bc
000000c0: e02c 25be 2e85 6e3b c2c0 eb3e cb2f fb3e
000000d0: 97e2 9a3f 8cbb c13d 15ca dabe 9ab1 c1c0
000000e0: 3f1b 59be 14ed 3a3e a0cf b6bc 2c2c f0be
000000f0: 3e97 d93e d733 acbe 1a15 d8be a183 b63e
00000100: de79 bd3d bf63 d83e 38ba 1ebf 80b7 f83e
00000110: a2d2 c03e 2219 2a3f e99a 493e be12 14bf
00000120: b6db f2bf 5bc5 acbc da91 0ebf 91d5 1d3e
00000130: 2925 50bf 4f5d 143d 255d bb3e 739d 1e3f
00000140: 3e86 b8bd 9623 6cbf 0b63 bf3f 76e0 9c3f
00000150: c72a 0d3f 47e9 9abe bd39 5cbe 5e2e 063f
00000160: 4e5f 4fbc 8723 1ebd d096 98bc 98df e93d
00000170: 4548 fd3d e223 a63f 1100 bcbe 3814 12bf
00000180: 6dd7 95bd b08c 093f 22fb 70bf 336e e23e
00000190: d9ed 133e fc1d 023f a793 0cbf c80a 7ebe
000001a0: dfc2 7abe 6ede e83e edd3 a9be 6421 cabe
000001b0: 6e48 48bd d3fa 7bbe ac90 b23f 17f1 19c0
000001c0: 40db ba3e 0b29 2fbe e10b b3bf d751 adbf
000001d0: 3734 75bf 97e5 4b3f e999 d6be 4030 3fbf
000001e0: 0280 73be 4bb0 38bf ccb7 9e3e 6f8a 223d
000001f0: 7556 cbbe 45e5 f0bc 4a5e 2d3e 2799 663c
00000200: 425c 693f 677c 1b3f f6b6 393e 7d5b 2c3f
00000210: 03b3 f23e dcd9 673e d591 733e 86e6 b2bf
00000220: 8507 4d3e bc22 18be e7a7 58bd d8e7 bb3d
00000230: 397f 73be 6900 a73f 780b 403f 0d4a 1d3d
00000240: 7429 cebd 274c 98be 08e6 843f 9f7e 663d
00000250: 1d75 dc3e babc 193f 944c 78ba b9e9 2abc
00000260: c9bd 0c3c 31ee 44bb c275 7b3c 1688 debc
00000270: 5d09 5f3a 78b3 86bc 03a9 5ebd a025 1f3c
00000280: dad0 a8bc cdd1 1ebd 3058 5bbd b2e7 7c3c
00000290: 513e 83bd a1ea a13c 5622 15bd 83d6 a8bc
000002a0: 31a6 0abd a20e ab3c 4745 523c c251 12bd
000002b0: 4f5e bf3c 6577 18bc 49a3 1d3d 184e c63b
000002c0: c67f 8b3c 7c61 323c 91aa b73b 1db3 47bd
000002d0: db21 34bd dce0 1abd 28ef a3bc e92f 913a
000002e0: 734a 803c f811 243d d069 cc3c ebb2 53bd
000002f0: 0829 ae3b d2cb 43bd c17c c73b ed31 2a3b
00000300: 91e0 7cbc 8fa4 493c 16ea 1fbd 3e21 3b3c
00000310: 9baf 6dbb e2ba 183d 5451 5dbb 63fa 74bd
00000320: 0bd2 1c3e 52d6 5f3e 6824 323e f660 f23e
00000330: 1c29 3bbe 4018 b03f 8d9b c23e e371 013f
00000340: bdcf 273d efe3 a8be 4d2c 95bd 185a 7dbe
00000350: a3ea 3bbf c841 15bf 5661 03be 915f 233f
00000360: 4faf 8cbf 4f23 59bf ccb4 893f 7ea9 9f3e
00000370: dc20 b4bd 9739 dd3e 484e debe fafc 22bc
00000380: fd82 8dbf 6d39 67be 29d0 afbe 78e0 4d3d
00000390: b807 91be 7539 bd3e e97d e3bd f0a8 0ebc
000003a0: b074 bebe e345 a0bd 65df a5be e5d0 be3f
000003b0: 0c01 a83e 50f9 bc3c a1ad 1abc d5ed ec3c
000003c0: 35cf b13e 37de cdbe e081 a9be a9de 8e3f
000003d0: e203 173f bf0a 08bf bb60 003e 8120 883e
000003e0: 6cec f23d 1a86 873e c381 f03e cfa3 623e
000003f0: 4df3 4ebe c4e8 553f b4aa 4d3f cdb7 b9bd
0.0743474 0.0347121 0.00383724 0.0257409 0.0160394 0.0294717 -0.159822 0.0501063
0.0163896 0.0864163 0.0538781 -0.0173238 0.0564005 -0.0654154 -0.117018 0.028206
-0.12809 0.0010093 -0.0638997 -0.0106217 0.066201 0.0655012 -0.0544368 0.0305963
0.0165411 -0.0101189 0.0618475 0.0223782 0.0977097 0.0446877 -0.0182449 0.0506108
0.0698923 0.0508476 0.00620451 0.00276687 0.0554589 -0.180075 -0.00191519 -0.115868
-0.00784876 -0.0891096 0.0151156 0.0311699 0.0315222 -0.0118532 0.0536645 -0.0163301
-0.161304 0.00363953 0.460455 0.490599 1.21004 0.094596 -0.427323 -6.05293
-0.212018 0.182545 -0.0223158 -0.469087 0.424982 -0.336333 -0.422036 0.356473
0.0925176 0.422636 -0.620029 0.485775 0.376607 0.664446 0.19688 -0.578411
-1.89733 -0.0210902 -0.556913 0.154135 -0.813067 0.0362218 0.365945 0.61959
-0.0900998 -0.922418 1.49521 1.2256 0.551434 -0.302561 -0.215064 0.524145
-0.012657 -0.0386081 -0.0186266 0.114196 0.123673 1.29797 -0.367188 -0.570621
-0.0731648 0.537303 -0.941332 0.442247 0.144462 0.50827 -0.549128 -0.248088
-0.244884 0.454822 -0.331695 -0.394786 -0.0488972 -0.246074 1.39504 -2.40534
0.364954 -0.171055 -1.3988 -1.35406 -0.957828 0.796472 -0.419143 -0.74683
-0.237793 -0.72144 0.309996 0.0396828 -0.397144 -0.0294062 0.169305 0.0140746
0.911564 0.607367 0.181362 0.673271 0.474022 0.226417 0.237861 -1.39766
0.200224 -0.14857 -0.0528945 0.0917508 -0.23779 1.3047 0.750175 0.0384007
-0.100665 -0.297456 1.03827 0.0562731 0.430581 0.600536 -0.000947186 -0.0104317
0.00859017 -0.00300492 0.0153479 -0.0271645 0.000850817 -0.016443 -0.0543604 0.00971356
-0.0206074 -0.0387743 -0.0535509 0.0154361 -0.0640837 0.0197652 -0.0364097 -0.0206101
-0.0338499 0.020881 0.0128339 -0.0357225 0.0233604 -0.00930581 0.0384858 0.00605179
0.0170287 0.0108875 0.00560505 -0.0487548 -0.0439776 -0.0378121 -0.0200115 0.00110769
0.0156605 0.0400562 0.0249528 -0.0516843 0.00531495 -0.0478018 0.00608787 0.00259697
-0.0154344 0.0123073 -0.0390416 0.0114215 -0.0036268 0.0372876 -0.00337704 -0.0598091
0.153145 0.218591 0.173967 0.473396 -0.182774 1.37574 0.380093 0.505644
0.0409696 -0.329864 -0.0728384 -0.247414 -0.734049 -0.583035 -0.128301 0.638177
-1.0991 -0.848195 1.07583 0.31184 -0.0879533 0.43208 -0.434191 -0.00994801
-1.10556 -0.225805 -0.343385 0.0502629 -0.283262 0.369579 -0.11108 -0.00870727
-0.371984 -0.0782583 -0.32397 1.49075 0.328133 0.0230681 -0.00944081 0.028922
0.347284 -0.402086 -0.331069 1.11617 0.589903 -0.531414 0.125369 0.265873
0.118615 0.264695 0.46974 0.221328 -0.2021 0.835583 0.803386 -0.0906826

4 f4 [50]
00000000: 304b dbbd 2f6f 0abf 1b0f 2ebf 5450 b6bc
00000010: bc3f d63e 3e97 c9be 8d09 f13d ff79 5a3f
00000020: b691 c13d fb5d d8be 4390 abbf 5777 60bf
00000030: ca4e 1b3f 514e 40bf 47e8 efbe 4777 88bf
00000040: 315b f23e b685 8f3e 5437 53bf fa98 87be
00000050: 4fe9 84bf 52b5 51bf 2711 11bf 2253 aebe
00000060: 41f5 8f3e 82dd 8039 fc34 6ebc 9942 8c3c
00000070: 22c2 1bbf a4e3 0a3e 62bc 0e3f 87a2 38bf
00000080: 4a28 4d3e b307 92bf 8c81 45bf 00e4 fcbe
00000090: dec7 d9be c51a 1e3e bc74 37bf be2d 28bf
000000a0: 73c7 513d d7d9 303e e25c 43bf 37dd 5ebf
000000b0: 1cd0 aabe c6a8 13bf 75f1 adbc b150 473f
000000c0: bccb a5bf 0325 31bf
-0.107077 -0.540759 -0.679918 -0.0222551 0.418455 -0.393732 0.117694 0.853424
0.0945162 -0.422592 -1.34034 -0.876821 0.606671 -0.751195 -0.468569 -1.06614
0.473352 0.280317 -0.825063 -0.264839 -1.03837 -0.819173 -0.566668 -0.340478
0.281168 0.000245791 -0.014539 0.0171216 -0.608431 0.135634 0.557562 -0.72123
0.200349 -1.14086 -0.771508 -0.493927 -0.425353 0.154399 -0.716625 -0.656948
0.0512156 0.172706 -0.763136 -0.870563 -0.333619 -0.576794 -0.0212333 0.778575
-1.29528 -0.691971

5 f4 [50, 50]
00000000: e2a4 aa3d 9a5e 4a3f 3ffe 42bf a1ff 543c
00000010: 82ae f53e f8fc 4cbf d2ab 613f 13d6 423f
00000020: d521 bf3e 4087 e9bf af96 833e 05f9 41bf
00000030: 9a5d 473f 8b4f 81bf bccb b5bf c075 413f
00000040: 1688 4ebe b30b 663d b18a 95c0 fad1 50be
00000050: ea05 b7be 1895 d0bf 7a8c 32be eae4 81bd
00000060: 4eb4 8fbf f359 a23f 962b 37bd 0779 0d3e
00000070: 70eb 30c0 9073 d13c b611 47bf e57d fcbe
00000080: 5856 92bf faa4 693d 90bd f2bf c1aa b23e
00000090: 4fea 3bbe 622d b63f ce19 a53f cb82 893e
000000a0: cdac f53e fe00 95bd e142 6ebe bbac b33d
000000b0: f643 ecbd c235 d7be 28b6 02bc 8b8a 583e
000000c0: 47ab 0abf 9cdc bfbf a8af 023d 57d0 843e
000000d0: 4a44 7cbf 5ed7 ef3c 00fa 053b f90f 2dbf
000000e0: a375 acbe 81b2 453f ab7b 34be fe64 20bf
000000f0: dba5 3d3e 0918 d53e abcd 87be 3867 2ec0
00000100: 40de 333f 9eb1 bfbe a340 1b3f 0dfe 4e3e
00000110: 7b1a 9bbd 0e2c 13bf c32a e6be 5042 3f3d
00000120: ae2b 4abf ebe2 a23f 0a34 933d 289d 48be
00000130: b756 053d c0b4 e0be 2102 ce3d deaf 62bf
00000140: bfbc bbbd 6159 943d de1f d7bf b952 433f
00000150: 4221 babf 5375 ef3e 4148 9e3f 8f6f 97be
00000160: 8e1f da3e d387 0240 4ccb 833d 92ec 193f
00000170: 47c9 c3bf fbae 06c0 8693 78bf c30d c8be
00000180: 65b7 c53c 9355 a13e 2f1f bfbd 8ecd 363f
00000190: 1836 54bd 75a2 6e3c 254e b83c ebf7 693c
000001a0: 9675 24bc e791 5abd 64b9 db3c 19bc 37bb
000001b0: 3e52 0ebd 0896 7e3c 9977 063d 29f6 c63c
000001c0: e151 99bc de28 07bc b23a a8bc c9c7 933b
000001d0: ab76 d1bb 033a 62ba affd eebc a478 4bbc
000001e0: fdc3 113d 45f1 8abd dde3 d6bc 1109 d53c
000001f0: b39a cbbb 5c2c 1b3d 39bd a8bb b7ff 32bd
00000200: 2ef4 733b 8300 f43c 94fc 03bd ee32 b2bc
00000210: 10cf 4dbd 1f9d fcba 2f25 1c3c be2a 5cbd
00000220: daa9 1ebd 4eda 2fbc bd4b ce3c 70ca 9ebb
00000230: 4246 9bbc a71b eeba 6a1e 763c 1fd1 88bb
00000240: 2f0f df3b 38e8 c1bc 89e3 0abd d483 ddbc
00000250: 16ed 5bbd 89ea 923c 0421 793d 999a 003f
00000260: 240a 8d3e 1bf6 d63c 48c4 283f 7ff7 b6be
00000270: 17b7 b5bf 601d 033f d788 a0be 5ab9 a73d
00000280: 0398 92be f834 ffbe 8813 e03e 63d2 4f3e
00000290: 397b 473f a1b9 92bf 1bbc 2f3e 5054 763e
000002a0: e700 77c0 d2c2 fd3e 5cbb 5e3d 5caf d93e
000002b0: a9a0 dabe 6b9c ed3e 26c7 0d3e 9678 c4bf
000002c0: 315a 2cbd d314 89be d3c1 0ebf 1713 a6bd
000002d0: b37e 03bf 12c5 1c3c 0323 8fbe de91 713e
000002e0: 2ae6 d0be f2ef 9f3f 81e9 1cbf 35b6 c7be
000002f0: e5fb 98bc d8d4 0d3f 88d7 a53f a96a a6bf
00000300: 6a6c 1bbf a12b 2d3f f3cc db3e 2349 d03d
00000310: de77 073d 6d20 fd3e 6806 493f 384a f6bf
00000320: d54a 173d 2d07 3abe a450 0ebf 4f23 eb3b
00000330: d9b2 2cbf 7e60 fd3c ebe0 783f 293c 603f
00000340: 3b51 6e3f 6799 253e cb41 cabd ed46 13bf
00000350: 60e4 2d3f 179a 8fc0 7b6b 98bf 3aeb 6b3f
00000360: f3e8 4e3f b7e4 c23c dffd 99bf 57ea 793e
00000370: dc63 e1be 1c5f 733f e6cc 06bf 3a2f c4bc
00000380: 89f0 c73e 3be1 9d3e 830c 2ebd e3a8 0cbe
00000390: d252 c13f 151a 44bf 614f c3be af43 193f
000003a0: 1aa8 b83f 1381 a2be b01d 0c3e 0a84 19bf
000003b0: 8638 82bf 6459 58bf 3314 cc3d 1894 11bf
000003c0: 5324 df3e bc74 63be de1f 8bbf 726d dcbf
000003d0: dbdc b03f e6ce 7cbf c3e8 033d 12da c23f
000003e0: c153 e8be 0f7e 7ebf e76d 6c3d ddd6 a1bd
000003f0: f371 17c0 6842 0e3d 1dcb e33e 5019 9f3e
0.0833223 0.790506 -0.761692 0.0130004 0.479847 -0.800735 0.881528 0.761079
0.373305 -1.82444 0.257009 -0.757706 0.778772 -1.01024 -1.42028 0.755703
-0.201691 0.0561635 -4.67318 -0.203926 -0.357467 -1.62955 -0.174364 -0.0634249
-1.12269 1.26837 -0.0447193 0.138157 -2.76437 0.0255678 -0.777614 -0.493148
-1.14326 0.0570421 -1.89641 0.348959 -0.183511 1.42326 1.28985 0.268576
0.479834 -0.0727558 -0.232677 0.0877318 -0.115364 -0.420332 -0.007978 0.211466
-0.541676 -1.49892 0.0319058 0.259402 -0.985417 0.0292775 0.00204432 -0.676025
-0.336835 0.772255 -0.176253 -0.626541 0.185203 0.416199 -0.265241 -2.72505
0.70261 -0.374402 0.606455 0.202141 -0.0757341 -0.574891 -0.449545 0.0466941
-0.789729 1.27255 0.0718766 -0.195912 0.0325534 -0.438879 0.10059 -0.885496
-0.0916686 0.0724361 -1.68066 0.762981 -1.45414 0.467692 1.23658 -0.295773
0.426022 2.03954 0.0643526 0.601266 -1.52958 -2.10443 -0.971001 -0.39073
0.0241353 0.315106 -0.0933212 0.714074 -0.0518094 0.0145651 0.0224982 0.0142803
-0.0100378 -0.0533618 0.0268218 -0.00280357 -0.0347464 0.0155387 0.0328289 0.0242873
-0.0187158 -0.00824949 -0.0205358 0.0045099 -0.00639232 -0.000862986 -0.0291737 -0.0124189
0.0355873 -0.067843 -0.0262317 0.0260053 -0.00621351 0.0378841 -0.00514951 -0.0437009
0.00372244 0.0297854 -0.0322233 -0.0217528 -0.0502463 -0.00192729 0.00953035 -0.0537517
-0.0387362 -0.0107332 0.0251826 -0.00484591 -0.0189544 -0.00181662 0.0150219 -0.00417532
0.00680723 -0.0236703 -0.0339084 -0.0270404 -0.0536929 0.0179341 0.0608225 0.502359
0.275468 0.0262404 0.659245 -0.357357 -1.41965 0.512167 -0.313544 0.0818965
-0.286316 -0.498451 0.437649 0.202951 0.779224 -1.14629 0.171616 0.240556
-3.85943 0.495627 0.0543779 0.425166 -0.427007 0.464084 0.138455 -1.53493
-0.0420782 -0.267737 -0.557645 -0.0810911 -0.513652 0.00956847 -0.279564 0.235908
-0.408006 1.24951 -0.612938 -0.390062 -0.0186748 0.554029 1.29564 -1.30013
-0.607123 0.676447 0.429298 0.101702 0.0330733 0.494388 0.785254 -1.92414
0.0369366 -0.181668 -0.555918 0.00717584 -0.674604 0.0309298 0.972182 0.875918
0.930927 0.161718 -0.0987583 -0.575301 0.679266 -4.48756 -1.19078 0.921558
0.808242 0.0237907 -1.20306 0.244058 -0.440215 0.95067 -0.526564 -0.0239483
0.390507 0.308359 -0.0424924 -0.137363 1.51034 -0.766023 -0.381465 0.598689
1.44263 -0.317391 0.136832 -0.599671 -1.01735 -0.845114 0.0996479 -0.568666
0.435824 -0.222125 -1.08691 -1.72209 1.38174 -0.987532 0.0322044 1.52228
-0.453764 -0.994111 0.057722 -0.0790231 -2.36633 0.0347313 0.444909 0.31074

6 f4 [50]
00000000: f67f ba3f 10e7 893e 92be bfbc 3081 c7bf
00000010: 6c0a 14bf 2a8d 4cbf 2a6f ffbf 3f6f 0cc0
00000020: e274 72be 7749 38bf 3b19 dcbd 683f c6bf
00000030: 1366 82bf 5f5e a8be 0681 f5bf 2bde b0bf
00000040: de54 dcbf f46c aebf e000 e9bb 59a6 5bbf
00000050: 959d 6e3e 66a4 1e3f cde7 f43e 2462 bebf
00000060: 8997 ff3e bfb6 1e3e 20f0 38bf b30a 73bf
00000070: 0b72 a13d 889c 2a3f cbd5 7f3e be1d fcbc
00000080: 67d6 1a3f 253b f6bf af93 aabe 1d90 14bf
00000090: 3255 d8be 36ea adbf 077d 01bf a3af 8cbf
000000a0: 069e 7b3e 6dad 87bf b56d d83d 1137 03bf
000000b0: bbf2 09bf f9f5 ab3e 7172 0dc0 9fcd 923f
000000c0: 56b7 08c0 560e 8dbf
1.45703 0.269341 -0.0234063 -1.55863 -0.578284 -0.799029 -1.99558 -2.19429
-0.236774 -0.719871 -0.10747 -1.54881 -1.01874 -0.328845 -1.918 -1.38178
-1.72134 -1.3627 -0.0071107 -0.858007 0.233023 0.619696 0.478331 -1.48737
0.499203 0.154994 -0.722414 -0.949382 0.0788308 0.666451 0.249839 -0.0307759
0.604834 -1.92368 -0.333158 -0.580324 -0.422525 -1.35871 -0.505814 -1.09911
0.24572 -1.05998 0.105678 -0.512559 -0.53886 0.335861 -2.21011 1.1469
-2.13619 -1.102

7 f4 [50, 50]
00000000: 1033 25bd b821 16be 4021 b1bc fc8f dcbe
00000010: 4f3e f5be 10ad 853e 46cf b53e fe9b 1bbf
00000020: a1f5 883e 5ad4 e7bd 7de7 373e 5a64 f33e
00000030: fbc0 3f3d 28e1 98bd 9814 1fbe 5f5c 6a3e
00000040: d498 903e 840c 04be 39b4 adbc 4bab 81be
00000050: 9d13 c6bd 95f3 95be 5cac 903e 60fc 383a
00000060: 9547 963b 5e02 c1bc 3cd9 9dbe d53f 78be
00000070: e76e f7bd 9577 7fbd 7653 babd 0582 25bc
00000080: f8b2 a33d d671 a4be b77a ee3e 7a19 d5be
00000090: a4a9 cebe 23a0 263f bdfd d9bd 11ec ae3d
000000a0: abaf f63e 36af 8a3e d0d3 b83e 9de6 be3d
000000b0: 1135 b9be 3542 1f3e 1cd0 a23e 965d 103d
000000c0: 30ec a5bd 670a fd3e 7c48 2cbf c555 a1bf
000000d0: cb64 f8bc 7eab ddbe 9cc2 2e3f c2c0 573f
000000e0: d2df 7bbe 8717 10bf 5e66 08be 0de3 12bf
000000f0: 4c17 52be efac b93f f2d2 adbf bd54 ec3e
00000100: ab5b 853f 9b3d 883e 4390 97bf 2ba1 0bbe
00000110: 4d23 18bc 6953 15bf 67b4 0dbf 4bac 14bf
00000120: 2e54 d63e 9604 b0be f59c 343e 1bda 883e
00000130: ace2 bdbe 145f c83c 6a87 e7c0 31b4 babe
00000140: c5c5 893e 725b c539 b0fe cb3f 7f84 413e
00000150: 7b55 1d3d 4819 813d 58e5 aabe 492e 8440
00000160: 8c67 a83f 81cb e33d a393 69bf 7c9b 6e3f
00000170: f0db 00bf 72f8 f4be 616e b7be d174 cabf
00000180: bd1d 993e 3700 833e 7617 903e d7c0 f63f
00000190: a857 14c0 49a2 d7bf 24a9 b73a f828 ad3c
000001a0: 2558 0840 bb80 afbe e066 193f 4911 81bf
000001b0: 9e98 fd3e 7d3f 3ec1 7ac7 e53f 6397 9c3f
000001c0: 34a2 a0bf 5b5d 8e3e 4a41 a7bf 539f 8abd
000001d0: 33fa 41bf 0919 68be 4409 273b d3dc 3ebf
000001e0: 3dd3 db3e e128 b5bf e259 12be a514 08c0
000001f0: c5fe a2bf 0f5d 92bb 7ac7 88c0 211f 1cc0
00000200: 55a4 1cc0 ddd1 2bbf 1fa8 6ebd cf7d 1e3d
00000210: 1365 0f3e e830 0f3e ea75 8b3e 7c44 2640
00000220: 6807 bc3e 6fbe 4cbd 87dc 2640 f697 b93f
00000230: 1a8b 1cc0 b08f febe 7748 35bf 6a87 a3bf
00000240: 4a29 f8bf b804 14bf 0229 3dbf ccee 353f
00000250: 26c4 8cbd cf31 ccbf 179e 0fbf 6951 8fbe
00000260: c83a 03bc ca37 9b3e e84c fabd 37fa 0c3f
00000270: 8332 093f 08ca b53e 3832 8bbf 8388 c4bd
00000280: aab5 983e 09ff c23e ef57 653f cc45 a43f
00000290: 486b 7cbe 5bf4 99bd d673 c23e e95f ba3e
000002a0: fc9d 37bc 986d e73d 2a79 103d a4fd 17bf
000002b0: cc7c 77be d5ed 003f d3d9 2dbf 431c 1fbf
000002c0: 4772 a93e da3c ee3d 952b 88bf 664c e13d
000002d0: f355 9a3e cbca 003c 7008 b53f 2aff d2be
000002e0: 1bf2 cfbc 65a5 f9be 2860 7bbe c6c0 ba3e
000002f0: 40c1 17c0 d8de 82bc 00ae a4be d8d4 153f
00000300: 8a75 ca3e fa7d 1b3f f416 4fbf bbee cdbe
00000310: 39b5 17bf b715 813d 5989 f93e 39b3 853e
00000320: bb61 83be 9da1 28be 57d5 26bd eac1 6ebd
00000330: dc40 e63c 32af 533f de93 073e 0423 8a3c
00000340: 7f2f 8d3e b2bb 003e 2c9b d13e bed8 ab3d
00000350: aaf3 b83e d8b9 453f e222 df3e cd06 99be
00000360: 5665 9f3f bf2f a93d 92e9 89b9 ae0d d5bd
00000370: 77b8 b23d 281c 2b3d 16ce 043d c0cb 2c3e
00000380: 199b 0cbc ce50 2c3e 74eb 153e d7a2 cd3e
00000390: 13b8 65be 8ddf 0a3d b7f0 7cbe 648f f5bc
000003a0: 6aa1 8cbe a453 933f 732b 283f 6bb6 72be
000003b0: 1c27 cdbe 2b4f 00bf 6022 523f 88f2 a53e
000003c0: 0a69 1dbe 22cb 3dbd 3bc2 cd3f 30a0 bf3e
000003d0: 57e8 67bf 5935 68bd ea78 0cbd 5514 af3c
000003e0: 64cb 1e3f 9c34 4bbb 58ca 423e ee4b ecbc
000003f0: 54b3 1dbd b7b6 c0be e216 9d3d f67a 1140
-0.0403319 -0.146613 -0.0216223 -0.430786 -0.478991 0.261086 0.355097 -0.607849
0.267499 -0.113198 0.179594 0.475375 0.0468149 -0.0746482 -0.155352 0.228868
0.282416 -0.128954 -0.0212041 -0.25326 -0.0967171 -0.292874 0.282565 0.000705665
0.00458617 -0.0235607 -0.308298 -0.242431 -0.120817 -0.0623699 -0.0909795 -0.0101018
0.0799312 -0.321181 0.46578 -0.41621 -0.403638 0.650881 -0.106441 0.0854112
0.481809 0.270868 0.360991 0.0932133 -0.361733 0.155526 0.317994 0.0352455
-0.0810169 0.49422 -0.672981 -1.26043 -0.0303215 -0.432949 0.682657 0.842785
-0.245971 -0.562859 -0.133203 -0.573777 -0.205167 1.45059 -1.358 0.461584
1.04186 0.266095 -1.18409 -0.136357 -0.00928576 -0.583304 -0.553534 -0.580754
0.418611 -0.343785 0.17638 0.267289 -0.37087 0.0244594 -7.23528 -0.364656
0.269087 0.000376429 1.59371 0.188982 0.0384116 0.0630365 -0.333781 4.13065
1.31566 0.111228 -0.912409 0.93206 -0.503356 -0.478458 -0.358264 -1.58169
0.299055 0.255861 0.281429 1.92776 -2.31785 -1.68464 0.00140122 0.0211377
2.13038 -0.342779 0.599226 -1.00834 0.495305 -11.8905 1.79515 1.22337
-1.25495 0.278056 -1.30668 -0.0676867 -0.757724 -0.226658 0.00254877 -0.745557
0.429346 -1.41531 -0.142921 -2.12626 -1.2734 -0.00446666 -4.27435 -2.4394
-2.44753 -0.671171 -0.0582658 0.0386942 0.140034 0.139835 0.272384 2.59793
0.367244 -0.0499863 2.60721 1.44995 -2.44599 -0.49719 -0.708137 -1.27757
-1.93876 -0.578197 -0.738907 0.710675 -0.0687335 -1.59527 -0.561006 -0.279918
-0.00800962 0.30316 -0.122217 0.550693 0.535927 0.355057 -1.08747 -0.0959635
0.298261 0.380852 0.895873 1.28338 -0.246503 -0.0751731 0.37979 0.364013
-0.0112071 0.113002 0.0352718 -0.593714 -0.241687 0.503629 -0.679105 -0.621525
0.33095 0.116327 -1.06383 0.110009 0.301437 0.00786085 1.41432 -0.412103
-0.025384 -0.48759 -0.245484 0.364752 -2.37117 -0.0159754 -0.32164 0.585279
0.395428 0.607391 -0.808944 -0.402212 -0.592609 0.0630297 0.487376 0.261133
-0.256605 -0.164679 -0.0407308 -0.0582904 0.0281071 0.826892 0.1324 0.0168624
0.275753 0.125716 0.409387 0.0839095 0.361234 0.772367 0.435813 -0.29888
1.24528 0.0826106 -0.000263047 -0.10403 0.0872659 0.0417749 0.0324231 0.168746
-0.0085819 0.168277 0.146406 0.401633 -0.224335 0.0339046 -0.247012 -0.0299756
-0.274669 1.15099 0.656913 -0.237024 -0.400689 -0.501208 0.820837 0.324116
-0.153721 -0.0463363 1.60749 0.374269 -0.905889 -0.0566915 -0.034295 0.021372
0.620291 -0.00310067 0.190225 -0.0288448 -0.0385011 -0.376394 0.0767038 2.27313

8 f4 [50]
00000000: b805 373f af71 c73c b77f 8dbf 08a7 9a3d
00000010: 55f9 de3d 1ccd b13e 3bfe 7b3e 9614 0e3c
00000020: 3620 723f dcd7 95bf 508c 10bf 4774 47bf
00000030: 0a4d d2be 89ee 353f 6ff1 643f 410b d1be
00000040: bb0f 0cc0 c212 833f c780 803f 6bba ce3e
00000050: 7a19 c13f f4f8 a5bf 9832 0c3f 8d5d 12c0
00000060: deff 47bc 029b 9bbe a774 a03f 8a03 10bf
00000070: b1f9 f8bd 30ba 303f 111a e1bd 101f d83e
00000080: f92d eabe 3a95 8cbe 8f6e 9c3e 5795 8dbf
00000090: cfdc 673f bdfe 8c3e dc46 73be 1269 4b3f
000000a0: 9bc9 f3bf f629 273e fbca e33d 382d 843f
000000b0: 39ee c03f a181 a83e 2e73 a63f 4018 803e
000000c0: 1591 e93f bfd2 b93e
0.714931 0.0243462 -1.10546 0.0755139 0.108874 0.347268 0.246087 0.0086719
0.945804 -1.17065 -0.564641 -0.779118 -0.410744 0.710671 0.894309 -0.408289
-2.18846 1.02401 1.00393 0.403766 1.50859 -1.29666 0.547647 -2.28696
-0.012207 -0.303917 1.25356 -0.562554 -0.12157 0.690341 -0.109913 0.422112
-0.457382 -0.274576 0.305531 -1.10612 0.905713 0.275381 -0.237575 0.794572
-1.90459 0.163246 0.111227 1.03263 1.50727 0.329114 1.30039 0.250185
1.82474 0.362936

9 f4 [50, 50]
00000000: 74b7 9bbe da3b 933d 07f1 acbd 4435 013f
00000010: bea2 fbbd bea4 85c0 0877 cb3f 4b1f e23e
00000020: 5e80 c13f 861f 1cbe 0b2a 223f 1edc 07c0
00000030: 645a 273f 59f8 823e b840 3e3f 153a ffbf
00000040: a914 233f 4240 7e3e b342 253f 8faa 16be
00000050: f8a7 143e 1b9b ad3e 72fa c23e 4226 b9be
00000060: 98d4 153d ea3d 613f af94 e53d b41d b3be
00000070: 4eb5 323f 5f99 67be b3cd c1bf 2d95 633f
00000080: 69ab da3e dbfb 143e c79d 5ebf 40de 2bbe
00000090: 35d2 42bf 2042 30bf a8fc ebbd cf49 bbbf
000000a0: 406d 603f 23f8 01c0 db31 61bf 32e7 81be
000000b0: 7bcc 86bd 1363 6dbf 8132 373d 5585 1ebf
000000c0: 4640 9d3e cafd ce3d c8d3 f23d c407 9ebe
000000d0: 2c46 8dbe 12a6 833c e277 c3be 1570 4f3e
000000e0: 5931 7cbe 513b 923d 7218 84be 7426 053f
000000f0: 1ef9 33be 8cc6 a0bd 6e4e 253f 8583 a8bd
00000100: 4df8 253e 6842 d33e 4a51 783d d844 563e
00000110: 36ad 34be c784 a03e 12dc 78be c715 13ba
00000120: b7b4 c23e dfc4 a83e 18f8 3c3b 06f4 62be
00000130: ff3f de3e 2450 73bd 75d8 123c e4f8 d93e
00000140: bd1b 5b3e adda 15be ce92 1b3d 357f 94be
00000150: ae83 733e 92e8 bd3e 9c50 f8be 3cbc 873e
00000160: 667f 453d ab08 37be 65a5 a1be 3272 9e3e
00000170: 5576 30bc 0591 20bd b6f5 43be ed0b 003f
00000180: 3587 dabc f0fd 5dbe ce55 8ebc 95d8 2d3f
00000190: b4aa 95be 8620 27be 2eff e1bd cc7b 3cbe
000001a0: 971e 4dbc b073 2b3f ed2b 5f3e cf31 d83e
000001b0: 02d9 a33e 90a1 63be b41f 993d 04bd a13d
000001c0: 5739 793d 1f68 e5bd 077a 183e 13d5 bb3e
000001d0: e6cb abbf 6a86 94bc 44fb 383d ea3e 00be
000001e0: cd1e 38be 5419 d6be 012f 883d 1477 c4be
000001f0: cf69 36bd 854a 973d 6685 423e bd79 653d
00000200: d0b3 293e 8a22 d43e 0f09 d7be 9dd9 6ebe
00000210: 581d 793e 486d 82be 5655 793d 93e4 45bf
00000220: 9207 32be 3468 483d 4b78 62be 78b3 56be
00000230: d080 c23e 9222 e2be ec14 5b3e e6e9 a4be
00000240: ba57 3cbd a334 25bd 2fa5 0dbc 86e8 f03d
00000250: 4247 863d dcf6 4d3e aa7e 553e 3e06 0bbe
00000260: 4d85 f8bd e2af 593e 5a2e 3b3e 6dff 4a3e
00000270: e5b5 323e 5f60 d6be 87c0 213e 65c4 e5bd
00000280: 0249 18be 9845 8f3b b7b2 b9bd 07d3 8bbc
00000290: 992b 033e 5e80 913f dec7 a93e 49f7 9b3e
000002a0: 0a9e 82be 884a bb3e ded2 25bd 7444 de3d
000002b0: ae48 3c3e ddb0 12bd 99de 39bd 7dce 853e
000002c0: d1cb 183e 2443 4ebe 0682 20be a0c2 f9be
000002d0: 7424 273e e1c4 a1bd fad1 703e b35c aebe
000002e0: 04c8 d03d ab97 efbe 48fa f4bd a1db ebbd
000002f0: e621 933e 159f ccbc 52ee 2ebe 016d 7b3e
00000300: 6f4a 91be 7c0a b0be 6b4a 62be ff5c e43e
00000310: 5dfd a8be 17f4 863e 3d49 babd b785 82bc
00000320: 0e32 c93e 2766 fdbd b85b d23d cee0 a7be
00000330: 24a2 53bd 8195 bb3e 0e6b 76bf 06f2 d43e
00000340: 5324 3fbe 2d44 62bc d8ef 293e b6d6 b7bd
00000350: 1591 41bd 6132 f53d c1ca 11be 425c 193f
00000360: db6b 91bd 800b 123d 6a8e 97bd 4b57 d0be
00000370: 9ce5 8d3c 040f 023d 25b0 593e 99a6 be3c
00000380: 6ddf c0b8 afd0 e7bd 92eb 063e e6cf 673e
00000390: 0cea cbbe 91d2 8c3e bc5b 693e 9582 3ebe
000003a0: 1e12 e33c 34fd 2d3d 4661 67be 9f59 42be
000003b0: 71e5 a4be 6403 793e 397d ddbd 8993 403d
000003c0: ec42 bdbd 546f 1dbe 5d19 643e 09a6 5a3d
000003d0: c47c d93d 6f9c dcbe c323 76bd 0aba 09bf
000003e0: 1ed7 c03d 952c 373e 4c8e 7bbe f019 0d3f
000003f0: 7149 843c cb2e d83d b2f2 ebbd 685c 38bf
-0.304134 0.0718915 -0.0844441 0.504719 -0.122869 -4.17636 1.58957 0.441645
1.51173 -0.152464 0.633454 -2.12281 0.653723 0.255801 0.743175 -1.99396
0.637034 0.248292 0.645549 -0.147135 0.145172 0.339074 0.380817 -0.36162
0.0365797 0.879851 0.1121 -0.349836 0.698079 -0.226171 -1.51409 0.888995
0.427089 0.145492 -0.869595 -0.16784 -0.76102 -0.688509 -0.115228 -1.46319
0.876667 -2.03077 -0.879667 -0.253717 -0.0658197 -0.927293 0.0447259 -0.619222
0.307131 0.10107 0.118568 -0.308653 -0.275926 0.0160704 -0.381774 0.202576
-0.246282 0.0714022 -0.257999 0.520118 -0.175755 -0.0785037 0.645728 -0.0822821
0.16208 0.412616 0.0606244 0.209247 -0.176442 0.313513 -0.243027 -0.000561085
0.380285 0.329627 0.00288344 -0.221634 0.434082 -0.0594026 0.00896274 0.425727
0.213973 -0.146342 0.0379818 -0.290033 0.237807 0.370915 -0.48499 0.265108
0.0482172 -0.178744 -0.315715 0.309465 -0.0107704 -0.0392008 -0.191367 0.500182
-0.0266758 -0.216789 -0.0173749 0.679086 -0.292318 -0.16321 -0.11035 -0.184066
-0.0125195 0.669734 0.217941 0.422255 0.320015 -0.222296 0.0747675 0.0789738
0.0608457 -0.112015 0.148903 0.36686 -1.34216 -0.0181305 0.0451615 -0.12524
-0.179805 -0.418162 0.0664959 -0.383721 -0.0445345 0.0738726 0.189962 0.0560243
0.165725 0.414326 -0.419991 -0.233252 0.243276 -0.25474 0.0608724 -0.773019
-0.173857 0.0489275 -0.221162 -0.209669 0.379889 -0.44167 0.213947 -0.322097
-0.0459821 -0.0403334 -0.00864534 0.117631 0.0655656 0.201137 0.208491 -0.135766
-0.121348 0.212585 0.182794 0.19824 0.174522 -0.418704 0.157961 -0.112191
-0.148716 0.00437231 -0.0906729 -0.0170684 0.128096 1.13673 0.331603 0.304621
-0.255112 0.365803 -0.0404843 0.108529 0.183871 -0.0358132 -0.0453783 0.261341
0.149215 -0.201428 -0.156746 -0.487813 0.163225 -0.0789888 0.235176 -0.340551
0.101944 -0.467954 -0.119618 -0.115165 0.287368 -0.0249782 -0.170831 0.245533
-0.283771 -0.34383 -0.220987 0.446022 -0.330058 0.263581 -0.09096 -0.0159329
0.39296 -0.12373 0.102714 -0.327887 -0.0516683 0.366375 -0.962571 0.415909
-0.186662 -0.0138102 0.165954 -0.089765 -0.0472575 0.119725 -0.142375 0.599064
-0.0710065 0.0356555 -0.0740021 -0.406916 0.0173214 0.0317526 0.212586 0.0232728
-9.19689e-05 -0.113191 0.131758 0.226379 -0.39827 0.275044 0.227889 -0.186045
0.0277186 0.0424778 -0.225957 -0.189795 -0.322063 0.243177 -0.108149 0.0470157
-0.0924128 -0.153745 0.222753 0.053381 0.106195 -0.430881 -0.0600927 -0.537995
0.0941603 0.178881 -0.24566 0.551177 0.0161483 0.105558 -0.115209 -0.72016

10 f4 [50]
00000000: 8081 103e 6f62 a8bd 2899 f43e 884b 9e3f
00000010: ffcd 2f3f 5ed7 2fc0 fdd9 27c0 a531 e2be
00000020: 3e59 013f 355d 973e c3f5 343f 3d2c a03f
00000030: b08c 7d3e e84a 04bd dcb7 82be 65cd febc
00000040: 9a8a bebd d381 d1bc 6ce0 583c f966 c7bf
00000050: 9fcd be3f f59c d43f dec6 ae3e 207f f1be
00000060: eb54 7d3f bfc7 4abd 77a1 cd3f eeb2 df3d
00000070: 6688 cb3f e3a5 c3bf 3810 eebf bf45 bf3e
00000080: 7576 fa3e 575b f53f 40d9 bc3f 8ba9 14be
00000090: e17f b3bf 12a3 8fbe 7e3a 9a3f 137f 1c3f
000000a0: 789c d2bf 0f0a 62bf 7347 1f3d d9b1 a1be
000000b0: 6fd3 87bf 62c0 5e3f bd3a 47bd e42f 293f
000000c0: df34 8dbe 13f4 57be
0.141119 -0.082219 0.477731 1.23668 0.686737 -2.74752 -2.62268 -0.441785
0.505268 0.295633 0.706875 1.25135 0.247607 -0.032298 -0.255309 -0.0311038
-0.0930378 -0.0255746 0.0132371 -1.55783 1.49065 1.66104 0.341361 -0.471673
0.989577 -0.0495069 1.60649 0.109228 1.5901 -1.5285 -1.85987 0.373579
0.489185 1.91685 1.47538 -0.145178 -1.40234 -0.280541 1.20491 0.611314
-1.6454 -0.882966 0.0388865 -0.31581 -1.06114 0.870123 -0.04864 0.660887
-0.275794 -0.210892

11 f4 [50, 50]
00000000: 33db ba3c 7bb9 c4bd e1b7 613e f7b0 373e
00000010: 62a0 eb3d d572 2c3d 4886 213d 16c4 dbbc
00000020: 3fc9 0d3e 0127 653d e23a 063e 20bd 8c3d
00000030: 861f 3c3d 6589 f3bc dc5a b0bd 6913 0c3d
00000040: 59df 10be dd78 9c3c 0897 69bd c209 56bd
00000050: 586f f43d b6b9 56bc 4ec4 31bd 7f15 a03c
00000060: 1c27 253d 98fc cfbd f6af 513c a809 913b
00000070: 1a89 f03d 876a 9a3e 7557 d6bd 5795 fd3c
00000080: 662e 503d b0f5 36bd fe91 33bc 1b84 09be
00000090: 7dad cbbd 2cd8 463e 821b 2dbb e076 95bb
000000a0: 71df 693a a514 f4bd 7e10 53bd 13ee 153e
000000b0: a377 423f da75 af3d ae83 9e3c 7ab3 ac3d
000000c0: 59e8 b9bc 66c7 b1bd 8fab 2c3d 302e f5bd
000000d0: 1b5f e2bb 7800 c5bd 8d24 013e 5722 903c
000000e0: 11f3 f6bb a325 a8bb 7e4c b03d b8f5 9339
000000f0: 8669 093d 9384 29bd 0b5f ffbd 11ac 853c
00000100: 6629 bebc f2a0 cf3c ed3f babb b154 323d
00000110: c971 273c a004 6cbc 4c88 093e 756e 62bb
00000120: a497 a4ba f111 b13c f6e5 363d c686 aebc
00000130: b6f8 043e 993f 10bd acc4 c13d dcf4 afbf
00000140: 501b f5bd 3064 14bc 164c dcbd 5d3c 82bd
00000150: d0eb b4bc 0d18 24be 1409 81bc be69 da3d
00000160: a38b 72bc 3ab1 073e 88fa b83c 1b3e 33bc
00000170: 20ed ff3c 4b75 113e 5a01 34bd 5391 8f3d
00000180: 1c1a c0bd 276b d43d 85da 45bd be46 37bd
00000190: 6e76 5abc a775 1bbe 1762 75bf 43e6 3a3e
000001a0: 0b7b 2abe 04b3 ad3d 8812 05bf 730f e9bd
000001b0: 207b cbc0 001b 103e 6e69 f5be a7ec 14bf
000001c0: 172d 74bf 21a6 69bc d17a 04bf b217 05bd
000001d0: bd78 ca3d 5fd9 a03c bab6 1ebc 6314 df3c
000001e0: 2a54 37be 0e87 15be bb00 65bd 8e05 b53e
000001f0: e718 60be fb50 a3bd 2601 76c0 1b47 90bf
00000200: bf5f 0e3c 146f aa3b f1d8 2fbe 6615 963e
00000210: 653d 30bd dd5e 523c d3a2 debd b62a be3d
00000220: a049 4cbd d9b2 4cbe 3d63 3f3e fb31 163c
00000230: f6b2 1d3e 6f64 3ebe 28d6 81be 7f2e dabd
00000240: 8e2e 05bd f65f 273d 48bf 71c0 4af1 d1be
00000250: a31e babf 08c0 c9bc d1e8 fe3e 3aea 1cbf
00000260: 4aec 2a3e 1cb4 b73e 8198 04bf f7e9 e03e
00000270: dbc3 debe 85df b8bb 75c9 d83e 7845 f03d
00000280: d15c 673e f585 8b3d 486b b43e 093b a03c
00000290: 218a aebc 55df 963b 7369 d4be 6a2e b73c
000002a0: 29c4 6d3d 8385 bb3e 83a3 643e f581 64be
000002b0: 4e46 d5bd aceb 2b3c ef03 20be 7ec5 623f
000002c0: 3142 18be 62f0 85bd 2a36 02bf cc42 c33e
000002d0: 7576 82bf 695d 993d 5778 cfbe 0ad6 583e
000002e0: 0337 9cbd 8869 17bf 9008 a7bd c778 9ebc
000002f0: 4acc 78bd 0536 cfbe a577 4bb7 08c8 afbe
00000300: fbad 0dbe 5793 07be bda8 013f 5b89 0abd
00000310: eb90 1b3e b64a c0be 3c6a 7cbe 54e0 24bf
00000320: 9a83 b6bd 3f8d 1bbe 6283 b5be f78b 3ebd
00000330: 27cf 66bd 2c2b 4d3d 6e0c 4b3c c754 30bc
00000340: e44b 68bd d0b0 3dbd 61ff f5bc 6683 0cbe
00000350: 588f dbbd d175 01bd 5e64 babe 4b7e 9fbc
00000360: 10ca 5bbe f665 243d 7a8f b33d 8d11 24bd
00000370: 43cd 0b3d 909c 113d 634b 0abd dac9 00bd
00000380: 09fa ea3b e404 b73c 6764 f03d 5366 793d
00000390: 2bc9 b03c 9b91 11bf cbcd b1bd 6e96 20bc
000003a0: 44e0 033d 1ff3 e13d dbd5 303d 7a8f 033e
000003b0: b1ef 543c 139e 6bbd f9f3 9dbd b117 eabd
000003c0: 3772 98bd f662 98bf 1dcc e6bd 0a83 82be
000003d0: cb0e 993e cdb0 113d f9b9 a6bd d808 2b3b
000003e0: 8f38 e43c f563 383c d482 d7bd f8ff 093f
000003f0: c38e f53c bbd3 3dbe 5e86 3abd a036 4abd
0.0228096 -0.0960569 0.220428 0.179386 0.115052 0.0421017 0.0394347 -0.0268269
0.138463 0.0559454 0.131084 0.0687201 0.0459285 -0.0297286 -0.0861108 0.0341982
-0.141477 0.0191006 -0.0570288 -0.0522554 0.119353 -0.0131058 -0.0434001 0.0195415
0.0403205 -0.101556 0.0127983 0.0044262 0.117449 0.301594 -0.104659 0.030955
0.0508255 -0.0446679 -0.0109601 -0.134293 -0.099452 0.194184 -0.00264141 -0.00456129
0.000892154 -0.11918 -0.0515294 0.146416 0.759638 0.085674 0.0193499 0.0843267
-0.0226938 -0.0868061 0.0421558 -0.119717 -0.00690831 -0.0961923 0.126116 0.0175945
-0.0075363 -0.00513144 0.0860834 0.000282211 0.0335479 -0.0413862 -0.124693 0.0163174
-0.0232131 0.0253453 -0.00568389 0.0435378 0.01022 -0.0144054 0.134309 -0.00345507
-0.00125574 0.021615 0.0446529 -0.0213045 0.129855 -0.0352169 0.0946134 -1.37466
-0.119681 -0.00905709 -0.107567 -0.0635917 -0.0220851 -0.160248 -0.0157514 0.106647
-0.0148038 0.132512 0.0225804 -0.0109401 0.031241 0.142049 -0.0439466 0.0701014
-0.0937998 0.10372 -0.0483041 -0.0447452 -0.0133339 -0.151816 -0.958528 0.182519
-0.166485 0.0848141 -0.519814 -0.113799 -6.35878 0.140728 -0.47932 -0.581736
-0.953813 -0.0142608 -0.517499 -0.0324933 0.0988631 0.0196349 -0.00968712 0.0272314
-0.179032 -0.146023 -0.0559089 0.353558 -0.218845 -0.0797443 -3.84382 -1.12717
0.00868982 0.00520123 -0.171726 0.293132 -0.0430273 0.01284 -0.108709 0.0928549
-0.0498749 -0.199901 0.186902 0.00916719 0.154003 -0.18593 -0.253587 -0.106534
-0.0325151 0.040863 -3.7773 -0.410044 -1.45406 -0.0246277 0.49787 -0.612949
0.166917 0.358796 -0.517952 0.439285 -0.435088 -0.00564188 0.423412 0.11732
0.22594 0.0681266 0.352381 0.0195594 -0.0213061 0.00460426 -0.414867 0.022361
0.0580484 0.366253 0.22328 -0.223152 -0.104138 0.0104932 -0.156265 0.885826
-0.14869 -0.0653999 -0.508639 0.381369 -1.01924 0.0748852 -0.405215 0.211754
-0.0762768 -0.591454 -0.0815593 -0.0193447 -0.0607417 -0.404709 -1.21276e-05 -0.343323
-0.138359 -0.132398 0.506481 -0.0338224 0.15192 -0.37557 -0.246499 -0.644048
-0.0891182 -0.151906 -0.354518 -0.0465202 -0.0563499 0.05009 0.0123931 -0.0107624
-0.056713 -0.0463112 -0.030029 -0.13722 -0.107207 -0.0316065 -0.364047 -0.0194694
-0.214638 0.0401363 0.087676 -0.0400558 0.0341313 0.0355497 -0.0337633 -0.0314425
0.00717092 0.0223412 0.117379 0.0608886 0.0215803 -0.568628 -0.0868183 -0.00980149
0.0321963 0.110327 0.0431727 0.128477 0.0129966 -0.0575238 -0.0771255 -0.114303
-0.0744366 -1.19052 -0.112694 -0.254906 0.298941 0.035569 -0.0814094 0.00260978
0.027859 0.0112543 -0.10523 0.539062 0.0299753 -0.185378 -0.0455383 -0.0493685

12 f4 [50]
00000000: ab37 6f3d ca21 1abc 00c6 07c0 30af 4d3d
00000010: e484 813e f5a1 eb3e 6721 cbbd 05fc cabe
00000020: 9fe9 95be 0795 f83d a038 10be 4ae6 fd3c
00000030: c076 08bf 38f9 4d3e cb11 d23d fd4f fe3e
00000040: 3b72 2cbf b806 aabf 9b57 bdbe bea3 c6be
00000050: ea3f 773f e5f0 69bf 99d5 b3be 37e4 9abd
00000060: d8f2 6abf 8801 91bd d4b9 4ebf 4b74 263e
00000070: 734c d6be 738e b0bc 56c5 8abc 9ab0 e5be
00000080: f2ea b0bf 90aa c1bd a3e2 04bd b341 eabf
00000090: 0c74 1dbf 0fd0 0d3f 32e8 44be d3de c83e
000000a0: 923e 45bf e483 0ebe 2f75 863c 27dd 663e
000000b0: 8272 f3be ac30 c73c 91cf 50bc b22a c23d
000000c0: 8fdf 5b3e 9207 8a3e
0.0584027 -0.00940747 -2.12146 0.0502159 0.252967 0.46022 -0.0991848 -0.396454
-0.292798 0.121378 -0.140841 0.0309936 -0.533062 0.201146 0.102573 0.496704
-0.673618 -1.32833 -0.369809 -0.387968 0.965819 -0.913832 -0.351239 -0.0756306
-0.917768 -0.0708037 -0.807523 0.162553 -0.418552 -0.0215523 -0.0169398 -0.448613
-1.38217 -0.0945636 -0.0324427 -1.83013 -0.615052 0.553956 -0.192292 0.392325
-0.770486 -0.139175 0.0164133 0.225453 -0.475483 0.0243152 -0.0127448 0.094808
0.21472 0.269589

13 f4 [5, 50]
00000000: b870 453d 5459 af3c 2a10 873c 7c6d 6cbc
00000010: 3f38 9fbc f380 683c 62e3 30bc 141b 98bc
00000020: d6ae e83a e7f8 0d3c 0de7 753c 6559 d739
00000030: 3a31 a7b9 c8b1 753c 6b1d 05bc 7a0e d93b
00000040: 010a 1f3d 336e 6abc db22 df3c 4135 d43c
00000050: 6e78 80bd 5b06 9cbc 6362 f33d 341b 1a3d
00000060: 4380 213c 8ca9 413a 54f9 43bc 8fd4 0e3c
00000070: fb08 d73c 44fd 893c 156a c2bd 4bf9 5a3c
00000080: d9d6 ea3c f75b 1b3d 9bb5 ca3c 2fd2 553b
00000090: 1c75 d93c 219b 3fbc 6904 763c 23cd 08bc
000000a0: 7090 35bc cd9d cf3c c4a4 89bb 2b79 863c
000000b0: d9cb db3c ed99 a53b bafc a23c 0c0f 903c
000000c0: 40d8 4e3c e646 9c3d 6443 723d 3879 9b3c
000000d0: c8ef cd3d be17 5fbc a663 8ebc b533 4c3c
000000e0: 6f2d b4bb fc10 23bc ed2d 803c 39dc fd3a
000000f0: 2856 b63b 4727 a23b 249b 2b3d 06de 243c
00000100: 36f1 863b 75a3 63b9 6b8c cc3c 3ee6 28bd
00000110: 64c3 e43c a9f2 023d 6dbd f0ba 5484 65bc
00000120: da90 203b 1c60 a63c 951e 193c 3be6 173d
00000130: ed24 47bc 8d27 00bc 53cd ac3c 3656 e6bb
00000140: d5d4 ecba 440d b03c dfe2 bc3c 9b2c 043d
00000150: b122 9bba 21ba 18bb 5963 b53c f1d8 4fbc
00000160: 05ff 363c bbb3 7abb dcbe e23c d7f5 103d
00000170: a7db 863b 365d 09bc a23b 313b 9460 bb3c
00000180: b728 333c 82e9 8f3c 9648 f93b 2346 363a
00000190: fe6e 303d 9b88 e33c 4929 ad3d ee43 39bc
000001a0: 9846 5d3c c6b3 953c 2bf4 a6bc a6a9 14bd
000001b0: c9f3 f0bb 7dca 963c bf4d 9a3c ad46 c03c
000001c0: 3a04 f1ba 6a6a 993c 295f 0bbd ff58 ed3c
000001d0: 6fb9 b8bb 3ea0 143a 7906 cd3c 9443 d5bc
000001e0: 251f bb3b fb35 e3bc 0977 fcbb f5b8 343d
000001f0: 785e aa3c 37b5 a2bb c670 50bc 25e6 bebc
00000200: 632c ae3c 392e be3c 6185 df3b 9c35 95bb
00000210: 772d e13c 6908 023d 671b 89bc 8829 17bc
00000220: 3025 373c 56ed 5c3b 4e2e 213d e746 c8b9
00000230: 5441 1b3d 9a54 7e3c ee21 86bc e3f5 453d
00000240: 3320 56bc 6bcd 9cbb 835a 423c e22d 023c
00000250: d69c 323d 6bcf b4bb 9920 743d ad86 843c
00000260: 3e4f ad3d c3ec 8abc 1af2 17bc 5b71 3b3c
00000270: a6db abbb b39d cabb 5ed5 993c 1aef 163b
00000280: 3fa5 0e3c 46b4 5bbb d555 463d a676 af3a
00000290: 4cd1 c03c 9c12 b5bc b8f7 1a3d 1264 49bd
000002a0: 9268 b83c 3a0b 563d 2c26 14b9 cd35 d0bb
000002b0: d798 2ab9 0ce2 073c 3d13 aeb9 70f8 333d
000002c0: 43d9 25bc e8ca 98bb d690 f83c 26d8 893c
000002d0: 8fce 8e3a 7b10 a73c 4f39 cb3c a65a f03c
000002e0: 5836 143b b278 89b9 b4ee ba3c 3bab 85bc
000002f0: a5f6 853a 8968 eabc ab93 b33c b366 ff3c
00000300: faeb 3a3b ef1a 99bc 8483 1c3b be98 f73c
00000310: 4b12 3a3c 9eea 903c 95ae 2a3b cd0d 1fbb
00000320: 3be3 7b3c 05ff 163d d295 233d 65c9 b9bb
00000330: 2511 103d d2c2 8a3c fe56 7cbc 665a 513c
00000340: 7bc8 4abc ccef 743d 9950 7bbb 7abc 9abc
00000350: d877 0fbc db83 35bc 72ff 9cbd e87c 023d
00000360: 200b 113d ddc0 32bb d3f4 1b3c 90cc d5bb
00000370: 1bf9 0eba 5e2a 993a 4bf5 2ebb 17d4 b3b8
00000380: afa4 4b3c 1bad 55ba e1db 2abc a19d 933c
00000390: e79c e93b bcf2 64ba 7e83 5d3b 56ab c03c
000003a0: 6330 9a3c 106f 823c fbce 2fbc ab56 8b3c
000003b0: 8f55 8a3c 5ec7 ee3c 634b 873b af40 b43c
000003c0: 6cdf ed3c f6d8 713b 07c2 04bd 164a 8bbc
000003d0: cfbe b2bc ebcf 593c 1887 693c 2035 dc3b
000003e0: 29cc fb3c a76c a23a
0.0482032 0.0214049 0.0164872 -0.0144304 -0.019436 0.0141909 -0.0107964 -0.0185676
0.00177523 0.0086653 0.0150087 0.000410746 -0.000318894 0.014996 -0.00812469 0.00662404
0.0388279 -0.0143085 0.0272383 0.0259043 -0.0627297 -0.019046 0.11884 0.0376236
0.00985724 0.000738763 -0.0119613 0.00871767 0.0262494 0.0168444 -0.0949289 0.0133651
0.0286669 0.0379295 0.0247448 0.00326265 0.0265451 -0.0116947 0.0150157 -0.00834969
-0.0110818 0.0253438 -0.00420055 0.0164152 0.0268306 0.00505375 0.0198959 0.0175853
0.0126248 0.0763071 0.0591463 0.0189787 0.100555 -0.0136165 -0.0173815 0.0124635
-0.00549858 -0.00995278 0.0156469 0.0019368 0.00556447 0.00494853 0.041896 0.0100627
0.00411811 -0.000217093 0.0249693 -0.0412352 0.0279252 0.0319697 -0.0018367 -0.0140086
0.00245004 0.0203095 0.00934567 0.0370848 -0.0121548 -0.00782193 0.021094 -0.00702932
-0.00180688 0.0214907 0.0230574 0.0322691 -0.00118359 -0.00233043 0.0221421 -0.012686
0.0111692 -0.00382541 0.0276789 0.0353907 0.00411554 -0.00838404 0.00270436 0.0228732
0.010935 0.0175674 0.00760753 0.00069532 0.0430746 0.0277751 0.0845514 -0.0113077
0.0135056 0.0182742 -0.0203801 -0.0362946 -0.00735328 0.0184071 0.0188359 0.0234712
-0.00183881 0.0187275 -0.0340263 0.0289731 -0.00563734 0.000566963 0.0250275 -0.0260332
0.0057105 -0.0277357 -0.00770462 0.0441217 0.020797 -0.00496545 -0.0127222 -0.0233031
0.0212614 0.0232154 0.00682132 -0.00455351 0.0274875 0.0317463 -0.0167367 -0.00922621
0.0111783 0.00337108 0.0393508 -0.000381998 0.0379041 0.0155231 -0.0163736 0.0483302
-0.0130692 -0.00478523 0.0118624 0.00794551 0.0436066 -0.00551789 0.0596014 0.0161775
0.0846238 -0.0169586 -0.00927403 0.0114406 -0.00524469 -0.00618335 0.0187785 0.00230307
0.00870639 -0.00335242 0.0484217 0.00133868 0.0235373 -0.0221036 0.0378339 -0.0491677
0.0225108 0.0522568 -0.000141286 -0.00635407 -0.000162694 0.00829364 -0.000332022 0.0439381
-0.0101226 -0.00466286 0.0303425 0.0168267 0.00108953 0.0203936 0.0248076 0.0293401
0.00226154 -0.000262206 0.0228189 -0.016317 0.00102206 -0.0286143 0.021921 0.0311769
0.0028522 -0.0186896 0.00238821 0.0302242 0.0113569 0.01769 0.0026044 -0.00242697
0.015374 0.0368643 0.0399378 -0.00566976 0.0351726 0.0169386 -0.0154016 0.0127779
-0.0123769 0.059799 -0.00383476 -0.0188887 -0.0087566 -0.0110788 -0.0766591 0.0318574
0.035411 -0.00272756 0.00951882 -0.00652463 -0.000545399 0.00116856 -0.00266965 -8.57489e-05
0.0124294 -0.00081511 -0.0104284 0.0180195 0.0071293 -0.000873368 0.00338003 0.0235192
0.0188219 0.0159221 -0.0107305 0.0170091 0.0168865 0.0291478 0.00412886 0.0220035
0.0290372 0.0036903 -0.0324116 -0.0170031 -0.0218195 0.0132942 0.0142534 0.0067202
0.030737 0.0012392

14 f4 [5]
00000000: a5e3 a03c dc73 aa3c 049d bfbc 3b20 a43c
00000010: 0394 86bc
0.0196398 0.0208072 -0.0233903 0.0200349 -0.016428
