configs/networks/acas/acas_2_5.onnx (onnx, 61577 bytes, 14 tensors)

1 f4 [50, 5]
000000 23 ee 39 3b 1c ed 68 3e 65 e0 60 be 4d f3 4a bf
       0.00283707 0.227467 -0.219606 -0.792775
000010 0b 9b 41 be e8 70 c8 3c 22 71 67 3f 51 9f 08 bf
       -0.189068 0.0244679 0.90407 -0.533681
000020 85 77 95 bf 91 ed 5c 3e cd c5 a5 bb 04 81 5f bc
       -1.16771 0.21575 -0.00505898 -0.0136416
000030 20 fe 2b 3c 34 c3 b1 bd 6b 29 d8 be 5a d7 18 bf
       0.0104976 -0.0867981 -0.422191 -0.597036
000040 7e 41 01 bd 28 e2 a3 bc 29 5b 94 be 10 ae 98 3e
       -0.0315566 -0.0200053 -0.289758 0.298203
000050 9d dd 55 bd 94 c2 0c 3e 3d b6 55 be c6 14 2c bf
       -0.0522133 0.137461 -0.208703 -0.672192
000060 a6 ba 70 be 66 20 00 39 52 68 14 3d 32 4c 17 bd
       -0.235087 0.000122191 0.0362323 -0.0369379
000070 1a 6c c2 3e 7a 19 85 be 0a d9 69 be 6c 26 fc 3b
       0.379731 -0.25996 -0.228367 0.00769501
000080 d3 08 2a 3b 90 b6 d6 bc c1 0f 58 bd 44 be 2b be
       0.00259452 -0.0262101 -0.0527494 -0.167718
000090 f2 7b 5b bf 39 28 a5 bf 10 92 ed 3e ae 1b a5 bd
       -0.85736 -1.29029 0.464005 -0.0806192
0000a0 46 9a 53 bc 4d 49 16 3e c3 65 bd be 73 f5 73 be
       -0.0129152 0.146764 -0.369917 -0.238241
0000b0 d1 eb d7 3e ad 1b 0a 3d 11 df 45 3f ac 1b 5b bf
       0.421721 0.0337178 0.772935 -0.855891
0000c0 4a e3 a1 3d ee 1c ef bb 57 3a a3 bb 8e 3e 1a 3f
       0.0790468 -0.00729715 -0.00498132 0.602517
0000d0 e6 5a 14 bf e7 52 5c 3e 19 ad ab bf 45 c9 d8 3b
       -0.579512 0.21516 -1.34122 0.00661579
0000e0 e6 3f 88 bf f6 e5 36 bd d8 fa 78 3d cc 5d 1b be
       -1.06445 -0.0446529 0.0607861 -0.151725
0000f0 c3 2e 92 3e a8 46 de 3c c2 3b 0e 3b d2 8d 50 be
       0.285513 0.0271333 0.00217031 -0.203666
000100 ac a6 b0 bd 06 9d 14 bc 61 fd 7f be 10 eb 9d 3e
       -0.0862554 -0.00907064 -0.24999 0.308434
000110 b1 34 98 3e da 01 0b bf bf f9 43 bc 7b bd 01 c0
       0.297277 -0.542997 -0.0119614 -2.02719
000120 5c c9 de 3f 35 07 88 3e b7 5e 13 be 3f b3 5a bc
       1.74052 0.26568 -0.143916 -0.0133484
000130 db de ee bd 31 ea da 3d 8d d3 18 bf 2d 43 64 bf
       -0.116636 0.106892 -0.596978 -0.89165
000140 85 56 af bb b7 b4 ae 3f da 8f 02 c0 2c 57 e8 3b
       -0.00535089 1.36489 -2.04003 0.00709047
000150 cd 89 62 3c b8 3b db bf 43 70 dc bc 9f 77 be 3c
       0.0138268 -1.71276 -0.026909 0.0232504
000160 2c 73 06 3c cd 34 0a bc c5 29 b9 3d 42 43 bf be
       0.00820617 -0.00843544 0.0904117 -0.37356
000170 32 cb f6 3e d5 cb 8f be cb 65 b3 3e 8e 0d 13 bd
       0.482019 -0.280852 0.350386 -0.0359016
000180 3a 9c 14 3d da 20 33 3e ca 19 fa be 7a e1 be be
       0.0362818 0.17493 -0.488478 -0.372814
000190 94 08 81 3b 5c 5d ca 3a 4c 38 74 bb c1 39 13 3e
       0.00393779 0.00154392 -0.0037265 0.143775
0001a0 5e 80 e5 be 9e 09 cd bc dd b6 17 bf 92 cb 2f bf
       -0.448245 -0.025029 -0.592634 -0.6867
0001b0 39 28 25 3f 65 00 00 bf 15 91 21 3e d3 6a 8a 3b
       0.645145 -0.500006 0.15778 0.00422416
0001c0 7c 7b 03 3f 1c 27 05 3e cc 09 ca be ca ff bf 3c
       0.513603 0.130032 -0.394606 0.0234374
0001d0 b4 d8 5c bd 9f 73 47 3e 25 6c c9 bc 6a bc e4 bf
       -0.0539176 0.194777 -0.0245877 -1.787
0001e0 97 93 2b bd 24 7d ba be cf 2f c2 be 2d 5c a6 be
       -0.0418888 -0.364236 -0.379271 -0.324922
0001f0 53 91 ea 3d 3e 55 0b 3c ed d3 a1 bf 0e 69 a4 be
       0.114535 0.00850421 -1.26428 -0.321114
000200 a6 48 32 3f a3 cb 0b bf 33 df 05 bf f7 aa b6 bb
       0.696421 -0.546076 -0.522937 -0.00557458
000210 36 bb 22 3c e7 36 11 3e 37 fb 03 be 06 4f 7c bc
       0.00993233 0.141811 -0.128888 -0.0153997
000220 1a a4 80 bd 04 8d 19 3e a7 74 f8 3f 24 28 da bf
       -0.062813 0.149952 1.94106 -1.70435
000230 82 dd 55 3c 8c cf cf bb ef fe 0e c0 3c 4d a6 3d
       0.0130533 -0.00634188 -2.23431 0.081202
000240 c4 ee 96 bd f5 f4 c9 3e f1 24 0e 3c c2 93 8c bc
       -0.0736976 0.394447 0.0086758 -0.0171603
000250 bc cc c0 3e 8e cc 8b bf e4 5c 33 bb 3b 3d ca 3c
       0.376562 -1.09218 -0.00273686 0.0246874
000260 dc 80 93 3f 03 0e 3c 3d 27 67 78 ba b4 76 8b be
       1.15237 0.0459118 -0.000947582 -0.27239
000270 46 be 91 3d 5e f1 04 be ee 43 c6 3e 66 16 05 bf
       0.0711637 -0.129827 0.387237 -0.519873
000280 33 85 73 3c c4 af 00 bf 0d 6c 01 3f ad 6d 3a be
       0.0148633 -0.502682 0.505555 -0.182059
000290 49 80 9e bf 12 39 d8 3c 29 b3 89 3f f0 a2 df 3e
       -1.23829 0.0263944 1.07578 0.43679
0002a0 62 db 5a 3f 22 37 87 bf 66 9f ac 3c e0 be 3e 3e
       0.85491 -1.05637 0.0210721 0.186275
0002b0 94 15 63 be ea 3c 0a bf f4 c3 10 bf ee 41 10 bf
       -0.221762 -0.539992 -0.56549 -0.563506
0002c0 53 32 ca 3d 96 95 26 3c 3a 92 cb bb dc a0 36 3e
       0.0987288 0.0101675 -0.0062125 0.178348
0002d0 d7 69 18 bf 51 36 00 3d 49 cf d9 3c b4 e3 e6 bd
       -0.595365 0.0313018 0.0265881 -0.112739
0002e0 fc 08 52 bd f2 24 49 3d 69 fd 29 bf d2 4d 09 3c
       -0.0512781 0.0491075 -0.664023 0.00838037
0002f0 4d c9 a8 bd 79 b0 25 3e df fc 7a bf a7 ad a9 be
       -0.0824152 0.161806 -0.980421 -0.331403
000300 1d 48 cd bc ff 51 95 3d e6 31 c4 bd a3 8f b9 3d
       -0.0250588 0.0729103 -0.0957983 0.090606
000310 f3 3c dc 3f 5e f2 6f 3e eb 02 06 3f 14 97 a3 be
       1.72061 0.234323 0.523482 -0.319512
000320 f3 05 49 3f e6 6c 4b 3c e0 d9 9e 3c 4b 73 b3 3e
       0.785247 0.0124161 0.019391 0.350489
000330 f4 6a e0 be 6a a5 f0 bd fb ca 33 3f d7 fa 86 3f
       -0.438316 -0.117503 0.702316 1.05453
000340 ac 39 c8 3e ea 77 89 be 5c 93 49 3c d8 d8 d5 bf
       0.391065 -0.268493 0.0123032 -1.67068
000350 0f 7d 57 bf 3a e6 4c 3f b0 e5 4d bf 13 9f 76 3d
       -0.841752 0.800388 -0.804286 0.0602103
000360 e2 92 ef 3f ee 0a 5d be 4b e9 81 3e 2d b7 bf bd
       1.87167 -0.215862 0.253733 -0.0936111
000370 17 d9 d2 bf 38 f5 20 bc 3b 46 05 3c 12 f2 a8 bb
       -1.64725 -0.00982409 0.00813442 -0.00515581
000380 28 83 1d bc 95 a0 8a bd bd fb 0b 3f 76 3d 2c bc
       -0.00961379 -0.0676891 0.54681 -0.0105127
000390 96 05 93 bd 4f 58 62 3e 96 c0 17 bd 00 03 59 3f
       -0.071788 0.22104 -0.0370489 0.847702
0003a0 3b 54 1b bf 8d b7 1d bf ac ff a3 bf e6 b5 4d bd
       -0.606754 -0.616082 -1.28124 -0.0502223
0003b0 84 0f 35 bf 67 7e 8d bf 5c 00 4a 3e c0 5f 1c be
       -0.707268 -1.10542 0.197267 -0.152709
0003c0 e2 d6 18 39 89 e5 60 3d a5 2a b2 bd 0a 30 20 3f
       0.000145759 0.0549064 -0.0869954 0.625733
0003d0 5f 79 50 3f 26 5d e9 bc cf a1 94 be db 8b 98 3e
       0.814352 -0.0284868 -0.290297 0.297942
0003e0 35 24 9e bf e2 2c 3f ba
       -1.23548 -0.000729276

2 f4 [50]
000000 7c 59 bf bd 74 42 30 bf e2 e5 39 3e fa 9b 30 be
       -0.0934324 -0.688514 0.181541 -0.17247
000010 0c cb 1f be 96 7a f6 3d 10 dc 82 3d ca 98 b1 bd
       -0.156048 0.120351 0.0638963 -0.0867172
000020 6f 2c 68 3e 23 14 8b be c4 5d 0d 3e 0a 4d ed bc
       0.226732 -0.271638 0.138053 -0.0289674
000030 62 c7 55 bd ea cb d2 3c 8d 5d 97 bd 3e 77 82 be
       -0.0521921 0.025732 -0.0739089 -0.254816
000040 78 2a 98 be 1f d8 c1 be 86 ff 8c 3e 00 c8 99 3d
       -0.297199 -0.378602 0.275387 0.0750885
000050 62 d8 61 3e bc a7 b7 3d ec 50 ed 3d 1d 76 2f bf
       0.220552 0.0896754 0.115877 -0.685396
000060 3a 30 eb 3b b3 23 f5 3d 1f 4a b4 3c c6 36 f9 3e
       0.00717738 0.119697 0.022008 0.486746
000070 9f a2 a4 3d 4d 38 09 bc b1 67 54 3d 91 16 fc 3b
       0.0803883 -0.00837524 0.0518567 0.00769312
000080 5b 24 1d be 0b d4 12 be d7 cd 9b bd d1 ea 64 bd
       -0.153459 -0.143387 -0.0760762 -0.055888
000090 c2 1c 9d b9 1b 2f 0d 3e 8c 87 82 bd 83 ac c2 3d
       -0.000299668 0.137875 -0.0637351 0.0950556
0000a0 f2 cd 76 3e c8 b2 20 be e8 4a 84 be 8f de 00 3f
       0.24102 -0.156932 -0.258384 0.503396
0000b0 79 ce 8e be 23 bc bd 3c 8a 74 0b bf 91 ac bd 3d
       -0.278919 0.023161 -0.544747 0.0926143
0000c0 52 47 37 3e 6a 6d e2 be
       0.178983 -0.442241

3 f4 [50, 50]
000000 92 96 fa 3e c9 b2 9b 3d 93 37 90 3e 74 b7 0f bf
       0.48943 0.0760246 0.281674 -0.561393
000010 fb 24 af be 45 14 ae bc d8 0b b5 be 14 05 9a 3e
       -0.342079 -0.0212499 -0.353606 0.30082
000020 2a 72 74 3f 46 7d 4e 3f 40 de 3f bf 83 0c 9e 3d
       0.954867 0.806599 -0.749485 0.0771723
000030 93 6f f2 3f d5 b1 2a be c0 40 30 bd ee cf 9d 3e
       1.89403 -0.166694 -0.0430305 0.308227
000040 6c 7c 56 3e 21 93 32 c0 bf f2 78 3f 6a 4e 12 3f
       0.209459 -2.79023 0.972454 0.571509
000050 e5 43 10 be ac 1d 65 3e fa c5 96 bd 8e 92 7b 3f
       -0.140884 0.223746 -0.0736198 0.982705
000060 41 0f 51 3f 14 31 f8 bb b2 9c e4 be 94 a4 2b 3e
       0.816639 -0.00757421 -0.446508 0.16762
000070 06 48 dc 3e 28 0a b4 3e 18 b3 e5 3d 7f 4b 00 bf
       0.430237 0.35164 0.112158 -0.501152
000080 73 f4 a0 3e 10 1b 93 bb e4 a1 87 3e 2f 95 2d 3d
       0.314365 -0.00448931 0.264907 0.0423786
000090 91 0b 66 bf 53 21 de 3d e0 47 6d bf 62 f6 b2 3e
       -0.898614 0.108462 -0.926878 0.349536
0000a0 1d 72 bb 3f b9 e1 67 3e a2 44 eb 3d 40 31 9a 3e
       1.46442 0.226447 0.114877 0.301157
0000b0 aa 60 e8 bf 7d b1 2b 3f f4 c2 95 3e 8a ac 95 be
       -1.81545 0.670677 0.292503 -0.292332
0000c0 c6 33 18 be 23 c0 71 bf f8 fb 55 3e 9c f9 81 3f
       -0.148635 -0.944338 0.208969 1.01543
0000d0 de c7 b1 be ac e2 c5 bf 41 b9 ad 3e e5 99 a7 be
       -0.347228 -1.54598 0.339304 -0.327346
0000e0 ba 11 fe 3e b1 c2 3d be 89 d3 45 bf 9c c0 44 3f
       0.496229 -0.185313 -0.772759 0.768564
0000f0 d2 a6 7a 3e 86 e3 15 bf 9c a7 2e 3f e0 2d 80 3f
       0.244777 -0.585503 0.682245 1.0014
000100 34 9d 2d bf ba d9 07 3f c2 7e b4 bd d2 18 c5 3f
       -0.67818 0.530666 -0.0881324 1.53982
000110 21 75 7b be 07 5f 98 be 27 15 0d bf 43 c7 5e 3e
       -0.245564 -0.2976 -0.551104 0.217557
000120 2b dc 62 be 1c ce 0e 40 b6 03 bf bd e8 87 01 be
       -0.221543 2.23133 -0.0932688 -0.126495
000130 c2 34 24 3f a9 a1 cd be 37 e1 f6 3e 9e 27 2a 3f
       0.64143 -0.401624 0.482187 0.664667
000140 eb 8b 38 3f 51 f7 c1 3e d6 fe d6 3e 9e cf 98 3e
       0.720885 0.37884 0.419913 0.298459
000150 6a d9 4a 3e aa d6 42 be d7 fa 22 3e 50 a3 35 bd
       0.198095 -0.190272 0.15916 -0.0443452
000160 68 95 f9 bd 65 c2 1b bf 0e 88 60 3e f9 69 dc bd
       -0.121867 -0.608435 0.219269 -0.107624
000170 93 1a 5a 3e 2e 3c 2f bf 43 59 40 3f 11 56 cb be
       0.212992 -0.684512 0.751362 -0.397141
000180 6f bb 80 3f c2 a2 8a be 50 73 ba be 32 3d b5 3f
       1.00572 -0.270773 -0.364161 1.41593
000190 6e 4c 93 3f 27 66 0d 3f d9 25 be bf f0 31 f0 be
       1.15077 0.55234 -1.48553 -0.469131
0001a0 87 a8 42 3e 41 7d 9f bf e3 52 31 bf 4b ad 97 be
       0.190096 -1.24601 -0.692671 -0.296244
0001b0 fc 6e da bd 19 1c 05 40 4f ca 34 3f 2b 18 ad 3f
       -0.106657 2.07984 0.706212 1.3523
0001c0 ef e2 5d be ec 18 6b 3f e9 99 3a 3f ee b3 b2 be
       -0.216686 0.918349 0.728911 -0.349029
0001d0 e4 d8 56 3f 5e 14 c5 be 46 fa 23 3d 08 e8 66 bf
       0.839247 -0.384921 0.0400336 -0.901978
0001e0 20 1e a3 bd b9 51 34 be 38 12 04 3f f3 39 87 3d
       -0.0796473 -0.176093 0.515903 0.0660285
0001f0 40 4f 23 be d8 d3 82 3f 83 33 1c bf 34 d9 b7 be
       -0.159482 1.02209 -0.610161 -0.359079
000200 23 12 cd be 2f 52 e8 bd e7 55 95 3e d3 d8 2e bf
       -0.400529 -0.113438 0.291671 -0.682996
000210 e4 11 34 3f a1 84 c1 be 48 e0 bf 3d 53 14 1e bd
       0.703398 -0.377965 0.0936895 -0.0385936
000220 af 5d 0a 3f e2 3b b9 3f 58 73 14 bf 2a ad 8f 3e
       0.540492 1.44714 -0.579885 0.280618
000230 c6 32 3d be c0 79 f1 3d 65 72 3a be 20 3b 39 3d
       -0.184764 0.117908 -0.182077 0.0452224
000240 38 66 29 bf fd 30 56 3f 8c 30 35 3e 21 20 43 3f
       -0.661716 0.836685 0.176943 0.762209
000250 9b 86 b2 3d f7 75 90 3e 0b 63 fb be f6 09 90 be
       0.0871708 0.28215 -0.49099 -0.281326
000260 2c d3 0b 3f d8 2d da be 03 d2 99 3d 61 89 37 3e
       0.546191 -0.426131 0.0751076 0.179235
000270 7e 31 c0 3c 35 44 ad be 1d 3c cb 3e 2d 60 d2 3f
       0.0234611 -0.338411 0.396943 1.64356
000280 d4 d2 84 3e 4c 6b 47 bf d4 9e 42 be ff 3e f3 3e
       0.259421 -0.778981 -0.190059 0.47509
000290 f7 74 25 bf 73 6e c9 bc 4b 4a 10 bd d2 71 65 3e
       -0.646316 -0.0245888 -0.0352271 0.224067
0002a0 5b ce 25 be 39 d4 c7 3e da 58 69 bd 51 d9 30 be
       -0.16192 0.390291 -0.0569695 -0.172704
0002b0 77 2c ee 3e e6 ad 12 3f d2 73 7b 3e 7e 8a 93 3e
       0.465183 0.572966 0.245559 0.288166
0002c0 c9 aa d8 be ea ec e4 3e f0 fa 24 bf 1a 4d 9e be
       -0.423178 0.44712 -0.644454 -0.309182
0002d0 4e d0 b6 3e 42 b0 2a 3f 40 2f 30 3f a7 5b f6 bd
       0.357058 0.666752 0.688221 -0.120292
0002e0 be 30 81 be a2 62 2c 3e 38 be 96 3e 77 dc 70 be
       -0.252325 0.168345 0.29442 -0.235216
0002f0 5b 23 aa be e3 8d 84 bf 07 5d c2 bc bc 21 ed 3d
       -0.332301 -1.03558 -0.023726 0.115787
000300 cf 50 1a bc 7a e1 be be 49 47 09 3f 0d 37 98 3f
       -0.00941868 -0.372814 0.536244 1.18918
000310 82 8c 98 3e b7 99 16 3f 13 9c aa 3e 0f d1 88 bf
       0.297947 0.588283 0.333222 -1.06888
000320 8c 9e fb bd 40 17 bd be 10 cb 62 3f 92 3e 3d be
       -0.122861 -0.369318 0.885911 -0.184809
000330 44 f8 c7 3e b1 4d d2 be 41 0c 84 3e 06 80 02 3f
       0.390566 -0.410749 0.257906 0.509766
000340 78 b8 8d 3e 8b 34 49 bf 57 07 40 be 70 95 a7 3e
       0.276798 -0.785958 -0.187528 0.327312
000350 a1 64 62 be 39 5e d9 3e 83 c2 20 bd 1e 8d cb 3e
       -0.221087 0.424547 -0.039248 0.397561
000360 c7 1d a1 ba 24 d6 da be ca 6d bb 3e 50 89 3b 3e
       -0.00122922 -0.427415 0.366072 0.183141
000370 32 d5 42 3d 96 40 2a be 20 25 16 be a9 6a 4c c0
       0.0475666 -0.166262 -0.146626 -3.19401
000380 32 58 21 be 27 e0 52 bd 15 90 06 be aa ef 4c be
       -0.157563 -0.0514833 -0.131409 -0.200133
000390 56 d5 f3 3e 84 9f 18 be 42 23 7c bf 74 ef 89 3e
       0.476237 -0.149046 -0.984913 0.269405
0003a0 49 64 2f be a2 b7 68 be 9e b5 17 bf 1b bd 0a be
       -0.171281 -0.227263 -0.592615 -0.135487
0003b0 d1 6d 33 3d 26 1c 9a 3e f8 f9 b7 be ce fe b0 bd
       0.0438059 0.300996 -0.359329 -0.0864235
0003c0 96 3b 88 3d fe 2c 76 3e 98 2d fe 3c 0d e1 e0 3e
       0.0665199 0.240406 0.0310276 0.439217
0003d0 fa 54 80 3b 14 b4 49 3d da 8a 62 bd b4 ab 90 bd
       0.00391638 0.049244 -0.0553082 -0.07064
0003e0 a8 36 90 3e 98 62 a8 3d 1c 97 a9 be a0 89 06 c0
       0.281667 0.0822193 -0.331231 -2.10215
0003f0 f3 3e 3e 3e 60 3d 16 3f 85 40 ee bd 1c 9a 7e bf
       0.185787 0.586874 -0.116334 -0.994539

4 f4 [50]
000000 78 62 46 3f 0f 97 84 bf 46 79 2a bf a7 58 cd be
       0.77494 -1.03586 -0.665913 -0.401067
000010 d5 b1 b2 be 68 dd 80 bd 94 c1 8f 3b 77 f6 21 bf
       -0.349013 -0.0629223 0.00438709 -0.632667
000020 d8 f4 50 3f 67 f3 80 be 19 ff 86 bf 10 b9 13 bc
       0.816236 -0.251857 -1.05466 -0.00901629
000030 6b 61 96 be 25 85 68 bd 9c 35 88 be ee 42 f3 bd
       -0.293712 -0.0567676 -0.266034 -0.11878
000040 50 19 c7 be 9a ed 6a bd 12 f7 c0 be f5 9c 34 be
       -0.388865 -0.0573555 -0.376885 -0.17638
000050 47 57 a1 be 27 c2 61 bc 17 ef e7 3d 89 08 07 3f
       -0.315119 -0.0137792 0.113249 0.527474
000060 7a ec db bb 64 e6 c2 3d ad 88 ba 3e ec 17 8c 3f
       -0.00671154 0.095166 0.364324 1.09448
000070 82 39 7a bc eb a7 33 bf 61 98 82 bc 66 da 22 bf
       -0.0152725 -0.701781 -0.0159418 -0.636145
000080 4c 52 d9 be 19 59 4e 3f 7a 8d 89 bf 32 91 02 bf
       -0.424456 0.806047 -1.07463 -0.510028
000090 14 b3 56 3f ad 2f 9e bf ce 88 8a bf 85 25 86 bf
       0.83867 -1.23583 -1.0823 -1.04802
0000a0 d3 31 67 be ff 75 12 bf bd 18 0a bf ff 3c 71 3f
       -0.225776 -0.572113 -0.53944 0.942337
0000b0 1a 33 b1 be fe d7 21 bf a3 02 77 be 3c 4f 4c 3f
       -0.346093 -0.632202 -0.241221 0.798084
0000c0 4b cb 90 3e b9 53 3a bd
       0.282801 -0.04549

5 f4 [50, 50]
000000 df 34 3d 3e b7 45 d9 bf c0 03 47 3f 51 14 e8 3e
       0.184772 -1.69744 0.777401 0.45328
000010 48 c2 ee be 6d e3 63 bf 79 e9 b6 bf ef e6 bd 3f
       -0.466326 -0.890189 -1.429 1.48361
000020 b9 6f 15 3e a7 91 9e bf 33 df c9 be 6f 90 1a 3d
       0.145934 -1.23882 -0.394281 0.0377354
000030 b0 ad 87 3e 29 3c d8 3e cc 43 e6 be c5 cb 63 bf
       0.264997 0.422334 -0.449736 -0.889828
000040 97 77 30 bd b2 be 51 3e 9c a8 dd 3e b5 2a 73 3d
       -0.0430828 0.204829 0.432927 0.0593669
000050 8f a8 d0 3e 87 3f f9 3c 3e 63 3a bc 40 a0 1b bf
       0.407536 0.0304258 -0.0113762 -0.607914
000060 92 3b d1 3c f2 b5 11 c0 85 d2 37 be 92 5a e8 3d
       0.0255411 -2.27673 -0.179514 0.113454
000070 d1 cf af 3c fc e3 11 40 11 44 2c bd 3d 9b 01 40
       0.0214614 2.27954 -0.0420571 2.0251
000080 c7 48 2e 3f 23 db b1 bf b6 b8 6b 3d 61 de 63 3f
       0.680798 -1.3895 0.0575492 0.890112
000090 56 d4 ec bf 95 f2 6e 3f b9 36 9c bf bc 74 d3 3d
       -1.85023 0.933389 -1.22042 0.10325
0000a0 a0 8c 59 3f 3a 1e 87 40 90 86 f3 3e 90 c0 6f bf
       0.849802 4.22244 0.475636 -0.936532
0000b0 43 ff bc 3f c4 43 e8 be 1a a7 29 3f 06 12 32 c0
       1.47654 -0.453642 0.662706 -2.78235
0000c0 83 c0 1a 3f 66 e9 79 3d 0a f7 ba bd 6e a3 d5 bf
       0.6045 0.0610136 -0.0912915 -1.66905
0000d0 79 cd fb 3e 37 dd 72 be 67 22 71 3d c0 21 cc 3e
       0.491802 -0.237172 0.0588707 0.398695
0000e0 23 4d fc bd 74 95 32 bf 35 43 b2 be 4a b4 24 bf
       -0.123194 -0.697593 -0.348169 -0.643376
0000f0 98 4c 29 3f 26 f4 21 bc 75 72 46 3e 2a 19 7c bf
       0.661325 -0.00988487 0.193796 -0.984759
000100 4e 53 fa 3c dc 48 91 3e aa 61 2f bf a8 e2 ee 3e
       0.0305573 0.283759 -0.685084 0.466573
000110 18 99 a8 3e b3 7b 92 bf c3 9b cd be f3 90 a9 3c
       0.329293 -1.1444 -0.401579 0.020699
000120 2c c7 3a 3d 5c 93 f6 be 77 0b cd bb 31 98 07 bf
       0.0456001 -0.481593 -0.00625747 -0.529666
000130 7b 16 30 bf 67 d6 d2 3d c3 77 0c 3d df 32 83 3f
       -0.687843 0.102948 0.0342939 1.02499
000140 f9 51 a8 3c 26 72 19 3f 98 6a b6 be 7b f4 1a bf
       0.0205469 0.599398 -0.356282 -0.605293
000150 10 cf d2 bd a2 9c c0 3e 37 a6 b3 bf 75 1e bd be
       -0.102934 0.376195 -1.40351 -0.369373
000160 09 8c a5 3e fb 5e 9e 3c 5f b4 b7 3e 39 09 b5 be
       0.323334 0.0193324 0.358798 -0.353586
000170 ba a2 44 be 0e 14 f8 3e b7 5e ab be 69 35 94 be
       -0.192027 0.484528 -0.334707 -0.28947
000180 e5 64 d2 3e 96 b4 3e 3f b3 ef e2 3e 6d 53 2c 3f
       0.410926 0.744943 0.443235 0.673148
000190 78 97 ab be 41 61 2c bf 89 23 2f bf 01 18 ef bf
       -0.33514 -0.673359 -0.684136 -1.86792
0001a0 a3 ac 87 be 96 40 46 3f 61 aa 75 3f a7 e8 e8 be
       -0.264989 0.774423 0.959631 -0.4549
0001b0 fc aa d4 be 2a 1d e4 3f 8e bc 02 3d 14 c2 14 bd
       -0.415367 1.78214 0.0319181 -0.0363179
0001c0 ea 04 00 c0 14 cd 73 3e f3 20 79 bf 51 2d 12 be
       -2.0003 0.238087 -0.973159 -0.142751
0001d0 de 58 44 bf 45 48 05 3f ce 88 a2 bf 15 39 14 bf
       -0.766981 0.520634 -1.2698 -0.578996
0001e0 f8 ff 11 3e 96 b5 48 3d 05 18 3e 3f 1d c3 08 3c
       0.142578 0.0490013 0.742554 0.0083473
0001f0 c1 a4 9d bb 46 07 f4 be 85 5f 92 3e 87 dc cc bc
       -0.0048109 -0.476618 0.285885 -0.0250075
000200 45 fc 79 bc ca 37 8b 3f 8d 16 36 bd c9 1c 7b 3f
       -0.0152579 1.08764 -0.0444551 0.980908
000210 b1 c2 2d 3e 82 50 03 3d ec a5 c1 3e 2a 1a 33 bf
       0.169688 0.0320592 0.378219 -0.699618
000220 99 f5 a6 3f 62 a2 91 be e8 a0 2b 3e 3f 3a 05 be
       1.30437 -0.284442 0.167606 -0.130105
000230 d4 7e 2b 3f 1d 20 20 3f df 4f ed 3d 73 80 60 3e
       0.669904 0.62549 0.115875 0.21924
000240 69 8c aa 3f 66 da 82 bf 58 59 3b bf b6 b9 37 c0
       1.33241 -1.02229 -0.731832 -2.87071
000250 8f fc 99 3f 94 16 46 3f 95 8d c8 bd a5 66 9f be
       1.20302 0.773782 -0.0979263 -0.31133
000260 d0 9b 8e 3f 6a c1 d3 bf ab 15 15 c1 81 26 76 c0
       1.11413 -1.65434 -9.31779 -3.8461
000270 c9 55 14 3f 85 7c 40 c0 83 c0 8e bf df 32 55 c0
       0.579434 -3.0076 -1.11525 -3.33123
000280 8a 8e a0 bf 9c a5 64 bc 9b fe 88 bf d0 d5 00 40
       -1.25435 -0.0139555 -1.07027 2.01305
000290 0c 95 ff 3d 2d 5f 37 bf d3 f5 48 bf e3 c2 ed bf
       0.124796 -0.716296 -0.785001 -1.85751
0002a0 b1 f9 6c bf 23 67 71 bf 6e 69 85 bf a9 41 e2 bc
       -0.925685 -0.94298 -1.04228 -0.0276192
0002b0 a7 cf f6 3e 8e ac 60 3f 32 4a 21 bd 81 ec 33 c0
       0.482053 0.877633 -0.0393774 -2.81131
0002c0 42 76 de 3d 5e 2e 9a 3f 70 8f 8a 3c 62 da 17 3e
       0.108624 1.20454 0.0169141 0.148294
0002d0 06 7a cd bc 65 aa 9e c0 d4 60 aa 3f 4e 97 d5 bf
       -0.0250826 -4.9583 1.33108 -1.66868
0002e0 e3 e2 64 bf 82 72 73 bf 81 3e f9 bf ca 1a 99 3f
       -0.894087 -0.950966 -1.94722 1.19613
0002f0 df fa d8 be f7 3e d5 be a6 0b 21 3e 31 94 85 c0
       -0.423789 -0.416496 0.157271 -4.17434
000300 7e 9c 7a 3d d3 68 f2 be 77 14 4b bf 98 68 88 3e
       0.0611844 -0.473456 -0.793281 0.266423
000310 92 75 28 3e ba 14 8c c0 ed b6 47 c0 16 a6 cf 3e
       0.164511 -4.37753 -3.12054 0.405564
000320 c4 3e 91 be 8a 1c 02 3e af f4 c5 3d d2 c4 4b 3e
       -0.283682 0.127062 0.0966581 0.198993
000330 f6 b4 9b bf 9b e8 2b bf 9b 92 30 bf cd e4 6b 3e
       -1.21646 -0.671518 -0.689737 0.230365
000340 80 0e ab be 3b c6 51 3f 97 2d e5 3b 73 89 3e 3d
       -0.334095 0.819431 0.00699396 0.0465178
000350 e4 65 8d bd 5f 08 59 3e cb c1 47 3c 5e a2 ae bf
       -0.069042 0.211946 0.0121922 -1.36433
000360 5b 5e d9 bd ec 2f 93 be 1c b6 ad be 61 1b a9 3e
       -0.106137 -0.287475 -0.33928 0.330287
000370 7a c2 e2 3e 3e 28 83 bc ce fb 5f 3e 36 cb 39 bf
       0.44289 -0.0160104 0.218734 -0.725757
000380 92 1c 15 bd 7b b2 ac bc ae f5 55 3e c7 13 01 be
       -0.0364042 -0.0210812 0.208945 -0.126052
000390 4c 95 9e 3c 4b de 95 bd 8d a9 05 3d 0a a2 9a bf
       0.0193583 -0.0731779 0.0326324 -1.20807
0003a0 ae 9d 10 3f cc 7a 51 be e6 75 34 be 1b bd 66 bf
       0.564906 -0.20457 -0.176231 -0.901323
0003b0 47 60 b7 3d fe 65 ab 3f 53 07 a9 3e 05 4e 36 be
       0.0895391 1.33905 0.330134 -0.178032
0003c0 50 fb 49 3f ca c1 ac bc 6a f9 21 bf b1 06 9e bc
       0.788991 -0.0210885 -0.632712 -0.0192903
0003d0 dd e9 0e be ff 5c 84 3e 46 b1 e0 bf 9c 8b df bd
       -0.139564 0.258522 -1.75541 -0.109153
0003e0 97 56 23 3e 6b 10 56 bf 46 94 d6 bf 1b 81 80 3f
       0.15951 -0.836188 -1.6764 1.00394
0003f0 8a 93 23 3f 7b 4f e5 3d f5 12 b3 be 3a 84 60 3d
       0.63897 0.111968 -0.349754 0.0548136

6 f4 [50]
000000 1f e1 8f 3c 01 12 12 bd d9 b2 2c bf 12 d9 37 3f
       0.0175634 -0.0356617 -0.674604 0.718156
000010 28 29 a8 3e 90 dc 1a bf 13 62 06 3f e4 d8 2e bf
       0.328439 -0.604928 0.524934 -0.682997
000020 22 8e 91 bf bc 57 1b c0 da fe ad bf a6 7f 91 3e
       -1.13715 -2.42723 -1.35934 0.284177
000030 14 5d 8f be ca 15 de bf 11 a9 39 3e 99 12 2b 40
       -0.280007 -1.73504 0.181309 2.67301
000040 3f 56 e0 be c5 03 9a 3e b3 44 f7 3e 92 5c 9e be
       -0.438158 0.30081 0.482946 -0.3093
000050 2a 71 69 bf f1 9d c4 bf 77 85 ae 3e c3 2a a2 3f
       -0.911883 -1.53607 0.340862 1.26693
000060 35 79 82 3e 2b 31 3f 3e c3 fb 80 3d 3f 3a 31 bf
       0.254831 0.186711 0.0629802 -0.692295
000070 d5 09 08 c0 7c 65 4a bf 98 17 d0 3f 72 18 78 3f
       -2.1256 -0.790611 1.62572 0.969123
000080 9c 36 27 bf a7 79 97 bf 49 a2 a7 bf e4 30 28 bf
       -0.653177 -1.1834 -1.30964 -0.656996
000090 69 51 77 3f b0 1f 8a 3e 31 7a ee be 8d d1 ae bf
       0.966086 0.269773 -0.465776 -1.36577
0000a0 a2 45 f6 bf 68 eb 70 bf 9e 62 01 3f 74 41 c9 bf
       -1.924 -0.941092 0.505411 -1.57231
0000b0 4e 60 ea be 74 d2 b3 bf 5d fc a5 be 3b c5 2e bf
       -0.457766 -1.40486 -0.324191 -0.682697
0000c0 53 20 b3 bc 2d cf 9f 3f
       -0.021866 1.24851

7 f4 [50, 50]
000000 ad 6b 24 3e ad 34 b9 bf 7a 6c 47 bf d7 84 84 3e
       0.160567 -1.44692 -0.778999 0.258826
000010 87 fa 29 3f 39 ed 45 bf 12 11 ce 3e 7f da 1c bf
       0.663979 -0.773151 0.402474 -0.612709
000020 75 57 1e bf 3e e7 32 3f df fb db 3d 7a 6f ac bd
       -0.618522 0.698841 0.107414 -0.084197
000030 99 9b 77 3f f8 51 39 3f 2f d7 97 3d 7b 6a d5 bd
       0.967218 0.723907 0.0741409 -0.104207
000040 1c d0 5a 3f ee 25 f5 3f f5 47 20 3f 5d d5 63 3d
       0.854738 1.91522 0.626098 0.0556234
000050 3c 6b 0b c0 48 1b 83 3f fd a4 3a bf 44 c0 51 3f
       -2.17842 1.02427 -0.72908 0.81934
000060 3c f5 30 3f 5d 15 14 bf a3 e6 2f 3f 2c 9d 6f be
       0.691242 -0.578451 0.687113 -0.233998
000070 c0 ae 76 be 55 4e 0f 3f 8d 9a 6f 3e c2 13 d2 3e
       -0.240901 0.559789 0.233988 0.410307
000080 81 cf cf be 2b c3 83 bd b0 55 82 bf 06 f1 5d 3f
       -0.40588 -0.0643371 -1.01824 0.866959
000090 bc eb 8c 3e 09 71 35 3e bf 46 a2 3d b2 11 b8 3e
       0.275236 0.177189 0.0792365 0.35951
0000a0 97 8b 94 3f d5 40 b3 be 82 e9 6f 3d 9c 42 5d 3d
       1.16051 -0.350104 0.0585723 0.0540186
0000b0 47 ac 15 bf 94 c1 91 bf 59 8b 83 bf 4d a3 29 3d
       -0.58466 -1.13872 -1.02769 0.0414155
0000c0 cc bc d1 3a 3e 3c e3 be 5f 07 1e be e8 0d 3c 3d
       0.00160017 -0.443819 -0.154325 0.0459117
0000d0 2f fd 0b bd be 8e 2e bd aa 6a 3d bd a0 f3 04 3d
       -0.034177 -0.0426166 -0.0462443 0.0324589
0000e0 40 05 86 bd a1 75 83 bc e9 ac 60 bc e4 4a dd 3d
       -0.0654397 -0.0160473 -0.0137131 0.108053
0000f0 e0 d2 56 3c ee ee 21 be 45 5c 25 3b a0 f3 a4 3c
       0.0131118 -0.158138 0.0025232 0.0201357
000100 a9 6b ad bc b9 83 e2 bc 0c 4d e3 bc be f3 50 3d
       -0.0211695 -0.0276507 -0.0277467 0.0510137
000110 3f df b7 bb e4 d8 1a be 36 53 46 3b 32 92 3d 3d
       -0.00561133 -0.151218 0.0030262 0.046282
000120 14 93 17 be 02 68 12 3c 19 c6 1d 3d a0 19 04 be
       -0.148022 0.00893593 0.038519 -0.129004
000130 72 d6 f1 bc 78 42 bf bd 76 a1 5e bc 40 dc 95 3c
       -0.0295212 -0.0933885 -0.0135883 0.0182935
000140 de cc 05 bb bb 39 26 bc 5c 2e 2c bd 54 2e de bc
       -0.00204163 -0.0101456 -0.0420364 -0.0271217
000150 ab fe 2d bd 5a c0 df bc fe f0 f3 bc 0c 1c b5 bc
       -0.0424792 -0.0273134 -0.029778 -0.0221081
000160 0f a1 45 bd 9e e4 58 3c 37 55 12 3d 87 86 05 be
       -0.0482493 0.0132381 0.0357258 -0.130396
000170 e9 80 24 bc 79 bf db bc a6 d3 1b 3c 0f b7 60 3b
       -0.0100405 -0.0268247 0.00951091 0.00342888
000180 0a 31 27 be b9 42 4e bd 5d 77 09 bd 6b dd 01 bd
       -0.163273 -0.0503566 -0.0335611 -0.0317053
000190 98 62 c3 3d 0b 46 25 40 14 3f 9a bf 38 bb 61 3f
       0.0954029 2.5824 -1.20505 0.881763
0001a0 c6 33 40 40 9b 20 02 c0 18 5b bc 3f e0 b2 d4 3c
       3.00316 -2.03324 1.47153 0.0259642
0001b0 e0 f3 a3 3f 69 8e 5c 3e 6d 76 5f 3d 99 ba 27 3f
       1.28088 0.215387 0.0545563 0.655191
0001c0 7c 9b 6a bf b9 fd d2 3e 5f b5 7a bf 83 c0 fe bf
       -0.916435 0.412092 -0.97933 -1.99025
0001d0 83 ed 31 3d 6d 8d f0 3e 0c 05 3c be 9f c8 d3 3f
       0.0434394 0.469829 -0.183613 1.65456
0001e0 48 33 c6 3f bd e1 1e be 1c d3 93 3f e0 d7 30 3f
       1.54844 -0.155158 1.15488 0.690794
0001f0 d0 2b 9e 3e 12 db 39 3f 7d 21 04 3f df 8c 56 3f
       0.308928 0.725999 0.516136 0.838087
000200 1b a0 44 bf c3 b6 13 40 5d e2 b0 3e 69 74 67 bf
       -0.768068 2.30803 0.345477 -0.90412
000210 f2 27 62 bf ca c8 94 3d 9a eb 26 40 e0 f4 62 3f
       -0.883422 0.0726486 2.60813 0.886549
000220 77 db 8d bf 39 b4 90 3f 85 5f 40 40 ac 37 46 3f
       -1.10826 1.1305 3.00583 0.774287
000230 dd 5e 86 3f 2e cb f7 3d 66 4d fc be 74 ce 8f be
       1.04977 0.120993 -0.492778 -0.280872
000240 74 ea ce 3f 84 f0 0e c0 66 a0 d6 3f 8a ae 73 3f
       1.61653 -2.23343 1.67677 0.951882
000250 c3 00 33 bd a6 1a 07 3d 41 d7 3e 3e 03 b3 fa be
       -0.0437019 0.0329844 0.186368 -0.489647
000260 09 32 52 be b6 da 1f 3f a5 a1 2a bf 73 2e 03 40
       -0.205269 0.624431 -0.666529 2.04971
000270 d4 0a 03 bf 5f 42 39 bf 8e 82 76 bd d4 bb d0 be
       -0.511884 -0.723669 -0.0601831 -0.407683
000280 a2 28 84 bf e7 a8 83 3e 1c 5d 8d 3e a3 06 03 c0
       -1.03249 0.257148 0.276101 -2.04728
000290 6e f7 fa be 9c 88 2e be e9 0e 92 3f 96 95 d2 bf
       -0.490169 -0.170443 1.14108 -1.64519
0002a0 bb fd 28 3c b6 2d 9a bf cf 66 15 3f cc 70 8d 3d
       0.0103144 -1.20452 0.5836 0.0690628
0002b0 76 a6 1a c0 3b df 0f 3e fe 65 f7 bd a2 44 5f bf
       -2.41641 0.1405 -0.1208 -0.872141
0002c0 67 7f c8 3e 9b 03 f0 bf 2b a4 a0 3f c8 96 09 3f
       0.391597 -1.87511 1.25501 0.537457
0002d0 78 b4 81 bf 7c ed 39 bf 11 8a a5 3e 8b 36 37 3f
       -1.01332 -0.72628 0.323319 0.715676
0002e0 cf 67 28 bf 94 6b ba be 08 e1 b6 3c 56 65 93 3f
       -0.657834 -0.364102 0.0223241 1.15153
0002f0 84 45 25 be 1e ff dd be cb 67 d8 c0 01 f8 23 bf
       -0.161398 -0.433587 -6.76267 -0.640503
000300 fa 7e 76 c0 4c a5 7b bf 00 74 78 bf 2c bb d0 be
       -3.8515 -0.982991 -0.97052 -0.407678
000310 13 2d 4d 3f 19 57 04 bf 7a a9 58 3c 23 dd 2f bf
       0.801469 -0.516954 0.013224 -0.686968
000320 05 c1 7b bf 1c b1 b6 3f 1d 74 49 be 79 38 06 3d
       -0.983414 1.42728 -0.196732 0.0327687
000330 2e c8 56 3e 6b 0d 15 be 81 b4 97 3e 67 ee a9 3e
       0.209748 -0.145559 0.296299 0.331897
000340 94 2f 58 be db f9 06 bf dc 46 97 3f 74 26 5d 3e
       -0.211119 -0.52725 1.18185 0.215967
000350 94 bf b3 3e b3 42 41 3e 94 83 65 3f 5f 3f 09 bd
       0.351071 0.188731 0.896539 -0.0335077
000360 91 46 b5 3e 37 00 0b 3f d3 e2 27 3d 30 9d 76 3d
       0.354054 0.542972 0.0409878 0.0602085
000370 9c 69 02 3e 5d 32 16 3f ff 79 2a 3e a1 30 18 3e
       0.127356 0.586706 0.166481 0.148623
000380 5c cd 15 bd 50 cc a5 bd 36 02 c9 3e 81 77 82 be
       -0.0365728 -0.0809561 0.392595 -0.254818
000390 0c 5a 08 bf d2 73 cb be 78 ec 77 3e 66 a0 a6 bf
       -0.532624 -0.397368 0.242113 -1.30177
0003a0 1b 9e b6 3f a1 bf 78 bf 9a 08 87 3f 09 de 44 3f
       1.4267 -0.971674 1.05495 0.769013
0003b0 cb 85 1a 3e fa d6 a2 bd 1b bc 4f 3f 33 6c 04 3e
       0.150901 -0.0795116 0.811464 0.129319
0003c0 59 51 e4 c0 af d0 77 be f8 1c 98 3e cf 1b a2 3d
       -7.13493 -0.242007 0.297096 0.0791546
0003d0 97 cb a1 bd d8 65 1c 3f 4d f9 50 be 20 9a e9 be
       -0.0790016 0.610929 -0.204076 -0.456254
0003e0 42 73 22 3d cb 5f b6 bd f6 ad 7b bc c7 ba 18 be
       0.0396607 -0.0890499 -0.0153613 -0.14915
0003f0 6d e5 35 3e d8 0e 46 be be 22 4e bd 82 22 b1 3d
       0.177633 -0.193416 -0.0503261 0.0864916

8 f4 [50]
000000 31 25 c6 3f b9 0c c9 bd d8 64 d5 bf 22 52 f3 3d
       1.54801 -0.0981688 -1.66714 0.118809
000010 25 76 b5 be 46 23 df be 75 b0 b6 bf 9a 7a 1d 3d
       -0.354417 -0.435816 -1.42726 0.038447
000020 79 5b e1 3e 64 04 6c 3f 38 bb 59 bf 9c a8 35 3e
       0.440151 0.921942 -0.850513 0.177401
000030 96 3f 0f be 08 55 08 c0 04 e2 41 c0 2e ab e0 3e
       -0.139891 -2.13019 -3.02942 0.438806
000040 eb a8 86 bf 9e 18 a8 bd 4f e6 1f bf dc 63 c9 bf
       -1.05203 -0.0820782 -0.624608 -1.57336
000050 44 fc 6b bf 03 26 88 bf 0f f1 af be fc 1c c7 be
       -0.921818 -1.06366 -0.343636 -0.388893
000060 ff 58 98 be be 9f 8e bf a4 c7 eb bf f6 62 54 bf
       -0.297554 -1.11425 -1.84203 -0.829635
000070 96 3e 84 3f a2 25 97 be c8 b5 f5 bf a2 0a c7 3e
       1.03316 -0.295209 -1.91961 0.388753
000080 9e 95 3c bf 76 fb 2c bc a3 78 ad be c9 76 d2 3f
       -0.736658 -0.010558 -0.338811 1.64425
000090 0a f5 10 bf 70 08 c5 bf 16 88 de 3d d6 8f 0d 3e
       -0.566239 -1.53932 0.108658 0.138244
0000a0 d6 fc 00 bf 4f 73 a7 bd 8b a2 bc bd 12 a0 96 3f
       -0.503858 -0.0817629 -0.0921069 1.17676
0000b0 52 d2 53 be ab 5b bd 3f 20 99 5e bf 56 29 fd 3e
       -0.206857 1.47936 -0.869524 0.494456
0000c0 16 14 66 3f 34 01 b5 bd
       0.898744 -0.0883812

9 f4 [50, 50]
000000 05 8b 9b bf cc a7 1d 3d 8b 87 7f bf e4 d9 7d 3f
       -1.21518 0.0384901 -0.998162 0.991606
000010 97 83 a8 ba fb e8 b8 bf 0b 98 50 3e 23 32 fc 3f
       -0.00128566 -1.44461 0.203705 1.97028
000020 35 b5 a8 3f 88 4b b6 3f 06 47 27 40 2b 4d d6 bf
       1.31803 1.42418 2.61371 -1.67423
000030 c7 2e 0d bf ce 8d b5 bf 0e 32 0d c0 cd 58 10 bf
       -0.551495 -1.41839 -2.20618 -0.563855
000040 c7 9d 02 c0 96 92 e5 3d 83 c0 89 c0 ff e7 12 40
       -2.04088 0.112096 -4.30475 2.29541
000050 96 09 97 3f 56 d4 81 c0 e3 8d e4 3f c1 8b 96 be
       1.17998 -4.05717 1.78558 -0.294035
000060 ac 38 59 3f fc c6 05 40 3c f9 b4 3e 23 a3 27 bf
       0.848521 2.09027 0.353464 -0.654833
000070 d5 cf 8f bf 02 65 db c0 70 ce 10 c0 64 c9 1c bf
       -1.12353 -6.85608 -2.2626 -0.612448
000080 59 a2 9b 3e 3b c0 38 3c 31 5f 9e bf 2a c6 85 3f
       0.303973 0.0112763 -1.23728 1.04511
000090 97 39 1d bf e6 5a 40 bf d8 bb 93 3f a3 3a 59 bf
       -0.61416 -0.751387 1.15417 -0.848551
0000a0 a3 4a c3 3c 07 2d bf 3d af eb 63 c0 e8 4d c9 bf
       0.0238393 0.0933476 -3.56126 -1.57269
0000b0 85 09 3b 3f fc 18 c3 bf 31 96 b9 3e 8f 19 3a c0
       0.730614 -1.5242 0.362474 -2.90781
0000c0 19 04 9e bf 74 17 37 3d b1 f9 34 bf d7 ce 01 3d
       -1.2345 0.0447001 -0.706935 0.0316914
0000d0 2c 82 2f be aa 7d ca 3e c4 af 40 bf 03 09 1a 3f
       -0.171395 0.39549 -0.752682 0.6017
0000e0 13 d3 e5 be e5 36 8b bd 90 49 e6 3d 4a eb 7b 3f
       -0.448876 -0.0679758 0.112445 0.984059
0000f0 9f 55 7a bf 2f 36 f5 3e fc ab 17 be c9 1c 0b be
       -0.977869 0.478929 -0.148117 -0.135852
000100 77 49 dc 3e e2 75 79 3f ae 45 f3 be 88 89 a1 3c
       0.430248 0.974455 -0.475141 0.0197189
000110 33 52 0b 3f 61 8e 86 bf 50 8c 2c 3e 7d 23 0a 3f
       0.544223 -1.05122 0.168504 0.539604
000120 8d 42 16 bf cc 46 82 bc 31 ef f1 3c e1 b3 05 3f
       -0.586953 -0.0159029 0.029533 0.522276
000130 0d c5 7d be f6 27 51 be f0 17 f3 bd 85 41 35 bf
       -0.247822 -0.204254 -0.118698 -0.708031
000140 49 bc dc 3e 3f 58 6e 3f c8 23 38 3e fb 0c 43 3d
       0.431124 0.931034 0.179824 0.0476198
000150 6c 42 3a be c5 8c 24 bf 41 66 a7 3e 97 ca 9b 3d
       -0.181894 -0.642773 0.326952 0.07607
000160 e9 60 4d 3e 07 d2 8d 3e 24 f1 ea 3e 7e 70 a1 bb
       0.200565 0.276993 0.458871 -0.00492674
000170 9e 26 43 be 82 75 17 bd 41 9e 79 bf f6 5c 96 bd
       -0.190577 -0.0369773 -0.975071 -0.0734195
000180 e8 82 0a 3f fe 48 f5 3f f6 5f e7 bd 16 63 c5 bc
       0.54106 1.91629 -0.112976 -0.0240951
000190 79 b1 f0 bc 49 9f 76 3d f1 11 a1 3d 20 9c 6f be
       -0.0293815 0.0602105 0.0786475 -0.233994
0001a0 08 4a 40 bd 15 57 89 bf 4c 77 8d 3c 1e 33 44 bf
       -0.0469456 -1.07297 0.0172688 -0.766405
0001b0 db df 69 3e a0 ff b9 bc 3d 3d db 3c 03 ed ee 3d
       0.228393 -0.0227049 0.0267626 0.116663
0001c0 ba d9 ff 3d 2a 73 33 be 71 1e e6 be 6d 7f ad bd
       0.124927 -0.175244 -0.449451 -0.0847157
0001d0 94 87 cd be 41 97 85 3d f3 5a 94 bd 63 61 04 bf
       -0.401425 0.0652299 -0.0724391 -0.517111
0001e0 f2 99 b4 3e 4a 08 18 bc 4f 75 88 3e 45 f4 1b 3e
       0.352737 -0.00927932 0.26652 0.152299
0001f0 36 34 9a bd 3c c1 fe 3e 16 30 01 be 2e b9 40 bd
       -0.0752949 0.497568 -0.12616 -0.0470516
000200 69 4b a7 3d 8d 99 d4 be 44 14 33 be 09 a6 da 3d
       0.0816868 -0.415234 -0.174882 0.106762
000210 30 d1 c5 3c 95 87 20 bd 78 ad b9 3d f7 78 31 3e
       0.0241476 -0.0391918 0.0906629 0.173313
000220 79 a6 cc bd c6 33 78 3e 56 2f 9e 3b d9 d0 7d 3e
       -0.0999269 0.242385 0.00482742 0.247867
000230 68 76 3d 3e 17 4c 17 3d cb 33 ca bc 00 c6 83 3e
       0.185022 0.0369378 -0.0246829 0.25737
000240 59 52 0e 3e 82 b7 96 3d 71 ad ee be bb 45 f8 be
       0.138986 0.0735922 -0.466167 -0.484907
000250 c0 77 db bc e2 d2 8c 3c d1 93 9a be 5f 99 07 3e
       -0.0267905 0.0171904 -0.301909 0.132421
000260 f5 36 ec bc 85 e9 fb 3e ff ca 2c 40 aa 28 2e 3e
       -0.0288348 0.492016 2.69989 0.170077
000270 ea 77 41 be 2e 58 4e bf f0 70 b6 bd 1f 65 54 be
       -0.188934 -0.806033 -0.0890826 -0.207417
000280 c8 ec 2c 3e 58 0a 37 3d 8c 6d 0d bd 3d 0a e3 bf
       0.168872 0.0446876 -0.0345283 -1.77375
000290 4f 79 60 bf cb 2e 88 3e b3 ee 2f bf be de c8 3d
       -0.876851 0.265982 -0.687236 0.0980811
0002a0 dc 0b 31 bd 3f 90 1c bf ea af 37 be f9 15 b3 3e
       -0.0432242 -0.611576 -0.179382 0.349777
0002b0 54 70 58 3d 91 9b 81 3e 73 49 4d bf fc fb 28 bf
       0.0528415 0.25314 -0.801902 -0.660095
0002c0 3a 5b 00 3e 04 c6 22 3f e4 c0 c6 3c a8 37 93 3d
       0.125348 0.635834 0.0242619 0.0718835
0002d0 64 92 dd bf f3 af 11 3f 35 27 0f be 07 16 b4 bb
       -1.73103 0.569091 -0.139798 -0.00549579
0002e0 94 69 e4 3e 0e 4a 38 bd 96 25 fa bd b1 36 26 be
       0.446118 -0.0449925 -0.122142 -0.162318
0002f0 d9 eb 5d 3e e2 cd 1e bf 5b 40 38 3e 5a 6b 43 3d
       0.21672 -0.620329 0.179933 0.0477098
000300 a9 f6 81 bf 23 a1 8d 3e a8 1a 41 bf 63 7e a6 be
       -1.01534 0.27662 -0.754313 -0.325183
000310 f2 79 0d 3f 6f 4b 54 3e f8 fc 60 be 78 1c 90 3d
       0.552642 0.207319 -0.219715 0.0703668
000320 fe 91 b3 bb 31 d3 51 bc 9d be b9 bc a8 fc 10 bd
       -0.00548005 -0.0128067 -0.0226739 -0.0353972
000330 e0 41 58 bc 78 23 18 3b 32 57 06 bc 78 34 04 3d
       -0.0131993 0.00232145 -0.0081995 0.0322766
000340 9f c7 2d bd 4a d2 35 bd 26 65 dc 3c 7e bd a7 3c
       -0.0424267 -0.04439 0.0269037 0.0204761
000350 fa 97 24 3c f8 d2 8a bc 5f f4 f0 bc ce 2e 84 3c
       0.010046 -0.0169463 -0.0294134 0.0161356
000360 fb 68 e7 3c dc 2a 6b 3b c7 4c e2 3c 8d ca 57 bd
       0.0282483 0.00358837 0.0276245 -0.0526834
000370 94 ea 71 bd b1 41 15 3d 58 9b 55 bd c3 73 80 bc
       -0.0590616 0.0364396 -0.0521501 -0.0156802
000380 15 c7 c1 3c db d4 ca bc 16 11 0a 3d 29 aa e3 3c
       0.0236545 -0.0247597 0.0337077 0.0277911
000390 66 25 57 bd be 34 a0 3c fb d9 fe bc ab 89 8f 3c
       -0.0525259 0.0195564 -0.0311098 0.0175217
0003a0 ae a2 f9 3b d6 11 14 3a 2e 5b 26 bd ec b3 d6 3b
       0.00761827 0.000564841 -0.0406143 0.00655221
0003b0 7b a5 47 bd 02 42 30 bd d3 bb 1d bd b5 be 2d bd
       -0.0487418 -0.0430317 -0.0385092 -0.0424182
0003c0 b8 1c d0 3a 04 cd 7b ba af bd c5 bc 60 a0 da 3c
       0.00158777 -0.000960544 -0.0241383 0.0266878
0003d0 8f 64 20 bc fa e2 3c bd 75 66 2c 3d 8f fd 6c bd
       -0.0097896 -0.0461149 0.0420899 -0.057859
0003e0 fb 52 44 bd 5a 12 1e bc c5 ed 86 3d 00 91 8e 3d
       -0.0479307 -0.00964793 0.0658832 0.0696125
0003f0 c9 ca af be 16 6a 0f c0 40 de b7 3f a9 30 82 3f
       -0.343344 -2.24085 1.43647 1.01711

10 f4 [50]
000000 96 95 8e bf 6c eb 6f bf 97 74 2c bf 79 3b ee 3f
       -1.11394 -0.937186 -0.673654 1.86119
000010 c4 aa 8b bc 4b b0 e0 be 46 b1 ac 3e bd 1d a1 bf
       -0.0170492 -0.438845 0.33729 -1.25872
000020 a7 22 2d bf a0 e1 31 3f 28 0f cb bf d3 87 e6 3f
       -0.67631 0.694849 -1.5864 1.80102
000030 8c b9 61 c0 b0 e6 f0 3f 72 fa 66 3f f6 ee bf bf
       -3.52695 1.88204 0.902259 -1.49948
000040 9e ea 40 c0 d6 c5 81 bf 8c 9d 60 3f f9 2c af bf
       -3.01432 -1.01385 0.877404 -1.36856
000050 02 9a b0 3f d9 08 d4 3f 7d af 01 bf c8 61 04 bf
       1.3797 1.65652 -0.506584 -0.517117
000060 24 d3 65 bf 76 6d cf bd d9 77 e9 bf 32 20 8f bf
       -0.897753 -0.101283 -1.82397 -1.11817
000070 02 f1 2a 40 68 3f 16 c0 56 65 a3 bf 6d dd f2 bc
       2.67096 -2.34762 -1.27653 -0.0296466
000080 47 71 86 3e 46 24 5a 3e ca dd 97 3e 5e ba 2b c0
       0.262583 0.213029 0.296614 -2.68325
000090 da 73 55 bf 95 9f b4 3f 44 4e 63 3f 2f 8b a1 3f
       -0.833799 1.41112 0.887913 1.26206
0000a0 67 b8 41 be 76 6c bc 3f 14 05 2a c0 6f f0 b5 3f
       -0.18918 1.47206 -2.65656 1.4214
0000b0 b4 e5 04 bf ff 41 34 be 02 9a 88 be c6 4f 4b bf
       -0.51913 -0.176033 -0.2668 -0.794186
0000c0 79 3b 06 c0 3d 0f 06 c0
       -2.09738 -2.09468

11 f4 [50, 50]
000000 15 d3 fd bb 10 fc 39 3d 4b 7d 74 bd ab b7 91 3d
       -0.00774611 0.0454064 -0.0596898 0.0711511
000010 04 62 c8 bc b2 4c 3f 3e bb 8c 11 3d 34 f2 79 3e
       -0.0244608 0.186816 0.0355346 0.244088
000020 24 0b 18 3d 97 db 22 3d c5 c0 84 3d 32 b4 c5 3d
       0.03712 0.0397602 0.0648208 0.0965351
000030 0a c8 6d bd 66 90 31 3d fe 15 38 39 aa 58 86 bc
       -0.0580521 0.0433506 0.000175558 -0.0163997
000040 2c 73 24 bd c4 98 d4 bd b3 5e ec bd 44 6f ac bd
       -0.0401489 -0.103807 -0.115415 -0.0841966
000050 14 40 31 bd 0b 39 80 3c 07 95 38 3c 8d ac 46 bc
       -0.043274 0.0156522 0.011266 -0.0121261
000060 fd 86 a9 bd b2 49 be bc 99 85 71 3d 90 b5 eb bc
       -0.082777 -0.0232285 0.0589653 -0.0287731
000070 1b a0 b4 bc dc ad 38 bb 7a 47 77 3d f1 33 29 3d
       -0.022049 -0.00281798 0.0603709 0.0413093
000080 30 f2 12 3e 33 a5 d5 bd 32 a2 7e bc 9e 09 0d be
       0.143502 -0.104319 -0.0155416 -0.137732
000090 78 85 94 3d 86 b1 22 bc fb 04 00 3e 32 1c 0f 3e
       0.0725202 -0.00993002 0.125019 0.139756
0000a0 93 e0 0d be da 2a 17 bd 16 68 17 3e f0 40 a3 3d
       -0.138552 -0.0369061 0.147858 0.0797137
0000b0 cf a1 4c 3d 3d 49 9a be a7 f6 b8 bd 95 ff f6 b9
       0.049959 -0.30134 -0.0903142 -0.000471112
0000c0 c6 a9 b5 bb d5 0f c5 3c 86 a6 51 bd 4a 29 10 40
       -0.00554392 0.0240554 -0.0511842 2.25252
0000d0 61 1a ae be 70 08 47 40 d1 b8 2b bd 93 19 8f be
       -0.340045 3.10989 -0.0419243 -0.279492
0000e0 01 bd 78 3f a9 4d e8 bf de 8e 80 bf b0 e4 4a bf
       0.971634 -1.81487 -1.00436 -0.792552
0000f0 0b 29 bf 3f 08 77 c7 3f 78 d1 d7 be 26 1c 72 bf
       1.49344 1.55832 -0.42152 -0.945742
000100 9d 63 00 c0 81 3e f1 3f 66 f8 1f be bf 82 ac bf
       -2.00608 1.88472 -0.156221 -1.34774
000110 78 7a 84 c1 b4 b0 d7 bf 84 84 34 3f 99 f5 97 c0
       -16.5598 -1.68508 0.705147 -4.74873
000120 94 a0 53 3f 84 7e d6 3e a2 45 ee 3f 11 87 71 3d
       0.826669 0.418934 1.8615 0.0589667
000130 d6 39 18 c1 c7 12 be be 64 75 9b 3f 6e 6e cc 3f
       -9.51412 -0.371237 1.21452 1.59712
000140 c8 41 c1 3f 22 8b 72 bb 05 a2 37 3f 06 bb 11 40
       1.50982 -0.00370092 0.717316 2.27704
000150 81 d1 15 3e 14 42 67 3e 32 55 5e 40 40 87 9d bf
       0.146307 0.225838 3.47395 -1.23069
000160 e0 2a 6f 3e 21 0b 2c bd 52 2c 57 3e ca 6a e2 be
       0.233562 -0.0420028 0.21013 -0.442221
000170 d2 a9 87 3f aa 9a 00 40 b3 24 20 c0 9e 95 44 be
       1.05987 2.00944 -2.50224 -0.191977
000180 d6 ad 96 3e 73 ba 16 40 82 ad ae bf f6 d4 e2 3e
       0.294295 2.35513 -1.36467 0.443031
000190 28 a9 22 bd 19 e8 18 3c 1d e4 35 bd 07 a4 12 3b
       -0.0397121 0.00933268 -0.044407 0.00223756
0001a0 29 87 a0 3c a4 fc 24 3c 09 be 8e 3c 08 b4 4f 3c
       0.0195957 0.01007 0.0174246 0.0126772
0001b0 2c e9 2d 3d f1 03 a1 ba 8d 3f 16 bd e1 46 2a bd
       0.0424587 -0.00122845 -0.0366817 -0.0415715
0001c0 f2 8e 9d bd b0 2f a3 bc f4 5d c0 bc e1 a7 3b 3a
       -0.0769328 -0.0199202 -0.0234823 0.00071585
0001d0 b7 f5 2e bc 2e a8 94 bc 01 52 36 bd 83 bd 0e bd
       -0.0106787 -0.0181466 -0.0445118 -0.0348487
0001e0 c2 2e 2f bc 36 ab 63 bc 5e 80 02 3d 8b fd e5 bd
       -0.0106923 -0.0138958 0.0318607 -0.1123
0001f0 01 ef ae bc 9c 00 81 bb 9d ee a3 bb 06 81 35 bd
       -0.0213542 -0.00393684 -0.00500281 -0.0443125
000200 ff 4b c8 3c 9a 16 eb bc 5b fc 87 bd 6c 27 e5 3c
       0.0244503 -0.0286973 -0.0663993 0.0279729
000210 02 1c 31 3c 5a fa c8 ba 0e e0 88 bb 6c 44 cb bc
       0.0108099 -0.00153334 -0.0041771 -0.0248129
000220 fe a7 d1 bc ac 73 2c bd b4 ae 11 bd 36 02 71 bc
       -0.0255928 -0.0421025 -0.035567 -0.01471
000230 1e 09 4a bd d7 74 f3 bc 19 04 31 3d 03 f2 20 bd
       -0.0493251 -0.0297188 0.0432168 -0.0392933
000240 13 c6 a0 bc 9f 4a 77 bd 38 fb be bd 8e 38 89 3c
       -0.0196257 -0.0603739 -0.0932526 0.0167506
000250 5c f4 1f bd 6f 07 13 bc 45 0c 00 bd a7 08 d0 bd
       -0.0390514 -0.00897394 -0.0312617 -0.101579
000260 69 da 8f 3c 22 7f bc 3b fc c3 b7 3b 39 2f a9 3c
       0.0175602 0.00575246 0.00560808 0.0206524
000270 80 fe b1 3c d2 c3 30 bd c4 e9 04 3e 8c 9d f0 3d
       0.0217278 -0.0431555 0.129798 0.117488
000280 a4 89 98 3b 70 76 a0 3d 34 e3 e5 bb 86 b5 07 3d
       0.00465508 0.0783509 -0.00701561 0.0331321
000290 6f 55 48 3b 24 91 c7 3c a6 f1 2b bd ce 7b 52 bc
       0.00305685 0.0243612 -0.0419785 -0.0128469
0002a0 4b c0 79 bc b5 1c c3 3c 87 86 2a 3d a4 fc 04 be
       -0.0152436 0.0238174 0.0416322 -0.12987
0002b0 c6 2d 4b bd 7c c1 dd bc 89 5a 1c bc 5f ee f3 3d
       -0.0496042 -0.0270698 -0.00954307 0.119107
0002c0 48 92 96 3d be e0 2e 3c e8 c5 04 bd 70 6c 67 bd
       0.0735212 0.0106737 -0.0324153 -0.0564999
0002d0 cf de b4 bc 52 6c 1c 3c 88 fc 89 3d 34 f7 6b 3c
       -0.0220789 0.00954731 0.0673762 0.0144022
0002e0 8d 7d 09 3e 4b 83 ac bc b4 9e 70 bd 52 70 07 bd
       0.134268 -0.0210587 -0.0587451 -0.0330661
0002f0 47 20 5e 3c f1 80 9a 3e d6 1a aa 3d 15 07 0b bd
       0.0135575 0.301765 0.083059 -0.0339423
000300 40 3e 57 bc ff 54 81 3c 04 0f 8d 3d 6c ac 69 3d
       -0.0131374 0.0157876 0.0688763 0.0570492
000310 2d 27 9c 3d c0 5e 61 bd fa 56 75 bd cf 13 0d 3c
       0.0762466 -0.055022 -0.0598974 0.00861068
000320 a6 31 75 bd 3b bb c6 bb 11 2c a8 bd 54 df be 3d
       -0.0598618 -0.0060648 -0.0821153 0.0931994
000330 96 9f ca 3c a9 14 fb 3d 3c c2 c4 bd 32 04 00 3e
       0.0247343 0.122598 -0.0960736 0.125016
000340 08 3d b3 3e 69 a7 8b 3c db eb 93 3c 41 c0 95 3d
       0.350075 0.0170476 0.0180568 0.0731206
000350 ce cc 27 bc ec d3 d6 3c 9e fc c7 3d 57 ee 9d be
       -0.0102417 0.0262241 0.0976498 -0.308459
000360 a8 34 82 bd b1 6a d0 bc 4f 63 56 bd 4b 45 59 bd
       -0.063577 -0.0254415 -0.0523408 -0.0530446
000370 38 2b 27 3d 94 86 ba bd c6 bb 98 3d f4 7f 18 bd
       0.0408127 -0.091077 0.0745769 -0.0372314
000380 39 48 23 bc 51 3c dd bc 33 c5 18 bc 53 9e bf bd
       -0.00996595 -0.0270063 -0.00932436 -0.0935637
000390 57 bf b8 bd 2e 3a 19 3e 5b 2d 4b 3d 03 8c 78 bc
       -0.0902087 0.149636 0.0496038 -0.0151701
0003a0 79 ff 84 bd 5c e4 9e 3d 5e a0 44 3e b7 ee 06 bd
       -0.0649404 0.077584 0.192018 -0.0329425
0003b0 d8 2d 42 3e 2b 16 d7 3e a2 5f 1b 3e 12 84 eb 3d
       0.189628 0.420091 0.151732 0.114998
0003c0 60 c9 d5 bd db 29 c6 bb 2e 7d 1e bd 78 7f 3c 3e
       -0.104388 -0.00604747 -0.0386936 0.18408
0003d0 21 d0 f4 bb 83 4f 73 be a3 07 de be c2 32 56 be
       -0.0074711 -0.237608 -0.433652 -0.209178
0003e0 cb 2b 77 bd 30 c2 0f 3d 88 bb 7e bf 52 d5 b8 3f
       -0.0603445 0.0350973 -0.995049 1.44401
0003f0 27 fa 0c 3f f1 f4 04 c0 43 84 49 3c 74 ce 7f 3e
       0.550692 -2.07745 0.0122996 0.249811

12 f4 [50]
000000 c8 b1 85 be 7e a7 0d bf dc 3d 4a bd 3f 35 de be
       -0.261122 -0.553337 -0.0493754 -0.434
000010 83 e0 e1 be 52 f0 50 bf e2 ad 23 be fe 7f 7c be
       -0.441166 -0.816167 -0.159843 -0.246582
000020 d6 6e 33 3f 8f 33 25 3f bf 0c 1e 3f 42 5e 97 3e
       0.70091 0.645318 0.617382 0.295641
000030 4f cd 2d 3f a3 3e 5d 3f 22 df 35 3e 6a de a5 bf
       0.678914 0.864237 0.177609 -1.29585
000040 96 98 c7 3e e9 b5 d9 3e 68 cf 05 bf e2 a6 90 3d
       0.389836 0.425216 -0.522696 0.0706308
000050 8b 71 ca 3f 57 17 21 3d 6c 79 bd be f2 9a 37 3e
       1.58159 0.0393289 -0.370067 0.179302
000060 1c 19 35 bd ce a5 f8 be 61 fd 9a c0 67 63 ed 3e
       -0.0442134 -0.48564 -4.84343 0.463649
000070 7e 1d bc bf 90 32 0e bf 1e 6f 56 3f 3c a2 f2 be
       -1.46965 -0.555459 0.837633 -0.473894
000080 53 06 16 3f 84 f2 8e 3e f4 bf c4 3e be dc 6f bf
       0.586034 0.279194 0.384277 -0.936962
000090 ce 56 a9 3d 2a 77 ba 3c d0 d2 35 3e bb 96 35 bc
       0.0826851 0.0227619 0.177562 -0.0110833
0000a0 69 c5 37 be c5 e3 32 3f bb d2 ea be 20 e6 8c 3d
       -0.179464 0.698788 -0.458639 0.0687983
0000b0 d9 d0 0d 3e ac a9 78 bf 5b 9a 77 bf 45 a1 e5 3d
       0.138492 -0.971339 -0.967199 0.112124
0000c0 9e a7 9b bd fe b6 ff be
       -0.0760033 -0.499443
