configs/networks/cifar_32x5x1x5.onnx (onnx, 605657 bytes, 12 tensors)

conv1.weight f4 [32, 3, 5, 5]
000000 2e b6 65 be 95 43 a5 be ee 4d 31 be 58 45 05 be
       -0.22432777 -0.32278123 -0.17314884 -0.13014734
000010 57 ea 75 3d 1f f7 e3 be f4 6c ec be c9 85 6e be
       0.060037937 -0.44524476 -0.46176875 -0.23293222
000020 02 e1 c9 3d b2 9c 23 3e e0 d7 bf be e5 d5 90 be
       0.0985737 0.15977743 -0.37469387 -0.2828819
000030 ae 2e 22 bb 83 4c 8c 3e 52 f8 76 3e e5 52 52 bd
       -0.0024747062 0.27402124 0.24118164 -0.051348586
000040 a4 04 0d 3e 18 db 79 3e 21 6b d1 3e c5 43 c1 3e
       0.13771302 0.24399984 0.40902045 0.37747017
000050 92 18 28 3d cc c9 55 3e 33 7b a6 3e 84 5c 6e 3e
       0.041039057 0.2087776 0.3251587 0.2327748
000060 e0 fe 42 3e f6 5f 96 3e 36 ae c4 3d 3c 41 14 3e
       0.1904254 0.29370087 0.096035406 0.1447801
000070 ba bd a4 3d 66 47 6f bd 77 cd 1b 3e fc 58 2d 3e
       0.08044 -0.0584177 0.15215097 0.16928476
000080 fa 55 27 3e 5d da 9d bc 4d 08 92 3d 5a aa fd 3d
       0.16341391 -0.019269163 0.071304895 0.123860076
000090 b8 10 81 bd b0 1f 51 bb 7a 3d 5b be a5 83 0a be
       -0.06302017 -0.0031909756 -0.2141017 -0.13526781
0000a0 07 cc 78 bd 81 17 f7 bd 40 b2 38 be 88 2c 82 be
       -0.06074145 -0.1206503 -0.18036747 -0.254246
0000b0 6a d8 80 be 4d e1 d3 bc bd 97 10 be 3c 33 29 be
       -0.2516511 -0.025864268 -0.14120384 -0.1652345
0000c0 63 f3 9d bc 0f 92 00 be 8e fb e6 3d 45 f5 5f 3e
       -0.019281095 -0.12555717 0.11278449 0.21870907
0000d0 2d 43 e7 3d ba b2 00 be 53 5c 4b bd f7 d4 7d 3e
       0.1129211 -0.12568179 -0.049648594 0.24788271
0000e0 99 6a 9c 3e 28 a4 03 3e 0b 82 dc 3c 7e a2 a6 bd
       0.30550078 0.1285559 0.026917478 -0.08136462
0000f0 b6 98 98 3e ae 6c 79 3e 7b 32 5e 3c 22 8d ad bd
       0.2980401 0.24357864 0.01356184 -0.084741846
000100 d5 e0 64 be aa 7d 36 3e ca 29 f3 bb b0 f8 d6 bd
       -0.22351392 0.17821375 -0.007420753 -0.10496652
000110 b0 26 30 be d4 35 53 be 6b 07 d8 3d 64 90 ed bd
       -0.17202258 -0.20626003 0.1054829 -0.11599806
000120 6e 20 62 be c8 02 99 be bd f4 a7 bd 85 86 9d be
       -0.22082683 -0.29884934 -0.08200977 -0.30766693
000130 93 56 a7 3e 75 53 b9 3e 31 ca cd be 1a a2 92 3d
       0.32683238 0.36196485 -0.40193322 0.07159825
000140 e4 1a a3 be ce dd 52 bd 5c f7 18 3f 45 25 98 bb
       -0.31856453 -0.05148106 0.5975244 -0.0046431147
000150 ab 63 ab be 6a 16 34 3e b3 84 2b bf 60 f8 3f be
       -0.33474478 0.17586675 -0.6699936 -0.18747091
000160 69 eb 24 3f b7 33 ac bd b2 0a ba 3e 90 06 db bd
       0.6442171 -0.08408301 0.36336285 -0.10694611
000170 ea 6a 20 bf 2d 5e db 3c 3f ad ce 3e 65 58 23 be
       -0.6266314 0.026778305 0.4036655 -0.15951689
000180 21 18 03 3e df 39 14 3d 67 f1 ae bd 52 e9 4c 3e
       0.12802173 0.036188003 -0.085421376 0.2001088
000190 4b 16 69 be eb f9 67 3e a0 c8 b1 3e 20 24 89 be
       -0.2276241 0.2265393 0.34723377 -0.26785374
0001a0 00 f6 49 3e fd 52 9e be 36 1f 7f be 87 93 f0 3e
       0.19722748 -0.3092269 -0.2491425 0.46987554
0001b0 67 ae d6 3d fc db 76 be 6c 5f 9d 3e bc b8 2f bf
       0.10482483 -0.24107355 0.30736864 -0.6864126
0001c0 d4 d9 b9 be ff 88 0a 3f 40 16 d3 3c 69 1c d2 3e
       -0.36299002 0.5411529 0.025767446 0.410373
0001d0 7c 6f 36 3d 2c 34 14 bf 9d b7 86 bd 5f 66 71 3e
       0.044539914 -0.5789211 -0.0657799 0.23574208
0001e0 76 4d d7 bd 79 db 95 3e a8 de 62 3d 66 c3 3e be
       -0.105128214 0.29269007 0.055388123 -0.18629226
0001f0 82 c8 10 bd 38 78 9a bd 9b bc ab 3e 97 33 f4 3d
       -0.03534747 -0.07542461 0.33542332 0.119239025
000200 d3 48 cc be c4 c3 c0 bd 3d 82 41 be 8a b0 da bc
       -0.3989931 -0.09412339 -0.18897338 -0.026695509
000210 97 34 20 3f de eb 11 be c2 89 a0 be 45 89 ea 3e
       0.62580246 -0.14250132 -0.313551 0.45807853
000220 20 6b c4 be 05 44 5b be ab f6 e2 3e 8f 40 a5 bd
       -0.3836298 -0.21412666 0.44328818 -0.08068954
000230 69 4c af 3e fc e7 07 3e 3e 7e d7 be b7 35 b1 bd
       0.34237984 0.13272089 -0.42088503 -0.086528234
000240 dc c7 0c 3e bd df 8f be 91 21 94 3e 82 05 02 3e
       0.13748115 -0.28100386 0.2893186 0.12697414
000250 c3 76 49 be 0a a8 14 be bd cc 87 3d 1e 25 c7 3d
       -0.1967421 -0.14517227 0.066308476 0.097238764
000260 26 75 00 3d bb 4a 0f be 05 0c 5f bc 31 8b a4 3b
       0.03136172 -0.13993351 -0.0136137055 0.0050214757
000270 ee db 22 bc 31 f9 07 bd b0 a8 33 3e 85 c2 27 3d
       -0.009940131 -0.03319663 0.17544818 0.040956993
000280 01 89 84 bd 4b 26 05 be 3f 0e 24 bd cd bb b4 3d
       -0.06471444 -0.13002889 -0.04005265 0.08824883
000290 ca a8 ee 3b e3 40 ab 3d 7e 39 0d 3d 97 51 cc 3c
       0.007283305 0.083619855 0.034478657 0.024941249
0002a0 87 6b 13 3d a6 bc 27 be f0 8e 9c 3c d0 4d 93 39
       0.035991218 -0.16380557 0.019111127 0.00028096
0002b0 c4 0c 20 bd e1 a6 9e be 8c 31 ff 3c de 4a 44 bd
       -0.039074674 -0.30986694 0.031151555 -0.04792296
0002c0 a3 94 2e be 20 66 30 3d 7c 26 13 3d c3 b1 09 bd
       -0.17048888 0.043066144 0.035925373 -0.033616792
0002d0 39 9b 5c be c7 99 4c be e8 06 8b 3d 30 5c 90 3e
       -0.21543588 -0.19980536 0.06788427 0.28195333
0002e0 6a 5b 96 3e b4 4a 31 be ba 0d 34 be 27 30 41 bb
       0.29366618 -0.17313653 -0.17583361 -0.0029478164
0002f0 ab 8a 81 3e f3 2d 43 3e 1a 6b 8c bc 59 57 8d 3c
       0.25301108 0.19060497 -0.017140914 0.017253565
000300 0c 63 8a 3b 4b a8 30 3e 22 07 18 bd c0 02 df 3c
       0.004223233 0.17251699 -0.037116177 0.027222991
000310 6a 35 0d 3e 88 1a 3e 3d 4d df b4 bd 98 bf 8a bd
       0.13789907 0.04641202 -0.08831654 -0.06774825
000320 b5 d4 9f be 64 51 91 be e0 45 d7 bd 28 43 c8 3d
       -0.3121697 -0.2838241 -0.105113745 0.09778434
000330 50 5a 20 3c 53 f2 05 bf 94 ee 97 be f2 ba d4 3b
       0.009787157 -0.5232288 -0.29674208 0.006492012
000340 d7 74 ad 3e a9 99 f6 3e 6e dc 70 be 24 fb e5 be
       0.33878204 0.48164108 -0.23521587 -0.44918168
000350 c4 47 b1 bb 03 ad ec 3e fd 44 c9 3e 51 68 df bd
       -0.0054101665 0.46225747 0.39310446 -0.10908569
000360 05 78 47 be d1 27 8a 3c d7 80 27 3e b9 46 08 3e
       -0.19479378 0.016864689 0.16357742 0.13308229
000370 1a 8f c6 3d 04 1b 1a bd 7c b7 dc 3d 93 3a 37 3d
       0.09695263 -0.03762342 0.10777184 0.044733595
000380 2a c1 84 3d 33 c5 33 3e 55 e8 28 3e ec 5a 93 3d
       0.064821556 0.17555694 0.16494878 0.07195076
000390 e5 39 6e be d2 2c 58 be d4 e2 53 3e e1 0c 8a 3e
       -0.23264273 -0.21110848 0.20691997 0.2696295
0003a0 88 99 0d 3e 23 28 98 be 28 24 84 be 5e 99 40 3e
       0.13828099 -0.29718122 -0.25808835 0.18808505
0003b0 d4 dc 79 3e 92 02 2e 3e 84 ff d4 be 76 00 ab be
       0.24400645 0.16993168 -0.41601193 -0.3339879
0003c0 e7 ce 8f 3e d0 18 c3 3e 64 2d d6 3d 4a a6 c3 be
       0.2808754 0.38104868 0.10457876 -0.38212806
0003d0 75 33 d8 be e4 6b 46 3e f6 7a 7b 3e 29 17 68 3b
       -0.4222676 0.19377095 0.24558625 0.0035414195
0003e0 b2 8a b5 be aa d1 ee be a8 97 be bd 5f 2b 95 3d
       -0.3545738 -0.46644336 -0.0930627 0.07283663
0003f0 45 ce c7 3c 56 96 1e 3e cf 73 33 3e ef 4c f2 bd
       0.02439035 0.15487036 0.17524646 -0.1183108

conv1.bias f4 [32]
000000 66 1f 71 be bd 95 46 be 3e 52 58 be 2c 3b 0a be
       -0.23547134 -0.19393058 -0.21125123 -0.13499135
000010 55 c1 e1 be 9b 97 7b be 82 38 37 be 22 e4 6e be
       -0.44092813 -0.24569552 -0.1789265 -0.23329213
000020 ca 2c f5 bd 68 f4 0d 3e 9b 1f b7 be bf 13 95 be
       -0.119714335 0.13862765 -0.357663 -0.29116628
000030 53 d1 2f be ef 05 5b be 45 b9 6f be 4f 94 d4 bd
       -0.17169695 -0.21388982 -0.23410518 -0.1037985
000040 b9 de 4a be 18 12 90 be fe 58 84 be 51 df f3 be
       -0.19811524 -0.28138804 -0.25849146 -0.47631314
000050 1c 11 69 be 9c 11 e2 be 53 29 43 be 89 c8 d4 be
       -0.22760433 -0.4415406 -0.19058733 -0.41559246
000060 2c b5 4a be 2d 58 34 be f4 8c 9e be 61 e9 38 be
       -0.19795674 -0.17611761 -0.30966914 -0.18057777
000070 99 93 65 be e8 6e ff bd f6 e4 6c be 90 d5 f2 be
       -0.22419585 -0.124723256 -0.23134217 -0.4742856

conv2.weight f4 [32, 32, 5, 5]
000000 4e e9 5b 3d 14 90 77 3d e4 c5 99 3c f3 23 a5 3c
       0.053689294 0.060440138 0.01877112 0.020158743
000010 26 ad 43 3d 0a 0c 8a 3d 1c 43 c3 3d 27 9a 16 bc
       0.04777255 0.067405775 0.095342845 -0.009192026
000020 79 91 b6 3c bb 7c 5f 3d 42 07 85 3d 51 9e 4a 3d
       0.022286164 0.05456231 0.06495525 0.04946739
000030 b0 25 71 3c bb 81 42 bd b9 fc 18 3d c4 3d 18 3d
       0.014718458 -0.047487002 0.03735039 0.03716828
000040 a0 30 f3 3c 56 38 e4 3b 19 ad 3a bd 00 9a 54 3c
       0.029686272 0.0069647236 -0.045575235 0.01297617
000050 27 85 66 3d fb 53 dd ba a3 9b 64 bb 1c 1e 12 3d
       0.056279328 -0.001688599 -0.0034882806 0.035673246
000060 9b 59 3d 3d 14 b3 03 3c 7d 00 11 3c 41 37 7f 3d
       0.046228033 0.008038301 0.008850214 0.062308554
000070 30 a2 06 3e dd cd ae 3d 18 48 2e bd a2 ca 20 bd
       0.13147807 0.08535359 -0.042549223 -0.039255746
000080 b1 ae d1 bc a5 1c b9 3d 35 1f b6 3d c4 3f 56 bd
       -0.025595995 0.09038667 0.08892671 -0.052306905
000090 08 be 6f bd 34 29 b6 bd f8 eb 31 bd ed 06 96 3d
       -0.058530837 -0.088945776 -0.043437928 0.0732554
0000a0 1a 4b 27 3c f5 d7 b2 bd 9c a7 9c bd 61 59 43 bd
       0.010210777 -0.08732597 -0.076491565 -0.04769266
0000b0 6d 5d 87 bd ca d7 59 bd 15 22 4c 3d 02 eb 22 bd
       -0.066096164 -0.053184308 0.04983719 -0.039774902
0000c0 e1 4a 00 be 57 df 19 bd 95 8c df 3d b8 84 e8 3d
       -0.12528564 -0.03756651 0.10915486 0.11353439
0000d0 ae 8b 9c 3d 64 f9 ac 3d 49 aa 12 3d 84 bf c4 3d
       0.07643829 0.08446005 0.035806928 0.09606841
0000e0 6d 0f 81 bc 5c dc 0d bd 38 09 9a 3c 8c 71 aa bc
       -0.015754426 -0.03463398 0.018803224 -0.020806096
0000f0 cc b8 17 3e b9 1f 41 bd 46 ec 03 be c7 8d 86 bd
       0.14816588 -0.047149394 -0.128831 -0.06570011
000100 1d 41 ae 3d 7a 1e 46 3e 02 77 47 bb 06 6a 52 bd
       0.08508513 0.19347563 -0.0030435924 -0.051370643
000110 b7 bb ee bc 87 51 01 3d 4d e2 09 3e f6 cd 7d 3d
       -0.029142244 0.03157189 0.13465233 0.061963998
000120 08 b6 27 3d 43 ce 52 3d 4b 32 a7 3d 9f 21 8c 3b
       0.040945083 0.051466238 0.081638895 0.004276469
000130 bd a6 61 bd 63 f0 8b 3b d3 a4 3d 3d 6d fd 11 bc
       -0.055090655 0.0042705997 0.046299767 -0.008910519
000140 3e c4 81 ba 53 72 86 bd 70 7d 7f 3b d4 c2 c7 bc
       -0.0009900404 -0.06564774 0.0038984679 -0.024384893
000150 48 8f 0b 3b b7 8b c4 3a a4 de 6a bb f3 22 eb bc
       0.002129512 0.0014995252 -0.003583827 -0.028703189
000160 b7 13 38 bc 75 8b fd 3c 88 60 88 3c 43 1b 3f 3c
       -0.011235169 0.030950287 0.016647592 0.011664215
000170 be 93 80 3a 6b 11 70 3d 41 91 00 3d 32 e3 72 3d
       0.0009809656 0.05861036 0.031388525 0.0592987
000180 c8 a0 35 3c 20 01 72 3d a6 7e 14 3e 49 9c a4 3d
       0.0110856965 0.059083104 0.14501438 0.080376215
000190 56 7e b5 3c f3 32 f8 3b 84 fe 36 bc fc 39 4f 3d
       0.022154968 0.007574433 -0.01116908 0.050592408
0001a0 07 f7 95 3c 46 69 25 bd 73 21 89 bd f3 c5 c4 bb
       0.018306268 -0.0403836 -0.06695833 -0.0060050427
0001b0 6a e0 7e bc 14 d2 0c bc db b8 bd 3c 46 aa 04 bd
       -0.015556434 -0.008595008 0.023159435 -0.032388948
0001c0 ff 68 09 bd ab ca d8 3c 74 ed 7d 3c fa f2 d2 3d
       -0.033547398 0.026463827 0.015498508 0.1030025
0001d0 09 ee 70 3c 8f 72 3b 3c 51 31 35 3d 8a da 96 3c
       0.0147051895 0.011440887 0.044236485 0.018414754
0001e0 f0 5b 9d 3c a0 9c 0c 3c f7 6b 97 bc 33 b4 02 3d
       0.019208878 0.008582264 -0.018484099 0.031910133
0001f0 e0 ee 73 3b e4 10 b3 bd 33 08 af bd 43 b8 12 bd
       0.0037221238 -0.08743456 -0.08546486 -0.035820257
000200 d1 b7 d1 bc 9e 5c a4 bd 04 8c 32 bd 9f 59 6c bd
       -0.025600346 -0.08025478 -0.04359056 -0.057702657
000210 8a 7a 81 bd 71 44 b0 bc 76 87 44 bc 0a 5f e9 3a
       -0.063222006 -0.02151701 -0.011995187 0.0017804813
000220 87 f6 79 bd cc 19 d5 bd 54 c0 85 bd d1 15 f9 bc
       -0.061026122 -0.10405311 -0.06530824 -0.03040591
000230 ee 03 35 bd 76 77 c3 bd 6e dd d9 bd 0c 95 de bd
       -0.0441932 -0.0954427 -0.106379375 -0.10868272
000240 74 41 0c bd 5b 86 2b 3d 70 7c 80 3c e1 90 02 bd
       -0.03424211 0.04187618 0.015684336 -0.03187645
000250 2b ec 59 bd 01 e5 0e bd 86 17 9b bc dc 0b 49 bd
       -0.053203743 -0.034886364 -0.018932115 -0.049083576
000260 5a 05 3f 3c 58 f9 bd 3c 56 d2 5d bd 7b f1 39 bd
       0.011658991 0.023190185 -0.05415567 -0.04539631
000270 66 72 4e ba f9 05 d3 3c db 60 3b 3c 12 5c b1 bd
       -0.0007875323 0.025759684 0.011436666 -0.08660139
000280 b1 7a f1 bc 8d eb ee 3c d7 f8 eb 3c 57 4b 9e 3c
       -0.02947745 0.029165054 0.02880518 0.019323034
000290 5a 9a a8 bd b7 e2 f2 bc a3 3d 92 3d 24 cb 1e 3c
       -0.08232565 -0.029649122 0.071406625 0.009691987
0002a0 2a 43 d8 3a 54 64 ef bc f6 50 c7 bc 9e 07 18 3d
       0.0016499509 -0.029222645 -0.024330597 0.03711664
0002b0 60 ac 88 3d 24 4e d3 3d b7 b1 ee 3d 5b ed c5 bd
       0.06673503 0.103176385 0.1165499 -0.096644126
0002c0 f9 45 ff bd 4a 9d 7f bd 50 7a b6 bd e9 f0 0a bd
       -0.12464518 -0.062405862 -0.08910048 -0.033921156
0002d0 79 09 4a bd fc 80 97 bd ef 3e f5 bc 20 8b 37 bd
       -0.04932544 -0.07397649 -0.029937236 -0.044810414
0002e0 be 20 71 3d cf 41 e8 bc cb 9d db bd 8d 3d c3 bd
       0.058869116 -0.028351692 -0.10723456 -0.09533224
0002f0 00 5d 27 bc ac 3e 9e bc d9 fc 83 bd 04 48 85 bd
       -0.010215044 -0.019316994 -0.06444711 -0.065078765
000300 da 74 de bd e6 18 ca bd b7 e0 8e bd 30 74 b0 3c
       -0.108621314 -0.0986803 -0.06976455 0.021539778
000310 a0 21 af bd ae c9 83 bd 2a 8c ee bd 02 fc 03 bd
       -0.08551335 -0.06434952 -0.11647828 -0.032222755
000320 46 ab 6a bd 19 69 ec bd a0 69 b9 bd 04 bf a7 bc
       -0.057292245 -0.11543483 -0.090533495 -0.020476826
000330 38 d2 5e bd d1 36 6a 3c e7 55 d2 bc d6 eb bc bd
       -0.0543997 0.014295296 -0.025675727 -0.0922467
000340 c7 99 b7 bd 98 17 1d bb bf 42 1a 3d 85 c2 98 bd
       -0.089648776 -0.0023970362 0.03766131 -0.07458977
000350 c9 a1 81 bd 21 6c 85 bd 26 5e 44 3d ea f6 12 3d
       -0.06329686 -0.065147646 0.04794135 0.035880007
000360 f5 45 6a bd f9 3a d6 bd cb 26 22 bd ef e2 59 3d
       -0.057195622 -0.10460467 -0.039587777 0.053194936
000370 46 ca 3a bb e1 35 22 bc c5 e2 83 bd b5 3c 72 bd
       -0.0028501912 -0.009900541 -0.06439737 -0.059139926
000380 58 d6 6b 3c a5 1a d5 bc f7 53 42 bc fa 1c 20 bc
       0.014394365 -0.026013682 -0.011860839 -0.009772534
000390 1b 47 a8 bd 39 e9 de bd f6 d2 7b 3c b4 f3 06 3d
       -0.08216687 -0.108843274 0.015370121 0.032947257
0003a0 31 1f d5 3b da 16 32 bd 04 23 6b bd d2 8b cf 3d
       0.0065039624 -0.043478824 -0.05740644 0.101340905
0003b0 17 cb e0 3d 2b 38 8e 3d 86 ec c6 3b c0 e9 80 bd
       0.10976236 0.06944307 0.0060706763 -0.06294584
0003c0 c3 c1 7f 3d 41 ee 01 3e 9c 73 a0 3d 87 5b 7f bb
       0.062440645 0.12688543 0.07834551 -0.0038964467
0003d0 77 d0 a0 bd f4 8b 34 3d ad 26 4a 3d ed 11 eb 3b
       -0.078522615 0.044078782 0.04935329 0.007173768
0003e0 fc bf c4 bb 4d 2a da bd 5d a1 a9 3d ea e2 8a 3d
       -0.0060043316 -0.106525995 0.08282731 0.06781562
0003f0 68 12 4b 3d 00 b4 a4 3c 3a 66 5f bd fc 83 73 3d
       0.0495781 0.020105362 -0.05454085 0.059452042

conv2.bias f4 [32]
000000 05 91 46 3e e9 ef ee 3d 4a 71 0a 3e ce eb 29 3f
       0.19391258 0.11666853 0.13519779 0.66375434
000010 ea 22 85 3d 99 2c 63 be 3f a7 dd bd a1 9b f9 bc
       0.065008 -0.22184981 -0.10822915 -0.030469717
000020 75 ca c9 3e 9c 30 6c be 00 90 32 3e f1 54 01 bf
       0.39412275 -0.23065418 0.17437744 -0.50520235
000030 a1 56 25 3e 6f 56 d4 3e bd 6c 9a 3e 91 ce 15 bf
       0.16146328 0.41472194 0.30161086 -0.5851832
000040 b7 88 d9 3d 6f f7 d6 3d 92 b2 9d bd 94 2c b1 3d
       0.106217794 0.10496413 -0.07700075 0.08651081
000050 90 35 02 be 67 9f 91 3d 5b 51 46 be a5 61 33 3e
       -0.12715745 0.07110482 -0.19366972 0.17517717
000060 fa 13 5f 3d 05 a0 14 3e e0 03 38 3e 1f 13 19 3e
       0.05446241 0.14514168 0.17970228 0.149487
000070 0d a7 97 be 63 bc 39 be 52 29 60 3e f3 0c d4 3d
       -0.29619637 -0.1813827 0.21890762 0.10354032

conv3.weight f4 [32, 32, 5, 5]
000000 a1 6e a1 3c 6b 6f fb ba 70 87 7d 3d 53 70 8b 3d
       0.019706072 -0.0019182985 0.06189674 0.068085335
000010 cd 12 59 3d ff 3a d7 3b 34 d0 fe bc 9b 91 fa bc
       0.052996445 0.006568312 -0.031105138 -0.030587008
000020 0e 4a 83 3d 68 bd 8e bc 9f 0b 84 bc f8 02 bf bd
       0.06410609 -0.0174243 -0.016118823 -0.09326738
000030 1a f9 ff 3c 0d 98 65 3d dc f0 8f 3b ea e4 a4 bc
       0.03124671 0.05605321 0.0043927263 -0.020128686
000040 db b2 a9 bd 6b 7b 8b 3a 89 d3 51 3d 7d 39 79 bb
       -0.08286067 0.001064164 0.051227126 -0.003802865
000050 5e 6d c3 3b 78 70 f8 bc dc 76 ae bd 8b 8b 00 be
       0.0059639653 -0.030327067 -0.085187644 -0.12553231
000060 8c 42 e8 bd b2 c6 79 3d 89 37 c2 bd 86 42 17 be
       -0.11340818 0.060980506 -0.09483249 -0.1477147
000070 a2 3f 6b bd cd 52 0f 3d 3f 9b 99 3d 4a 27 39 bd
       -0.05743373 0.034991074 0.07500314 -0.045203485
000080 62 2b be bd 5d db 2b bd 06 d9 fc bc 53 7f c3 3d
       -0.09285618 -0.041957248 -0.030865204 0.095457695
000090 0b c6 38 bc ab cd 26 bd cd d0 7d bd c9 33 23 bc
       -0.011277686 -0.040723484 -0.061966706 -0.009961077
0000a0 43 78 70 3d 27 d6 67 3b b3 24 9c bd 71 ef 73 3b
       0.05870844 0.0035375447 -0.07624187 0.0037221576
0000b0 3b 09 2a bc ca 57 c9 bb 01 a2 2e 3d 58 6f d2 bb
       -0.010378177 -0.0061444985 0.042634968 -0.0064219646
0000c0 c1 bb 96 bc 27 3f 03 bb 39 33 a2 3d 53 85 5e bd
       -0.018400075 -0.0020026655 0.07919926 -0.054326367
0000d0 08 a3 37 3b 01 00 28 3c db d7 b5 bd 11 e8 e4 3d
       0.0028020758 0.010253907 -0.08879062 0.11177076
0000e0 92 d5 00 bd df 73 89 3d 6e 46 3c bb ab 12 6b bd
       -0.031453677 0.06711554 -0.0028728503 -0.05739085
0000f0 11 08 6e 3d 7c 31 4e 3d f4 0f a0 3d e3 3a 01 3d
       0.05811316 0.05034016 0.07815543 0.0315503
000100 b4 1d 7c 3c 38 95 a1 3d 7e 94 bd 3d 0f b6 ce 3c
       0.015387941 0.07889789 0.09256838 0.025233297
000110 22 b9 8f bb 71 f2 8b 3c fe 23 05 3b 6f 07 a2 3d
       -0.004386083 0.017083379 0.0020315642 0.07911574
000120 55 42 ec bb c9 3b ab bd be 02 11 be 73 84 7b bc
       -0.007210056 -0.083610125 -0.14161202 -0.015351403
000130 1e bc 3a 3d 68 59 0c 3c 7d 94 c2 bd c3 39 68 bd
       0.04558956 0.008566238 -0.09500978 -0.05669571
000140 2a 8c 42 3d 8e 2f dc 3c 3c 81 88 b8 68 ee 80 bd
       0.047496952 0.026878145 -6.509057e-05 -0.062954724
000150 65 26 4f 3b 71 fe 6d bb d2 bb 33 bc 87 1b be bc
       0.0031608578 -0.003631499 -0.010970073 -0.023206485
000160 00 b9 aa bc 8d df ad bd 77 76 ce bd a6 8b 1d bc
       -0.020840168 -0.084899046 -0.10081189 -0.009615814
000170 46 65 3f 3d 13 2f 1a 3c 1b 97 85 bd c2 ed 31 be
       0.04672744 0.009410637 -0.06522962 -0.17375854
000180 9b 6d bc bd 87 9b 18 bd 81 f4 35 bd 8d 0d 28 be
       -0.09200593 -0.037257697 -0.04442263 -0.16411419
000190 ba b4 2c bd b5 04 c2 3c da f6 44 3d 47 29 57 3c
       -0.04216454 0.023683885 0.04808698 0.0131324
0001a0 41 37 07 3d a2 64 e4 bc 5e 93 44 3c 93 a2 98 3d
       0.03301168 -0.027880017 0.011998026 0.074528836
0001b0 ae 99 60 3d d2 d8 63 bc 2a c9 60 bd 93 3d b2 bd
       0.05483406 -0.013906674 -0.054879345 -0.087031506
0001c0 38 10 46 bd 0b f3 4b bd 83 c8 00 bd a3 2f b3 bc
       -0.04835531 -0.04979233 -0.031441223 -0.0218733
0001d0 80 cc bc 3c de e8 e1 bc 44 39 37 bd fc 91 da bd
       0.023046732 -0.02757686 -0.044732347 -0.106723756
0001e0 d2 5f c3 bc 18 93 55 3d 6f 8a 1b bd ee fd bf bd
       -0.023849402 0.052142233 -0.037973817 -0.09374605
0001f0 46 ba f3 bd 70 cd 60 bd 1e 4b ad bd b8 56 29 be
       -0.11900763 -0.05488342 -0.08461593 -0.16536987
000200 4d bb c6 bc 8b a6 03 bd 62 8d 93 3c ad 0a aa bd
       -0.024259234 -0.03214125 0.018011753 -0.083028175
000210 9e 06 7b bd e9 00 73 3a 6f 45 46 bc d5 31 9b 3c
       -0.061285608 0.000926985 -0.012101515 0.01894466
000220 a8 53 61 bd e9 fd 7e bd 0a c6 82 3d 13 e0 30 3e
       -0.05501142 -0.062253866 0.06385429 0.17272978
000230 93 ad 5b bd f1 75 4d bb 5f 04 4d bd 23 09 03 3d
       -0.05363233 -0.0031350816 -0.050052997 0.031991135
000240 30 f5 2c 3e d9 2d 06 3e 99 cf ec 3d 20 a5 c5 3d
       0.16890407 0.13103427 0.115630336 0.09650636
000250 96 a5 4a 3e 7c ed 48 3e ab 13 fe 3c f2 c8 84 bd
       0.19789729 0.19621843 0.031015238 -0.0648364
000260 57 39 e3 bd 60 30 e2 bd 79 be 77 bd 87 64 8a bd
       -0.11094921 -0.11044383 -0.060484383 -0.06757455
000270 05 a2 b0 bd 38 51 b5 bd 64 80 0e be e5 b7 a3 bd
       -0.08624653 -0.08853382 -0.13916165 -0.079940595
000280 f3 b8 d5 bd e6 cc cd bd 31 6f c9 bd 4f b8 a1 bd
       -0.10435667 -0.10048847 -0.09835661 -0.07896482
000290 fd 80 e8 bc 48 56 5f bb b0 b1 c3 bc 7b a0 05 bc
       -0.028381819 -0.0034078527 -0.023888439 -0.008155937
0002a0 6f 3d 2f bd 9d 49 44 bd 99 1f 3e bc 0d 59 e2 bc
       -0.042783197 -0.047921766 -0.011604213 -0.027630353
0002b0 d4 ec ad bc 49 cc b3 3c f8 a7 f1 bc 9c ee 5e 3d
       -0.021231093 0.021947997 -0.029499039 0.054426774
0002c0 ad fc 88 3d 56 17 85 3d b8 b9 8a 3d 92 17 03 3e
       0.06688819 0.064985916 0.06773704 0.1280196
0002d0 19 f5 d9 3d f9 13 e0 3c 28 3c 49 bc b1 ab 6c bd
       0.10642452 0.027353274 -0.012282409 -0.057780925
0002e0 43 65 c3 ba 55 7b 93 3d 4f 28 bf 3c cb d6 12 3c
       -0.0014907498 0.07201258 0.02333465 0.008962343
0002f0 f8 84 07 bd 53 d5 e1 bc af 68 5e 3d 46 0f 56 3d
       -0.033085793 -0.027567541 0.054299053 0.05226066
000300 18 3b 94 3c 0b da ec bc 0c 25 fc bc c1 5a 93 bc
       0.018094584 -0.028912565 -0.030779384 -0.01798761
000310 96 7a 08 3d 26 da 3d 3d ed 2b 8f 3d ca fe 8a 3d
       0.033320032 0.04635062 0.069908 0.067868784
000320 c3 1f bd 3d 48 eb 5b 3e bb 82 22 3e b1 25 70 3d
       0.09234574 0.21476471 0.15870182 0.058629695
000330 ae 08 f3 bc ab 22 56 3c bc 62 c2 3d db 50 03 3d
       -0.029667225 0.013069789 0.09491488 0.03205953
000340 00 c0 0c 3c f2 b5 0a be 9e 6a 9e ba 98 7b 14 3c
       0.008590698 -0.13545969 -0.0012086218 0.00906267
000350 00 3c 20 3d 92 43 a5 bc fd 0c f7 bd 3f 8a 9c 3d
       0.03911972 -0.020173822 -0.12063024 0.07643556
000360 12 37 17 3d e6 66 3d bd 25 99 8b bd ff 27 dc bd
       0.036917754 -0.04624071 -0.068163194 -0.10749816
000370 87 b6 87 3d 08 b4 6a 3d 88 d1 50 ba ba 44 97 bd
       0.06626611 0.057300597 -0.0007965793 -0.073861554
000380 93 f8 e4 bd aa 7b bb bd 74 9a ba bc d9 07 9f bd
       -0.11180224 -0.091544464 -0.022778727 -0.07765169
000390 05 77 84 bd 5a 7f 31 bd cf 05 bd bd 3b b4 5b bc
       -0.06468014 -0.043334343 -0.092296235 -0.0134096695
0003a0 ad 07 6c bd f8 82 0a bd e4 4f a0 bc b1 92 0e bd
       -0.057624508 -0.033816308 -0.019569345 -0.034807865
0003b0 0f 0c fa 3c 42 d3 73 bc ea 6b d3 3a cb 62 ff bc
       0.030523328 -0.014881911 0.0016130183 -0.031175038
0003c0 5c ba 41 3b 0c a6 a3 ba 2d af 18 bd f6 fe 1d bd
       0.0029560542 -0.0012485399 -0.037276436 -0.038573228
0003d0 48 85 5e bd 2a 78 ba 3c bc 97 ab bc 18 23 8e bc
       -0.054326326 0.022762377 -0.020946376 -0.017350718
0003e0 18 2f ad bc e7 6e 58 bd 38 08 e6 3c 73 22 3a 3d
       -0.02114062 -0.05284014 0.02808009 0.04544301
0003f0 be 83 64 3d 95 ad 7f 3d d7 61 83 3d 4d 03 0b bd
       0.0557897 0.0624214 0.06415146 -0.033938695

conv3.bias f4 [32]
000000 30 12 bd 3e c0 61 83 3d 99 97 ab 3e 8e 4d e9 bd
       0.36927938 0.06415129 0.33514097 -0.113917455
000010 19 c8 2c 3f 02 c2 7c 3e e7 6e 06 3e f8 92 6c 3e
       0.67492825 0.24683383 0.13128243 0.23102939
000020 7b 59 b1 3e 0b 9d 3f bd b5 90 79 bd e1 54 11 bd
       0.3463858 -0.046780627 -0.06092902 -0.035481337
000030 7c dd 64 bb 46 c4 a7 be 7a dd 9a 3d a6 83 dc bd
       -0.0034922054 -0.32766932 0.075617746 -0.107672974
000040 1b 82 bc 3e db f6 da 3e d3 37 10 3e 5b 57 ae bd
       0.36818013 0.4276646 0.14083795 -0.085127555
000050 10 ea ef 3e b1 b5 af 3d 07 08 29 3e 84 08 78 be
       0.46858263 0.08579577 0.16506968 -0.24221998
000060 e3 a7 18 3e c6 74 77 3e 60 dd ef 3d f9 1e 55 3e
       0.14907794 0.2416564 0.11712146 0.20812596
000070 70 ce e3 be 90 05 bf 3e 06 2f 44 bd 35 a7 46 3e
       -0.44493437 0.3730893 -0.047896408 0.19399722

conv4.weight f4 [32, 32, 5, 5]
000000 37 1e 10 bd 84 ac 8d 3c e6 5a 96 3d 85 8c 87 3d
       -0.035185065 0.017294176 0.07341556 0.06618599
000010 97 df 24 3d a2 5e 4c 3a 53 d2 79 3d fd ae d0 3d
       0.040252294 0.0007796084 0.060991596 0.10189626
000020 5c 21 90 3d 3f d0 52 bc ee 22 7c 3d 5f 6b 02 3d
       0.07037613 -0.012867033 0.06155675 0.03184068
000030 12 c9 44 38 2b ae 21 3b ba 1d 10 bd ca 3a ac 3d
       4.6917303e-05 0.0024670463 -0.0351846 0.084096506
000040 98 44 05 3d f6 8e dc bd 0d 34 ab bd 1b 72 f9 bd
       0.03253612 -0.10769455 -0.08359537 -0.12179967
000050 c0 7d bd 3d ab 99 95 3d e6 0b 58 3c 2c b7 90 bd
       0.092525005 0.073047005 0.013186431 -0.07066187
000060 7b 88 9e bd 24 a0 21 3d 9d e8 ab 3c 69 19 a5 3b
       -0.07740875 0.039459363 0.020984942 0.0050384295
000070 a3 c8 49 bd b3 5f 1d bc 8e 18 39 3d df 0b a3 3c
       -0.049263608 -0.009605336 0.045189433 0.019903122
000080 40 9c 46 b9 5c 8f 74 bd 72 d2 2d bb 5f be a7 bc
       -0.00018940959 -0.05970703 -0.002652314 -0.020476518
000090 38 80 25 3c 30 01 00 bd e4 c9 f5 3c e3 75 7f 3d
       0.0101013705 -0.031251132 0.030003496 0.062368285
0000a0 a7 31 b0 3c 81 bb 36 3c e6 b1 87 bc 29 62 79 3d
       0.021508051 0.011153103 -0.01656432 0.06088463
0000b0 e7 54 f4 3d 40 04 c3 bd 8a 29 06 be b0 31 48 bd
       0.11930256 -0.09522295 -0.13101783 -0.04887551
0000c0 37 7d 06 3b 3c a4 a0 3d b5 7a 25 3d d6 ed ba bc
       0.0020521411 0.07843825 0.040400226 -0.022818487
0000d0 61 05 8d 3c 10 4d 1b 3c 63 da b5 3c 2a 3e 60 bd
       0.017214479 0.009478822 0.022198861 -0.054746784
0000e0 0b 3c 94 bd a7 32 f5 3c 1d b8 e8 3c 1d e9 6e 3c
       -0.07238015 0.02993138 0.028408105 0.014581946
0000f0 f9 4f f0 bc 0c 2a 6b bd e9 42 13 bd 8c 38 17 3c
       -0.029335009 -0.057413146 -0.035952482 0.00922979
000100 c8 ae 26 bd 99 c9 83 3c 43 99 b6 bc 5b 1f 3f bc
       -0.04069403 0.01608734 -0.022289878 -0.011665191
000110 7b 4f 1b bd d2 d1 a1 bd 6b 67 ad 3d 14 f1 46 3c
       -0.037917595 -0.07901348 0.08466991 0.012142438
000120 cf 26 cf bc 90 2d 6f bc 42 b4 c8 bd 21 59 90 3d
       -0.02528706 -0.014598265 -0.098000064 0.0704825
000130 60 3e b3 bc 7c df 07 3b 0d 03 52 3c f4 9a 91 3c
       -0.021880329 0.0020732572 0.01281811 0.017774083
000140 0a 1a 7d 3d 09 86 bc bc fb 24 cd 39 b2 6f 6b bd
       0.06179241 -0.023013132 0.000391282 -0.057479568
000150 57 21 20 bc 20 f3 8d 3d 93 33 fd 3c e9 c4 44 3d
       -0.009773574 0.06931138 0.030908382 0.04803935
000160 52 03 5a 3d f8 a2 b4 bc bb b9 9a 3d 04 eb a8 3d
       0.053225823 -0.022050366 0.075549565 0.08247951
000170 c5 8e 9d 3d 9e 09 e2 3d 23 64 88 3d c4 17 c2 3d
       0.07693247 0.110369906 0.066597246 0.09477189
000180 98 2b c3 3d a5 7d 0c 3e c0 0e 51 3e df 86 1f 3e
       0.09529799 0.13719805 0.20415783 0.15578793
000190 e7 e8 a5 bc e0 95 24 3d ce c5 6f 3d ef c8 6b 3d
       -0.020252658 0.040181994 0.05853825 0.057564672
0001a0 ff bd 60 3d 10 85 b6 bb 49 0f 1e 3c 71 89 9f ba
       0.054868694 -0.0055700615 0.009647199 -0.0012171698
0001b0 4d 68 00 3d 84 4a b5 bb 10 93 90 bc fa 9e 64 bc
       0.03134947 -0.0055325646 -0.01764825 -0.013953919
0001c0 f6 67 7a bd ee 15 61 bd 79 3d af bd 10 c1 7f 3c
       -0.0611343 -0.054952554 -0.08556647 0.0156099945
0001d0 bc 47 03 bb 5c 9c 32 bd 8e b7 9c 3b 37 76 15 bd
       -0.002003177 -0.043606147 0.0047826236 -0.03648969
0001e0 b3 ad 8e 3d 5d 1a bb bb 82 a1 12 bd b9 81 c0 bb
       0.06966724 -0.00570993 -0.035798557 -0.005874839
0001f0 68 d1 05 3d 52 17 cc bc 4e 67 a9 bc 87 ea 2b 3d
       0.03267041 -0.024913464 -0.020679142 0.04197171
000200 44 48 ca 3c c1 91 15 3d 0f f3 cf bd b9 00 a5 bd
       0.024692662 0.036515955 -0.101537816 -0.080567785
000210 6e 4d 23 3d 28 1e 80 3d 1d a5 73 bc 19 b3 05 3c
       0.039868765 0.06255752 -0.014870909 0.008160376
000220 76 72 40 bd bf 19 a2 3c 31 2e 00 3d 1a 80 3f bb
       -0.04698416 0.019787667 0.03129405 -0.0029220642
000230 76 a3 51 3d 06 41 6c bc c1 42 5a bd 0c 5f ca bc
       0.05118128 -0.0144198 -0.053286318 -0.024703525
000240 ed 95 82 3b 01 3b 1d 3e 83 73 05 3d 60 71 d3 3b
       0.0039851577 0.1535454 0.032580864 0.0064527243
000250 4a 4d 63 bc 2e 05 a9 3d 28 79 29 3d 32 52 21 3e
       -0.013873408 0.08252941 0.04137531 0.15754011
000260 4f 21 cb 3d 57 0e 15 3e 7a 2d 55 bc c5 e6 31 bd
       0.099184625 0.14556251 -0.013011331 -0.04343297
000270 16 54 55 3c 37 57 11 3d 6c 60 23 3d d4 d0 78 bd
       0.013020536 0.035483565 0.039886877 -0.06074603
000280 a0 0c 34 3c de 61 81 3b e1 4a f2 bb 93 b9 24 3d
       0.010989338 0.0039484343 -0.00739418 0.04021604
000290 09 8f fb bd ab a4 a0 bc 41 46 8d bc aa a3 74 bd
       -0.12283141 -0.01960977 -0.017245414 -0.059726395
0002a0 e6 2e 39 bc 57 69 7f bd 5e 36 66 bc fa 61 c0 bd
       -0.011302685 -0.06235632 -0.014051048 -0.093936875
0002b0 0e d8 8f bd de c9 9a bc 48 24 3c bd 2d 71 04 3e
       -0.07023631 -0.018895086 -0.045933038 0.12933798
0002c0 2a 4d 97 3d 7b f2 dc 3d 57 57 d2 3c 39 d0 a5 3d
       0.07387765 0.10788437 0.025676413 0.08096356
0002d0 22 e6 ec 3d f1 2c bf 3c 42 8e df 3b e4 13 72 bc
       0.11567332 0.02333686 0.0068223784 -0.01477525
0002e0 b6 18 8a bb 2f cd f5 3d 46 e4 e2 bd 6d 46 dd bd
       -0.0042143716 0.12002026 -0.11078696 -0.10804448
0002f0 2e 37 3f bd 56 3b 98 bd 7c 95 9a 3d 31 7c 7c bd
       -0.046683483 -0.074331924 0.07548043 -0.061641876
000300 f0 6f 7e bc 47 8b 64 3d 55 74 9c 3d 30 f1 5d 3d
       -0.015529618 0.055796888 0.07639376 0.054185092
000310 05 4d cd 3c e1 ec 6a 3d 49 79 6e 3d 95 df 4d 3e
       0.02506114 0.05735481 0.058221135 0.20104821
000320 59 ea c3 3c 59 ef fd 3c e9 a3 a4 3b a7 fc 51 bd
       0.023915457 0.030997919 0.0050244224 -0.05126634
000330 80 18 24 bd 42 ba a6 3c c5 94 c3 3c 1d 38 b4 bc
       -0.040062428 0.020352487 0.02387465 -0.021999413
000340 8d c6 94 bc c6 3c 8e bd 6c 10 bb bd f2 b4 3a bd
       -0.018161083 -0.06945185 -0.091339916 -0.04558272
000350 4c fa 87 bd d4 f3 73 bd 26 71 87 bd 72 f1 c7 bd
       -0.06639537 -0.059558704 -0.06613378 -0.09762849
000360 00 b8 a8 bd 3c 46 5c bd ca d9 9c bd dd 74 f3 3c
       -0.0823822 -0.05377792 -0.076587275 0.02971881
000370 b8 41 ec bd 3f 57 15 be ac b5 0c be 22 7b ab bd
       -0.11535972 -0.14584063 -0.13741177 -0.08373095
000380 45 d9 6c 3d d4 16 e3 bc c7 48 57 bc b2 73 8d 3d
       0.057824392 -0.027720846 -0.01313991 0.06906833
000390 49 ee b4 ba 06 aa 1d 3d 8e 54 e9 bc 28 d6 01 3c
       -0.0013803925 0.038492225 -0.028482702 0.007924594
0003a0 95 6a f9 3c d3 60 39 bd 6c 18 29 ba 69 e2 b9 bd
       0.03044633 -0.045258354 -0.00064504775 -0.090763874
0003b0 35 3e 93 bd 7c 61 82 bd 02 7d 94 bd 7f 0d 35 ba
       -0.071895994 -0.0636625 -0.07250406 -0.0006906613
0003c0 bf 9d b1 bd 9d f8 62 bd cf c8 94 bc 10 fd aa bd
       -0.08672666 -0.055412877 -0.01816216 -0.08349049
0003d0 2b 25 dc bc d4 a0 b8 bd ae 67 4c bd 52 e9 a0 3b
       -0.026873192 -0.090150505 -0.049903564 0.0049106264
0003e0 b1 c1 04 bd 40 b1 83 bb 37 ef 1c be 4c 34 dc bd
       -0.03241128 -0.0040189326 -0.15325628 -0.10752162
0003f0 27 f9 f8 bd 0b 1a c0 bd 91 fa 2d 3c fc 57 1d be
       -0.12156897 -0.09379967 0.010618822 -0.15365595

conv4.bias f4 [32]
000000 13 9c 5a be 76 78 9e bd 9d 2e 7d ba 3c 72 a2 bd
       -0.213486 -0.0773782 -0.000965813 -0.07931945
000010 3b f0 af bd f0 ae 87 3d f8 55 d9 3c 02 8f ac 3e
       -0.08590742 0.066251636 0.02653025 0.33702856
000020 e8 7c 7c 3e ad 89 f2 3d 76 b4 b2 3e 4c 81 57 3e
       0.24657023 0.11842666 0.34903306 0.21045417
000030 2b b3 e6 bd ef 06 77 3e 7e 4b 5b bb b3 15 3d be
       -0.11264642 0.24123739 -0.0033461745 -0.18465309
000040 6e 6d bf 3c b3 05 c9 3d c3 5c 1c 3d 90 50 b1 3d
       0.02336761 0.0981554 0.038174402 0.08657944
000050 bc 8f ae 3d 97 83 ea 3e 7e 30 9d 3e e8 2a d6 bd
       0.08523509 0.4580352 0.3070106 -0.104574025
000060 a6 a8 24 3d 40 d8 a4 3b 7b d9 ad 3e 44 d8 9c 3e
       0.0401999 0.005030662 0.33954987 0.30633748
000070 7d f7 91 3e c6 ff 0a be c1 67 1d 3e a0 f2 3d 3c
       0.2850913 -0.13574132 0.1537161 0.011593491

conv5.weight f4 [32, 32, 5, 5]
000000 01 64 f5 bd f6 cd 42 bd 1f 49 15 3d 23 28 3d bc
       -0.11981965 -0.0475597 0.036446687 -0.011545214
000010 d4 b4 c5 3c 66 90 c8 bd 5b 56 7f bd 3a a0 bc 3b
       0.024134077 -0.09793167 -0.062338214 0.005756405
000020 61 13 6f 3a c8 4f a3 3d d9 16 a6 bd 37 cd c9 bd
       0.0009120014 0.079742014 -0.081098266 -0.09853595
000030 94 0e bc bd b9 0c db bc 90 09 92 3d c7 e4 0f be
       -0.09182468 -0.026739465 0.0713073 -0.14052115
000040 9f 51 ee bd f9 52 b2 bd cd 28 6a bd 9b ca 29 bd
       -0.11636662 -0.08707232 -0.057167817 -0.041452985
000050 32 f7 18 be 78 29 8e bd 68 40 6f bd f8 bd 12 bd
       -0.14938048 -0.06941503 -0.058411032 -0.0358257
000060 8c 2f 05 bd 7f e7 bf 3c 19 58 ed ba b6 dc 1f bd
       -0.032516047 0.023425816 -0.001810792 -0.039028846
000070 c2 b1 09 bd 06 3f 4c bd 19 2e 15 bc 94 ac 50 bc
       -0.03361679 -0.04986479 -0.009105229 -0.012736458
000080 d1 e6 79 3c 94 e4 60 bc 85 4d 12 bd 30 c0 98 bc
       0.015252785 -0.013726372 -0.03571846 -0.01864633
000090 e7 9d 12 bc 05 8f f1 bc f5 64 83 ba ca e4 56 3d
       -0.00894878 -0.029487142 -0.0010024594 0.052464284
0000a0 e8 91 e8 3c 08 a3 11 3d ca 66 5b 3d e9 b3 fd ba
       0.028389886 0.03555587 0.053564824 -0.0019355986
0000b0 d8 08 7f 3d bb 7c 47 3d a5 dd d6 3c da d5 36 3c
       0.062264293 0.048702937 0.026228735 0.011159385
0000c0 00 98 84 3d 18 59 bb 3d c4 28 21 bc 3f 7e 44 bd
       0.06474304 0.09147853 -0.009836379 -0.04797196
0000d0 19 11 2f bd c9 69 cc ba b9 a1 04 bc f3 b5 99 3c
       -0.042740915 -0.0015595491 -0.008095198 0.018763518
0000e0 c0 dc df 3c 36 4d df 3c fd 48 43 3a aa ff 35 3c
       0.027326941 0.027258497 0.0007449536 0.011108318
0000f0 eb 18 f5 bb 29 a3 52 3d 2e cb 1f 3d 7a 1a d8 3c
       -0.007479777 0.051425133 0.039012127 0.026379813
000100 15 2d 75 3a 5f 55 a5 bc c3 55 91 3d 73 89 4e 3d
       0.0009352726 -0.02018231 0.07096436 0.05042405
000110 93 73 64 3c eb e9 f1 bc 42 b4 0f bd 8c 71 7e 3d
       0.013943571 -0.029530486 -0.035084017 0.062120005
000120 e2 f6 08 3d 07 a1 87 3c 45 20 1a bd 24 a7 d2 bd
       0.03343857 0.016556276 -0.03762843 -0.10285786
000130 95 7c ab bd 07 54 66 bd 7e a5 81 3c 9f 45 ec 3c
       -0.083733715 -0.05623248 0.015825983 0.028841792
000140 37 bc 90 bc a9 15 79 bc 96 45 81 bc b0 6e 1f 3c
       -0.017667873 -0.015202918 -0.015780251 0.00973098
000150 cb 44 b0 3c 82 98 4d bb ca b5 e0 3c dc d0 76 3c
       0.021517178 -0.003137142 0.027430434 0.015064444
000160 60 b9 cb 3c 9a 0d dd ba 51 8c 9a 3b e9 54 8e 3c
       0.024868667 -0.0016865015 0.004716434 0.017374473
000170 ac e7 c8 bb eb 01 cb 3c cd b2 14 bd e6 ed 5a bd
       -0.006131133 0.024781188 -0.03630333 -0.053449534
000180 33 1d 5b bd de f8 0e bd 9b 83 63 bd e0 37 00 be
       -0.053494643 -0.034905307 -0.05554543 -0.12521315
000190 2c 73 91 3d a3 d4 be bc d0 a5 ff ba 5d 93 2c 3d
       0.071020454 -0.023294752 -0.0019504372 0.042132724
0001a0 1a b5 3a 3d ac 30 72 3c 02 fb 79 bd fc 3d a0 bd
       0.04558287 0.014782112 -0.061030395 -0.078243226
0001b0 cf 10 38 bd f0 3a 48 bd b9 12 d4 bc af 99 ee bc
       -0.044937905 -0.048884332 -0.025887834 -0.029126016
0001c0 3d 76 71 bd be bf 16 bd 38 6b d4 bc 08 ce 9a 3d
       -0.05895065 -0.036803953 -0.025930032 0.075588286
0001d0 f8 a1 3f 3d b5 9b ff 3c 39 f1 85 3d 3f 3a 3d bc
       0.046785325 0.031202177 0.0654015 -0.0115495315
0001e0 ff 57 9a 3d f0 ab 4f 3d e4 8f 06 3d 2c ae a7 3c
       0.07536315 0.05070108 0.03285207 0.020468794
0001f0 71 ab 31 bd 3f 75 e0 bd 70 9d 6f bd 8b e9 1f 3c
       -0.04337639 -0.10959863 -0.058499753 0.009760271
000200 88 81 f5 bc cc f4 b2 bd c6 62 b3 bd f7 9f 89 bc
       -0.029968992 -0.087380975 -0.08759074 -0.01679991
000210 40 bd e6 3a 5b 7e ae bd f4 01 71 bd 80 42 64 bc
       0.0017604008 -0.08520194 -0.058839753 -0.01393187
000220 52 53 93 3c 06 53 25 3d 96 03 cf 3c 3f 95 0d 3d
       0.017984066 0.04036238 0.025270265 0.03456616
000230 35 66 55 bd 73 ff 54 3d cf ac ed 3d 52 a8 a3 3d
       -0.052099425 0.052001428 0.11605226 0.07991089
000240 82 6c 9d 3d c3 6e 80 bd d8 1f 46 bc 1d 40 d4 3d
       0.07686712 -0.06271126 -0.012092553 0.10363791
000250 53 b8 83 3d fc e1 36 3d 52 1a 62 bc fc c7 1b 3d
       0.064316414 0.04464911 -0.013800221 0.038032517
000260 a5 2b cf 3d de 9d 46 3e 52 39 16 3e a1 5d 4c bd
       0.101157464 0.19396159 0.14670303 -0.04989398
000270 07 ee d9 ba 4b 1d 85 bb 09 60 bb 3d f2 dc d4 3c
       -0.0016626724 -0.00406233 0.091491766 0.025984261
000280 8a 09 54 3c 8f 7e 5e 3c f1 20 72 3b f1 c1 50 bc
       0.012941727 0.013579979 0.0036945904 -0.012741552
000290 5c 4c bd bc cc e5 d6 3d 2d 88 88 3d 75 60 45 3b
       -0.0231077 0.10493049 0.066665985 0.0030117307
0002a0 95 4b 57 bc f3 81 27 bd 87 3c ab 3d 35 2b e4 bc
       -0.013140579 -0.040895414 0.08361154 -0.027852634
0002b0 ee 2f 64 3c 69 0f 4a 3d 21 63 ca 3c 57 cc 15 3e
       0.013927443 0.049331103 0.024705471 0.1462873
0002c0 9a d3 ae 3d 44 35 e1 bb 61 89 33 3c 01 d0 81 3d
       0.085364535 -0.006872805 0.010958047 0.06338502
0002d0 bf 07 16 3e 62 ac 04 3d 5a 71 8d bd 25 17 85 bd
       0.14651392 0.03239096 -0.06906386 -0.06498555
0002e0 a5 39 32 3d 05 31 18 3e 28 86 48 3d 08 4c 9f bd
       0.043512005 0.1486245 0.048956066 -0.07778174
0002f0 44 aa 24 bd d1 ec 95 3d d3 37 2c 3e 52 4c 2d 3d
       -0.04020144 0.0732056 0.1681817 0.042309113
000300 40 f9 e2 bb fc 24 cb 3c aa ca ac 3d c2 77 43 3e
       -0.0069266856 0.024797909 0.084370926 0.19088653
000310 c9 bf f8 3d 36 67 41 bc df f6 26 3d 90 36 9e 3d
       0.12145955 -0.011804393 0.04076278 0.07725251
000320 74 ac 33 bd 37 2e 3f 3c 3f 0a 26 3d 21 dd f9 3c
       -0.043865636 0.011668733 0.040537115 0.03050095
000330 e5 40 79 3d e5 59 a3 bd 24 f4 35 3c 1f 0c f7 3c
       0.060852904 -0.079761304 0.011105571 0.030157147
000340 c6 69 74 3d 48 de 90 3d 7c f8 e5 bd 48 e2 1d bd
       0.059671186 0.07073647 -0.11229035 -0.038545877
000350 09 30 63 bd 69 61 63 bc 17 90 6d 3c 31 6a 51 bd
       -0.05546573 -0.013878205 0.014499686 -0.051126663
000360 d8 a2 54 bd 54 7e 50 bd c8 49 88 3a 68 36 82 3d
       -0.051913112 -0.050901726 0.0010397965 0.063580334
000370 b6 cc 82 bc 6e d2 61 bb bb a4 7d bc 11 a3 b7 bb
       -0.015966754 -0.0034457701 -0.015481169 -0.005604156
000380 0f f4 9a 3d d9 69 86 3d 6f 96 bb 3d 14 01 b6 3c
       0.07566082 0.065631576 0.09159552 0.022217311
000390 d6 b5 79 bd c7 3e 8b bd 36 9d e9 3c b9 f4 44 3d
       -0.060964428 -0.06799083 0.028517347 0.04808495
0003a0 d1 97 b0 3c 9d db 1b bc df a7 6b 3d 5f bb 47 3c
       0.021556767 -0.009512809 0.05753314 0.012190669
0003b0 7b 2f 19 bd ed b0 6e 3b 51 60 81 3c 98 9a 3b bc
       -0.037398797 0.0036421374 0.015792998 -0.011450432
0003c0 bb 5f 03 3d 0d 06 c2 3d 8f ae 4f bc d4 1b 0e 3c
       0.032073718 0.0947381 -0.012675895 0.008673627
0003d0 40 3f 33 bc d4 a7 14 bc d5 44 91 3d 25 68 c9 3b
       -0.010940373 -0.0090732165 0.07093207 0.006146448
0003e0 97 df 05 3d 41 27 19 3d d8 de 98 3a 23 23 bc 3c
       0.032683935 0.03739095 0.0011663092 0.022965973
0003f0 36 ec 33 3c 0f 5a 92 3c df 49 94 3d 84 76 4c 3a
       0.01098161 0.017865209 0.07240652 0.00077996426

conv5.bias f4 [32]
000000 74 fe 16 3e a4 9b 29 3b 45 e4 7d bd 13 7b 08 3e
       0.14745504 0.0025880123 -0.061985273 0.13328199
000010 b0 c3 e4 bd ae e7 6e 3e c8 04 0e 3e dc 33 e0 bd
       -0.11170137 0.23330566 0.13869011 -0.109473914
000020 b5 88 81 3e 28 7e d2 3e e3 46 12 3c 32 68 32 be
       0.25299612 0.41111875 0.0089280335 -0.1742256
000030 6c ff 56 3e 8a b0 11 3e 4c 87 68 3e 97 e3 62 bc
       0.20995873 0.142275 0.22707862 -0.013848207
000040 5b ea 77 bd 39 24 df 3d 4f 92 18 3e a4 2a 6c bc
       -0.060526233 0.10895581 0.14899562 -0.014414463
000050 b9 66 71 3d be 4c d7 bb 81 1b 94 3e c0 f4 b2 bd
       0.058935855 -0.0065704277 0.28927234 -0.087380886
000060 c0 d7 84 3e 09 55 d5 3d a8 42 57 3e 92 5d 00 3e
       0.25945854 0.1041661 0.21021521 0.12535694
000070 c3 69 ef 3c 67 12 b7 3d 19 18 84 bd a9 d2 b4 3d
       0.029225236 0.08939057 -0.06449909 0.08829243

fc1.weight f4 [10, 4608]
000000 04 12 c9 3d 21 5f 92 3d 11 09 81 3d 0e fa 04 3d
       0.09817889 0.07147051 0.063005574 0.032465033
000010 a9 9f aa 3c 9d 41 70 3b 40 5d 58 3c c8 46 2c bc
       0.020828085 0.0036660202 0.013205826 -0.010514922
000020 31 ad 74 bc ae 9a 33 3d 08 63 d2 3d 26 b0 6e 3d
       -0.01493387 0.043848686 0.10272795 0.058273457
000030 25 0c e6 3c 6c a7 c1 bc b3 4f f0 3c 83 d2 c7 3c
       0.028081963 -0.023639403 0.029334879 0.024392372
000040 ea 58 f9 3c d6 6b 2f 3d c8 8e 0a 3d ae ea 82 3c
       0.030437905 0.04282745 0.033827573 0.015981045
000050 29 73 42 bb d8 e9 16 3d 7b 62 8e 3d 43 85 02 3d
       -0.0029670692 0.036844105 0.069523774 0.03186537
000060 49 5f c8 bc 98 04 ba bd 49 8b 80 bd 7e 47 c7 3c
       -0.024459498 -0.090829074 -0.062765665 0.024326082
000070 7a a4 b7 3b df d1 0c bc 8f e0 12 3d 2c ca 12 bc
       0.005604324 -0.008594959 0.035858687 -0.008959334
000080 4f f8 b0 bc da 4c 5d bb 7d 80 ac bb 6d 18 08 bc
       -0.021602778 -0.003376773 -0.0052643404 -0.008306605
000090 fc a9 1f 3d 68 7d 98 bd 79 84 8f bd 6d 9e 01 bd
       0.03898047 -0.07445794 -0.07007689 -0.031645227
0000a0 89 1f 47 bd c4 4b 1c bd 6d 21 b8 3c c8 82 69 3c
       -0.04861406 -0.038158193 0.022476876 0.014252372
0000b0 ab a1 90 3c 07 ef d1 3c 5c 90 2c 3d 70 05 39 3d
       0.017655214 0.025626672 0.04212986 0.0451712
0000c0 51 bd 97 3d b0 e3 0f 3c d8 99 f2 bc de 17 23 bd
       0.07409156 0.008782312 -0.029614374 -0.039817683
0000d0 02 26 93 bd 0a e3 87 bd 33 78 9a bc 63 26 1e bc
       -0.07184984 -0.06635101 -0.018856144 -0.009652707
0000e0 ba da be 3c bc 75 21 3d 3f 81 73 3d 2d 59 8f 3d
       0.023297656 0.03941892 0.05944943 0.06999431
0000f0 2b ea 5d 3d 6b 80 ed 3c d5 79 51 3d b9 7a 5a 3d
       0.054178398 0.028991899 0.05114158 0.053339694
000100 50 01 1d 3b af 59 e5 bc 2d dc f8 bc 73 e4 a9 3c
       0.002395708 -0.027996866 -0.030378425 0.020738816
000110 e6 77 40 bc 11 d7 05 bd 03 db 6a bc 6a 5c bb bc
       -0.011747336 -0.032675806 -0.014334443 -0.022871215
000120 7e 9a c5 3d b3 6d b2 3d 5f d8 bd 3d 74 42 e4 3d
       0.09648608 0.0871233 0.09269785 0.111454874
000130 c1 53 45 3d 49 61 b2 bc 93 0b bf bc 18 48 dc 3c
       0.048175577 -0.021774905 -0.023320949 0.026889846
000140 5f 0a 7b 3c 4b cb ce bc 46 6a 1a 3c 7b 47 1f bc
       0.015322297 -0.025243422 0.009424752 -0.009721632
000150 9f 12 a2 3d 2f 45 c6 3d 00 3b 33 3d 37 b5 11 3d
       0.07913708 0.096811645 0.04375744 0.03557321
000160 a8 d8 f9 3c 75 10 62 3b 42 06 8e 3b 6b 7a 7c 3c
       0.030498818 0.0034494672 0.004334242 0.015410046
000170 d1 3a c1 3c 2a 85 4d 3b ae 9c 10 3d 19 b6 a1 3c
       0.023587616 0.003135989 0.03530567 0.019740151
000180 9f 32 e4 3c f3 be bd 39 45 45 bd bc a8 cd 40 bd
       0.02785617 0.00036191157 -0.02310432 -0.04707113
000190 2d 8c 13 bd f9 c5 28 3d 96 29 5b 3d cc a2 eb 3c
       -0.036022354 0.041204426 0.053506456 0.028764151
0001a0 41 a1 f1 3b 4a 54 f7 bc 67 c8 19 3d 74 08 00 3d
       0.0073739593 -0.03019156 0.037544634 0.03125806
0001b0 de 1a 09 bc 87 af 51 bd df 49 ab bd 7f fb 89 bd
       -0.008368222 -0.051192787 -0.08363699 -0.06737422
0001c0 62 a3 fd bc 8f 27 5e 3c 8a de 8c 3d ad 59 8f 3d
       -0.030961696 0.013559236 0.068783835 0.06999526
0001d0 41 5d b3 3c c2 c8 21 bd 90 bc e9 3c 42 5e 54 3d
       0.021895053 -0.0394981 0.028532296 0.051847704
0001e0 53 19 bc 3d 22 3b bc 3c fc d0 bf bc 19 6e 4e bc
       0.09184518 0.022977415 -0.023415081 -0.0125994915
0001f0 bc 35 0a 3c 75 09 6c 3b 44 30 1f 3c 74 f5 f8 ba
       0.008435663 0.003601638 0.009716097 -0.0018994049
000200 b3 01 c2 bc 50 31 4b bd 66 22 75 bc f9 c6 60 3c
       -0.02368245 -0.049607575 -0.0149618145 0.013719314
000210 e6 86 52 3e 5a 4c c0 3d 3a 19 78 3c c7 9f 8c 3c
       0.20559272 0.09389563 0.015142733 0.017166032
000220 64 bf bd 3c 5e 35 03 3c 5d d9 77 3c be c3 d5 3b
       0.023162551 0.008008329 0.015127507 0.0065235784
000230 77 de 64 bd dd a9 d2 bc d3 67 dc 3c 18 00 34 3c
       -0.05587622 -0.025715763 0.026904976 0.0109863505
000240 d4 ab ca bc e3 6e 40 bb f7 8b 5a 3d ce 06 74 3d
       -0.024740137 -0.0029362969 0.053356137 0.059576802
000250 44 fb fa 3c 74 06 7e bc b0 99 3a bd d9 77 9b bd
       0.03063739 -0.015504468 -0.045556724 -0.075912185
000260 65 cf 12 bc 9e 3f e6 bb e5 54 61 bd ef 3c aa 3c
       -0.0089605795 -0.0070266267 -0.055012602 0.020781009
000270 cc 2b de ba 24 bf 58 bb 36 8e 4b 3c 01 20 53 3d
       -0.0016950308 -0.0033072913 0.012424042 0.051544193
000280 a4 d2 65 3d 33 b2 09 3d 9b 07 53 bc 1d e7 0b bd
       0.056109086 0.03361721 -0.012880231 -0.034155954
000290 8e eb 4c 3b 33 bc 1e 3b de be 8f bc d9 2a ab 3c
       0.0031268331 0.0024221062 -0.017547067 0.020894455
0002a0 72 03 65 3d d8 7c 78 3c c0 68 e5 bc 7f e5 2c 3c
       0.05591149 0.015166484 -0.02800405 0.010552763
0002b0 5a bd ab 3c a1 91 27 3d 6d ec 15 bd aa 9c 72 bd
       0.020964313 0.040910367 -0.036602426 -0.059231438
0002c0 e3 00 f1 bc e6 85 82 bc 54 a7 98 3c 27 da 94 3d
       -0.029419368 -0.015932988 0.018634476 0.07268172
0002d0 5e 3b b9 3d e9 8f c2 3c 66 1d 55 bd 86 72 98 bd
       0.090445265 0.023750262 -0.05202999 -0.074437186
0002e0 27 bd 59 bd df 39 c4 bd 12 4c f0 bd 52 69 a9 bd
       -0.053158905 -0.095813505 -0.11733259 -0.082720414
0002f0 36 5b 59 bc 30 86 c9 3c 88 ff 03 bb 09 28 fe 3c
       -0.013266375 0.024600118 -0.0020141322 0.03102495
000300 aa 0a 8b 3d bc bf 0f 3d ef 49 cf bc b7 bf 9b bc
       0.067891434 0.03509496 -0.025303809 -0.019012315
000310 79 a3 f5 bc a6 cd a3 bd 24 9e 21 bd e3 0a f1 3b
       -0.029985176 -0.07998209 -0.039457455 0.007356034
000320 58 d2 b9 3c ce de 9f bc 27 8f 94 bd 6b 3d 3e bd
       0.022683308 -0.019515421 -0.07253867 -0.04644529
000330 f1 87 a1 3d c8 10 cf bc 7e b0 c0 bb d7 14 7a 3c
       0.07887257 -0.025276557 -0.0058804145 0.015263758
000340 a9 11 28 bb 38 3a 09 bd 85 55 13 bd 3a b8 d8 3c
       -0.0025645292 -0.033502787 -0.03597023 0.026455034
000350 ab b1 85 3c 68 a1 8b b9 c3 34 44 bd 53 b9 59 bd
       0.01632007 -0.00026632403 -0.04790188 -0.053155255
000360 99 c5 bb 3d 86 59 e2 bc 8b 4a b2 bb 6c 91 16 3c
       0.09168548 -0.027630579 -0.005441015 0.009189945
000370 22 78 fb 3c a0 cc ae bc c3 98 80 bd 53 49 44 3c
       0.030696932 -0.021337807 -0.06279137 0.0119803725
000380 8d b7 88 3b d8 64 af bc fa ed 01 bd 32 ba e6 bb
       0.0041722716 -0.02141039 -0.031721093 -0.007041239
000390 3e eb 03 3e af 03 4b 3c af 87 f0 bc a0 6c c4 ba
       0.12882707 0.012391015 -0.029361574 -0.0014985986
0003a0 0f 85 49 3d 29 d9 d1 3c 92 6d 21 bd a8 41 cc bb
       0.04919916 0.025616245 -0.039411135 -0.006233413
0003b0 7f 9b 8b 3c f3 ff 9b 3c 4e 44 9c bc 52 95 32 bd
       0.01704192 0.019042945 -0.019075539 -0.043599434
0003c0 cb 2c bc 3d 53 63 68 bc c7 d1 67 bd 45 6b c0 bd
       0.09188231 -0.014183837 -0.056596544 -0.0939546
0003d0 bc 5f 99 bc 58 2d bd 3c bc 8a 28 bd b7 6b fd bc
       -0.018722408 0.02309291 -0.041147932 -0.030935152
0003e0 c2 ad b7 bb 58 df 9a 3c a8 8c c1 bb e0 33 8b bd
       -0.0056054303 0.018905327 -0.00590666 -0.06797004
0003f0 1b 2c 44 3d 6c ab 54 bc 08 10 5e bc 8d cb 1b bd
       0.047893625 -0.012980323 -0.013553627 -0.038035918

fc1.bias f4 [10]
000000 95 c3 89 3d eb f5 42 be a2 a5 83 bd 90 5a 80 3c
       0.067267574 -0.19039123 -0.06428076 0.015668184
000010 38 df d9 3d 06 2d 60 bd 32 53 38 3d 32 76 a8 3c
       0.10638279 -0.054730438 0.045001216 0.020564172
000020 c8 d7 ca 3d 64 24 b4 bc
       0.09904438 -0.021990009
