artifacts/acas_benchmark/onnx/N_1_9.onnx (onnx, 54312 bytes, 14 tensors)

0.0.bias f4 [50]
0	0x3e5260f6	0.205448
1	0xbe1c9a35	-0.152932
2	0xbe983ab8	-0.297323
3	0xbd8f8b4b	-0.0700899
4	0xbe6c00da	-0.230472
5	0x3cc8850a	0.0244775
6	0xbd7f46d2	-0.0623234
7	0xbc2b6b53	-0.0104626
8	0xbe6ede55	-0.23327
9	0xbd1c4c31	-0.0381586
10	0xbdd6909b	-0.104768
11	0xbe7696e6	-0.24081
12	0x3a559960	0.000814816
13	0x3d69f369	0.0571169
14	0xbe9dd767	-0.308284
15	0x3dd39000	0.103302
16	0xbdb7b627	-0.0897029
17	0xbde1a693	-0.110181
18	0x3c74398e	0.0149063
19	0x3d9cb40e	0.0765153
20	0x3d9ccc2c	0.0765613
21	0xb9fc32c1	-0.00048103
22	0xbe71e9f2	-0.236244
23	0x3c911490	0.01771
24	0x3d4b4c7f	0.0496335
25	0x3d5302f7	0.0515165
26	0x3dbf5474	0.0934228
27	0xbdaa450b	-0.0831395
28	0xbc923d85	-0.0178516
29	0xbe28ca3e	-0.164834
30	0xbe7f8338	-0.249524
31	0xbdfea2d3	-0.124334
32	0xbe038a7e	-0.128458
33	0x3dad5362	0.0846317
34	0x3d3dd350	0.0463441
35	0xbbba6a8a	-0.00568897
36	0xbc86c948	-0.0164534
37	0x3e5c9b84	0.215437
38	0xbe482cb2	-0.195483
39	0x3d8b8f73	0.0681447
40	0xbe844630	-0.258348
41	0xbb2a7ec4	-0.00260155
42	0x3cc0e38a	0.023546
43	0xbc0f7a1b	-0.00875714
44	0x3d6d1b57	0.0578874
45	0xbdd15e7d	-0.102231
46	0xbc8e65bf	-0.0173825
47	0xbc5526a3	-0.0130097
48	0x3e334bd7	0.175094
49	0xbd95a16d	-0.0730618

0.0.weight f4 [50, 5]
0	0xbda2269b	-0.0791752
1	0xbf4e3ae2	-0.805586
2	0xbcbe0986	-0.0231979
3	0x3f26350d	0.649247
4	0xbecba7db	-0.397765
5	0x3daa524f	0.0831648
6	0xbbafbbc5	-0.00536296
7	0xbc2e52fa	-0.0106399
8	0x3e8cf1e5	0.275283
9	0xbf8f2ef1	-1.11862
10	0xbc4722d4	-0.0121543
11	0xbcb88d0f	-0.0225282
12	0x3b49b368	0.00307771
13	0x3e3222d5	0.173961
14	0xbf7d4813	-0.989381
15	0xbc9a455b	-0.0188319
16	0xbf1786d3	-0.591901
17	0x3f130d52	0.574422
18	0x3c5a638e	0.0133294
19	0x3e20f883	0.157198
20	0x3bf9a304	0.00761831
21	0xbf2f03b0	-0.68365
22	0x3f44e454	0.769109
23	0x3c9f00e2	0.0194096
24	0x3d802d5a	0.0625865
25	0xbc7017c0	-0.0146541
26	0x3ee5ba4d	0.448687
27	0xbc18771a	-0.00930574
28	0x3d9d2eca	0.0767494
29	0xbe004253	-0.125253
30	0x3cd0dcfd	0.025496
31	0xbdfad320	-0.122473
32	0x3e91d324	0.284814
33	0xbe26fa83	-0.163065
34	0x3ec1c582	0.37846
35	0xbc8f80a7	-0.0175174
36	0xbf302353	-0.688039
37	0xbf4086ad	-0.752055
38	0x3e1a7b4e	0.150861
39	0x3d7010d4	0.0586098
40	0xbf5683a1	-0.837946
41	0x3ba6bdef	0.00508856
42	0x3b2708ee	0.00254875
43	0x399c94ee	0.000298656
44	0x39fae132	0.000478515
45	0xbcf9d4a3	-0.0304969
46	0x3ebefc7a	0.37302
47	0x3ea5cf68	0.323848
48	0x3e533509	0.206257
49	0xbd972ff0	-0.0738219
50	0x3c347629	0.0110145
51	0x3e5003ac	0.203139
52	0xbbe05d38	-0.00684705
53	0x3baf3d5a	0.00534789
54	0xbe35e95b	-0.177648
55	0x3e3bfbdf	0.183578
56	0xbe236220	-0.159554
57	0xbcb28bd9	-0.0217952
58	0xbd9bb02a	-0.0760196
59	0xbedcc122	-0.431161
60	0xbf19e072	-0.601081
61	0xbebfc009	-0.374512
62	0x3df7f8cb	0.12108
63	0x3de38195	0.111087
64	0x3d8a2d08	0.0674687
65	0x3ee0c21e	0.438981
66	0xbcd50119	-0.0260015
67	0x3b9fad85	0.00487298
68	0x3c1adb99	0.00945177
69	0xbdd2873c	-0.102797
70	0xbe8372e7	-0.256736
71	0x3d29dedc	0.0414723
72	0x3ccd6c2f	0.025076
73	0x3cbc6287	0.0229962
74	0xbf1fe942	-0.624653
75	0x3d2ff632	0.0429594
76	0xbe6f92f3	-0.233959
77	0x3f35ae4f	0.709691
78	0x3ec7fcb9	0.3906
79	0xbd3ca304	-0.0460539
80	0xbce05179	-0.0273826
81	0x3eca1ea3	0.394765
82	0x3d02a1eb	0.0318927
83	0xbe0611fd	-0.130928
84	0x3cfd467d	0.0309174
85	0x3d1eff85	0.0388179
86	0x3f5ff1a6	0.874781
87	0x3c119081	0.00888455
88	0x3e380e8d	0.179743
89	0xbed87033	-0.422731
90	0x3b9e9a4a	0.00484017
91	0xbe82f09e	-0.255742
92	0x3be4f4cc	0.00698719
93	0x3c7ebeb7	0.0155484
94	0x3b3b5988	0.00285873
95	0x3d598fd9	0.0531157
96	0x3f0df139	0.554462
97	0xbf82caff	-1.02182
98	0xbd981e1f	-0.0742762
99	0x3f037c57	0.513616
100	0xbb4f0866	-0.00315907
101	0x3f1c0a8d	0.609536
102	0x3aae0084	0.00132753
103	0xbc8d8bda	-0.0172786
104	0x3df15486	0.117837
105	0xbc074229	-0.00825552
106	0x3d2748e4	0.040841
107	0x3e869510	0.262856
108	0xbd69885a	-0.0570148
109	0x3d9ae918	0.0756399
110	0xbfdd9f2c	-1.73142
111	0xbbd9f971	-0.00665205
112	0x3b52148a	0.00320557
113	0xbb950f5c	-0.00454895
114	0x3997ec01	0.000289768
115	0xbb24cf2d	-0.00251479
116	0x3c431529	0.0119069
117	0xbe831dd6	-0.256087
118	0x3c8fe154	0.0175635
119	0xbc08ce10	-0.00834991
120	0x3ddea2d3	0.108709
121	0x3e09fa98	0.134745
122	0x3cc101bd	0.0235604
123	0x3ec8f9b1	0.39253
124	0xbebb4f61	-0.36584
125	0xbb85dfe9	-0.00408553
126	0xbbcdf9f3	-0.0062859
127	0xbcd89664	-0.0264389
128	0xbe8f583a	-0.27997
129	0x3daab027	0.0833438
130	0xbbdd8480	-0.00676018
131	0xbc8ca270	-0.0171673
132	0xbc24a20b	-0.0100484
133	0x3e66aceb	0.225269
134	0xbef40f02	-0.476677
135	0x3e34577e	0.176115
136	0xbc7f2d72	-0.0155748
137	0xbd71ad72	-0.0590033
138	0xbe7e24bc	-0.248187
139	0xbc268901	-0.0101645
140	0xbc0a7f4a	-0.0084532
141	0x3c0a31d2	0.00843473
142	0x3ba6b9fe	0.00508809
143	0xbd823897	-0.0635845
144	0xbd8eb032	-0.069672
145	0x3c6c7219	0.0144315
146	0x3f37d4f1	0.718093
147	0xbeac1ebd	-0.336172
148	0x3cdeca25	0.027196
149	0xbd0fc697	-0.0351015
150	0x3d540a28	0.0517675
151	0x3d4cdf5c	0.0500177
152	0x3b74ea22	0.0037371
153	0xbf279bbb	-0.65472
154	0xbe386877	-0.180086
155	0x3ed1b77c	0.409603
156	0x3ccc7376	0.0249574
157	0x3c33afc5	0.0109672
158	0xbcc7a652	-0.0243713
159	0xbede6a77	-0.434406
160	0x3d0a70b7	0.0337989
161	0x3d0f0c5d	0.0349239
162	0x3d8897a6	0.0666955
163	0xbdd05c03	-0.101738
164	0xbe5e81cb	-0.217292
165	0xbd6d189d	-0.0578848
166	0x3b80efea	0.00393485
167	0xbb30cc10	-0.00269771
168	0x3dce4c0e	0.100731
169	0x3ddac4f8	0.106821
170	0xbde5ee57	-0.112271
171	0x3b7032ad	0.00366513
172	0xbb4ee078	-0.00315669
173	0xbe1714ba	-0.14754
174	0x3e993c47	0.299288
175	0xbc9ef269	-0.0194027
176	0xbba8c1eb	-0.00515007
177	0xbf49c821	-0.78821
178	0x3c22abbc	0.00992864
179	0x3ae36c4c	0.0017351
180	0xbcde0214	-0.0271006
181	0x39d25019	0.00040114
182	0xbbc140fd	-0.00589764
183	0x3abeb2ae	0.00145491
184	0xbb586dc0	-0.00330244
185	0x3c3f4f36	0.0116766
186	0x3f0937e3	0.536009
187	0xbce1dc5e	-0.0275709
188	0x3e1d284a	0.153474
189	0x3e351a87	0.176859
190	0x3d14a30a	0.0362883
191	0xbf50157f	-0.812828
192	0x3f03a55d	0.514242
193	0x3c89e0f5	0.0168309
194	0xbdd652bd	-0.10465
195	0xbce9a799	-0.0285223
196	0x3cef4c89	0.0292113
197	0xbeed6c94	-0.463719
198	0x3d91ac07	0.0711289
199	0x3ca4e202	0.0201273
200	0xbb28a627	-0.00257338
201	0x3f21dbfd	0.632263
202	0xbf24ec63	-0.644232
203	0x3d93398b	0.0718871
204	0xbb9d6495	-0.00480325
205	0xbb442f6f	-0.00299355
206	0xbd7bc284	-0.0614648
207	0xbe1fe75c	-0.156156
208	0xbdb69c82	-0.0891657
209	0x3d7e8251	0.062136
210	0x3ab4b076	0.00137855
211	0xbd580397	-0.0527378
212	0x3db4d438	0.0882954
213	0x3d8abe4f	0.0677458
214	0xbe041249	-0.128976
215	0x3b722fb3	0.00369547
216	0xbf17eb8e	-0.593438
217	0x3af3993f	0.00185851
218	0x3b569e07	0.0032748
219	0xbbea85b0	-0.00715705
220	0xba98a82d	-0.00116468
221	0xbd9d78ec	-0.0768908
222	0xbe15fc7e	-0.146471
223	0x3e04f052	0.129823
224	0xbdab7953	-0.0837275
225	0xbcf2b163	-0.0296256
226	0x3f4268a1	0.759409
227	0xbf46edbb	-0.777065
228	0x3daab6b5	0.0833563
229	0x3dc65a22	0.0968516
230	0x3f077319	0.5291
231	0xbce14b3f	-0.0275017
232	0x3bbf2936	0.00583377
233	0xbbdbf4b3	-0.00671252
234	0x3d7635b2	0.0601098
235	0x3aaba3dd	0.00130951
236	0x3c94ed98	0.0181797
237	0xbb6dd9b8	-0.00362931
238	0x3a8cf775	0.00107549
239	0xba6ba772	-0.000898949
240	0x3f25fb2f	0.648364
241	0x3c39ea07	0.0113473
242	0x3c2f4b47	0.0106991
243	0x39243181	0.000156587
244	0xbb1fd822	-0.00243903
245	0xbf424713	-0.758897
246	0xbcd21f88	-0.0256498
247	0xbda2c400	-0.0794754
248	0x3db581cf	0.0886265
249	0x3e2fbd6a	0.171621

1.0.bias f4 [50]
0	0x3ed6208a	0.418217
1	0x3ddd8516	0.108164
2	0x39e0a467	0.000428471
3	0xbd9681df	-0.0734899
4	0x3bbe7dd5	0.00581334
5	0xbf0f2991	-0.559228
6	0xbe59307b	-0.212099
7	0xbe1eaa6d	-0.154947
8	0x3d152652	0.0364135
9	0x3e105e1c	0.140984
10	0xbcb3127c	-0.0218594
11	0xbd83a513	-0.0642797
12	0xbd797a90	-0.0609079
13	0xbce1b527	-0.0275522
14	0xbc9d9fee	-0.0192413
15	0xbdbfdc59	-0.093682
16	0x3bcf96ac	0.0063351
17	0xbc656331	-0.0140007
18	0x3ea43dab	0.320783
19	0xbe37064f	-0.178735
20	0xbcab83a7	-0.0209368
21	0xbce7b2cc	-0.0282835
22	0x3f859264	1.04353
23	0xbd839aa4	-0.0642598
24	0xbccfd454	-0.0253698
25	0x3cb17d51	0.0216662
26	0xbb923ec7	-0.00446305
27	0xbd7d0f1f	-0.061782
28	0xbc085361	-0.00832066
29	0xbe2610ae	-0.162173
30	0xbe106c87	-0.141039
31	0xbc86e08f	-0.0164645
32	0x3bae6d66	0.0053231
33	0xbdac2720	-0.084059
34	0x3cd9a2d4	0.0265669
35	0x3da11d44	0.0786691
36	0xbefb50b1	-0.49085
37	0xbced36d0	-0.0289568
38	0xbc76a147	-0.0150531
39	0xbbf41c47	-0.00744966
40	0xbbc323ec	-0.00595521
41	0x3dc1725b	0.0944564
42	0x3d359868	0.0443348
43	0xbb510211	-0.00318921
44	0xbd9c5099	-0.0763256
45	0x3d46cebc	0.048537
46	0xbea1e1b1	-0.316175
47	0xbebb5eb7	-0.365957
48	0x3eb1172f	0.34588
49	0x3d6c5685	0.0576997

1.0.weight f4 [50, 50]
0	0xbfd4c986	-1.6624
1	0x3f19b467	0.600409
2	0x3f5654b5	0.83723
3	0xbe3f8a09	-0.18705
4	0xbf332b88	-0.699883
5	0xbfa32b02	-1.27475
6	0xbe21b3af	-0.157912
7	0xbf2c4923	-0.672991
8	0xc089dfa4	-4.30855
9	0xbef9f1f1	-0.488174
10	0xbf85182b	-1.0398
11	0xbffcb0f2	-1.97415
12	0xbfe131ba	-1.75933
13	0xc04b23f6	-3.17407
14	0x3f4f9d5e	0.810995
15	0x3e3bdad7	0.183452
16	0xbf98d3ae	-1.19396
17	0xbf9be964	-1.21806
18	0xbfe290ac	-1.77004
19	0x3e81841b	0.252961
20	0xbfc16095	-1.51076
21	0x3e9dd0fa	0.308235
22	0x3eff24b7	0.498327
23	0x3e0f6513	0.140034
24	0xc00cec6c	-2.20193
25	0x3f037479	0.513496
26	0x3ec8537e	0.391262
27	0xbecd058e	-0.400433
28	0x3efa8113	0.489266
29	0xc014f7e4	-2.32763
30	0x3f365d9e	0.712366
31	0xc01e5ce6	-2.47442
32	0x3f1e469d	0.618265
33	0xc109fe72	-8.62462
34	0xc03e62cc	-2.97478
35	0x3d50153c	0.0508015
36	0x3d34544b	0.0440257
37	0xbfe37f8d	-1.77733
38	0xbf71a954	-0.94399
39	0x3d97f9ff	0.0742073
40	0x3e78e369	0.243055
41	0x3d11d042	0.035599
42	0xbe8eeefa	-0.279167
43	0xbff4f1d4	-1.91363
44	0xbcf99949	-0.0304686
45	0xbed6a748	-0.419245
46	0xbd5194ce	-0.0511673
47	0x3d68d4bb	0.0568435
48	0xc0846278	-4.13702
49	0xc0283d47	-2.62874
50	0x3ea28eb4	0.317495
51	0x3e4c59fb	0.199562
52	0x3ee3c5df	0.444869
53	0x3f84a3d7	1.03625
54	0x3eec1073	0.461063
55	0x3dd758e2	0.10515
56	0x3f18bf3c	0.596668
57	0xbe714e3c	-0.23565
58	0xbf6f67c3	-0.935177
59	0xbf1f3659	-0.621923
60	0xc08b5619	-4.35426
61	0xbe93588e	-0.287785
62	0xbd2d3664	-0.0422882
63	0xbecfb97c	-0.405712
64	0x3fa1f84d	1.26539
65	0x3d95a046	0.0730596
66	0xc057f91e	-3.37458
67	0xbf4acf85	-0.792229
68	0xbfb651c2	-1.42437
69	0x3f04c144	0.518574
70	0xbff66613	-1.92499
71	0xbe8bb880	-0.272892
72	0x3f0b253e	0.543537
73	0xbe11b3f2	-0.142288
74	0xbde37692	-0.111066
75	0xbee29cfe	-0.442604
76	0x3ea03b60	0.312953
77	0xbd9ce472	-0.0766076
78	0x3d8445e0	0.0645864
79	0xc02a2292	-2.65836
80	0x3eb16d09	0.346535
81	0xbcd0511b	-0.0254293
82	0x3e0bd2fa	0.136547
83	0x3e957a35	0.291948
84	0xbe9a94ff	-0.301918
85	0x3d4d88cf	0.0501793
86	0x3d0f4243	0.0349753
87	0xbea13a71	-0.314899
88	0xbf8487fd	-1.0354
89	0xbeec1aac	-0.461141
90	0x3f54c8ac	0.831187
91	0xbf11c422	-0.569399
92	0x3eb0def4	0.345451
93	0xc0212a5a	-2.51821
94	0xbe97542a	-0.295564
95	0x3ee6feb5	0.451162
96	0x3e7057d1	0.23471
97	0x3c52992a	0.0128539
98	0x3d630ae2	0.0554303
99	0x3d1c1fd6	0.0381163
100	0x3bf51cf8	0.00748026
101	0xbd06932d	-0.0328552
102	0xbd0c59e0	-0.0342654
103	0xbd0ddd03	-0.0346346
104	0x3c4e5a6c	0.0125948
105	0x3c1ff3b1	0.00976269
106	0xbc1aff6b	-0.00946031
107	0xbaa70b1c	-0.00127444
108	0x3bb35dbb	0.00547382
109	0x3d2ea0ad	0.0426337
110	0xbd559a9c	-0.0521494
111	0x3ce60d10	0.0280824
112	0xbd44b0d4	-0.0480202
113	0xbd24bf32	-0.0402214
114	0xbbffb52c	-0.00780358
115	0xba0aca0d	-0.000529439
116	0x3c6e45c3	0.014543
117	0x3d36e22f	0.0446493
118	0xbd834712	-0.0641004
119	0xbd20b278	-0.0392327
120	0xbd419851	-0.0472644
121	0x3bb14a7b	0.00541049
122	0xbb63cbed	-0.0034759
123	0xbc59a6d0	-0.0132844
124	0xbcfcc518	-0.0308557
125	0x3cdf85a2	0.0272854
126	0x3c9e7063	0.0193407
127	0x3ac18dd4	0.0014767
128	0xbd2b83c2	-0.0418737
129	0xbc08ad2d	-0.00834207
130	0xbd1c9d24	-0.0382358
131	0x3d11d0e3	0.0355996
132	0xbd08f430	-0.033436
133	0xbd83e45b	-0.0644004
134	0xbd686a67	-0.0567421
135	0x3c970bb5	0.0184382
136	0x3bbced71	0.00576561
137	0xbc50a387	-0.0127343
138	0xbc9dd716	-0.0192676
139	0xbc8cb692	-0.0171769
140	0x3c190ecf	0.00934191
141	0x3d11f03d	0.0356295
142	0xbd0d02e8	-0.0344266
143	0x3cbde0a1	0.0231784
144	0xbc96139d	-0.0183199
145	0xbd270d20	-0.040784
146	0xbc3a79e4	-0.0113816
147	0x3bd0476b	0.00635617
148	0x3c77af64	0.0151175
149	0x3cc0672e	0.0234867
150	0x3e0682f9	0.131359
151	0x3d870542	0.065928
152	0xbe00c176	-0.125738
153	0xbf02c472	-0.51081
154	0xbdc73f09	-0.0972882
155	0x3e96b1e6	0.294326
156	0xbee5f5cf	-0.449141
157	0xbe748cb5	-0.238818
158	0x3f7e7a31	0.994052
159	0xbd081e2c	-0.0332319
160	0x3ef9adeb	0.487655
161	0xbdd01fb8	-0.101623
162	0x3dfc6f37	0.123259
163	0x3e75171e	0.239346
164	0xbe116d6e	-0.142019
165	0x3e8e3c32	0.277803
166	0x3e9355ef	0.287765
167	0xbcb9a24e	-0.0226604
168	0x3e94a57a	0.290325
169	0xbeb9f18d	-0.363171
170	0x3ed831ad	0.422254
171	0xbe4be836	-0.199128
172	0xbe1c7ef1	-0.152828
173	0x3f449aaa	0.767985
174	0xbf1e0e1f	-0.617403
175	0x3e15f634	0.146447
176	0x3c5c5b4b	0.0134495
177	0xbe206b38	-0.156659
178	0xbde4d014	-0.111725
179	0x3e5818c6	0.211032
180	0xbd9eb0ed	-0.0774859
181	0xbc2410ec	-0.0100138
182	0x3f0a3ad2	0.53996
183	0xbec73a15	-0.389115
184	0x3e8927f6	0.267883
185	0x3efb47a6	0.490781
186	0xbbc22061	-0.00592427
187	0x3dfc0f45	0.123076
188	0x3ef000eb	0.468757
189	0x3f2ae137	0.667499
190	0x3f301ffb	0.687988
191	0xbf26efa2	-0.652094
192	0xbd7ba6d5	-0.0614384
193	0x3d17dff1	0.0370788
194	0x3d80b235	0.0628399
195	0xbf1f570c	-0.622422
196	0x3c9dd88e	0.0192683
197	0xbbb00125	-0.00537123
198	0xbcd657fb	-0.026165
199	0xbdbc5741	-0.0919633
200	0x3d2fb3ed	0.0428962
201	0xbd1978e2	-0.0374688
202	0x3e240c41	0.160203
203	0xbf1d248d	-0.613839
204	0xbfa7a494	-1.30971
205	0x3d841d08	0.0645085
206	0xbe528241	-0.205575
207	0x3e9e22c4	0.308859
208	0x4014ad58	2.32308
209	0x3f2f032a	0.683642
210	0x3e364064	0.17798
211	0x3d75068d	0.0598207
212	0x3dc8decc	0.0980812
213	0xbc82a928	-0.0159498
214	0xbf99d639	-1.20185
215	0x3d27001f	0.0407716
216	0xbe86d506	-0.263344
217	0xbcfd9521	-0.0309549
218	0x3f2b9cd8	0.670362
219	0xbde76102	-0.112978
220	0x3f4180d4	0.755872
221	0x3f2dcbef	0.678893
222	0x3e18e53f	0.149312
223	0xbe0f62b7	-0.140025
224	0xbdf6366d	-0.120221
225	0xbbce6020	-0.00629808
226	0x3cddad90	0.0270603
227	0x3e232b13	0.159344
228	0xbe871609	-0.26384
229	0x3f5229fa	0.820953
230	0xbe136439	-0.143937
231	0xbd45dbac	-0.0483052
232	0x3e59d346	0.21272
233	0x3d531013	0.051529
234	0x3f04868c	0.517678
235	0x3d7647f0	0.0601272
236	0x3d0b9361	0.0340761
237	0xbde0c5a8	-0.109752
238	0xbec9702e	-0.393434
239	0x3e65c897	0.224398
240	0x3e71f70e	0.236294
241	0xbf1a81cb	-0.603543
242	0x3d9e1c73	0.0772027
243	0x3ecd4802	0.40094
244	0xbe9915be	-0.298994
245	0xbec4fb55	-0.38473
246	0xbe4681aa	-0.193854
247	0x3c941b0a	0.0180793
248	0x3ec779c8	0.389601
249	0x3e1d462c	0.153588
250	0x3e78c47a	0.242937
251	0x3e91c1d7	0.284682
252	0x3f124cb6	0.571483
253	0x3f88216c	1.06352
254	0xbddc13fd	-0.10746
255	0xbf3efab5	-0.746013

2.0.bias f4 [50]
0	0x3f144d44	0.579304
1	0x3e032d6f	0.128103
2	0xbe32ff09	-0.174801
3	0xbb42a9b3	-0.00297032
4	0xbd6a6cbb	-0.0572326
5	0xbe83a754	-0.257136
6	0xbc8fa418	-0.0175343
7	0x3e702c4d	0.234544
8	0xba4ceb11	-0.000781701
9	0xbbb363db	-0.00547455
10	0xbd392677	-0.0452027
11	0xbe844913	-0.25837
12	0xbdaa430d	-0.0831357
13	0x3d8f3740	0.0699296
14	0xbd3bf32b	-0.0458862
15	0xbe262846	-0.162263
16	0x39b97001	0.000353694
17	0x3e5ed395	0.217604
18	0x3df1c6d2	0.118055
19	0x3d37bcd0	0.0448578
20	0xbf2710dc	-0.652601
21	0x3edfc6b9	0.437063
22	0x3d8e53a8	0.0694955
23	0xbd66a8fc	-0.0563135
24	0xbe4d61f6	-0.200569
25	0xbf1e774f	-0.619008
26	0x3d9b3919	0.0757925
27	0x3e28919f	0.164618
28	0xbf22a4ca	-0.635327
29	0x3c987d04	0.0186143
30	0x3e39a997	0.181311
31	0x3d41ac58	0.0472835
32	0xbeae2d41	-0.340189
33	0x3ee0ce0c	0.439072
34	0x3e86bdf5	0.263168
35	0x3c934a95	0.0179799
36	0xbbc515f4	-0.00601458
37	0x3dabe313	0.0839292
38	0x3f1965e4	0.599211
39	0x3dd14fce	0.102203
40	0x3e9b8716	0.303765
41	0x3e2794a7	0.163653
42	0xbcf4b2fb	-0.0298705
43	0x3e433722	0.19064
44	0x3c7db248	0.0154844
45	0xbe8042d9	-0.25051
46	0xbe365f52	-0.178098
47	0xbe67d8cf	-0.226413
48	0xbd484995	-0.0488983
49	0xbdf90753	-0.121596

2.0.weight f4 [50, 50]
0	0xbe3fc5ce	-0.187278
1	0x3dee24bc	0.116281
2	0x3d3256af	0.0435397
3	0x3df736ce	0.12071
4	0x3e45e8d5	0.193271
5	0x3de38434	0.111092
6	0x3eb8f345	0.361231
7	0xbe9af7d3	-0.302672
8	0xbeb31099	-0.349736
9	0x3eaceee1	0.33776
10	0xbca2a470	-0.0198538
11	0x3e880a9e	0.265706
12	0xbe1c0e39	-0.152398
13	0xbeb6bacf	-0.356894
14	0xbe9caa32	-0.305986
15	0xbcfd7038	-0.0309373
16	0x3f00359c	0.500818
17	0x3d3273f1	0.0435676
18	0xbda7cb63	-0.0819309
19	0xbd6b7f3f	-0.0574944
20	0xbca173b8	-0.0197085
21	0xbd82754e	-0.0637003
22	0xbe8c7970	-0.274364
23	0xbec3bc4d	-0.382296
24	0x3ea07aaf	0.313436
25	0x3e66540d	0.22493
26	0xbd1cbd3b	-0.0382664
27	0x3e4f5a96	0.202494
28	0x3e41947d	0.189043
29	0xbe9058de	-0.281928
30	0xbe8b5200	-0.27211
31	0x3b9b8be2	0.0047469
32	0xbca3f0a0	-0.0200122
33	0xbcf6fdc3	-0.0301503
34	0x3dc872a3	0.0978749
35	0x3e125e14	0.142937
36	0xbd6ca9ac	-0.057779
37	0x3da624b5	0.0811247
38	0x3cad0b9c	0.0211237
39	0xbfab861a	-1.34003
40	0xbd085879	-0.0332875
41	0xbf30a138	-0.68996
42	0x3d9bcfd5	0.07608
43	0xbd17add1	-0.037031
44	0xbe5fa659	-0.218408
45	0x3efbab86	0.491543
46	0x3d720ef6	0.0590963
47	0xbed3923a	-0.413225
48	0xbd3d0a9d	-0.0461527
49	0x3da734d0	0.0816437
50	0x3f5f44b3	0.872142
51	0xbf9760bf	-1.18264
52	0xba930352	-0.00112162
53	0xbe6d0918	-0.23148
54	0x3f195b57	0.59905
55	0xbea8eb68	-0.329921
56	0x3e6ce5b4	0.231345
57	0xbc3069c0	-0.0107674
58	0xbe94cfaf	-0.290647
59	0xbea9bd40	-0.331522
60	0xbcc69a84	-0.0242436
61	0xbe36cacd	-0.178508
62	0xbd9b5d2b	-0.0758613
63	0x3e8e77b4	0.278257
64	0xbe789f84	-0.242796
65	0xbe5f1c32	-0.217881
66	0xbdbe6d31	-0.0929817
67	0xbc6e8f2a	-0.0145605
68	0x3e2b3bfb	0.167221
69	0xbf1ddb87	-0.616631
70	0xbcff818b	-0.0311897
71	0xbe65ec81	-0.224535
72	0xbe007182	-0.125433
73	0xbf917c1c	-1.1366
74	0x3d4db403	0.0502205
75	0xbdb7e9d9	-0.0898015
76	0xbd277616	-0.0408841
77	0xbece46d0	-0.402884
78	0x3e73c46e	0.238054
79	0x3ec41850	0.382998
80	0xbe4da8bd	-0.200839
81	0xbc0ac7cf	-0.00847049
82	0xbc1e3433	-0.009656
83	0xbe93c9ef	-0.28865
84	0xbcbfcabb	-0.0234121
85	0xbf58b2c8	-0.846478
86	0xbed388ca	-0.413153
87	0x3e904b7f	0.281826
88	0x3d33320c	0.0437489
89	0xbe0b0920	-0.135777
90	0x3abb585b	0.00142933
91	0x3f214b16	0.630052
92	0xbfeb3e03	-1.83783
93	0x3c4a5a2c	0.0123506
94	0x3e0ee7c5	0.139556
95	0x3e806f05	0.250847
96	0x3face50c	1.35074
97	0xbc2d065e	-0.0105606
98	0x3d073ad7	0.0330151
99	0x3e9844d0	0.2974
100	0x3ed8e369	0.42361
101	0x3f8658a3	1.04958
102	0x3cdf65c1	0.0272702
103	0xbe507703	-0.203579
104	0x3d6d9168	0.058
105	0x3dbed5f1	0.0931815
106	0x3e34e486	0.176653
107	0x3fa6ac86	1.30214
108	0xbe8a7e52	-0.270495
109	0x3eb41462	0.351718
110	0x3d291984	0.0412841
111	0xbee0d196	-0.439099
112	0xbe8e030c	-0.277367
113	0x3dba908a	0.091096
114	0x3de6cf42	0.1127
115	0x3f0cc3e3	0.549864
116	0xbe31be6e	-0.173578
117	0xbc9a3fe7	-0.0188293
118	0x3e347171	0.176214
119	0x3dee4085	0.116334
120	0xbd1fb2d3	-0.0389889
121	0x3e87ce31	0.265245
122	0x3d0ef16a	0.0348982
123	0xbedcd9e8	-0.43135
124	0x3f37863c	0.716892
125	0xbecf991c	-0.405465
126	0xbc92a7d8	-0.0179023
127	0xbcc4db67	-0.0240304
128	0xbf9b8da4	-1.21526
129	0x3c3cb238	0.0115171
130	0x3ecc2c3d	0.398775
131	0x3d00c903	0.0314417
132	0x3b4eabca	0.00315355
133	0xbe36be38	-0.17846
134	0x3da3f1c7	0.080051
135	0x3ed6b39a	0.419339
136	0x3e83baba	0.257284
137	0xbee9d884	-0.45673
138	0xbd4ab3d3	-0.0494879
139	0x3d805db1	0.0626787
140	0x3b65f30e	0.00350875
141	0xbdee4b88	-0.116355
142	0xbe26b1a3	-0.162787
143	0xbc84b49b	-0.0161994
144	0x3f176673	0.591407
145	0xbf5ffa4c	-0.874913
146	0xbef52bd4	-0.47885
147	0xbe89da59	-0.269244
148	0xbe93a51a	-0.288369
149	0x3f18c08b	0.596688
150	0xbd42f5b3	-0.0475976
151	0x3b95ae53	0.0045679
152	0x3d2a2bd3	0.0415457
153	0x3cf25ef8	0.0295863
154	0xbd000325	-0.031253
155	0xbb626c9c	-0.00345496
156	0xbcaeb18f	-0.0213249
157	0xbc824efa	-0.0159068
158	0xbcbd6fcd	-0.0231246
159	0xbd567a7b	-0.0523629
160	0x3add2e6f	0.00168748
161	0xbccc14e1	-0.0249123
162	0xbc39b090	-0.0113336
163	0x3cca9af9	0.0247321
164	0x3b42ee27	0.0029744
165	0xbca1e563	-0.0197627
166	0xbd115f38	-0.0354912
167	0x3d2ef673	0.0427155
168	0x3c445e69	0.0119854
169	0xbd1ccd96	-0.038282
170	0x3cf69ac7	0.0301031
171	0xbaf3938b	-0.00185834
172	0xbcc83fd5	-0.0244445
173	0xbc87c709	-0.0165744
174	0xbd3a86ff	-0.0455389
175	0xbd483bf4	-0.0488853
176	0xbd1ec695	-0.0387636
177	0xbc899723	-0.0167957
178	0xbd59785c	-0.0530933
179	0xbd388609	-0.0450497
180	0x3d5733a9	0.0525395
181	0xbae664f9	-0.00175777
182	0xbd32f754	-0.0436929
183	0x3d1cec4f	0.0383113
184	0xb9f00615	-0.000457809
185	0xbb8c2dcb	-0.00427792
186	0x3d0982e6	0.0335721
187	0x3ca40ad7	0.0200247
188	0x3d4f88ef	0.0506677
189	0x3ccebaae	0.0252355
190	0x3d1095af	0.035299
191	0x3ba53112	0.00504125
192	0xbd351ce3	-0.044217
193	0x3d3b0341	0.0456574
194	0xbd563e4b	-0.0523055
195	0xbd0668b5	-0.0328147
196	0xbc7abbf3	-0.0153036
197	0x3cdbc1c8	0.0268258
198	0xbd11a55f	-0.0355581
199	0xbd019886	-0.0316396
200	0xbf5704ee	-0.839919
201	0x3ec2d4d4	0.38053
202	0xbc92a3dc	-0.0179004
203	0xbe07b5f2	-0.13253
204	0xbeedb552	-0.464274
205	0x3ed9f3c7	0.425688
206	0xbf180c31	-0.593936
207	0x3e65e4e7	0.224506
208	0x3e070f39	0.131894
209	0x3f0b033a	0.543018
210	0xbc9c7765	-0.0190999
211	0xbe858b3f	-0.260828
212	0xbf13ed96	-0.577844
213	0xbcb2f58b	-0.0218456
214	0xbf96ae29	-1.17719
215	0x3dd498c4	0.103807
216	0x3f33993d	0.701557
217	0x3cb04a80	0.0215199
218	0x3e457eaa	0.192866
219	0x40203593	2.50327
220	0x3d17e19e	0.0370804
221	0xbe014a4d	-0.12626
222	0x3aa01660	0.00122137
223	0xbf62fba0	-0.886652
224	0xbf03a190	-0.514184
225	0x3da82617	0.0821039
226	0x3cf4623d	0.029832
227	0x3e691bc5	0.227645
228	0x3c98df5f	0.0186612
229	0xbeeb7fbf	-0.459959
230	0xbd1418d7	-0.0361565
231	0xbd185f07	-0.0372
232	0x3a8d5614	0.00107831
233	0x3f081ecd	0.53172
234	0x3f0df83c	0.554569
235	0x3eda8c15	0.42685
236	0xbf8b29b3	-1.08721
237	0xbfe4f909	-1.78885
238	0x3d4f402a	0.0505983
239	0xbcb45f83	-0.0220182
240	0xbce0f2f4	-0.0274596
241	0x3eeb16a0	0.459157
242	0xbed54281	-0.416523
243	0x3c840b93	0.0161188
244	0xbe4e4c51	-0.201463
245	0xbf8ab55f	-1.08366
246	0xbfe92e73	-1.82173
247	0xbd2aff1d	-0.0417472
248	0xbedbc233	-0.429216
249	0x3e004791	0.125273
250	0x3e1685db	0.146995
251	0xbe682d38	-0.226735
252	0xbccdda13	-0.0251284
253	0xbf2d1505	-0.676102
254	0xbf805a71	-1.00276
255	0x3f1aabcd	0.604184

3.0.bias f4 [50]
0	0x3c1bfb5e	0.00952038
1	0xbeb018a4	-0.343938
2	0x3f96c2ce	1.17782
3	0xbe699e0e	-0.228142
4	0xbe9708ab	-0.294988
5	0xbd12957f	-0.0357871
6	0xbe83da0e	-0.257523
7	0xbe82cffa	-0.255493
8	0xbe8fccc0	-0.280859
9	0xbe7a3ca7	-0.244372
10	0xbe3eb95e	-0.186254
11	0xbdb262a3	-0.0871022
12	0xbd4f3ddb	-0.0505961
13	0xbd3a5516	-0.0454913
14	0xbdeaae29	-0.11459
15	0xbddf4342	-0.109015
16	0xbf5175d1	-0.818204
17	0xbe8118a0	-0.252141
18	0x3edfce53	0.437121
19	0xbc8887c4	-0.0166663
20	0xbea2990f	-0.317574
21	0xbd850042	-0.0649419
22	0xbf627fc3	-0.884762
23	0xbccf4bcd	-0.0253047
24	0x3da3320c	0.0796853
25	0xbe4d3522	-0.200398
26	0x3ea3f445	0.320223
27	0xbeaadb1f	-0.333703
28	0x3e2b2c84	0.167162
29	0xbc67c0d9	-0.0141451
30	0xbec0342b	-0.375398
31	0xbf679ad0	-0.904706
32	0x3d4d637b	0.0501437
33	0xbe83ffef	-0.257812
34	0xbbc6ec38	-0.00607064
35	0x3eb0257d	0.344036
36	0xbcc6dd34	-0.0242754
37	0xbe970b6b	-0.295009
38	0xbe269553	-0.162679
39	0xbea6b639	-0.325609
40	0x3eeace25	0.458604
41	0x3e1aa194	0.151007
42	0xbc56d7e9	-0.013113
43	0xbec2be27	-0.380357
44	0x3cb52180	0.0221107
45	0xbde0ec74	-0.109826
46	0xbe19f128	-0.150334
47	0xbc59a9c0	-0.0132851
48	0xbd47e8b2	-0.0488059
49	0xbd3f08bf	-0.0466392

3.0.weight f4 [50, 50]
0	0xbe7f5ad9	-0.24937
1	0x3d30f536	0.0432026
2	0xbeeb250b	-0.459267
3	0xbc9152a3	-0.0177396
4	0x3e4cda6e	0.200052
5	0xbe4f9ca6	-0.202746
6	0x3eff6816	0.498841
7	0xbeab265b	-0.334277
8	0xbed6d8d3	-0.419623
9	0xbe984838	-0.297426
10	0xbed6032e	-0.417993
11	0xbecd249e	-0.40067
12	0xbe8a01ac	-0.269544
13	0xbe05da6a	-0.130716
14	0xbf1b7846	-0.607304
15	0x3de18f82	0.110137
16	0x3e531c22	0.206162
17	0xbf161134	-0.5862
18	0x3f05818c	0.521508
19	0x3f290f62	0.660391
20	0x3eed512f	0.46351
21	0x3ea7a3fd	0.327423
22	0xbe9f609e	-0.311284
23	0xbd0c6aa7	-0.0342814
24	0x3f1fc233	0.624057
25	0xbde80629	-0.113293
26	0x3bef9e9e	0.00731261
27	0x3f1fb82c	0.623904
28	0xbeb0d4dc	-0.345374
29	0x3d860279	0.0654344
30	0x3c244849	0.010027
31	0x3e78769f	0.24264
32	0x3f0d7eaa	0.552714
33	0xbeb9f1ae	-0.363172
34	0x3e8a80ae	0.270513
35	0x3f2f2357	0.684133
36	0x3d043c1f	0.0322839
37	0xbe05946c	-0.130449
38	0xbd4bce35	-0.0497572
39	0xbe40b0f2	-0.188175
40	0x3ec52bf5	0.385101
41	0x3f90fd4c	1.13273
42	0x3da6295f	0.0811336
43	0x3f0c6962	0.548483
44	0x3e97826f	0.295917
45	0xbe79ddc2	-0.24401
46	0xbe3830a1	-0.179873
47	0x3df3a259	0.118962
48	0x3e1cef24	0.153256
49	0xbe91cc10	-0.28476
50	0x3f2d9e41	0.678196
51	0x3f29a30a	0.662644
52	0x3de8c261	0.113652
53	0xbbe118df	-0.00686942
54	0x3e6adf2f	0.229367
55	0x3c9db984	0.0192535
56	0x4006e6da	2.10784
57	0x3f8b7026	1.08936
58	0x3fa2277c	1.26683
59	0x3ef2b0a7	0.474004
60	0xbe572da1	-0.210135
61	0x3d53d88f	0.0517202
62	0x3f6b1705	0.91832
63	0xbdfc43b3	-0.123176
64	0xbdf69446	-0.1204
65	0xbd783ada	-0.060603
66	0x3d32d971	0.0436644
67	0xbedd082d	-0.431703
68	0x3f316fa8	0.69311
69	0x3ed80bed	0.421966
70	0xbf23a56e	-0.639243
71	0xbf351c8f	-0.707467
72	0x3f1bb9bf	0.608303
73	0x3eab8045	0.334963
74	0xbe2e2691	-0.170069
75	0x3dc4f8b6	0.0961775
76	0x3f317a9a	0.693277
77	0x3f2c66a1	0.673441
78	0xbf3e79bc	-0.744045
79	0x3e92e8e2	0.286933
80	0x3dbb1855	0.091355
81	0xbe885059	-0.266238
82	0x3ebc840e	0.368195
83	0x3f00738a	0.501763
84	0xbe9a8177	-0.301769
85	0xbeb6ee74	-0.357288
86	0xbc6d02cd	-0.014466
87	0xbd609211	-0.0548268
88	0x3ede79ab	0.434522
89	0xbe5f6cad	-0.218188
90	0xbe224af1	-0.158489
91	0x3f2094a3	0.627268
92	0xbe87ed85	-0.265484
93	0x3fa50721	1.28928
94	0x3dfb78cd	0.122789
95	0x3ef8ede5	0.48619
96	0xbe9cf180	-0.30653
97	0x3e465c2d	0.193711
98	0xbf1efcdf	-0.621046
99	0xbe93fca8	-0.289037
100	0x3f0b7575	0.544761
101	0x3dd37eb3	0.103269
102	0x3fa878ea	1.31619
103	0xbd3f7c67	-0.0467495
104	0xbff82a45	-1.93879
105	0x3f1db7bf	0.616085
106	0xbe707076	-0.234804
107	0x3f1379d9	0.576078
108	0x3f978ca8	1.18398
109	0xbeecdff0	-0.462646
110	0xbdf46888	-0.11934
111	0x3f1e5493	0.618478
112	0xbc9af732	-0.0189167
113	0xbe916313	-0.283959
114	0xbe8cd24e	-0.275042
115	0xbc7a31f5	-0.0152707
116	0xbf6d8d15	-0.927934
117	0x3ce4e1cc	0.0279397
118	0x3f02c3eb	0.510802
119	0x3e30b45b	0.172563
120	0xbf92c711	-1.1467
121	0xbee70c78	-0.451267
122	0x3f2a2889	0.664681
123	0xbf92bee0	-1.14645
124	0xbeb1aed5	-0.347037
125	0xbf358687	-0.709084
126	0x3ed93ab4	0.424276
127	0x3fcdbda5	1.60735
128	0xbe9224ee	-0.285438
129	0x3f034df0	0.512908
130	0x3f25b5b7	0.647304
131	0x3ed1e710	0.409966
132	0xbe5ca8a0	-0.215487
133	0x3f85e98e	1.04619
134	0x3fc99ed8	1.57516
135	0x3f40a7b5	0.752559
136	0x3c8349cc	0.0160264
137	0x3e641dd2	0.22277
138	0x3f7f3238	0.99686
139	0x3f845c14	1.03406
140	0x3e6fdd66	0.234243
141	0xbf7def63	-0.991934
142	0xbdb8fd6a	-0.0903271
143	0xbdcfa509	-0.101389
144	0xbed90646	-0.423876
145	0x3f2189f0	0.631011
146	0x3f4e1ee6	0.805159
147	0xbf8c240b	-1.09485
148	0xbe11d92b	-0.14243
149	0x3f73582a	0.950564
150	0xbe1564b6	-0.145892
151	0xbe703cd1	-0.234607
152	0xbc307076	-0.010769
153	0x3d0a9a8e	0.0338388
154	0x3e80f367	0.251857
155	0xbe3dbe7f	-0.185297
156	0xbf094be0	-0.536314
157	0x3e3d92b8	0.18513
158	0xbea60d45	-0.32432
159	0x3e273b86	0.163313
160	0x3df89481	0.121377
161	0x3d60bb11	0.0548659
162	0x3daa6fe0	0.0832212
163	0xbe9c9bc7	-0.305876
164	0x3e32c5a0	0.174582
165	0x3ea11c2a	0.314668
166	0xbd3b370e	-0.0457068
167	0x3df7a80d	0.120926
168	0x3f44b5ee	0.768401
169	0x3e050efe	0.12994
170	0xbd775679	-0.0603852
171	0xbd7df6dc	-0.062003
172	0xbe5841ee	-0.211189
173	0xbee8e3ef	-0.454864
174	0x3d48f09f	0.0490576
175	0xbea09d49	-0.3137
176	0x3f00182f	0.500369
177	0x3b54c9c6	0.00324689
178	0xbe6b5d89	-0.229849
179	0xbd8e4dc9	-0.0694843
180	0x3e52ae4b	0.205743
181	0xbe396b33	-0.181073
182	0x3ea15b57	0.31515
183	0x3e25a74c	0.161771
184	0x3dca3ca7	0.0987485
185	0x3e5b42cc	0.214122
186	0xbabffc2f	-0.00146473
187	0x3e2fd86b	0.171724
188	0x3e5dcf89	0.216612
189	0xbe03458d	-0.128195
190	0x3eadcab0	0.339437
191	0x3e86d118	0.263314
192	0xbe8d5e07	-0.276108
193	0x3ed4ec42	0.415865
194	0x3dc83f84	0.0977774
195	0xbed928bf	-0.424139
196	0x3cc1d62e	0.0236617
197	0x3cb509cd	0.0220994
198	0xbd8971c1	-0.0671115
199	0xbf3d0f73	-0.738517
200	0x3f00d4ed	0.503249
201	0xbed412ae	-0.414205
202	0xbecee675	-0.404102
203	0xbb7958f2	-0.00380474
204	0x3ee1624a	0.440203
205	0xbd3e51fb	-0.0464649
206	0x3fc74e66	1.55708
207	0xbe594142	-0.212163
208	0x3ef48cf8	0.477638
209	0x3f0d1149	0.551045
210	0xbe28316a	-0.164251
211	0x3e81fc4c	0.253878
212	0xbf23c244	-0.639683
213	0xbe218373	-0.157728
214	0x3f38013f	0.718769
215	0x3ce82fca	0.0283431
216	0x3cfd314e	0.0309073
217	0x3efc100e	0.49231
218	0x3f87e868	1.06178
219	0x3f525636	0.821628
220	0x3e24cc25	0.160935
221	0xbd5fed56	-0.0546697
222	0xbf16239e	-0.586481
223	0x3d06fd15	0.0329562
224	0x3d8ac9cb	0.0677677
225	0xbf6a89db	-0.916166
226	0x3f6bfe4c	0.921849
227	0x3f498601	0.787201
228	0x3c3bc390	0.0114602
229	0x3f9077ee	1.12866
230	0x3d79e6c6	0.0610111
231	0x3e0ece57	0.139459
232	0x3ee4408e	0.445805
233	0x3f485d64	0.782675
234	0xbfb03e42	-1.3769
235	0xbf00b524	-0.502764
236	0x3b1b5962	0.00237044
237	0xbc8fd41e	-0.0175572
238	0xbda03b4c	-0.0782381
239	0x3ec30ec3	0.380972
240	0xbe47f349	-0.195264
241	0x3f09f373	0.538871
242	0xbe125fa6	-0.142943
243	0xbf803aa8	-1.00179
244	0x3e8f16b1	0.27947
245	0x3e6b2d0a	0.229664
246	0xbed222b4	-0.410421
247	0x3d85703f	0.0651555
248	0xbe5561d4	-0.208381
249	0xbf10bc7b	-0.565376
250	0xbf2fb96b	-0.686423
251	0x3e0fab54	0.140302
252	0x3e2b95e6	0.167564
253	0x3cea3a66	0.0285923
254	0x3eef4e01	0.467392
255	0xbdd2b021	-0.102875

4.0.bias f4 [50]
0	0xbe94d9c7	-0.290724
1	0x3cdf8c58	0.0272886
2	0x3e37ad8e	0.179373
3	0xbd92ea96	-0.0717365
4	0xbe707af2	-0.234844
5	0xbf5b9c84	-0.857857
6	0xbc06b96d	-0.00822292
7	0x3e88025c	0.265643
8	0xbfaa34ec	-1.32974
9	0x3e0a4ebe	0.135066
10	0xbe1827fa	-0.14859
11	0x3da45763	0.0802448
12	0x3e89c66d	0.269092
13	0xbe920d99	-0.28526
14	0x3e484a94	0.195597
15	0x3ea6598e	0.324902
16	0x3efd66cf	0.494925
17	0xbd8242a8	-0.0636037
18	0xbc6d1908	-0.0144713
19	0xbe9b1316	-0.30288
20	0xbe0c73ef	-0.137161
21	0xbf90c5eb	-1.13104
22	0xbee19956	-0.440623
23	0x3d153f98	0.0364376
24	0x3e440f24	0.191464
25	0x3e360a63	0.177774
26	0xbee61deb	-0.449447
27	0xbe050d28	-0.129933
28	0xbc96b5ef	-0.0183973
29	0xbc9e350a	-0.0193124
30	0x3ddc1c61	0.107476
31	0x3e2d2f1b	0.169125
32	0xbd3615ec	-0.0444545
33	0x3e80489d	0.250554
34	0xbea9f31f	-0.331933
35	0x3e10e27e	0.141489
36	0x3e49a6b5	0.196925
37	0xbf44a15a	-0.768087
38	0x3d76773b	0.0601723
39	0xbf9e36e3	-1.23605
40	0xbf6fa67a	-0.936134
41	0xbe280b67	-0.164106
42	0xbe5ecedd	-0.217586
43	0xbcd0da43	-0.0254947
44	0xbe32fcad	-0.174792
45	0xbe27ca21	-0.163857
46	0xc0093f7d	-2.1445
47	0xbeeb78ee	-0.459907
48	0xbdc3fefe	-0.0957012
49	0x3e07c569	0.132589

4.0.weight f4 [50, 50]
0	0xbe969be1	-0.294158
1	0x3ebb4a23	0.3658
2	0xbd73eb04	-0.0595503
3	0xbe6332ad	-0.221873
4	0x3f32ac97	0.697946
5	0xbf52c53b	-0.823322
6	0xbf1ddd1a	-0.616655
7	0xbe84a255	-0.259051
8	0x3e3ea24d	0.186166
9	0x3d4d6ff5	0.0501556
10	0x3e9d946c	0.307773
11	0xbeb51548	-0.353678
12	0x3dbea268	0.0930832
13	0x3e885a92	0.266316
14	0xbe1433d7	-0.144729
15	0x3ccf619d	0.0253151
16	0xbea485e4	-0.321334
17	0x3e002a78	0.125162
18	0x3eb9c5c5	0.362837
19	0xbd104d55	-0.03523
20	0xbe15308c	-0.145693
21	0x3e1bd3c3	0.152175
22	0xbe3c4b90	-0.183882
23	0xbd02c527	-0.0319263
24	0x3db89e6a	0.0901459
25	0x3e4ce2d2	0.200084
26	0x3dc3be9c	0.0955784
27	0x3e95260f	0.291306
28	0xbe58487c	-0.211214
29	0x3c54c554	0.0129865
30	0xbfab8034	-1.33985
31	0x3e598677	0.212427
32	0x3f117236	0.568149
33	0x3c748a81	0.0149256
34	0xbd36ff05	-0.0446768
35	0xbea4065b	-0.320361
36	0x3e98151a	0.297036
37	0xbf33fd93	-0.703088
38	0xbd25e3bf	-0.0405004
39	0xbf523c32	-0.821231
40	0x3f0c9460	0.549139
41	0xbfbf1d93	-1.49309
42	0xbf47c340	-0.780323
43	0xbe75cd92	-0.240042
44	0xbe2865d8	-0.164451
45	0xbf0fdb1a	-0.561937
46	0xbe020104	-0.126957
47	0x3ca74bd4	0.0204219
48	0x3dc6ffe9	0.0971678
49	0x3ebb86f4	0.366264
50	0x3ecd744f	0.401278
51	0x3efc4630	0.492723
52	0xbd8c5e3a	-0.0685391
53	0x3f2aa327	0.666552
54	0xbe23c46e	-0.159929
55	0x3e5048e0	0.203403
56	0x3ebd1ce3	0.369361
57	0xbc99b57e	-0.0187633
58	0x3ee6a012	0.45044
59	0x3e6a6efc	0.228939
60	0x3decc469	0.115609
61	0xbee30942	-0.44343
62	0xbd28d7e0	-0.0412215
63	0x3d82030f	0.0634824
64	0x3e030015	0.12793
65	0xbdd95aaf	-0.10613
66	0xbdfe518f	-0.124179
67	0xbdceb3dd	-0.100929
68	0x3eb0e172	0.34547
69	0xba6e692a	-0.000909465
70	0x3d6b2e4c	0.0574172
71	0x3ea28006	0.317383
72	0xbe8164e9	-0.252723
73	0xbc364247	-0.0111242
74	0x3cbfd5d9	0.0234174
75	0x3e86fd87	0.263653
76	0x3edf8b37	0.436609
77	0xbca44c7b	-0.020056
78	0x3c849c47	0.0161878
79	0xbbf05c49	-0.00733522
80	0x3f01e55c	0.507406
81	0xbd9cf264	-0.0766342
82	0x3e7f8d71	0.249563
83	0x3e0fd827	0.140473
84	0xbca91b4d	-0.0206429
85	0xbeab8a7e	-0.335041
86	0xbe73e921	-0.238194
87	0x3d723847	0.0591357
88	0xbee781c7	-0.452162
89	0xbe72e233	-0.237191
90	0xbe291d15	-0.16515
91	0x3f15c3ad	0.585017
92	0x3e499e95	0.196894
93	0x3f03f6a1	0.515482
94	0x3dede7ea	0.116165
95	0x3eb51f82	0.353756
96	0xbdf4c09c	-0.119508
97	0xbd23e5ee	-0.0400142
98	0xbe95e99f	-0.292798
99	0xbe10e1b5	-0.141486
100	0x3e0c532a	0.137036
101	0xbb2f7ad7	-0.00267761
102	0xbd1f0a37	-0.0388281
103	0x3e0ce5f7	0.137596
104	0x3df02795	0.117263
105	0xbe23ffef	-0.160156
106	0x3e5b8a1a	0.214394
107	0xbc813ac8	-0.0157751
108	0x3e1989df	0.14994
109	0xbd10b10d	-0.0353251
110	0x3da0de75	0.0785493
111	0xbe3bd87b	-0.183443
112	0x3db70677	0.0893678
113	0xbc5dc5ae	-0.0135359
114	0x3dda8f7e	0.106719
115	0x3dc3283e	0.0952916
116	0xbe279a6b	-0.163675
117	0xbe19cbef	-0.150192
118	0xbe0d538b	-0.138014
119	0xbaaaf912	-0.00130442
120	0x3bf6dbaa	0.00753351
121	0x3e4e425b	0.201425
122	0xbd6a1222	-0.0571462
123	0x3c0c6965	0.00857005
124	0xbc914d65	-0.0177371
125	0x3e1602c9	0.146495
126	0xbe25f959	-0.162084
127	0x3da76e89	0.0817538
128	0xbe895e7d	-0.268299
129	0x3aa36e5a	0.00124688
130	0x3e160807	0.146515
131	0x3d1f5c51	0.0389064
132	0xbd2dc388	-0.0424228
133	0x3d7256e5	0.0591649
134	0xbcc9854f	-0.0245997
135	0x3d79175e	0.0608133
136	0x3a234322	0.000622796
137	0x3e11e2df	0.142467
138	0x3c992e04	0.0186987
139	0xbdce5abc	-0.100759
140	0xbe887bdd	-0.26657
141	0x3f36bf23	0.713854
142	0xbd4895d1	-0.048971
143	0x3f056da0	0.521204
144	0xbe3b58d1	-0.182956
145	0x3e06fdeb	0.131828
146	0xbe020924	-0.126988
147	0x3d23af4d	0.0399621
148	0xb9accd7e	-0.000329595
149	0xbe01c087	-0.126711
150	0xbf987304	-1.19101
151	0xbeb90518	-0.361367
152	0xbced040f	-0.0289326
153	0x3e31ec4e	0.173753
154	0x3ed69835	0.41913
155	0xbf21bccb	-0.631787
156	0x3ebe3f79	0.371578
157	0xbfb0ec96	-1.38222
158	0xbd37fa93	-0.0449167
159	0xbe8d9d77	-0.276592
160	0x3ef5f4a1	0.480382
161	0x3ccf84a3	0.0253318
162	0x3cabe597	0.0209835
163	0x3d334903	0.0437708
164	0x3ed89bfa	0.423065
165	0xbdeafa2f	-0.114735
166	0xbf7ab064	-0.979254
167	0x3eb2f4cf	0.349524
168	0x3eac4ce0	0.336524
169	0x3d01b0da	0.0316628
170	0xbf361901	-0.711319
171	0xbd359b8e	-0.0443378
172	0x3d17849c	0.0369917
173	0x3c335dfb	0.0109477
174	0xbc778d6b	-0.0151094
175	0xbf79bf48	-0.975575
176	0xbf331162	-0.699484
177	0x3e44c448	0.192155
178	0x3eac306e	0.336307
179	0x3d44f8a8	0.0480887
180	0xbf9ae536	-1.21012
181	0x3ececf64	0.403926
182	0x3fa8995b	1.31718
183	0xbeaccfaf	-0.337522
184	0x3b89cd74	0.0042054
185	0xbdb94c52	-0.0904776
186	0xbe627cbf	-0.221179
187	0xbec87bdd	-0.39157
188	0xbe93d6c7	-0.288748
189	0xbe876274	-0.264423
190	0x3e8fa4e8	0.280555
191	0x3fc74246	1.55671
192	0xbe02f167	-0.127874
193	0xbda7d849	-0.0819555
194	0x3efa6506	0.489052
195	0x3dde2047	0.10846
196	0xbdefdc9c	-0.11712
197	0xbcb8392c	-0.0224882
198	0x3e676790	0.225981
199	0x3f3c3e10	0.735322
200	0x3f0e05ab	0.554774
201	0x4019c30d	2.40253
202	0xbed24e59	-0.410754
203	0xbf56bc84	-0.838814
204	0x40038e75	2.05557
205	0xbe2a2f06	-0.166195
206	0xbf9204c0	-1.14077
207	0xbed26117	-0.410897
208	0xbd9d16d4	-0.0767037
209	0x3fe2410b	1.76761
210	0x3fa7c8f3	1.31082
211	0xbfde708f	-1.73781
212	0xbeaaafde	-0.333373
213	0xbf1120f3	-0.566909
214	0x402563dc	2.58422
215	0xbf93d567	-1.15495
216	0xbee9d40f	-0.456696
217	0xbf5c572a	-0.860705
218	0x3f99003f	1.19532
219	0xbca85696	-0.0205491
220	0x3f087ee1	0.533186
221	0xbf126c4c	-0.571965
222	0xbfa0cfc0	-1.25634
223	0xbd0d1973	-0.0344481
224	0xbd86a51b	-0.0657446
225	0x4000e9f7	2.01428
226	0x3eb09b0f	0.344933
227	0x3ddef417	0.108864
228	0x3f77f8ec	0.968642
229	0x385634db	5.10708e-05
230	0x3f20a6db	0.627546
231	0xbf88201d	-1.06348
232	0x3f298384	0.662163
233	0x3e7516db	0.239345
234	0x3d081817	0.0332261
235	0xbecd7082	-0.401249
236	0xbe6fcb92	-0.234175
237	0x3fd02f83	1.62645
238	0x3f93bfc6	1.15429
239	0x401cc63f	2.4496
240	0x3e0b6391	0.136122
241	0x3fe1989e	1.76247
242	0x3fd9ea89	1.70247
243	0x3f123b04	0.571213
244	0x3f9565d4	1.16717
245	0x3f947842	1.15992
246	0x3fe6786c	1.80055
247	0xbb47f19c	-0.0030509
248	0xbf5111be	-0.816677
249	0x3f14a45d	0.580633
250	0xbf9fdf8f	-1.24901
251	0x3ee8bf5d	0.454585
252	0x3c1234cb	0.00892372
253	0x3f1606a7	0.586039
254	0x3f1777f2	0.591674
255	0x3fa70a3d	1.305

5.0.bias f4 [50]
0	0x3d5daaa0	0.0541178
1	0xbcf4a4b8	-0.0298637
2	0xbe9c2edc	-0.305045
3	0xbd3ae8ef	-0.0456323
4	0xbf6980f5	-0.912124
5	0xbec4679d	-0.383603
6	0xbf9ec0d7	-1.24026
7	0x3d1c89d9	0.0382174
8	0xbb5cf539	-0.00337155
9	0x3f3552f4	0.708297
10	0xbd2dfdf0	-0.0424785
11	0xbeed90c1	-0.463995
12	0xbd45d837	-0.0483019
13	0xbef55bcd	-0.479216
14	0x3d99d0cf	0.0751053
15	0xbd59e061	-0.0531925
16	0x3e21db87	0.158064
17	0xbd828185	-0.0637236
18	0x3bf3558d	0.00742597
19	0xbe72becf	-0.237056
20	0xbf46528b	-0.774697
21	0x3a2cc694	0.000659087
22	0xbeb6f438	-0.357332
23	0x3c8a4096	0.0168765
24	0xbdcad843	-0.0990453
25	0x3dc5fcf7	0.0966739
26	0xbd3b3a33	-0.0457098
27	0x3de840e1	0.113405
28	0x3e238716	0.159695
29	0xbdf9ea57	-0.122029
30	0xbe94abe7	-0.290374
31	0xbd830cc5	-0.0639892
32	0xbd9bac2e	-0.076012
33	0xbda1b973	-0.078967
34	0xbec12989	-0.37727
35	0xbd288377	-0.041141
36	0x3c819fa8	0.0158232
37	0xbf42a423	-0.760317
38	0xbe80850a	-0.251015
39	0x3cf9b1d2	0.0304803
40	0xbdc77ba5	-0.0974038
41	0xbd1e1c9b	-0.0386015
42	0x3d4e618d	0.050386
43	0x3d5d9a2a	0.0541021
44	0xbd10ce34	-0.0353529
45	0xbe89a544	-0.268839
46	0xbd31843c	-0.043339
47	0xbcd53b9c	-0.0260294
48	0xbe442678	-0.191553
49	0x3d2be836	0.0419695

5.0.weight f4 [50, 50]
0	0x3d6c5b08	0.057704
1	0xbbf1ea28	-0.00738265
2	0xbe098eda	-0.134334
3	0xbdd4b381	-0.103858
4	0xbd313b92	-0.0432697
5	0xbd3c0a8d	-0.0459085
6	0xbd17b8ef	-0.0370416
7	0x3ce329d1	0.0277299
8	0x3c51e38d	0.0128106
9	0xbe1c4695	-0.152613
10	0xbda0222f	-0.0781902
11	0xbd720917	-0.0590907
12	0xbf11ec0b	-0.570008
13	0x3daa19d7	0.0830571
14	0x3d05474d	0.0325387
15	0xbc6d2095	-0.0144731
16	0xbda354f7	-0.0797519
17	0x3c8bdce3	0.0170731
18	0xbbf5a55e	-0.00749652
19	0x3c832980	0.016011
20	0x3d1dd9d0	0.0385378
21	0xbe357471	-0.177202
22	0xbd2128a4	-0.0393454
23	0x3d06f842	0.0329516
24	0x3cf43958	0.0298125
25	0x3d5d5dfa	0.0540447
26	0xbd15a188	-0.036531
27	0xbc7e3814	-0.0155163
28	0xbdee08f2	-0.116228
29	0xbcd387d2	-0.0258216
30	0x3d399c03	0.0453148
31	0x3d63f44c	0.0556529
32	0xbd47640d	-0.0486794
33	0xbd6d30f0	-0.057908
34	0xbe2089e3	-0.156776
35	0x3ca7be8b	0.0204766
36	0xbbd2676b	-0.00642102
37	0xbc9ec2ce	-0.01938
38	0xbd7b8d09	-0.0614138
39	0x3d4bb44e	0.0497325
40	0x3d1c6816	0.0381852
41	0x3d1206fe	0.0356512
42	0xbd63b95e	-0.0555967
43	0x3c250721	0.0100725
44	0x3deec95c	0.116595
45	0xbd636e14	-0.0555249
46	0xbdab4b22	-0.0836394
47	0x3b482f2e	0.00305457
48	0xbc9bf346	-0.0190369
49	0xbdf6f8f0	-0.120592
50	0xbcb087f3	-0.0215492
51	0xbd31d81f	-0.043419
52	0xbd06af62	-0.0328821
53	0xbd375918	-0.0447627
54	0x3c76fd22	0.015075
55	0xbd0b8280	-0.03406
56	0xbd1ded00	-0.0385561
57	0x3ca571df	0.0201959
58	0xbd217515	-0.0394183
59	0xbc838921	-0.0160566
60	0xbc882243	-0.0166179
61	0x3d15e66c	0.0365967
62	0x3d05152e	0.0324909
63	0x3b9a886c	0.00471597
64	0xbbf0d139	-0.00734916
65	0xba47d894	-0.000762352
66	0x39280c8a	0.000160264
67	0x3bfea272	0.00777083
68	0x3cb2c768	0.0218236
69	0xbd2e2ccf	-0.0425232
70	0x3d12952e	0.0357868
71	0xbc7b8eed	-0.0153539
72	0xbd211219	-0.0393239
73	0xbd09a382	-0.0336032
74	0xbb2ae6c9	-0.00260775
75	0xbbf601e5	-0.00750755
76	0xbc7f5cd7	-0.0155861
77	0xbd202ae3	-0.0391034
78	0xbcbc1194	-0.0229576
79	0x3d347a40	0.0440619
80	0xbd4d9fe1	-0.0502013
81	0xbd51f596	-0.0512596
82	0x3d1808d6	0.0371178
83	0xbd54690e	-0.051858
84	0xb7ee364f	-2.83971e-05
85	0x3d2e3e6c	0.04254
86	0x3c98b38b	0.0186403
87	0x3c856cf2	0.0162873
88	0x3cd3fb2a	0.0258766
89	0x3d21e9ca	0.0395296
90	0x3cc97dc3	0.0245961
91	0xbd0f8ff6	-0.0350494
92	0xbd410716	-0.0471259
93	0xbd269ad4	-0.040675
94	0x3b809450	0.00392393
95	0xbd106863	-0.0352558
96	0xbd4eaaf3	-0.050456
97	0xbd0596c8	-0.0326145
98	0xbd53b0d2	-0.0516823
99	0xbd38fe33	-0.0451643
100	0xbf2cd552	-0.67513
101	0x3e5f544c	0.218095
102	0xbf092a73	-0.535804
103	0x3d712989	0.0588775
104	0xbd075361	-0.0330385
105	0x3db74115	0.0894796
106	0xbd2241fa	-0.0396137
107	0x3f1c63e0	0.610899
108	0xbe962f16	-0.293328
109	0x3e957d7c	0.291973
110	0x3e35896a	0.177282
111	0xbeb5ce9e	-0.355092
112	0x3e7e7104	0.248478
113	0xbb1197ed	-0.00222158
114	0xbd3cd848	-0.0461047
115	0x3f53d838	0.827518
116	0x3e384e40	0.179986
117	0xbeba0770	-0.363338
118	0xbcc11142	-0.0235678
119	0xbd819546	-0.063273
120	0x3f56a982	0.838524
121	0xbe68a3b5	-0.227187
122	0xbdc088ff	-0.0940113
123	0x3cb89756	0.0225331
124	0xbe122c45	-0.142747
125	0x3e76dca0	0.241076
126	0xbf6f0e4e	-0.933812
127	0xbe02b90a	-0.127659
128	0x3df526d9	0.119703
129	0xbcfa831e	-0.0305801
130	0xbe7fdf3b	-0.249875
131	0x3f268f9f	0.650629
132	0xbec6c765	-0.38824
133	0xbdc65428	-0.0968402
134	0x3f0f97dd	0.560911
135	0x3e9e5aff	0.309288
136	0x3e837458	0.256747
137	0xbecc4ac7	-0.399008
138	0x3ee51527	0.447427
139	0xbdee1156	-0.116244
140	0x3d2c2c43	0.0420344
141	0xbeb378ab	-0.35053
142	0x3ea6f8cf	0.326117
143	0x3cd7a27e	0.0263226
144	0xbe0ada34	-0.135598
145	0xbe5be33b	-0.214734
146	0x3c2bd8cc	0.0104887
147	0x3d2429e1	0.040079
148	0xbf414318	-0.75493
149	0x3e29ee46	0.165948
150	0x3c818281	0.0158093
151	0xbd4e9c96	-0.0504423
152	0x3a82b2d6	0.000997151
153	0x3be2129a	0.00689919
154	0xbc9a5368	-0.0188386
155	0x3c3f66b3	0.0116822
156	0xbd3da349	-0.0462983
157	0x3d1b7bf2	0.03796
158	0xbd599609	-0.0531216
159	0xbd0c75c5	-0.034292
160	0xbce5cec7	-0.0280527
161	0xbd028b45	-0.0318711
162	0x3d34a325	0.0441009
163	0x3ccd43eb	0.0250568
164	0xbd53638a	-0.0516086
165	0x3a51b9c7	0.00080004
166	0xbc1bdbb3	-0.00951283
167	0xbd18d6e1	-0.0373143
168	0x3d3d4a28	0.0462133
169	0xbc4fc24b	-0.0126806
170	0xbba478b0	-0.00501927
171	0x3c220fca	0.00989146
172	0xbc1b025a	-0.00946101
173	0xbd3c248e	-0.0459333
174	0x3b88074b	0.00415126
175	0x3d08e0e5	0.0334176
176	0xbc79e3f2	-0.0152521
177	0x3c7edc7f	0.0155555
178	0x3c2bc3d3	0.0104837
179	0xbd233dd8	-0.0398539
180	0xbb7878cd	-0.00379138
181	0xbd47589f	-0.0486685
182	0x3d099e29	0.0335981
183	0xbd247687	-0.0401521
184	0x3ca553e2	0.0201816
185	0xbc0109c0	-0.00787586
186	0x3cd5f31c	0.0261169
187	0xbaf0c1ca	-0.00183683
188	0xbd383c01	-0.0449791
189	0x3ce074eb	0.0273995
190	0xbcae79c6	-0.0212983
191	0xbcbb0193	-0.0228279
192	0xbd417f26	-0.0472404
193	0x3bba1235	0.00567844
194	0x3ca87b14	0.0205665
195	0x3cbd3a1d	0.023099
196	0xbbe00996	-0.00683708
197	0x3ce82624	0.0283385
198	0x3d385cd3	0.0450104
199	0xbb100445	-0.00219752
200	0x3d0c78cf	0.0342949
201	0x3eafd7a1	0.343442
202	0x3f55eecc	0.835675
203	0x3e4f69cb	0.202552
204	0xbee3cd79	-0.444927
205	0xbe70bb2c	-0.235089
206	0x3d09ee61	0.0336746
207	0x3cf1bf2a	0.0295101
208	0xbe2a27af	-0.166167
209	0x3ee40b13	0.445397
210	0xbe853544	-0.260172
211	0x3e14ecea	0.145435
212	0x3fc2a897	1.52077
213	0xbee0c240	-0.438982
214	0x3e03a8e7	0.128574
215	0xbcf37aec	-0.0297217
216	0x3f52529c	0.821573
217	0x3db816d5	0.0898873
218	0xbd3daed2	-0.0463093
219	0x3de44391	0.111457
220	0x3f65df55	0.897939
221	0xbf473355	-0.778127
222	0xbf12749f	-0.572092
223	0x3e2b2fec	0.167175
224	0x3e8c677b	0.274227
225	0x3e97b8d4	0.296332
226	0xbce3051d	-0.0277124
227	0x3dff7d74	0.124751
228	0x3f35057d	0.707115
229	0x3b67c74f	0.00353666
230	0x3e7bcc6c	0.245897
231	0x3e2cf249	0.168893
232	0xbdc7fc33	-0.097649
233	0xbc838fd7	-0.0160598
234	0xbe6bc409	-0.23024
235	0x3e12d01c	0.143372
236	0x3f411373	0.754203
237	0x3d34e535	0.0441639
238	0xbe433c1d	-0.190659
239	0xbcafac96	-0.0214446
240	0x3ee4fce7	0.447242
241	0x3e28c3b1	0.164809
242	0x3f0702b4	0.527385
243	0xbd20ce41	-0.0392592
244	0x3cbf4957	0.0233504
245	0x3e6ed95a	0.233251
246	0xbbbbfe33	-0.00573709
247	0x3e89a155	0.268809
248	0x3f48560c	0.782563
249	0x3e81acde	0.253272
250	0xbd4c67ed	-0.0499038
251	0xbe029414	-0.127518
252	0x3e3bf013	0.183533
253	0x3de496ee	0.111616
254	0xbe012ec7	-0.126155
255	0xbda6823d	-0.0813031

6.bias f4 [5]
0	0xbca4d212	-0.0201197
1	0xbc9f5459	-0.0194494
2	0xbc9f9816	-0.0194817
3	0xbca006d1	-0.0195345
4	0xbc9ff2e5	-0.019525
