artifacts/acas_benchmark/onnx/N_1_1.onnx (onnx, 54312 bytes, 14 tensors)

0.0.bias f4 [50]
000000 d7 17 69 3e d3 4a 41 be d1 c3 5a 3d ff 76 c1 be
       0.22763 -0.188762 0.0534094 -0.377861
000010 06 68 a6 bd d5 b1 16 bf 4b cb 98 3d 7c 28 c9 be
       -0.0812531 -0.588651 0.0746065 -0.392887
000020 59 6d b6 be b2 bc 2b be d7 7a 70 3d bd 54 3c 3e
       -0.356303 -0.167712 0.0587109 0.183917
000030 bc 1f 07 3e 70 0b 9e be c1 a7 49 3e ba 9f 53 3e
       0.131957 -0.308681 0.196929 0.206664
000040 9e 96 9f be a6 25 fb 3c 5b 27 0e be df e2 b1 be
       -0.311696 0.0306576 -0.138822 -0.347434
000050 16 0f 94 bb d2 fe c7 be cd 94 c6 3d 2a 19 21 3c
       -0.0045184 -0.390616 0.0969635 0.00983266
000060 24 7d 9a bc 2d 7c 6d be 87 e1 73 be 35 70 91 3d
       -0.0188585 -0.231919 -0.238165 0.0710148
000070 a4 51 11 be 10 76 e2 be 21 20 0f 3f 0e bc 0a 3e
       -0.141913 -0.442307 0.559084 0.135483
000080 4c 16 bf be 00 ae d4 be a3 77 42 3f 47 03 08 3e
       -0.373217 -0.41539 0.759638 0.132825
000090 37 38 71 3e bc 03 5c 3e e9 b5 e1 be c9 4d 9e bd
       0.235566 0.214858 -0.440841 -0.0772968
0000a0 af ec 62 3e 2f 47 d5 bb 12 85 22 bf 66 86 1d be
       0.221606 -0.00650873 -0.634843 -0.153833
0000b0 3c b6 6a bd 74 b3 df bd 62 b1 17 3d 83 66 5c 3d
       -0.0573027 -0.109229 0.0370344 0.0538087
0000c0 46 25 e5 be 96 23 34 3e
       -0.44755 0.175917

0.0.weight f4 [50, 5]
000000 9b 35 5d 3d 50 19 27 c0 ff 58 38 be b4 01 78 3e
       0.0540062 -2.61092 -0.180027 0.242194
000010 ff cc 10 3e b6 d6 8f bf e9 f4 d7 3c bc 64 16 bc
       0.141407 -1.12374 0.0263619 -0.00917929
000020 f1 d4 63 3d c6 bf a7 be 34 b9 48 3e 87 f8 77 3e
       0.055623 -0.327635 0.196019 0.242159
000030 97 71 23 3f 26 df f4 be b5 ff 11 3e c1 a8 d0 bf
       0.638452 -0.478265 0.142577 -1.63015
000040 e3 15 0d bd 5a 68 c6 bb 15 a0 37 3c ef 06 2c bc
       -0.0344447 -0.00605492 0.0112076 -0.0104997
000050 fe d3 b5 be 58 e3 10 3f d3 be 69 3e 24 99 35 3e
       -0.355133 0.565969 0.228267 0.177342
000060 66 12 55 be b3 0c 0c bd 19 73 bf 3f 9c 50 c4 bf
       -0.208078 -0.0341918 1.4957 -1.53371
000070 e3 e8 25 3d 5e 4b 28 3e 35 d3 cd 3e 06 66 65 3e
       0.0405053 0.16435 0.402002 0.224022
000080 47 59 3f bd c8 d2 27 3e 92 af 24 be 4c 37 b5 bf
       -0.046716 0.16389 -0.160826 -1.41575
000090 ce 12 99 bd 77 8e 77 3d 26 b2 45 3d 53 6a 65 bd
       -0.0747429 0.0604386 0.0482656 -0.0560096
0000a0 1b f5 b8 bf 76 aa 37 3d d7 a3 11 3c 26 1e 80 be
       -1.44498 0.0448403 0.00888916 -0.25023
0000b0 5d cc 85 3d a5 4e 90 bf ca 84 c4 3c 5e bf 1c bc
       0.0653312 -1.1274 0.0239891 -0.00956711
0000c0 94 46 12 3c 69 14 96 bb 8f 1c 1d 3f 4b cd 0e bf
       0.00892796 -0.00458007 0.613717 -0.55782
0000d0 42 ca 54 bd 63 b6 24 3e ff 04 c7 bd e6 06 6f 3f
       -0.0519507 0.160852 -0.0971775 0.933699
0000e0 d7 88 50 3e 91 2a 2a 3e 6e 71 c7 ba 89 79 56 be
       0.203647 0.166178 -0.00152163 -0.209448
0000f0 a1 20 27 bd 60 75 0c 3f 47 77 6b 3d a9 6a 12 3e
       -0.0408026 0.548666 0.0574868 0.142985
000100 35 4a c2 3d ff 5b 59 be 02 f0 a7 be f5 0e b7 3e
       0.0948681 -0.212265 -0.328003 0.357536
000110 b9 88 c7 be 38 2e eb be 4e 25 03 3d 06 4c d8 3e
       -0.389715 -0.459337 0.032018 0.422455
000120 0a 9f 11 bf 3d d7 57 be 21 23 9b 3d 70 40 4b bc
       -0.568833 -0.210782 0.0757506 -0.0124055
000130 bd 35 12 40 a8 fa 5a 3d 3c cc 6d 3d d2 ff f2 3d
       2.28453 0.0534617 0.0580561 0.118652
000140 94 bc fa bd 62 48 36 bf cc 0f 16 3c 46 41 c8 be
       -0.12243 -0.712042 0.00915904 -0.391123
000150 c0 33 0b 3d 39 79 76 3d c7 e1 82 bd 0a 2e 20 c0
       0.0339849 0.0601742 -0.0639072 -2.50281
000160 8d ad 4c 3d 7a c9 1a bd f9 9a aa 3d 01 e8 26 bd
       0.0499702 -0.0377898 0.0833034 -0.0407486
000170 b1 89 40 bf 5e 4c f3 bd ed 46 5f be b2 11 98 bf
       -0.752101 -0.118798 -0.218044 -1.18804
000180 e3 19 14 3e db dc 18 be 0f c5 13 bd 25 93 f3 bd
       0.14463 -0.14928 -0.0360766 -0.118933
000190 35 0b d4 bd b4 57 8f 3d 64 1e 1b 40 48 8c b9 3c
       -0.103537 0.0699915 2.42373 0.0226499
0001a0 03 e9 02 3d 1c e1 ae bd 90 6b 33 3e 3e ff b2 bd
       0.0319605 -0.0853903 0.175215 -0.0874009
0001b0 9b 59 3b bf 81 26 62 be c6 ca 9e bc 0f 9c 7f 40
       -0.731836 -0.22085 -0.0193838 3.9939
0001c0 cc 44 f1 3d d5 97 a0 3d 2a de 6d bc 56 b2 88 3c
       0.117807 0.0784146 -0.0145183 0.0166866
0001d0 16 87 27 bf 74 62 0f 3f 01 4c 49 3e d7 4c e6 be
       -0.654405 0.560096 0.196579 -0.449805
0001e0 50 ba db 3a 1e 6f b0 3b e6 1a ee bb 6e ff 88 3b
       0.00167639 0.00538434 -0.00726639 0.00418084
0001f0 1f 72 e9 3a 33 c4 65 bf 26 ab 02 be d4 b5 26 3e
       0.00178105 -0.897525 -0.127606 0.162803
000200 cd 17 45 bd c7 dc a0 3d 82 e7 6e bf e2 4a c7 bc
       -0.0481184 0.0785461 -0.93322 -0.0243277
000210 af cc 6b 3e bf 0c 56 be 11 43 c1 bd 55 2e 24 3e
       0.230273 -0.209033 -0.0943662 0.160333
000220 c0 04 72 3b 65 38 86 3e d5 5a 90 3e 88 2d 0d bf
       0.00369291 0.262149 0.281943 -0.551476
000230 b8 ce aa 3d e1 d1 00 40 31 eb b5 3e 8d 7b 13 3d
       0.0834021 2.01281 0.35531 0.0360065
000240 5b 14 cc bd f0 6a 91 3e 7c c4 3e bd ea 14 f5 3b
       -0.0996482 0.284019 -0.0465741 0.0074793
000250 dc 2b 57 bf 0c ad f6 be d3 bc af 3f 99 b9 c0 3b
       -0.840513 -0.481789 1.37295 0.0058815
000260 cb 7a 56 3c 01 c2 97 bd e1 96 1f be 64 e9 13 be
       0.0130908 -0.0741005 -0.155849 -0.144445
000270 be 46 1f 3a 8b 60 ad bc 96 d0 25 bf 14 a9 95 bc
       0.000607591 -0.0211642 -0.647714 -0.0182691
000280 82 73 ae bf 5c bc a9 bc f3 88 36 3d 1d 6d 21 3d
       -1.3629 -0.0207197 0.0445642 0.0394107
000290 28 a1 bf 3d ba a0 c6 bf 6f a0 ab 3d e5 36 10 bd
       0.0935691 -1.55178 0.0838021 -0.0352086
0002a0 06 8f c6 3b c8 b9 07 3c a9 f6 a5 3f 94 28 c0 3d
       0.00605953 0.00828404 1.29659 0.0938274
0002b0 75 af 33 3e 7f a4 08 3e 4d f9 98 3e 9c fd 81 3c
       0.175474 0.13344 0.298777 0.015868
0002c0 02 d8 a8 3e 59 dc 87 be 4e 0d d4 bd e5 dc 9c 3d
       0.329773 -0.265353 -0.103541 0.0765932
0002d0 c4 55 2a bd d1 05 bd bf 86 4a 6d bd 84 a0 53 be
       -0.0415857 -1.47674 -0.0579324 -0.206667
0002e0 56 62 4e 3e 33 5e a9 bd 09 32 27 3b cc be 21 3c
       0.201547 -0.0826992 0.0025512 0.00987215
0002f0 90 40 8d 3d 15 02 61 bf 50 8d cb bf cf d9 42 3d
       0.0689708 -0.878938 -1.59025 0.047571
000300 49 0b fa 3b 32 a3 69 bc 1e cf 3a 3b c5 26 e8 3c
       0.00763074 -0.0142601 0.00285048 0.0283388
000310 4d 17 bd bc 7b 53 9c bd 3c 88 45 bf 62 81 ff 3e
       -0.0230824 -0.0763311 -0.77161 0.499034
000320 97 8d 0e 3e 85 7a 12 bf 2f 86 da 3e 90 f9 a8 be
       0.139212 -0.572182 0.426805 -0.330029
000330 68 cd 8f 3e 2d 05 84 3e 7a 5e 80 bd 22 8a a9 be
       0.280864 0.257852 -0.0626802 -0.331132
000340 4f e9 a8 3e 76 37 5b bf 53 97 8c 3d f7 20 21 3b
       0.329905 -0.856315 0.068648 0.00245863
000350 f8 a6 69 bc a8 4a e5 3c 8d ee ec bf 73 9d 3e bf
       -0.014261 0.0279897 -1.85103 -0.74459
000360 ee 61 4c 3b 5a 63 40 be c6 1c 5f 3c 0f b4 82 bc
       0.00311863 -0.187879 0.0136177 -0.015955
000370 88 48 d5 be 3f b4 45 3c 93 44 45 bd 3f ad ba be
       -0.416569 0.0120669 -0.0481611 -0.364603
000380 2a 8e 93 3e 13 ee 21 bf 9b e5 12 bd 26 40 e8 3c
       0.288194 -0.632539 -0.0358635 0.0283509
000390 93 13 97 3d 90 1e 85 3d ea 90 20 3d 0a 81 10 3f
       0.0737678 0.0649997 0.0392007 0.564469
0003a0 15 90 86 3e 00 bb 64 bc 71 3c b7 be c4 0e 1e bd
       0.262818 -0.0139606 -0.357883 -0.0385883
0003b0 c0 b3 fd bd 86 3b 43 bf a5 46 2d 3d 90 59 4c 3d
       -0.123878 -0.762627 0.0423037 0.0498901
0003c0 87 c4 c9 bf f3 b1 e6 39 fe 57 08 bc e5 c4 bd bd
       -1.57631 0.000440016 -0.00832176 -0.0926607
0003d0 fa c6 a1 bb 5f d0 1e 3f 35 ad 99 3d fa 6f 6f bc
       -0.00493705 0.620367 0.0750374 -0.0146141
0003e0 3b 70 86 3e c3 11 84 be
       0.262575 -0.257948

1.0.bias f4 [50]
000000 43 1c ab 3d 13 b4 ae bc 49 9c 41 3f df 1a a0 bf
       0.08355 -0.0213261 0.756291 -1.25082
000010 94 c0 36 3e 1e a6 ad be e2 b1 df 3d ce 8d a1 bf
       0.178469 -0.339158 0.109226 -1.26214
000020 98 85 b6 be ad e2 07 bc 22 cf a4 bc df a5 44 be
       -0.356488 -0.00829379 -0.0201183 -0.192039
000030 cb cc b6 bd 4a 45 53 be 07 26 d7 3d 7e eb be bd
       -0.0892578 -0.206319 0.105053 -0.0932226
000040 80 d3 7b be f3 3d 23 3e 8d 7c ee 3e ea 91 42 bf
       -0.245924 0.159416 0.465794 -0.760039
000050 20 44 02 3e 12 50 c9 3e 2b 05 93 bd e4 c0 a3 3e
       0.127213 0.393189 -0.0717872 0.319831
000060 71 50 67 bc 70 64 d8 bb 9a 26 34 bf dc bc e1 3e
       -0.0141183 -0.00660377 -0.703714 0.440894
000070 93 c8 ce be b5 dd 0c bf c4 b1 aa bf be 4d 8f bf
       -0.403874 -0.550258 -1.33355 -1.11956
000080 ec 4e 3b bf eb 1c 73 3e 41 d6 53 bf 29 93 a2 3e
       -0.731673 0.237415 -0.827488 0.317529
000090 ac e6 3d bf d9 e0 8e bc bf ba 9a be 33 2f cc bd
       -0.741801 -0.0174412 -0.302206 -0.0996994
0000a0 42 b3 27 3f f9 4e a0 3f f5 25 20 3d 31 8f c6 bc
       0.655079 1.25241 0.0390987 -0.0242382
0000b0 f2 79 c5 be 27 d8 b7 be b7 98 1f be 77 44 ea 3c
       -0.385696 -0.359071 -0.155856 0.0285971
0000c0 54 6e da be b3 ea 47 3f
       -0.426623 0.780925

1.0.weight f4 [50, 50]
000000 73 9f 3c be 9c d5 0c 3d 92 cf eb bd e4 2f 3d 3e
       -0.184202 0.0343834 -0.115142 0.184753
000010 86 70 0c be 51 dc 41 be 7a aa 3f bf d7 6a 13 3f
       -0.137148 -0.189317 -0.748695 0.575849
000020 18 2a 5a bc a0 16 13 3e b7 42 08 3e d5 cd 65 be
       -0.0133157 0.143641 0.133067 -0.224418
000030 25 b3 9a 3e 2d 51 27 3d ad da ad be 34 f3 84 3d
       0.302148 0.0408489 -0.339559 0.064917
000040 bc d9 95 3d 53 20 eb be a5 11 f3 3e c4 23 c1 3e
       0.0731692 -0.459231 0.474744 0.377226
000050 d9 99 8e bf f5 64 12 bf c7 73 4c 3d 4a 27 82 be
       -1.11407 -0.571853 0.0499151 -0.254206
000060 81 cc ce bc ba 2f 67 3e a3 8f 19 3e 46 ed 1e be
       -0.025244 0.225768 0.149962 -0.155202
000070 be e9 8c bc 99 9d 7d 3f f3 87 a0 3d a4 a8 13 be
       -0.0172013 0.990686 0.0783843 -0.144198
000080 70 5f 37 be 54 19 ae be ad 6a 59 3e d0 4c 07 3c
       -0.179075 -0.340037 0.212321 0.00825806
000090 9c 24 8c 3d a1 83 16 3f 20 cf 2e be 45 2f 0b bf
       0.0684292 0.587946 -0.170712 -0.54369
0000a0 9f 92 f3 3d 72 e0 fd be 87 50 d5 bf 07 ed a5 be
       0.118932 -0.495853 -1.66652 -0.324074
0000b0 55 b0 7c bc ea 95 02 3f 27 b2 c0 3d 1f be ac 3e
       -0.0154229 0.5101 0.0940898 0.337388
0000c0 64 95 ca 3e 1b d6 64 be 4f 9b 8c 3c 81 34 0d bd
       0.395671 -0.223473 0.0171639 -0.0344739
0000d0 8c 6d 0e bc 7a 54 1c 3d bc 5d af 3c 6e cd 2c 3d
       -0.00869311 0.0381665 0.021407 0.0421881
0000e0 14 8f b0 3c fb b1 09 bd 30 4f 42 bd 9d e6 ae 3c
       0.0215526 -0.033617 -0.0474388 0.0213502
0000f0 58 e8 22 3c 7e 7d e3 3c 42 73 a1 3b 46 fb 2e bd
       0.00994309 0.0277698 0.00492707 -0.0427201
000100 5c a2 c4 bc f4 08 04 bd c4 73 5b 3c 89 8b 2d bd
       -0.0240032 -0.0322351 0.0133943 -0.0423694
000110 35 4f 24 bd e7 fb 8e bc 23 4f 2d bd 55 24 70 3c
       -0.0401146 -0.0174541 -0.0423118 0.0146571
000120 35 7b 00 bd 51 9b 1d 3d d5 25 3e 3d dc cc b2 3c
       -0.0313675 0.0384782 0.0464228 0.0218262
000130 39 b3 82 3c 2b cb 88 3b 1f 8c 8e 3c cf 36 92 bc
       0.0159546 0.00417461 0.0174008 -0.0178484
000140 e6 3f 44 bd 4a da 85 bb 84 62 2b bd 47 a8 be 3a
       -0.0479125 -0.00408486 -0.041842 0.0014546
000150 82 64 50 bd c5 c9 3d bd ca 85 af 3c 33 37 5a bd
       -0.0508771 -0.046335 0.0214261 -0.0532753
000160 c5 c1 6a bd 8b 60 ed 3c 0b eb 06 bd 1f f6 02 bd
       -0.0573137 0.0289767 -0.032939 -0.031973
000170 2e cd 08 bd 63 07 ba bc 1c 7f 7d bc 7a 45 46 bd
       -0.0333988 -0.0227086 -0.0154722 -0.0484061
000180 24 29 e9 bb a2 06 18 bd e0 ec a0 3c 08 13 10 bd
       -0.0071155 -0.0371157 0.0196442 -0.0351744
000190 16 02 8f 3d f1 fd 85 bb 9f 55 8e be 1f 80 84 3e
       0.0698282 -0.00408911 -0.277997 0.25879
0001a0 47 8f 1f 3e eb 6e aa bf af eb a7 bf 09 a8 64 bf
       0.15582 -1.33151 -1.31188 -0.893189
0001b0 bc 22 48 3e 30 9f c4 3e 41 f2 2e 3d fd 15 0a bf
       0.195445 0.384027 0.0427115 -0.539398
0001c0 a0 7d a6 3d 9f 75 cd 3e 19 8d 8c be 95 61 bc 3e
       0.0812943 0.401288 -0.274514 0.367932
0001d0 02 b7 42 bf 15 91 a5 bf 01 4d bc 3f 32 41 c8 3d
       -0.760605 -1.29349 1.4711 0.0977806
0001e0 ee 43 4a bf bd df 08 bf 67 2e ec 3b 30 bd 0d bf
       -0.790099 -0.534664 0.00720768 -0.553668
0001f0 0d 26 b4 bc cf d8 87 3e 0e d9 50 3e c4 7c d1 3e
       -0.0219908 0.265326 0.203953 0.409155
000200 b7 08 5c bf fe 0f 40 3e 68 41 78 3e 45 10 e7 bd
       -0.859508 0.187561 0.242437 -0.112824
000210 36 ca 06 3f d3 84 ed be 83 8a ba be b7 ed 5b 3d
       0.526523 -0.463904 -0.364338 0.0536935
000220 d1 22 e3 3e 1a 6f 6b 3f d4 d3 23 3f f1 f6 60 bf
       0.443625 0.919664 0.639951 -0.878768
000230 80 7f 7a bf dd 8f 20 bd 82 8f 11 3e f4 6a 4c bf
       -0.978508 -0.0391997 0.142149 -0.798507
000240 62 2d e2 bf 73 9f 1c 3e b9 a5 85 3e cf 31 f0 bf
       -1.76701 0.152952 0.26103 -1.87652
000250 f2 9a 17 bf 35 99 e1 3e 70 7a 4b 3f 84 d8 b9 be
       -0.592208 0.440622 0.794837 -0.36298
000260 70 09 30 be ad df c7 3d 20 55 de 3c be a5 d4 be
       -0.171911 0.0975946 0.0271402 -0.415327
000270 cb 56 bd bd 31 44 1a bf 48 50 a4 be 93 e3 de 3e
       -0.0924507 -0.602603 -0.320925 0.43533
000280 c2 12 07 3f e2 b0 d4 be b8 78 48 be 3e af 18 bd
       0.52763 -0.415412 -0.195773 -0.0372765
000290 93 00 81 bf d3 a0 08 3e 09 51 7e 3e 5d 6d d9 bf
       -1.00783 0.133426 0.248356 -1.69865
0002a0 0f b4 00 40 36 06 35 bf 0f d6 93 3f e1 ec 06 3f
       2.01099 -0.707126 1.15497 0.527052
0002b0 f6 7c 2d be 46 24 ba 3e e3 3c f7 bc fa 41 45 3f
       -0.169422 0.363558 -0.0301804 0.770538
0002c0 f9 4d c1 be 4e dc 60 bc ed b8 f9 be 0d c3 67 3e
       -0.377548 -0.0137244 -0.487739 0.22633
0002d0 c0 5f c4 3e 32 55 90 3e 69 1a f4 be e7 f2 13 3c
       0.383543 0.2819 -0.476764 0.00903008
0002e0 6f b8 cf bd ad f8 1e bf 93 06 92 3b 9c a2 13 be
       -0.101426 -0.620982 0.00445635 -0.144175
0002f0 6e a5 07 be 53 95 b6 3e 2d c0 6d 3d 86 1e e9 be
       -0.132467 0.356608 0.0580446 -0.455311
000300 c5 04 35 bf 19 8e cf be f4 48 2d bd ee cc 18 3f
       -0.707104 -0.405381 -0.0423059 0.596877
000310 b6 db 5e be 19 fe 03 be 50 a6 01 be 8b fe 30 be
       -0.217635 -0.128899 -0.126611 -0.172846
000320 1e ab 6f bd 65 20 e8 3b 80 46 89 3e a2 1c d8 bb
       -0.0585128 0.00708394 0.268116 -0.00659521
000330 53 b1 a1 3e 59 31 5c bd 32 3b bb 3e aa af 13 3d
       0.315806 -0.053758 0.365686 0.0360562
000340 97 53 42 bd 82 1a be be 5c ab 1d 3e b9 e0 5c be
       -0.047443 -0.371296 0.153974 -0.215701
000350 f0 bf 15 3e e1 44 d4 3e 50 d9 55 bd 17 10 fa bd
       0.14624 0.414588 -0.0522092 -0.122101
000360 85 27 74 be 66 bd 8c bf 32 20 4d c0 cb bd e0 be
       -0.238432 -1.09953 -3.20509 -0.438948
000370 ba 67 85 be 4d d9 89 be 62 96 27 bd 5c 01 bd 3e
       -0.260557 -0.269236 -0.0409149 0.369151
000380 4c 4e 32 bd 07 5f b0 be 0e f3 bd be cc d4 bc be
       -0.0435317 -0.344475 -0.370995 -0.368811
000390 bd c6 0e bd a6 80 c4 3e 3e 04 d5 bd a3 23 b1 be
       -0.0348575 0.383794 -0.104012 -0.345975
0003a0 87 89 06 3f ab 97 0f 3e d0 d0 1f 3e 92 b1 12 3f
       0.525536 0.140227 0.15607 0.573022
0003b0 d2 8f 86 bc 3b 71 09 be c7 ba 08 be d8 2a 22 3c
       -0.016426 -0.134221 -0.133525 0.00989791
0003c0 42 43 5f be 9d 48 20 be 59 c1 23 bf 15 e5 2a 3f
       -0.21803 -0.156527 -0.639669 0.667558
0003d0 5b 7a d4 3e 6d e5 a5 3e 05 1a 87 bd bb ec 5b 3f
       0.414996 0.324016 -0.0659676 0.859081
0003e0 e5 9a 1e bf 59 17 37 bc d2 34 08 3d 34 f6 a5 bd
       -0.619551 -0.011175 0.0332535 -0.081036
0003f0 18 cf 08 bf 2a ff 2a 3f f7 01 50 bf 8f fc a5 3f
       -0.53441 0.667956 -0.81253 1.29677

2.0.bias f4 [50]
000000 14 25 d1 be cd cc 88 3f 1d 91 cf bd d0 5e 95 3e
       -0.408486 1.06875 -0.101351 0.291739
000010 be 4b b9 3e 83 86 96 bf 50 df 8a bf 5a 80 06 bf
       0.361906 -1.17598 -1.08494 -0.525396
000020 c8 61 f8 be 53 3e 10 bf 87 a6 dc be 5f 0d c0 be
       -0.485121 -0.563451 -0.430958 -0.375102
000030 e5 46 99 be 12 bc 99 be cf 2e 07 bf 11 f7 7d bd
       -0.299369 -0.300263 -0.528058 -0.0620032
000040 c8 5e 27 bf 24 ed 3a 3f 0b 97 59 bf c8 db 80 bc
       -0.65379 0.730181 -0.849961 -0.0157298
000050 b7 61 94 be 39 d1 8e 3e 85 42 bc 3f 53 e8 06 40
       -0.289808 0.27894 1.47078 2.10793
000060 9a ce 9e be 77 d7 09 bf ca 6b 15 be bc 57 81 3f
       -0.31017 -0.538444 -0.145919 1.01049
000070 60 91 bf be 3c f3 57 bd 68 5c 18 be 2d cc 82 3e
       -0.374156 -0.0527222 -0.14879 0.255464
000080 c5 ae 45 bf 15 57 e1 bf b8 2a 7f 3d d4 45 82 3e
       -0.772198 -1.76047 0.0622966 0.254439
000090 a3 5c 1a be 0e dc 41 bf 46 b6 1d c0 15 c7 69 bf
       -0.150744 -0.757264 -2.46425 -0.913194
0000a0 92 24 10 bf b9 4f 5e be 4d 0f 12 3f 11 fe 05 bf
       -0.563058 -0.217101 0.570546 -0.523408
0000b0 04 ff bf bf 82 1a 86 be 14 af 06 bf 6b 46 c4 bb
       -1.49997 -0.261921 -0.526109 -0.00598984
0000c0 73 bd ed be 11 df e9 3d
       -0.464336 0.114195

2.0.weight f4 [50, 50]
000000 47 91 15 3e 3f eb b3 bb 7d 3d 4b 3f 61 89 a7 3f
       0.146062 -0.00549069 0.793907 1.30888
000010 7d 75 65 3e d4 9a ae bf 51 88 e0 bd a7 06 66 3f
       0.224081 -1.3641 -0.109635 0.898539
000020 34 bb 9e 3e 27 a2 df 3b ec 47 6d bb 16 6e 19 3e
       0.310022 0.00682475 -0.00362062 0.149834
000030 74 b6 70 be eb ad 21 3e 30 7c e9 ba 38 2d f8 3e
       -0.235071 0.15789 -0.00178135 0.48472
000040 08 ca a5 3e ca 1a 19 bf f4 a9 fb be 58 1c a6 3e
       0.323807 -0.598065 -0.491531 0.324435
000050 54 1c 2b bf d2 1d 9c 3e 90 87 d6 3e 3c f5 98 3e
       -0.668401 0.304915 0.419003 0.298746
000060 9e 70 c0 3c 3c 1c b4 3b 71 cb 37 be 7c 7e c0 bf
       0.0234912 0.00549653 -0.179487 -1.50386
000070 1f 5e fc 3c a0 de ac 3e d0 7c ae 3e ad dd d2 3f
       0.0308066 0.337636 0.340796 1.64739
000080 4e 8c 76 3c f6 97 ad 3e 24 7d ca 3e 4a 0d 49 bf
       0.0150481 0.33905 0.395486 -0.785359
000090 8c 2f 22 bf 55 8a 1d bd 03 60 4e c0 ab ec 1f 3f
       -0.633538 -0.038462 -3.22461 0.624705
0000a0 65 50 61 bf d3 a4 80 bf 06 4b 05 bf 3c 96 08 3d
       -0.880133 -1.00503 -0.520676 0.0333464
0000b0 fb 3c fe 3e 3c f5 e8 3d d0 d5 8e bf 7c 0a 94 bf
       0.496559 0.113749 -1.1159 -1.15657
0000c0 53 e9 03 3f 10 ce 07 be 1d 5a 94 bf fd 9f 07 bc
       0.515279 -0.132622 -1.159 -0.00827789
0000d0 5a 11 f5 be 8c 67 f8 be e5 b8 b7 3f 49 68 8b 3f
       -0.478648 -0.485165 1.43533 1.08912
0000e0 6d 55 b2 3e a0 fd 9a c0 e1 0e 2f 3d 97 ad bd 3e
       0.348308 -4.84346 0.0427388 0.370465
0000f0 f1 e0 9d bc 31 78 2c bf 56 9a 24 3e f1 80 26 3f
       -0.0192723 -0.673709 0.160745 0.650405
000100 9f 39 5b 3f 47 39 18 3d 71 a0 d1 3c 35 98 86 be
       0.856348 0.037164 0.0255892 -0.26288
000110 b3 ef 8a bf 8e e9 b9 be 26 70 cf bf 67 0d 4a bf
       -1.08544 -0.36311 -1.62061 -0.789267
000120 0b 7a bf 3e 73 9d 7a bf e6 2c e2 3c 7b 78 00 3d
       0.373978 -0.978965 0.0276093 0.0313649
000130 51 6c 09 3f fc 18 93 bf a7 ab c0 bd dd 89 08 bd
       0.536809 -1.1492 -0.0940774 -0.0333346
000140 f0 f7 83 be 93 18 fc 3f 83 68 4d 3d a8 31 96 3d
       -0.257751 1.9695 0.0501485 0.0733369
000150 60 c9 5d bf d2 a9 47 3f 6e a6 42 3f 9f 30 b2 bc
       -0.866354 0.779935 0.760352 -0.0217517
000160 47 3d 00 c0 41 0f 4d bf 29 7b 5b 3e 7d d0 93 3f
       -2.00374 -0.801014 0.214337 1.1548
000170 7e c4 77 bf 69 46 d0 3c b7 d4 21 3e a5 a3 3c be
       -0.967842 0.0254242 0.158038 -0.184218
000180 57 f3 72 bd 4a 41 15 c0 f7 94 04 bf b3 96 a2 be
       -0.0593141 -2.33211 -0.517898 -0.317556
000190 b8 06 82 3f 86 56 e7 3c 00 1a e5 3d 62 2d 06 bf
       1.01583 0.0282395 0.111866 -0.52413
0001a0 af 0b bf 3e bc 65 3d bc 53 75 ef bd f2 7d 49 bf
       0.373136 -0.0115599 -0.116923 -0.787078
0001b0 30 29 1e be 49 08 8b 3d 47 5d 67 bb 8d 26 87 3e
       -0.154454 0.0678869 -0.00353034 0.263966
0001c0 b1 ef c4 bd 26 70 0b 3f e4 30 18 3e 65 50 ed 3d
       -0.0961603 0.54468 0.148624 0.115876
0001d0 7f da 48 bd 1f 9e 25 bf d7 13 4d 3f 8f e4 d2 bd
       -0.0490365 -0.646944 0.801084 -0.102975
0001e0 cb d7 25 3f 08 92 57 3e 51 39 5c 3c 5b 26 93 3d
       0.647824 0.210518 0.0134414 0.0718505
0001f0 01 02 2c 3d 91 aa 3b bb 65 a5 f1 bf 26 56 02 bf
       0.0419941 -0.00286356 -1.88786 -0.509127
000200 21 cb ca 3e 47 c8 70 3e 36 e4 6f be a4 37 18 bf
       0.396081 0.235139 -0.234269 -0.594599
000210 ba f6 b5 bd 2f c1 29 3f 86 3c e2 bd 3c 32 22 bf
       -0.0888495 0.663104 -0.110467 -0.633579
000220 44 a5 3d bf e3 eb 01 3d ec a6 04 3e 32 ff b8 3e
       -0.740803 0.0317191 0.129543 0.361322
000230 bc 5a ce bd 08 c7 00 bf 8c 2f 4a be 92 ee 84 3a
       -0.100759 -0.503037 -0.197447 0.00101419
000240 0e f7 71 3e 16 35 a0 3e 25 22 b4 be 24 92 9d 3d
       0.236294 0.312905 -0.351823 0.0769389
000250 03 e9 fa be 51 33 9c be ce aa 2f 3e 55 be e7 3c
       -0.490059 -0.305079 0.17155 0.028289
000260 10 58 9c 3b 96 14 ce 3c 4b 02 10 3f 09 5a a7 bd
       0.00477124 0.0251563 0.562535 -0.0817147
000270 77 a1 89 3f 08 e6 18 be db a4 aa 3e 45 0e 89 be
       1.07524 -0.149315 0.333289 -0.267687
000280 0d aa cd 3c d3 a8 8b 3d 1d 22 8e bd 59 6a b5 3e
       0.0251055 0.0681931 -0.069401 0.354327
000290 7d e7 07 be 41 2d 46 3e 43 61 86 3c de 75 86 be
       -0.132719 0.193532 0.0164038 -0.262618
0002a0 e8 f6 da 3e e5 98 8c be 06 ba 06 bf cb 12 bd 3e
       0.427665 -0.274604 -0.526276 0.369284
0002b0 ed 65 93 3e ec a5 39 be 64 84 e6 bc ec 17 4b bb
       0.287887 -0.181297 -0.0281393 -0.00309896
0002c0 b4 40 a6 3d 94 6c 45 3f 69 e3 88 3e fb 06 36 be
       0.0811781 0.771188 0.26736 -0.177761
0002d0 29 ae 1a 3e 49 f4 2e bf 0e 12 b2 3e 46 b1 2c 3f
       0.151055 -0.683415 0.347794 0.67458
0002e0 02 82 85 3f bd f6 11 bd 92 22 82 3e d6 f0 23 bd
       1.04303 -0.0356357 0.25417 -0.0400246
0002f0 ed 81 e2 3f e9 45 6d 3e e3 d8 df bc 7a e1 ee 3d
       1.76959 0.231712 -0.0273251 0.116641
000300 2c a0 c0 3e 65 0c 22 3d 84 64 b9 3e 6f d4 0a be
       0.376222 0.0395626 0.362095 -0.135576
000310 8a 59 3f 3e 09 32 ba be 78 7a 45 be 44 be 9b be
       0.186865 -0.363663 -0.19285 -0.304186
000320 aa 9a 74 3f 94 5f d0 3c 56 9f 83 3f 76 19 be be
       0.955485 0.0254362 1.0283 -0.371288
000330 2d 95 bf 3e 10 3f ef be 0d a5 b6 be 14 bf d8 bc
       0.374185 -0.467278 -0.356728 -0.0264583
000340 01 a1 25 be 0e 4e 00 3f be b1 51 3d d2 fe 07 be
       -0.161747 0.501191 0.0511949 -0.132808
000350 c3 f0 39 bf 17 a0 31 bf e3 fd 44 3f 88 cc 26 bd
       -0.72633 -0.693849 0.769499 -0.0407224
000360 2e 62 ce 3c e5 71 20 3c bc 3d 08 bf 4d 15 84 be
       0.0251933 0.00979278 -0.532192 -0.257975
000370 b4 e5 d4 bf af b1 93 bf 0c 75 48 3e e6 92 e2 be
       -1.66326 -1.15386 0.195759 -0.442527
000380 ab cb 29 3d 7a 88 4b 3d 1e de 77 3f ea d0 51 bf
       0.041454 0.0496907 0.968233 -0.819594
000390 8d 0a 04 bf 61 dd 00 3f 17 bc 08 3f e9 43 f7 bf
       -0.515786 0.503378 0.53412 -1.93176
0003a0 7e fe 0b 3f 23 bf 5e 3e 15 ca 82 3c 70 07 32 3f
       0.546852 0.217526 0.0159655 0.695426
0003b0 40 de db be 79 63 37 3d c5 e2 c7 bd cb a0 c2 3e
       -0.42943 0.0447726 -0.0976005 0.380133
0003c0 8c e1 e0 3c 11 01 4f bf 2d 26 86 3f f5 f7 ad bb
       0.0274513 -0.80861 1.04804 -0.0053091
0003d0 78 61 8b 3e f9 64 51 3f af 23 7a 3f 29 05 0d 3e
       0.272228 0.817947 0.977107 0.137715
0003e0 06 d9 22 bf 3a 76 00 bf eb a8 9a bf 56 e9 f8 bc
       -0.636124 -0.501804 -1.20828 -0.0303847
0003f0 33 a3 df 3e 0c 91 ab 3e d4 9b 31 be 48 52 d2 3e
       0.436792 0.335091 -0.173446 0.410784

3.0.bias f4 [50]
000000 f4 f8 bd 3f 69 dc 20 bd db ec b9 bd 86 55 1e c0
       1.48416 -0.0392727 -0.0907838 -2.47397
000010 66 31 11 c0 37 6f 94 3e 28 09 ae 3d 91 b6 b1 bc
       -2.26864 0.289911 0.0849784 -0.0216935
000020 1b 2c 30 bf 21 3f 7b be 1d 59 d1 be 42 cd b0 3e
       -0.688173 -0.245358 -0.408883 0.345316
000030 da 72 96 bf 3e ce 04 be d9 01 7c bc 06 64 13 40
       -1.17538 -0.129693 -0.0153813 2.30298
000040 11 c4 f1 3e 60 e7 ee be 2d cf 8f bf 74 eb fd 3e
       0.472199 -0.466609 -1.12351 0.495937
000050 a9 15 12 bf 1e dc 49 bf 54 1d 82 3f 2b da ec 3e
       -0.570643 -0.788515 1.01652 0.462602
000060 55 87 d0 bf 1d 8f 15 bf 5b 78 fe 3d b7 a3 9e bd
       -1.62913 -0.584215 0.124253 -0.0774607
000070 2d ea 93 3e 25 af f6 bf 6c 3e ee bf 74 eb 01 3f
       0.288896 -1.92722 -1.86128 0.507499
000080 12 88 05 40 fb cb ce bd 60 21 9b 3e cd 06 4d bf
       2.08643 -0.100975 0.302989 -0.800885
000090 3d 7f 2a be 1e 50 66 3e 76 a6 a0 be c7 46 b5 bd
       -0.166501 0.224915 -0.31377 -0.0885139
0000a0 19 42 29 bd 18 40 30 bf 97 be cc 3d 81 59 71 3e
       -0.0413228 -0.688478 0.0999729 0.235693
0000b0 53 03 4d 3e 0d c5 3d 3e 1c 5c 5a 3e 7a d5 14 bd
       0.200208 0.185322 0.213242 -0.0363364
0000c0 a1 3a 9c 3d 20 96 5d be
       0.0762837 -0.216393

3.0.weight f4 [50, 50]
000000 49 69 46 bf a7 ae d4 be cc 5e a6 be 6c 79 e5 3d
       -0.775044 -0.415395 -0.324942 0.112048
000010 64 40 3e bf 8a e3 48 bf 73 30 47 bf ea cf b6 be
       -0.74317 -0.784722 -0.778083 -0.357055
000020 c3 d4 b6 be a3 02 67 be a5 83 65 3f 61 8b 0d bf
       -0.357092 -0.225596 0.89654 -0.552908
000030 0c 3b 0c be ea cc 6d be dc 4a ff be 23 15 de 3e
       -0.136944 -0.232227 -0.498618 0.433755
000040 22 71 b7 3f 35 7a 3d bf c4 99 87 bf a9 c5 bb bc
       1.43314 -0.740146 -1.05938 -0.0229214
000050 b6 da ab 3e 00 e1 17 bf fa 98 bf be ef e6 13 c0
       0.335653 -0.593277 -0.374214 -2.31097
000060 92 cd 95 3e 81 43 80 3f 17 f5 19 3e 97 a8 f2 bf
       0.292584 1.00206 0.150349 -1.89577
000070 bd a8 0d be 9c 6e f9 be ab 93 2f bf 1d 8f 03 c0
       -0.138339 -0.487172 -0.685847 -2.05561
000080 ed d8 04 3f 0e 69 9c 3e 26 51 2f 3e 5f e3 c4 3d
       0.518935 0.305489 0.171208 0.0961368
000090 4a 25 4c 3f 54 52 9f bf 09 6e 3c bf c5 1a 4e 3f
       0.797444 -1.2447 -0.736054 0.805096
0000a0 ae b6 32 be 4e 47 e0 bd 9a 06 55 be 25 06 d9 bf
       -0.174525 -0.109511 -0.208033 -1.6955
0000b0 5e 11 80 bf 41 0e 5a be dc 7e 61 bf 66 3f 3d 3b
       -1.00053 -0.212945 -0.880842 0.00288769
0000c0 cb af 70 bd d0 62 c9 3e 19 72 94 be 3a fc 1f bd
       -0.0587614 0.393332 -0.289933 -0.0390589
0000d0 9a 0a 71 be 63 e3 0b bd d3 c0 cf bd c2 08 2b bc
       -0.235392 -0.0341524 -0.101442 -0.0104391
0000e0 8a e7 1c be 97 ad 15 3e c0 a1 a6 3c 79 f9 a7 3c
       -0.153227 0.14617 0.0203408 0.0205047
0000f0 08 5a 51 be a9 2f 6b 3e b0 86 c5 bd a8 d6 8c 3d
       -0.204445 0.229674 -0.0964483 0.0687688
000100 c9 1b a6 3b f6 60 42 be 5a b8 84 3e a5 2c 8b be
       0.00506923 -0.189823 0.259219 -0.271825
000110 64 5d 5c 3c 38 a3 c1 bc 0a a1 83 ba c2 18 91 3d
       0.01345 -0.0236374 -0.00100425 0.070848
000120 ed a9 9b bd 01 f6 21 be 8e de aa 3d ee 41 e7 bb
       -0.0760077 -0.158165 0.0834323 -0.00705742
000130 ea 43 f2 bc 50 12 bc bd 00 5f 00 bc c7 ce 80 3c
       -0.0295734 -0.0918318 -0.00783515 0.0157236
000140 ee b1 bc be d3 bf 84 3e 0f 28 03 3f 0c a5 40 3d
       -0.368545 0.259276 0.51233 0.0470324
000150 ba ba c8 3c 1f 3f 65 3c e3 ff 7e be b5 e1 10 be
       0.0245031 0.0139921 -0.249023 -0.141486
000160 ac b6 81 3d 57 cc 28 3e b8 5b 22 be f0 18 1e 3e
       0.0633367 0.164842 -0.158553 0.154392
000170 61 fc 14 be 75 92 3d be de 41 c7 bc ff cd 0b 3f
       -0.145494 -0.185129 -0.0243234 0.546112
000180 83 2f 51 bd 62 61 ed 3c ac 3b c1 3d 6c 42 7a 3e
       -0.0510707 0.0289771 0.0943521 0.244394
000190 f9 15 cb bd 02 29 16 bd 1c a0 9a 3d 4e 5e e4 3e
       -0.099163 -0.0366602 0.0755007 0.446032
0001a0 59 4d 37 be ee 8d 46 bb 0d fc 08 3e 8d 99 e4 bd
       -0.179006 -0.0030297 0.133774 -0.111621
0001b0 81 cb c3 3e 04 ca d6 3e c0 cf 28 be d8 9f e4 bd
       0.382412 0.41951 -0.164855 -0.111633
0001c0 e0 2f 66 3c 78 ec 27 be 6a f7 8b be dd 61 4e bd
       0.0140495 -0.163988 -0.273372 -0.0503863
0001d0 8f 35 23 be 63 62 03 be 75 76 02 be 55 1d e8 3c
       -0.159384 -0.128305 -0.127405 0.0283343
0001e0 f6 9a ae bd 49 f5 ad be a9 c6 26 bc 10 8b 42 bd
       -0.0852565 -0.339762 -0.0101792 -0.0474959
0001f0 0a 82 97 be b6 79 2d bd 83 25 e8 3c f3 aa 2e be
       -0.295914 -0.0423524 0.0283382 -0.170574
000200 d1 76 4c be 2f fc a0 bd 14 a6 f9 bc e2 05 11 3e
       -0.199672 -0.078606 -0.0304747 0.141624
000210 65 17 ec 3d e6 de 2d 3d fd 8e b7 bd 61 b7 fc 3b
       0.115279 0.0424489 -0.0896282 0.00771229
000220 d4 bf 3f bd 81 07 96 be 77 d3 72 3d 1c d1 2d 3e
       -0.0468138 -0.293026 0.0592837 0.169743
000230 4f 50 d4 bc de 38 09 be f5 54 3d bc 0b c8 28 3d
       -0.0259172 -0.134006 -0.0115559 0.0412064
000240 88 35 9b 3d 9d 47 35 be 00 9c 4d bc 02 e0 8e bc
       0.0757857 -0.177031 -0.0125494 -0.0174408
000250 11 e2 0a 3e 83 f1 1d 3d b0 1e 1b 3f b6 f7 91 be
       0.135628 0.0385604 0.605937 -0.285093
000260 6e 4c bb 3f 7d ce b5 be 2d d1 b9 3e fd 83 68 3e
       1.46327 -0.355091 0.362924 0.227066
000270 e7 71 44 bf 99 9e 06 c0 de af ca be 7f 30 a8 3f
       -0.767363 -2.10343 -0.395873 1.31398
000280 73 ba e0 bf 36 93 9b 3f 97 00 9c 3e 9e 2d 8b 3d
       -1.75569 1.21543 0.304692 0.0679581
000290 31 eb dd be 32 38 b6 3f ce fd fd be c6 88 34 3e
       -0.433435 1.42359 -0.496077 0.176303
0002a0 10 cd 0c 3e 5b 82 46 3b 7f 68 3e bf 67 d4 8c be
       0.137501 0.00302901 -0.743782 -0.275058
0002b0 a6 d1 24 3e 0f 9d e6 3e ed 7e 71 3f 3a 24 55 3e
       0.160956 0.450417 0.943343 0.208146
0002c0 c7 bb d3 be 4a 29 94 3f 8e 07 0b be 44 30 7e be
       -0.413542 1.15751 -0.135771 -0.248231
0002d0 e4 2f 85 3e f8 a5 ae bf 12 c2 af bf a6 43 07 3f
       0.260131 -1.36444 -1.37311 0.528376
0002e0 21 ca 17 3e 28 46 26 3e ea 05 2f 3e f4 a3 41 be
       0.148232 0.162377 0.170921 -0.189102
0002f0 d8 4e bf bd 9d ce df bc aa b8 b1 3e 8d 0e 98 3e
       -0.0934121 -0.0273202 0.347112 0.296986
000300 9a 98 de 3e b3 b5 ba 3f 9c dc 1b 3f 33 dc c4 bf
       0.434758 1.45867 0.608835 -1.53797
000310 4f df bc 3c 87 c2 27 3d 10 92 05 3d 9d 9c b9 3e
       0.0230557 0.040957 0.03261 0.362523
000320 f0 a2 2b 3f 69 fd 35 3f d5 ca a4 3f b3 cd 61 bf
       0.670455 0.710898 1.28744 -0.882045
000330 f9 b1 d3 3c 84 2c 67 3f 7a c7 09 bf a7 e6 32 be
       0.0258417 0.903023 -0.5382 -0.174708
000340 17 47 55 3e 1b 2a 96 be 42 d1 04 3f 7a 55 1f bf
       0.208279 -0.29329 0.518818 -0.622398
000350 4c c6 d1 3e 38 10 c6 3f 00 91 a2 3f 08 94 2d 3e
       0.409716 1.54737 1.27005 0.16951
000360 03 26 f4 bf 4e 28 bc bf 21 c2 e4 3c 05 61 38 3d
       -1.90741 -1.46998 0.0279246 0.0450144
000370 84 d4 b5 3e f6 9f 80 bd 85 ea 2e bf fa 5f 9e 3e
       0.355137 -0.0628051 -0.683266 0.309326
000380 88 bc 19 bf 52 7e 82 bf 95 d8 2d 3f 3b 8d 0e c0
       -0.600533 -1.01948 0.679086 -2.22737
000390 28 d3 04 3f 02 b9 b4 3d 5c 92 6b bf 3d 9b 25 c0
       0.518847 0.0882435 -0.920202 -2.5876
0003a0 2d 5b 97 3f 57 93 67 be df df b8 3e 0a 80 ed bf
       1.18247 -0.226148 0.361083 -1.85547
0003b0 3d 10 31 3f f7 e7 ba 3e b0 ab 09 bf 37 16 24 3e
       0.691654 0.365051 -0.537776 0.160241
0003c0 23 6e b9 3d 5e a2 32 bf 7e 74 76 3f b3 ec 5d 3f
       0.0905421 -0.69779 0.962715 0.866893
0003d0 9d 46 f2 3f 05 a8 a5 bf 06 63 70 3f 82 03 5a bc
       1.89278 -1.29419 0.939011 -0.0133065
0003e0 23 4c 41 3f 2b c3 18 bd 5b ef f7 bd 24 81 e6 bd
       0.755068 -0.0372955 -0.121062 -0.112551
0003f0 84 f3 a9 be bc 47 6c 3d e4 23 c3 bd a5 48 83 3d
       -0.331936 0.0576856 -0.0952833 0.0641034

4.0.bias f4 [50]
000000 90 11 b0 3e dd 45 18 be 63 b8 3a be c3 f0 05 40
       0.343884 -0.148704 -0.182344 2.09282
000010 fb 13 6b 3d db 50 89 3f 66 66 62 c0 20 9b 94 3e
       0.0573921 1.07278 -3.5375 0.290246
000020 0e 84 e4 3f 36 05 12 3f 6a 14 d2 3d 32 21 5e bf
       1.78528 0.570392 0.102578 -0.867694
000030 67 b8 f1 bf b7 b4 8e bf 83 2f e4 be 08 ab 31 3f
       -1.88844 -1.11489 -0.445675 0.694016
000040 0d 89 a3 3f 6c 43 a5 bf d9 ce ab bf cb 80 23 be
       1.27762 -1.29112 -1.34225 -0.159671
000050 56 2d 25 3f ca 16 7d 3f 79 22 04 3f d0 7e 18 c0
       0.645223 0.988629 0.516151 -2.38274
000060 e2 3f 2d 3f b7 09 43 3f ce 7d 68 3d d1 cc 63 be
       0.676756 0.761867 0.0567606 -0.222461
000070 12 4e ef 3f 93 a9 86 3f 98 6c dc bd 28 ad b9 3d
       1.86957 1.05205 -0.107629 0.0906623
000080 bf 9a 23 40 67 0b 60 3f a4 8e a9 3d 29 cb 94 bf
       2.55632 0.875174 0.0827916 -1.16245
000090 ba 31 99 3f ec a6 f4 3d 23 8f 56 3d be bc 80 be
       1.19683 0.119459 0.0523826 -0.25144
0000a0 a1 a0 78 3f 5c 3c d4 3e 55 2f 0f 3f 77 15 36 3f
       0.971201 0.414523 0.559316 0.711265
0000b0 7a aa 4f c0 e1 7a 14 3f 9d da 29 3e df 89 a5 bf
       -3.24478 0.58 0.165873 -1.29327
0000c0 35 7e a9 be 5c 77 27 bf
       -0.331041 -0.654165

4.0.weight f4 [50, 50]
000000 55 8a 2d be 55 d9 83 bf da 04 18 3f 01 35 ad be
       -0.169473 -1.03007 0.593824 -0.338295
000010 17 4a 56 3e 7c b6 5e 3e fa b6 90 3e 96 04 28 3e
       0.209267 0.217493 0.282646 0.16408
000020 e3 de 58 3f 20 9a 35 bf 60 22 b6 3e f6 7c 0b 3c
       0.847151 -0.709383 0.355731 0.00851368
000030 51 bf 6b 3e 16 f6 1c 3f 26 eb 09 bb 6f 8f 94 bd
       0.230222 0.61313 -0.00210447 -0.0725392
000040 39 9d 04 3e f4 6f 27 be 5e e3 c9 bd 75 e6 1a bf
       0.129506 -0.163513 -0.0985782 -0.605079
000050 94 86 0a be 17 b9 e7 be c5 c6 e4 3e e0 da e1 be
       -0.135279 -0.452584 0.446829 -0.441123
000060 62 a7 f3 bc 16 df 50 3e 62 e4 ab 3d e6 04 09 bf
       -0.0297429 0.203976 0.0839317 -0.535231
000070 2b 6b 3b 3f 0e be 90 bf d0 b3 d9 bd 21 03 29 3e
       0.732104 -1.1308 -0.1063 0.165051
000080 4b 82 a2 bb 6a 14 52 be 15 11 cf 3c dd 79 02 bf
       -0.00495938 -0.205156 0.0252767 -0.509672
000090 6d e6 f0 bd 02 8a 47 bc 31 a3 ae 3d bc 08 57 bf
       -0.117627 -0.0121789 0.0852722 -0.839977
0000a0 f2 43 35 3e 40 89 17 3f 2c d7 e3 be 01 19 3a 3f
       0.177017 0.591938 -0.445001 0.726944
0000b0 34 30 f2 3e de ff 13 bf 45 ac bf 3d ef 15 82 bc
       0.473024 -0.578123 0.0935903 -0.0158796
0000c0 ce e1 8a 3e 7e 1c 29 3f d9 05 13 3e b8 07 21 3e
       0.271254 0.660591 0.143577 0.157256
0000d0 d7 69 06 40 2b 69 95 3e 32 73 25 bf a4 51 51 be
       2.10021 0.291818 -0.646289 -0.204413
0000e0 09 1b da 3f 6a 36 ba bd 2a a9 2d 40 f1 64 bf be
       1.70395 -0.0909241 2.71345 -0.373817
0000f0 aa 10 47 3f 75 08 97 bd 4d 0f b2 3e 60 cc 8e be
       0.777598 -0.0737466 0.347773 -0.278903
000100 f6 a9 14 3d 4d 32 52 be f6 7f 0c c0 b3 95 df be
       0.0362949 -0.20527 -2.19531 -0.436689
000110 ee 94 aa 3f 3b 6d f5 3e bc e8 01 c0 80 2b 19 bf
       1.33267 0.479349 -2.02983 -0.59832
000120 4a 46 96 be a2 28 b8 be 99 81 32 c0 da 38 04 c0
       -0.293505 -0.359685 -2.78916 -2.06597
000130 1e 1a 16 bf f4 c5 c6 be 4e 5e 24 be ac 1c a7 c0
       -0.586336 -0.388229 -0.160516 -5.22225
000140 87 33 5f bd 10 a3 f1 3c 4f c7 c8 bc 7f c1 6a bf
       -0.0544925 0.0294967 -0.0245091 -0.917015
000150 32 04 08 3f a3 ae 21 3f 45 f0 07 40 34 bf 46 3f
       0.531314 0.631571 2.12404 0.776355
000160 7a 54 ac 3e 51 4c 66 3f 4d db 87 3f 4c fd 8c 3f
       0.336582 0.899602 1.06138 1.10148
000170 98 4c c5 3f 6d ca 03 40 57 60 c4 3f 1e 8d 33 be
       1.5414 2.05923 1.53419 -0.175343
000180 5b c1 c5 3d ee 37 05 bc 90 13 46 be 8e 03 7f bf
       0.0965602 -0.00813101 -0.193434 -0.996148
000190 50 48 9d 3a 8b 6d 82 be 83 a4 4f 3e f8 b8 00 bd
       0.00119997 -0.254742 0.202776 -0.0314264
0001a0 52 f1 0f be 61 e3 fa 3e ba bd e4 bd 00 1f 04 3f
       -0.140569 0.490016 -0.11169 0.516098
0001b0 7b f4 26 3e 91 45 a2 3e 4e d3 57 be f9 68 21 be
       0.163042 0.316937 -0.210767 -0.157627
0001c0 26 72 c1 bd c8 25 ae be 7d 76 00 3d 8f 53 34 3d
       -0.094456 -0.340132 0.031363 0.044025
0001d0 fd 33 5e 3d 1b 53 86 3d 87 fc d3 3e ef 1e 30 be
       0.0542488 0.0655882 0.414036 -0.171993
0001e0 58 3a ff bd b7 fa a0 3d 94 56 c7 bd 71 91 7b 3d
       -0.124623 0.0786032 -0.0973331 0.061418
0001f0 5c 39 3b be 7e 19 84 be 1f 47 c3 bd 35 eb 91 bd
       -0.182836 -0.258007 -0.0953505 -0.0712494
000200 45 48 8d 3e 10 23 b5 c0 ca fd 26 c0 ec c1 94 3d
       0.275942 -5.66053 -2.60924 0.0726355
000210 5b c7 8d bd b2 0f d2 bd 98 bd ec 3d 92 78 59 be
       -0.0692279 -0.102569 0.115596 -0.212374
000220 39 7f bb be e9 fd 14 bc 3a cf 08 be 70 23 e5 bd
       -0.366205 -0.00909374 -0.133603 -0.111884
000230 a9 a9 40 3d 7d 5a 65 3e fb ae 08 be 0d 6d 20 3e
       0.0470368 0.223978 -0.13348 0.156666
000240 24 d4 cc 3e 6f 42 46 3d f7 3b 9c be b8 e5 06 3b
       0.400056 0.0484032 -0.305145 0.00205837
000250 1c 7e 47 be ce 39 38 bf 1b 48 03 bf 28 0f c7 bf
       -0.194817 -0.719632 -0.512819 -1.55515
000260 db c4 73 40 44 6d 2b bf ee 5c 18 bf e1 97 56 c0
       3.80889 -0.669636 -0.595168 -3.35302
000270 77 9f 73 bf 60 59 15 c0 69 00 c5 40 3a a5 4d 3c
       -0.951652 -2.33358 6.1563 0.0125516
000280 f5 82 1f 3f 3d 44 f3 bf ef 74 23 3f ba 31 55 c0
       0.623092 -1.90052 0.638503 -3.33116
000290 90 a4 ff bc 7b f9 a5 be aa 65 1f c0 bf 9d 5c 3f
       -0.0312064 -0.324169 -2.49058 0.861782
0002a0 cf 49 ab bf 40 4d 87 c0 f4 fd 58 bf 30 d9 d8 bd
       -1.33819 -4.22818 -0.847625 -0.105883
0002b0 c3 f5 a8 be 24 9c e2 3f eb 1c 2d 40 66 14 b7 3f
       -0.33 1.77039 2.70489 1.43031
0002c0 3b aa 9a bf 87 a6 6c be 1f a2 91 bf db 8a 17 41
       -1.20832 -0.231104 -1.13776 9.4714
0002d0 75 04 2c bf d8 6e 92 3b ab 25 0d be 4c fe 17 bf
       -0.671943 0.00446878 -0.137839 -0.593724
0002e0 d8 65 d8 be cc 28 e2 bf 96 78 d4 3f 4f 59 41 3f
       -0.422652 -1.76687 1.65993 0.755269
0002f0 78 7f 06 40 eb 56 a3 bf 69 3a cb 3f 9e 0c 32 c0
       2.10153 -1.27609 1.58772 -2.78202
000300 c9 39 b9 3e a5 14 00 c0 99 65 47 bf 21 3c 9e 3f
       0.361769 -2.00126 -0.778894 1.23621
000310 6c e9 49 3f f5 3b 1e 3d c5 8c 50 be 88 d7 2d c0
       0.788718 0.0386314 -0.203662 -2.71628
000320 dd 07 20 3e 70 5f e7 3d 44 8b 2c c0 b1 4a be bd
       0.15628 0.112975 -2.696 -0.0929159
000330 c7 0e ea bd fc 35 19 c0 3a dd 03 bd 7f a0 b4 3e
       -0.114286 -2.39392 -0.0321934 0.352787
000340 be 2e 63 be 5e e6 aa bc fa b9 c9 be 1b 45 cb bd
       -0.221858 -0.0208618 -0.393997 -0.0992529
000350 7c e2 ba 3d 54 57 5e be c6 1a 89 bc 13 0b 4c be
       0.0912523 -0.21713 -0.0167364 -0.199261
000360 ed 00 fe bc 24 d1 2b 3e f3 6b f5 3c a4 71 90 3e
       -0.0310063 0.16779 0.0299587 0.282117
000370 da 01 63 bf 74 67 41 bd 35 8d 37 3c a3 e8 39 3f
       -0.886747 -0.0472178 0.0112031 0.726206
000380 6e c2 3d 3e 11 aa f4 3d ad ed 37 3c d4 a3 c4 bd
       0.185312 0.119465 0.0112261 -0.0960156
000390 30 65 60 3e a1 6a a4 3e 4a 54 79 bd 92 e6 b7 be
       0.219136 0.321126 -0.0608714 -0.359181
0003a0 33 19 ce 3d 9b 1f 2f be 18 3e 47 3c 5f 79 a8 3e
       0.100634 -0.171019 0.0121608 0.329051
0003b0 bc 74 af bf 7d b3 01 3f 7e da b2 3c aa ee b1 3e
       -1.37075 0.506645 0.0218327 0.347524
0003c0 28 b9 bb be 15 ad 3c 3e 11 fb c9 bd 75 20 eb bd
       -0.366647 0.184254 -0.0986234 -0.114808
0003d0 f6 9a ae be 1b 67 d3 be 1f d7 86 c0 14 78 e7 3c
       -0.341026 -0.412896 -4.21376 0.0282555
0003e0 78 63 b9 3e 17 9a 11 c0 01 68 94 bc 3d 28 30 bf
       0.362087 -2.27503 -0.018116 -0.688114
0003f0 0f 29 b6 3e 00 57 22 be b7 de 05 3d d0 5f 34 bf
       0.355782 -0.158535 0.0326831 -0.704587

5.0.bias f4 [50]
000000 f5 30 dc be d5 4f c9 bc 4d be ed bf 26 59 62 bc
       -0.430061 -0.0245742 -1.85737 -0.0138152
000010 8b a7 d6 3e 8d b6 5a be 64 e9 23 3e 18 e9 3d 3f
       0.419247 -0.213587 0.16007 0.741838
000020 73 c3 0a 3c 5d dd 39 bf f5 be 97 c0 e1 50 8e 3d
       0.00846945 -0.726034 -4.74206 0.0694902
000030 e6 5c aa be 35 b7 ea 3e 71 5a 84 bf 40 89 df be
       -0.33274 0.458429 -1.03401 -0.436594
000040 c3 50 b2 3d 85 5f 96 bf 39 0f 97 3e 20 ef 25 3f
       0.0870681 -1.17479 0.295038 0.64818
000050 7c d3 18 3f 60 3c 0b c0 d0 27 8e bf 21 04 dc be
       0.596977 -2.17556 -1.11059 -0.429719
000060 e8 a4 77 3e c9 ff 24 3e 43 75 d3 3d 27 32 43 3e
       0.24184 0.161132 0.103251 0.190621
000070 14 05 24 c0 91 63 db 3e ac e6 29 3e 71 3a 29 bd
       -2.56281 0.428494 0.165919 -0.0413155
000080 bc 91 4d c0 a2 c2 87 3c 8b 89 b9 bf 7c d2 59 be
       -3.21202 0.0165723 -1.44951 -0.212717
000090 71 59 c5 3d 86 04 3c be f1 f5 0d bf 8a 05 ae 3e
       0.096362 -0.183611 -0.554534 0.339886
0000a0 3d b8 bb 3e cf f7 97 3f 11 36 e0 c0 95 64 5d 3f
       0.36664 1.18725 -7.0066 0.864816
0000b0 d6 c5 82 c0 97 3b 43 3e 83 c2 e0 3e 9d 2f 2a bf
       -4.08665 0.190657 0.438984 -0.664789
0000c0 c3 2e ea bd ff 40 f9 3d
       -0.114347 0.121706

5.0.weight f4 [50, 50]
000000 b9 ef a2 3c bb b1 25 bd 68 20 8e be 62 c8 20 3d
       0.0198897 -0.0404527 -0.277591 0.0392536
000010 1f 86 1a 3f 77 4d b8 3e 59 4c 94 bf 8e 4e b7 3d
       0.603609 0.359966 -1.15858 0.0895053
000020 0c 37 85 bc e5 d4 1e 3f 6d 1c a1 bf 15 c6 de 3e
       -0.0162616 0.620436 -1.25868 0.435105
000030 e5 d0 ea 3e 50 ab 18 3e 72 35 d2 3e 68 23 37 3e
       0.458625 0.149091 0.410564 0.178846
000040 b3 3f f0 bd 78 f1 1e 3e 6f e4 6c bb a4 00 c1 3d
       -0.117309 0.155218 -0.00361469 0.0942395
000050 07 9a 87 be e5 f2 ef be a2 b5 72 be 4c 71 09 bf
       -0.264847 -0.46865 -0.237021 -0.536885
000060 d0 9e 66 bd 02 81 6e 3e 5b e9 7a bd 09 df 93 3e
       -0.0563038 0.232914 -0.0612577 0.288811
000070 55 4f ee be e0 4d 07 3e 1d 26 95 bd ad 17 83 bf
       -0.465449 0.132133 -0.0728266 -1.02416
000080 04 35 01 bd 36 72 dd bd 41 2d 16 be 97 73 c5 3f
       -0.0315447 -0.108128 -0.146657 1.54259
000090 8e 3f d1 bd b5 50 b2 be 81 7b de bd 86 e8 bb 3d
       -0.102172 -0.348272 -0.108634 0.0917521
0000a0 d5 40 f3 3d 02 4a fb be 2e 94 47 3d e2 01 81 3f
       0.118776 -0.490799 0.0487253 1.00787
0000b0 07 7a a8 3e dc b6 c4 bd ca 6f 41 3e af 5d 0e bf
       0.329056 -0.0960519 0.188903 -0.556117
0000c0 e4 6a a4 be d7 a3 8f c0 a8 8c ff bd 85 6c 2a 3d
       -0.321128 -4.48875 -0.12478 0.0416074
0000d0 7d d9 8c 3d 4b 27 4d bd c9 1e c1 3e 65 47 74 bc
       0.0687742 -0.0500863 0.377188 -0.0149096
0000e0 c4 3e 31 3f e8 72 99 3d 7d 7a 0c 3e 3b ef c5 3d
       0.692364 0.0749262 0.137186 0.0966477
0000f0 75 5e fc bb 07 ee 30 3f c1 57 54 3d c7 7a f2 3b
       -0.00770169 0.691132 0.0518415 0.00739989
000100 76 a4 da bd e8 be 5c 3e e2 5a cd bd 34 49 0d 3c
       -0.106759 0.215572 -0.100271 0.00862341
000110 d9 76 e2 3e 36 ae a7 3e c4 a1 0d 3d 0e 44 ab 3d
       0.442313 0.327501 0.0345781 0.0836259
000120 6d 72 d8 bd 96 53 8c 3d 52 64 1d be da e5 0b 3f
       -0.105687 0.0685188 -0.153703 0.546476
000130 d3 b9 87 3c 01 87 30 be fe d7 54 3d e5 b4 27 bc
       0.0165681 -0.17239 0.0519638 -0.010236
000140 b3 40 5b be c9 57 ba be b4 4a fa bc 28 9a cf be
       -0.214114 -0.363951 -0.0305532 -0.405473
000150 7a 32 24 3d 47 59 37 3f e3 90 68 bc a0 e0 02 be
       0.0400872 0.716206 -0.0141947 -0.12781
000160 0d e0 2d be b6 7e 00 3c f2 42 aa 3d 79 eb ac be
       -0.1698 0.00784271 0.0831355 -0.337734
000170 b7 eb 75 be a8 e0 20 3e 20 44 b2 3c da 35 96 3d
       -0.240157 0.157107 0.021761 0.0733449
000180 93 33 18 3c 05 ce a8 3d b3 09 f0 3c d3 79 1e 3d
       0.00928964 0.0824242 0.0293015 0.0386904
000190 c7 ba bc bf 92 96 9a bf fd 87 08 bf bf 47 bd bd
       -1.47445 -1.20772 -0.533325 -0.092422
0001a0 4c 8e 21 40 4d f4 71 bf 45 0d 96 3f d6 1d 4b 3e
       2.52431 -0.945134 1.17228 0.198356
0001b0 49 f5 85 be 7b 83 f7 3e ad de 19 bf e1 db ca bd
       -0.261637 0.483425 -0.601054 -0.0990522
0001c0 95 47 13 3f f8 1c 54 bf 7a ff 03 bf d1 ae 9e 3f
       0.575311 -0.828567 -0.515617 1.23971
0001d0 06 66 25 bf f9 31 a2 3f cd 92 12 40 57 40 81 3e
       -0.646088 1.26715 2.29021 0.252444
0001e0 5f 97 89 3e b1 a5 57 3f 3a 92 3b be 4b e9 19 3e
       0.268733 0.842372 -0.183175 0.150304
0001f0 17 61 82 3e 88 2b 97 bd 66 2f 4b be 66 c1 94 3e
       0.254647 -0.0738135 -0.198423 0.290538
000200 e8 f8 18 be 08 21 60 be 71 cb bf be c8 ea 9c c0
       -0.149387 -0.218876 -0.374599 -4.90366
000210 5c 1d a0 bd 26 e2 21 bf ae 67 d0 3e ea b4 f6 be
       -0.078181 -0.632357 0.407041 -0.481849
000220 43 59 d8 3d 7c d3 20 bf 3c 4f 2c be e1 97 2a 3f
       0.105639 -0.628227 -0.168271 0.66638
000230 fe f1 46 3f 2c 7d 08 3f ce 39 f0 3e 37 4f a5 3f
       0.77713 0.53316 0.469191 1.29148
000240 ea ec 90 bf 8e a1 ad 3c 73 9d 1e 3f 4d db f7 c0
       -1.13223 0.0211952 0.61959 -7.74552
000250 28 82 d8 bd a8 52 4f 40 39 d2 1b bc 43 a9 ff ba
       -0.105717 3.23942 -0.00951057 -0.00195054
000260 9e d3 ec 3c a5 10 a8 bd 73 85 a7 3e 1a f1 4e 3d
       0.0289095 -0.082063 0.32719 0.0505229
000270 1e 79 1b c1 6d 78 b4 3b fc 1c 7f 3d f1 6c 6a bd
       -9.71707 0.00550752 0.0622835 -0.0572328
000280 d4 0f 4a be 98 a9 04 3d f1 6d 35 bd 1b ca bb ba
       -0.197326 0.0323883 -0.0442943 -0.00143272
000290 38 9f 1d 3a 8b 70 f3 3d d8 a6 67 3c 4c 6c de 3d
       0.00060128 0.118867 0.0141389 0.108605
0002a0 c2 51 72 bc 39 d0 43 3e 18 7d 65 bd 18 0e 8f 3d
       -0.01479 0.191224 -0.0560275 0.0698511
0002b0 92 aa 82 3d 0a d1 a9 3b 62 6a 4b 3c 2f 9c 70 3d
       0.0638019 0.00518239 0.0124155 0.0587427
0002c0 f8 01 86 bb d3 da 54 bd 86 3d 88 bc 9c b9 ac 3c
       -0.00408959 -0.0519665 -0.0166309 0.0210846
0002d0 74 45 49 be 62 c3 ae 3d c7 0f 78 3a dd ba 36 3d
       -0.196554 0.0853336 0.00094628 0.0446118
0002e0 dc 0e ad bd b8 ce 9f be 5f 1c 80 b9 92 3d 02 bd
       -0.084501 -0.312124 -0.000244352 -0.031797
0002f0 d3 74 0c bd 80 b6 55 bc 8d c1 59 3d c0 b4 58 be
       -0.0342911 -0.013044 0.0531631 -0.211627
000300 8b b4 63 bd fc ba 9d bc 8b c3 87 c0 2c a4 37 3d
       -0.0555921 -0.0192542 -4.24262 0.0448343
000310 37 8c 12 be 00 dd bc 3d 95 79 d0 bc 42 f8 86 3d
       -0.143113 0.0922184 -0.0254486 0.0659032
000320 48 70 6f 3f db dc 00 c0 3f 74 81 3e 17 b8 5c bd
       0.935307 -2.01348 0.25284 -0.0538865
000330 c7 48 e6 be 89 cf 71 3f 96 0a ca be 72 16 d6 be
       -0.449774 0.944573 -0.394612 -0.41814
000340 ec a3 5b bf 1c 09 74 be f8 1c 18 3e bc cb 55 40
       -0.85797 -0.238316 0.148548 3.34056
000350 24 ef c4 be 05 86 1c be 6b 20 67 3d 0b 24 d4 bf
       -0.384637 -0.152855 0.0564274 -1.65735
000360 09 f9 ac bf 9f 77 7b bf 36 1f 83 bf 2a 1b 26 3e
       -1.35135 -0.982294 -1.02439 0.162213
000370 89 45 5c 3e b0 be cb bc 2b 6a ee c0 ad be 5a 3e
       0.215109 -0.0248712 -7.45046 0.213618
000380 68 e8 8f 3d a6 ed 1d c0 0f 0b a6 c0 2a 3a e2 3e
       0.0702675 -2.46763 -5.18885 0.44185
000390 f5 ba 87 3a a9 bc cd 3e 56 2c ce 3e 1d c9 e5 bf
       0.00103554 0.40183 0.402682 -1.7952
0003a0 c7 84 b8 be aa 9b 77 3f 71 38 19 c0 3e 4a 9b 3c
       -0.360388 0.967219 -2.39407 0.0189563
0003b0 66 db e9 3d ad fa 9c be 2a a9 97 3f dd 3f 76 bf
       0.114188 -0.3066 1.18485 -0.961912
0003c0 e2 e9 11 bf 35 24 8a 3f 69 6f f4 bf 78 d1 e3 3f
       -0.569975 1.07923 -1.90965 1.77983
0003d0 ff 77 e4 3d 33 a3 df be f8 fc df c0 5a 80 3e bf
       0.111557 -0.436792 -6.99963 -0.744146
0003e0 97 3d 24 bd ed 29 55 3f 3b a6 4e 3e 95 f4 80 3e
       -0.0400978 0.832671 0.201806 0.251866
0003f0 dd ed fa be 55 9e e5 bc f5 2a 0a 3f 0d 2a 8b 3d
       -0.490096 -0.0280296 0.539718 0.0679513

6.bias f4 [5]
000000 bd 73 28 bc 17 fb 81 bc 79 a9 7d bc d9 43 7b bc
       -0.0102815 -0.0158668 -0.0154823 -0.015336
000010 8f f1 72 bc
       -0.0148281
