artifacts/acas_benchmark/onnx/N_2_7.onnx (onnx, 54312 bytes, 14 tensors)

0.0.bias f4 [50]
0.523423 0.11527 -0.103706 0.0713919 -0.136455 -0.488136 -0.257603 -0.186975
-0.184624 0.0682124 -0.220948 -0.0256486 0.0999124 -0.0200603 -0.528103 -0.0108858
0.0243305 -0.330445 0.123786 0.0128616 -0.414653 -0.561153 -0.00762139 -0.751859
-0.226453 -0.00346886 -0.327697 0.0727332 -0.514647 0.0130526 -0.556427 -0.294002
-0.457663 -0.115669 -0.245905 0.542828 -0.318711 -0.688861 -0.147432 -0.366168
0.137586 -0.858112 0.0916487 0.0887002 0.0506166 -0.376476 0.0620319 0.318442
-0.210292 0.318416
00000000: 0dff 053f ae12 ec3d d063 d4bd eb35 923d
00000010: dcba 0bbe f6ec f9be 8ae4 83be 6076 3fbe
00000020: 130e 3dbe f1b2 8b3d 3140 62be 031d d2bc
00000030: df9e cc3d 8055 a4bc c231 07bf 5b5a 32bc
00000040: c250 c73c 1630 a9be 8483 fd3d 76b9 523c
00000050: 664d d4be b9a7 0fbf dabc f9bb d579 40bf
00000060: 4ce3 67be d055 63bb e7c7 a7be 25f5 943d
00000070: e8bf 03bf 93da 553c 0072 0ebf 6e87 96be
00000080: ce52 eabe dee3 ecbd 85ce 7bbe c7f6 0a3f
00000090: 172e a3be 3259 30bf 6af8 16be 5f7a bbbe
000000a0: 58e3 0c3e 3aad 5bbf 50b2 bb3d 73a8 b53d
000000b0: 5a53 4f3d 76c1 c0be 2915 7e3d d40a a33e
000000c0: c956 57be 6c07 a33e

0.0.weight f4 [50, 5]
1.88976 0.00238041 -0.000197384 -0.00507401 0.00190423 -0.0103009 -0.0278372 0.00411775
0.495105 -0.520682 0.0630226 -0.864847 -0.689373 0.496987 -0.219611 -0.099909
-0.949165 -1.16955 0.188703 -0.110513 0.0126566 0.909258 0.954622 0.56783
0.0555926 -0.0302796 -1.55105 1.4178 -0.046943 0.331603 0.484936 1.26024
-0.766529 0.434409 -0.476249 0.100986 -1.91803 -0.09977 1.15076 -1.44407
0.422852 -0.172847 0.0470388 0.0135641 0.532565 0.00409609 0.920664 1.14272
-0.227794 0.335537 -0.367332 1.25964 -1.45924 0.0547177 -0.0579882 -0.0234453
0.0113404 0.013023 0.0112267 -0.000664771 0.265476 -1.04362 -0.173457 0.00320832
0.202605 0.00815136 -0.00633287 -0.00108454 -0.0167939 -0.00055653 -0.00414566 -0.0325024
-0.0303391 -0.00155224 -1.55804 0.339431 -0.590795 0.339638 -0.0651115 -0.296076
-0.0859659 -0.0392693 -0.00760485 -0.531018 0.555756 0.170205 1.37738 -1.63761
-0.019092 -0.263239 -0.0157483 0.491687 -0.0588033 0.239954 -0.113284 -0.10371
0.460713 0.410509 0.358344 -0.469045 0.0153313 0.0102773 0.0060378 -1.34892
0.0394997 -2.27174 -0.0881534 0.000826593 0.00517232 0.0924563 -0.18991 -0.690358
0.67023 0.0940801 -0.322294 0.0239889 -0.0236747 -0.100539 -0.30432 -1.54106
-0.0356555 1.91108 -0.574942 0.527244 -0.634225 -0.0266398 -0.158468 -0.41894
-0.307116 0.0818322 -0.100564 -0.785532 -0.45522 -0.394468 0.204546 -0.121243
-0.509403 -0.26185 0.206623 -0.0599083 0.0095825 0.940418 -1.26838 -0.0650645
0.236744 -0.0862651 0.410964 0.54726 -0.381018 0.140864 -0.0265061 2.69742
1.23401 0.421729 -0.383851 -0.032019 -1.04112 -0.69936 0.305336 -0.186597
0.00460511 2.15448 -1.83736 -0.438278 0.691781 0.114763 0.784259 -0.000202782
0.595439 -0.779084 0.0187231 -1.91679 0.906111 0.494033 -0.66366 1.95466
0.003806 0.00137983 -0.00356514 0.00200513 0.00522009 2.2221 0.0590201 0.0131892
-1.1377 0.334837 -1.4322 -0.0802002 0.0189495 -1.74374 0.625237 -0.394142
-0.865412 0.586894 -0.794062 0.0308752 1.0036 -1.27199 0.0970149 0.257486
0.559467 -2.26152 2.48326 0.119111 0.623625 -0.0279034 -1.69152 1.5781
-0.439244 0.263202 0.0760175 -0.813104 -0.379378 -0.415818 0.514108 -0.125169
-0.620506 -2.31513 -0.170458 0.372372 -0.0230775 -0.360913 -0.440826 -0.162492
-0.239788 0.216039 -0.818188 0.856675 -0.0199281 0.192654 0.6411 0.364507
-0.791415 -0.116446 0.338118 0.00553255 1.24454 0.0927066 -0.360756 0.717091
-0.0138827 -0.92405 0.985834 -0.0607068 0.276328 0.150975 0.869608 -4.0365
0.198908 0.102889
00000000: a8e3 f13f a700 1c3b ddf8 4eb9 e243 a6bb
00000010: 5b97 f93a 1bc5 28bc d70a e4bc 31ee 863b
00000020: 677e fd3e 6a4b 05bf fe11 813d 9d66 5dbf
00000030: c07a 30bf 1475 fe3e b5e1 60be 179d ccbd
00000040: 7afc 72bf d0b3 95bf 5c3b 413e a454 e2bd
00000050: a15d 4f3c 22c5 683f 1b62 743f 4f5d 113f
00000060: 11b5 633d ec0c f8bc ce88 c6bf 787a b53f
00000070: 4e47 40bd dec7 a93e 8849 f83e 8b4f a13f
00000080: 3f3b 44bf db6a de3e e9d6 f3be bfd1 ce3d
00000090: 0282 f5bf 3754 ccbd 1b4c 933f 49d7 b8bf
000000a0: 0f80 d83e cefe 30be c2ab 403d f53b 5e3c
000000b0: 2e56 083f 7e38 863b a3b0 6b3f a644 923f
000000c0: d542 69be 81cb ab3e f112 bcbe e23b a13f
000000d0: 60c8 babf ab1f 603d 0985 6dbd 5c10 c0bc
000000e0: 16cd 393c 6c5e 553c 31f0 373c 0744 2eba
000000f0: 78ec 873e 5795 85bf b69e 31be ad42 523b
00000100: af77 4f3e 488d 053c f783 cfbb 2027 8eba
00000110: 5c93 89bc 19e4 11ba 51d8 87bb 3d21 05bd
00000120: b489 f8bc 8874 cbba db6d c7bf e6c9 ad3e
00000130: 573e 17bf 08e5 ad3e 2e59 85bd 4697 97be
00000140: e40e b0bd d8d8 20bd 1b32 f9bb ccf0 07bf
00000150: 0646 0e3f 384a 2e3e fd4d b03f 349d d1bf
00000160: d366 9cbc 43c7 86be 9402 81bc 66be fb3e
00000170: bbdb 70bd 80b6 753e 7101 e8bd e965 d4bd
00000180: 93e2 eb3e 3c2e d23e dd78 b73e ab26 f0be
00000190: 2230 7b3c 1f62 283c bdd8 c53b 69a9 acbf
000001a0: 70ca 213d 3064 11c0 c589 b4bd b8af 583a
000001b0: 917c a93b bb59 bd3d c477 42be 4dbb 30bf
000001c0: 3194 2b3f 11ad c03d b803 a5be 5f84 c43c
000001d0: 72f1 c1bc 64e7 cdbd d5cf 9bbe 7441 c5bf
000001e0: 800b 12bd 459e f43f 662f 13bf 76f9 063f
000001f0: 925c 22bf b63b dabc 6f45 22be 4e7f d6be
00000200: 4f3e 9dbe a497 a73d 80f4 cdbd a018 49bf
00000210: 9912 e9be b6f7 c9be 8274 513e 404e f8bd
00000220: 3c68 02bf 3411 86be fb94 533e 6862 75bd
00000230: ebff 1c3c 3cbf 703f 475a a2bf 8940 85bd
00000240: 056d 723e c2ab b0bd e069 d23e 3b19 0c3f
00000250: cb14 c3be a73e 103e 5223 d9bc 87a2 2c40
00000260: 0af4 9d3f ddec d73e 1e88 c4be 5b26 03bd
00000270: 6c43 85bf 4209 33bf 0055 9c3e 4913 3fbe
00000280: 76e6 963b 00e3 0940 9d2e ebbf f965 e0be
00000290: 8f18 313f dd08 eb3d 33c5 483f e1a1 54b9
000002a0: b16e 183f 0d72 47bf 3061 993c 6059 f5bf
000002b0: e4f6 673f e5f1 fc3e 9fe5 29bf 4d32 fa3f
000002c0: 166e 793b 69db b43a 20a5 69bb 8068 033b
000002d0: 4a0d ab3b e336 0e40 0fbf 713d 8417 583c
000002e0: 27a0 91bf c16f ab3e 5452 b7bf 0140 a4bd
000002f0: fb3b 9b3c df32 dfbf 880f 203f fbcc c9be
00000300: a48b 5dbf af3e 163f a647 4bbf fded fc3c
00000310: f775 803f 91d0 a2bf bfaf c63d 34d5 833e
00000320: 3b39 0f3f bebc 10c0 bbed 1e40 78f0 f33d
00000330: e3a5 1f3f ac95 e4bc ba83 d8bf 2eff c93f
00000340: 97e4 e0be 6ac2 863e 10af 9b3d 9527 50bf
00000350: d53d c2be 19e6 d4be 959c 033f 4d2c 00be
00000360: 7bd9 1ebf 172b 14c0 8b8c 2ebe 8ba7 be3e
00000370: 060d bdbc 97c9 b8be f2b3 e1be 4e64 26be
00000380: fc8a 75be 5439 5d3e c574 51bf 0e4f 5b3f
00000390: 4140 a3bc 1747 453e 211f 243f a9a0 ba3e
000003a0: 2c9a 4abf 3e7b eebd cd1d ad3e 654a b53b
000003b0: 164d 9f3f f5dc bd3d 03b5 b8be 4793 373f
000003c0: 4474 63bc 8a8e 6cbf 9e5f 7c3f b2a7 78bd
000003d0: dd7a 8d3e 3199 1a3e a19e 5e3f 022b 81c0
000003e0: 8aae 4b3e 78b7 d23d

1.0.bias f4 [50]
-0.304109 -0.80325 0.79013 -0.927326 -1.42435 -0.0396676 -0.0154906 -0.25707
-0.635989 0.258478 -1.1488 0.802705 -0.306186 -1.35614 0.23101 -0.356317
-0.0256099 -1.55302 -0.0165258 0.037234 1.20403 0.88456 0.728089 -0.0282942
-1.21064 0.611217 -0.0123157 0.130025 -0.00610049 0.787688 0.942388 -0.0214051
-0.920502 -0.0735738 0.0339332 0.382917 -1.01822 -0.0154134 0.583385 -0.0159619
0.586583 0.659385 0.594777 1.08996 -0.0159193 -0.455592 -0.1094 0.572755
-0.0150588 -0.0170725
00000000: 2db4 9bbe cba1 4dbf f645 4a3f 3d65 6dbf
00000010: 1a51 b6bf 7e7a 22bd 49cc 7dbc ae9e 83be
00000020: 2dd0 22bf 3a57 843e e10b 93bf 137e 4d3f
00000030: 69c4 9cbe ff95 adbf e38d 6c3e 2f6f b6be
00000040: dacb d1bc 5cc9 c6bf 1d61 87bc ae82 183d
00000050: a81d 9a3f 8672 623f 0a64 3a3f 3dc9 e7bc
00000060: 40f6 9abf b878 1c3f cac7 49bc 4625 053e
00000070: 9fe6 c7bb eca5 493f 5740 713f c059 afbc
00000080: 05a6 6bbf dcad 96bd 8afd 0a3d b20d c43e
00000090: 0855 82bf 7c88 7cbc b858 153f 88c2 82bc
000000a0: 4e2a 163f 75cd 283f 4e43 183f cf83 8b3f
000000b0: 3169 82bc 5b43 e9be 1b0d e0bd 12a0 123f
000000c0: 2fb9 76bc a1db 8bbc

1.0.weight f4 [50, 50]
-0.182801 0.748331 0.823631 -0.212987 -0.404851 1.81182 -0.211777 0.923018
-0.16667 -1.08625 -5.35862 -0.0238008 -0.345576 -0.00546717 2.73019 0.0281671
-0.810345 2.87437 -2.24083 -1.82672 -0.915843 0.342728 -0.113691 4.43482
-0.866677 -2.35408 -2.0575 -0.292922 -0.031225 0.100737 -1.36833 -4.91548
-0.012255 -0.236811 1.16549 -0.160505 -2.97248 1.0675 0.118915 -0.043389
0.708669 -0.97483 -0.710102 -1.99822 1.18345 1.68013 -0.0539919 -0.819503
1.15377 -0.153419 0.434654 -0.23221 0.745704 -0.0107619 -0.0221391 -0.813829
1.21393 -0.169558 0.625877 -0.160823 2.60473 -0.0330452 0.855971 -0.0216704
-1.65733 0.209885 -0.082847 1.93324 -0.636062 0.246982 -0.252633 0.587664
0.471367 0.578761 -0.350414 -0.00806326 1.03353 0.318296 -0.818952 2.46423
0.510043 0.553146 0.773465 0.675464 -0.0692427 0.492876 -2.51947 0.641011
0.0546336 0.540397 0.0447055 -1.45129 0.951365 -0.470134 0.271135 -0.701124
-1.10664 -1.16304 -1.2165 -1.03334 0.252948 -6.90211 0.3462 1.53081
-0.17077 -1.09439 -1.49698 -0.648795 0.367778 -0.0091224 -1.09548 0.0455395
0.720863 0.0429776 -3.05898 0.333906 1.54974 -1.97039 -1.02821 -2.45072
0.63569 -1.96174 -1.71943 -6.53517 -0.551971 0.0604286 -1.98263 0.823326
-3.87164 0.943037 1.08646 2.391 -1.46264 -0.573166 -1.94428 0.259789
0.30143 1.15693 0.444811 -2.14842 -1.04796 -2.45987 0.287146 0.495796
1.4228 -3.03519 -0.0249704 0.908567 -1.05668 -0.289598 -0.0542266 -1.83739
1.29104 -0.122288 0.225501 -0.950901 0.152589 -0.605122 0.382718 0.133622
-0.763687 -0.0216973 0.254208 0.027972 -0.138837 0.320197 0.470778 -0.621375
0.914763 -0.719315 0.514412 0.367641 1.6213 -0.300996 0.285442 0.0227302
1.2617 0.312339 0.217729 -0.155899 -0.374119 1.01276 -0.170857 -0.770076
0.911066 -0.0780923 0.401593 0.0346349 0.765393 -0.0566359 -0.148495 -0.56363
-0.755591 0.781827 0.0980746 1.58208 -0.48176 1.01954 0.241396 -0.0782377
-0.0150696 -0.702541 1.33475 0.20425 0.373689 0.306874 0.487429 -0.274697
-0.142793 -0.123872 1.29501 0.0432741 -0.401106 -0.048495 -0.827622 -1.10052
1.0135 -0.734719 0.0848757 0.355206 -0.0463308 0.257139 1.03803 0.512187
-0.0157534 0.680786 1.87489 -0.0912976 -1.938 1.00115 0.178333 1.4809
0.263182 -0.95924 -0.389033 0.00886183 0.752914 -1.6951 1.02459 0.531813
0.410205 -0.703563 -0.145356 -0.586192 0.81811 -2.20934 0.385187 0.0371256
0.635397 0.0260251 -0.0636567 0.0233014 0.00543569 0.0298151 -0.0530091 0.00453891
00000000: 2f30 3bbe 9f92 3f3f 7bd9 523f 4419 5abe
00000010: a148 cfbe b8e9 e73f 12dc 58be e84a 6c3f
00000020: 8aab 2abe 3d0a 8bbf d179 abc0 e5f9 c2bc
00000030: 56ef b0be f225 b3bb 6fbb 2e40 b1be e63c
00000040: c572 4fbf aef5 3740 c269 0fc0 f6d1 e9bf
00000050: b074 6abf 0b7a af3e d4d6 e8bd 0cea 8d40
00000060: 8bde 5dbf 3fa9 16c0 14ae 03c0 dff9 95be
00000070: 92cb ffbc 334f ce3d 7025 afbf 9d4b 9dc0
00000080: 32c9 48bc 957e 72be c72e 953f 6c5b 24be
00000090: 1d3d 3ec0 d7a3 883f b589 f33d aab8 31bd
000000a0: 556b 353f 758e 79bf 3fc9 35bf acc5 ffbf
000000b0: 4a7b 973f 800e d73f 9c26 5dbd f3ca 51bf
000000c0: bcae 933f df19 1dbe f88a de3e 75c8 6dbe
000000d0: 75e6 3e3f ae52 30bc 0f5d b5bc 1957 50bf
000000e0: 0f62 9b3f 9da0 2dbe 7a39 203f c9ae 24be
000000f0: e5b3 2640 675a 07bd ea20 5b3f 1f86 b1bc
00000100: 6423 d4bf 18ec 563e b0ab a9bd 6974 f73f
00000110: f6d4 22bf d9e8 7c3e 1d59 81be 2671 163f
00000120: 0457 f13e ae29 143f 7769 b3be c31b 04bc
00000130: b64a 843f b1f7 a23e d7a6 51bf f2b5 1d40
00000140: 2e92 023f fa9a 0d3f cd01 463f 35eb 2c3f
00000150: 1ecf 8dbd 3e5a fc3e ff3e 21c0 4c19 243f
00000160: 7bc7 5f3d 7557 0a3f 1d1d 373d dfc3 b9bf
00000170: a88c 733f 67b5 f0be 35d2 8a3e dd7c 33bf
00000180: 61a6 8dbf 7fde 94bf 46b6 9bbf 7c44 84bf
00000190: 6682 813e 16de dcc0 2041 b13e 95f1 c33f
000001a0: 55de 2ebe f914 8cbf 0a9d bfbf 6e17 26bf
000001b0: 664d bc3e 1e76 15bc b038 8cbf a087 3a3d
000001c0: 7a8a 383f 4809 303d 54c6 43c0 baf5 aa3e
000001d0: e15d c63f bd35 fcbf 639c 83bf 99d8 1cc0
000001e0: 94bc 223f 4c1a fbbf 4816 dcbf 1d20 d1c0
000001f0: f94d 0dbf fb83 773d d2c6 fdbf 7ec5 523f
00000200: f3c8 77c0 df6a 713f 1f11 8b3f 2506 1940
00000210: ca37 bbbf 02bb 12bf 2bde f8bf 1003 853e
00000220: 0855 9a3e 4816 943f 44be e33e b77f 09c0
00000230: 8e23 86bf 836e 1dc0 cd04 933e f9d8 fd3e
00000240: 4f1e b63f 8e40 42c0 b98e ccbc d997 683f
00000250: 4a41 87bf 3046 94be b61c 5ebd 982f ebbf
00000260: cc40 a53f 2272 fabd bce9 663e 3f6e 73bf
00000270: 4a40 1c3e 47e9 1abf 9df3 c33e 35d4 083e
00000280: fe80 43bf 89be b1bc 8d27 823e 8925 e53c
00000290: 492b 0ebe dcf0 a33e d009 f13e 6f12 1fbf
000002a0: e82d 6a3f 0725 38bf 81b0 033f 713b bc3e
000002b0: c286 cf3f 261c 9abe 7425 923e af34 ba3c
000002c0: 637f a13f e6ea 9f3e 5af4 5e3e fda3 1fbe
000002d0: 878c bfbe 1fa2 813f 23f5 2ebe b323 45bf
000002e0: 9f3b 693f dbee 9fbd 999d cd3e 53dd 0d3d
000002f0: ccf0 433f 0cfb 67bd 130f 18be 0e4a 10bf
00000300: 696e 41bf d025 483f 56db c83d 9981 ca3f
00000310: 3fa9 f6be 4980 823f 8330 773e 163b a0bd
00000320: 7ce6 76bc bad9 33bf 17d9 aa3f e926 513e
00000330: 2a54 bf3e 971e 9d3e 4b90 f93e 16a5 8cbe
00000340: 5438 12be 9ab0 fdbd e3c2 a53f 2f40 313d
00000350: c45d cdbe b1a2 46bd 09df 53bf d7dd 8cbf
00000360: 5eba 813f 8b16 3cbf 50d3 ad3d 90dd b53e
00000370: 5dc5 3dbd b9a7 833e 2bde 843f b01e 033f
00000380: 460d 81bc fe47 2e3f 65fc ef3f 3cfa babd
00000390: 6210 f8bf af25 803f ed9c 363e 228e bd3f
000003a0: cbbf 863e c190 75bf 552f c7be 3631 113c
000003b0: f9be 403f 09f9 d8bf c425 833f e624 083f
000003c0: 6406 d23e b41c 34bf 34d8 14be ae10 16bf
000003d0: a86f 513f d465 0dc0 3b37 c53e 0311 183d
000003e0: 61a9 223f 9732 d53c 725e 82bd 94e2 be3c
000003f0: df1d b23b cc3e f43c 1220 59bd 23bb 943b

2.0.bias f4 [50]
-0.054603 -1.51025 -1.24211 -1.37917 -2.25303 -0.0669561 0.0341735 0.193807
-3.10097 -0.327038 -0.939108 -0.409355 -1.86805 0.898459 -0.335515 -0.179279
0.654449 0.423739 0.557493 -0.145496 0.637911 0.412578 0.252634 0.849312
-0.518522 0.180665 -0.476061 0.197778 -2.6048 0.315358 -1.60041 0.336
-2.2017 0.0999148 -2.75999 -0.0243119 0.651677 0.319891 2.00331 -0.924288
-1.59714 0.524627 -1.27813 -3.4598 0.377722 0.959091 -2.12982 0.0833069
-0.832855 -0.569558
00000000: 65a7 5fbd df4f c1bf 76fd 9ebf a488 b0bf
00000010: a531 10c0 4820 89bd 83f9 0b3d 5875 463e
00000020: 4b76 46c0 8671 a7be 6269 70bf fb96 d1be
00000030: 431c efbf 6901 663f 9fc8 abbe ea94 37be
00000040: f889 273f 51f4 d83e dcb7 0e3f e7fc 14be
00000050: 234e 233f 6c3d d33e 3e59 813e 836c 593f
00000060: dcbd 04bf 3f00 393e 44be f3be 5186 4a3e
00000070: 0bb5 26c0 9b76 a13e 3cda ccbf 3108 ac3e
00000080: a7e8 0cc0 21a0 cc3d ada3 30c0 c029 c7bc
00000090: 4ed4 263f c1c8 a33e 3b36 0040 239e 6cbf
000000a0: 156f ccbf f44d 063f c499 a3bf 5d6d 5dc0
000000b0: c764 c13e fd86 753f f94e 08c0 cf9c aa3d
000000c0: fc35 55bf 8ece 11bf

2.0.weight f4 [50, 50]
0.117772 -0.928667 0.483281 -1.03125 -0.419955 -0.0337459 0.0406788 0.000631613
-0.887775 -1.60223 -0.0896987 0.645645 -1.46333 0.0231115 -0.331196 1.04286
-0.0267121 0.0711524 0.0432798 0.183099 -0.40809 0.4445 0.0866543 0.015618
-0.712294 -0.842005 0.0326346 0.848916 -0.0211761 0.295643 -0.0241208 -0.0187921
0.577623 -2.32445 0.268379 -0.273461 0.288091 -0.0335898 -0.17045 0.0301848
0.877385 0.214941 -0.121151 -0.305697 0.0309697 0.284028 -0.0998771 0.639156
0.0548519 -0.0256241 0.0650157 0.502902 -1.09217 0.543575 -0.777865 -0.0595086
-0.030972 -0.231094 -1.02458 1.56193 0.26951 0.383919 1.11963 -0.800721
1.20854 0.741681 0.0351613 -0.372361 -0.042343 0.251687 -0.0055525 -0.438138
0.855157 -0.0293665 -0.0525177 -1.67134 -0.0348783 -1.37931 0.014716 0.799036
-0.991778 -0.0415847 0.36492 0.936927 1.05012 0.106852 0.357522 0.0126542
0.3453 -0.0331821 0.914321 -0.0387687 1.30498 0.30224 -0.0320538 -0.0145656
-0.403694 -0.774337 -0.0311206 0.00505927 -0.791424 0.196964 0.488431 -0.243123
0.813729 -0.00739158 -0.0471437 -0.158848 0.438646 1.27545 0.0924094 -0.438929
0.178466 -0.374649 -0.310879 1.70198 0.0312115 -0.0181686 0.0149527 0.364865
-0.420911 -0.484396 -0.374142 0.0213904 0.689682 0.628389 0.00114042 0.293976
-0.0014547 0.0107237 0.72729 0.0370095 -2.03844 0.0460574 0.521406 0.421053
-0.0567587 -0.00827675 0.279593 0.0163962 0.82345 1.30141 -0.160057 0.913127
-0.0141538 -0.123397 0.654687 -0.260904 0.0296528 -0.00701679 -0.457467 1.21659
0.490978 2.11849 -0.202615 0.0542309 -0.0435207 -0.425128 0.475466 0.693346
0.888182 -0.17825 1.60539 1.55349 0.982827 0.603055 -0.0439719 -0.300284
0.00392171 0.56285 -0.593377 -0.42657 -0.41204 0.0331148 0.0526659 0.544978
0.00639698 -0.416938 0.0301876 0.118467 -0.0851108 -0.0394003 0.803704 -0.173618
0.342225 0.0552035 0.14948 -0.0166079 -0.0496966 0.0132684 1.40378 1.32943
-0.553819 0.228215 0.0433678 0.146591 0.742595 1.45944 0.0275634 -0.0113631
-0.209737 0.0843319 -0.0680835 -0.0463299 0.296538 0.00123459 0.0377372 -0.651755
-0.440961 0.770773 -0.0783389 0.844034 -0.0933196 0.405324 0.862532 0.0573467
-0.0425716 -0.013214 0.00714506 0.89841 -0.581196 0.336137 0.320134 -0.00945478
-0.994299 2.48214 -0.00843418 1.34314 0.0178113 0.391239 0.232023 0.0389536
1.13725 -0.686649 -0.128427 0.432411 0.214588 -0.0162674 -0.849757 0.0153517
0.560415 -0.0308347 0.642418 0.692154 -0.0435286 0.300954 0.605227 0.962377
-0.0205001 0.0453946 -0.120705 -0.20082 0.665155 1.00173 0.384624 -0.0246847
00000000: 7232 f13d 1fbd 6dbf 9b70 f73e 0000 84bf
00000010: 5704 d7be 2439 0abd d09e 263d d592 253a
00000020: 3945 63bf df15 cdbf f4b3 b7bd fe48 253f
00000030: 664e bbbf 5454 bd3c 8692 a9be 707c 853f
00000040: 55d3 dabc 59b8 913d 2946 313d 4e7e 3b3e
00000050: 2cf1 d0be 8195 e33e cf77 b13d a4e2 7f3c
00000060: e658 36bf a48d 57bf dcab 053d 8f52 593f
00000070: 8079 adbc 855e 973e fc98 c5bc e4f1 99bc
00000080: 1adf 133f cac3 14c0 f968 893e 1503 8cbe
00000090: aa80 933e 7595 09bd 728a 2ebe 1d46 f73c
000000a0: 4e9c 603f 7e19 5c3e 041e f8bd 5184 9cbe
000000b0: 2bb4 fd3c 1e6c 913e 5d8c ccbd ba9f 233f
000000c0: 63ac 603d a2e9 d1bc f426 853d 2fbe 003f
000000d0: 3acc 8bbf bb27 0b3f 2922 47bf 4abf 73bd
000000e0: feb8 fdbc e8a3 6cbe 7025 83bf 52ed c73f
000000f0: 37fd 893e 0891 c43e 0950 8f3f 0dfc 4cbf
00000100: 70b1 9a3f cede 3d3f 4c05 103d 1aa6 bebe
00000110: db6f 2dbd 1edd 803e bff1 b5bb a053 e0be
00000120: 92eb 5a3f 0492 f0bc cd1c 57bd 78ee d5bf
00000130: 8cdc 0ebd 3b8d b0bf 611b 713c a08d 4c3f
00000140: 2ae5 7dbf b854 2abd cbd6 ba3e 73da 6f3f
00000150: 556a 863f 39d5 da3d 200d b73e 9053 4f3c
00000160: 29cb b03e f4e9 07bd f110 6a3f eecb 1ebd
00000170: 9609 a73f 34bf 9a3e d84a 03bd 8ea4 6ebc
00000180: fbb0 cebe f33a 46bf a1f0 febc 3cc8 a53b
00000190: c39a 4abf eeb0 493e a113 fa3e 3cf5 78be
000001a0: 8b50 503f 1135 f2bb c119 41bd 0da9 22be
000001b0: 3596 e03e f241 a33f 2441 bd3d 4dbb e0be
000001c0: cbbf 363e fed1 bfbe 882b 9fbe 7bda d93f
000001d0: 42af ff3c 51d6 94bc 2bfc 743c 96cf ba3e
000001e0: a681 d7be c102 f8be 8a8f bfbe ec3a af3c
000001f0: 008f 303f 1ade 203f 257a 953a 0684 963e
00000200: a2ab beba 75b2 2f3c ad2f 3a3f 4697 173d
00000210: cd75 02c0 afa6 3c3d dd7a 053f 4294 d73e
00000220: d07b 68bd 359b 07bc d026 8f3e 5351 863c
00000230: 9fcd 523f 9a94 a63f fbe5 23be b1c2 693f
00000240: 57e5 67bc 91b7 fcbd 9199 273f 3695 85be
00000250: 6eea f23c 1aed e5bb 1d39 eabe 39b9 9b3f
00000260: 7861 fb3e 5795 0740 4e7a 4fbe 3821 5e3d
00000270: c342 32bd 61aa d9be 4870 f33e 207f 313f
00000280: e55f 633f 2b87 36be 6b7d cd3f c3d8 c63f
00000290: 8d9a 7b3f d061 1a3f e11b 34bd d3be 99be
000002a0: b081 803b f016 103f 8ee7 17bf 6267 dabe
000002b0: e8f6 d2be 62a3 073d 33b8 573d ae83 0b3f
000002c0: c29d d13b e678 d5be fc4b f73c d49e f23d
000002d0: 924e aebd 3562 21bd 8cbf 4d3f ebc8 31be
000002e0: 1d38 af3e 111d 623d 4911 193e 4a0d 88bc
000002f0: a98e 4bbd b463 593c 10af b33f c32a aa3f
00000300: 15c7 0dbf 31b1 693e 6fa2 313d f31b 163e
00000310: b51a 3e3f eece ba3f a4cc e13c 4c2c 3abc
00000320: 4cc5 56be 34b6 ac3d 5d6f 8bbd 6cc4 3dbd
00000330: d4d3 973e f7d1 a13a 5292 1a3d 6ad9 26bf
00000340: a4c5 e1be 6151 453f 2570 a0bd 9d12 583f
00000350: 591e bfbd a186 cf3e e6ce 5c3f 60e4 6a3d
00000360: 8f5f 2ebd 887f 58bc 1c21 ea3b 33fe 653f
00000370: 43c9 14bf 261a ac3e 9be8 a33e 39e8 1abc
00000380: 618a 7ebf 62db 1e40 842f 0abc 03ec ab3f
00000390: 01e9 913c 7a50 c83e 7097 6d3e cf8d 1f3d
000003a0: 6891 913f 3bc8 2fbf 5e82 03be f964 dd3e
000003b0: f5bc 5b3e 3643 85bc ad89 59bf b285 7b3c
000003c0: 5c77 0f3f 0e99 fcbc 8275 243f 0131 313f
000003d0: 0c4b 32bd a516 9a3e 28f0 1a3f 575e 763f
000003e0: d3ef a7bc b0ef 393d 2f34 f7bd c2a3 4dbe
000003f0: 9947 2a3f b038 803f 70ed c43e 9137 cabc

3.0.bias f4 [50]
-3.17146 0.589322 -1.4313 -0.00948606 -1.10837 -1.73481 0.242053 0.525573
-1.92884 2.64442 -1.62113 -0.306957 -4.11857 -1.14826 3.00892 2.86523
0.259366 0.481954 0.529709 0.652755 -1.50435 0.909644 2.15808 3.21357
-0.869021 0.755751 3.06602 -1.48964 0.923808 1.99849 0.309489 -1.68524
-1.08254 1.5658 0.288139 -0.673739 -2.96423 -3.27304 0.484303 0.448743
-1.37241 1.19851 -0.0258034 -2.59422 -0.49598 -0.757926 -0.994258 -1.74883
-0.14261 -1.25768
00000000: 33f9 4ac0 cedd 163f d734 b7bf 6b6b 1bbc
00000010: 11df 8dbf 410e debf bedc 773e f48b 063f
00000020: 3be4 f6bf 2d3e 2940 3081 cfbf 7829 9dbe
00000030: 53cb 83c0 2ffa 92bf 2592 4040 ee5f 3740
00000040: 9fcb 843e adc2 f63e 029b 073f f41a 273f
00000050: 8a8e c0bf 6ede 683f fc1d 0a40 22ab 4d40
00000060: 2978 5ebf e678 413f ac39 4440 86ac bebf
00000070: ae7e 6c3f 85ce ff3f 5875 9e3e f2b5 d7bf
00000080: ac90 8abf 226c c83f f486 933e 297a 2cbf
00000090: f2b5 3dc0 7d79 51c0 90f6 f73e a4c1 e53e
000000a0: 22ab afbf c768 993f a761 d3bc b307 26c0
000000b0: 17f1 fdbe 7007 42bf b187 7ebf a9d9 dfbf
000000c0: 5b08 12be a9fb a0bf

3.0.weight f4 [50, 50]
0.42529 -0.159626 2.29421 -0.267802 0.294087 1.30797 -0.785332 -0.547476
-0.16736 0.575877 -2.57015 0.253159 -0.992287 -0.0737501 0.762501 -2.25942
-0.22627 -0.590723 1.31403 0.71661 0.737046 -0.492023 -1.00935 -0.165345
-0.651294 0.799325 -1.44398 -0.914653 -0.939002 -0.0531646 -1.82142 -1.02221
0.490746 1.91474 -0.434014 -1.52024 -1.33763 -1.55269 0.488911 0.319583
-0.240963 -1.11389 -0.424806 -1.25009 1.09331 -1.55452 -0.218936 2.2456
-1.18014 -1.0939 -1.13106 -0.860692 0.699698 0.372902 0.39161 -0.394619
-1.85173 -0.0987345 -0.341949 -0.909106 -0.922159 -2.08814 0.297133 -1.0106
0.647852 0.436889 0.427311 0.455494 0.580898 -0.338883 -0.637744 0.485334
-1.93836 -0.531422 0.0446529 -0.822703 0.137276 0.314103 -0.376154 -0.567032
0.309749 0.298719 0.592674 -0.142163 -0.299869 0.502738 -2.45336 -0.0493516
0.261881 -1.18521 -0.621895 0.919277 0.185556 -1.47813 -0.263402 -0.788513
1.20331 -1.91219 0.543785 -0.644669 -2.03715 -1.48556 -2.63862 -0.546576
-2.04426 1.12294 -0.207827 -0.0521421 1.80481 -1.91405 -2.91005 -2.76194
-3.14886 -1.22108 1.22614 -3.22057 -0.121201 -3.0829 2.67472 0.306037
-4.77141 1.28073 -0.712109 -0.322601 -1.13604 -0.576902 0.60937 -0.334157
-0.860443 -2.80251 -0.515513 -2.54647 -1.01759 -3.01362 -3.31928 -1.77442
-2.66799 0.246931 1.00158 -0.137002 -2.54194 -2.12147 -0.100553 -0.245903
-0.0302061 -2.86238 -4.68459 0.254192 -0.229838 -0.693234 0.0384316 -0.0415646
0.0277557 -0.0277235 0.0159369 -0.00162839 -0.00818392 -0.0365055 -0.00814994 -0.031743
0.0155939 0.0166279 0.000868375 -0.0200551 -0.0153331 -0.0144517 0.0104967 0.00186515
-0.0120499 -0.00406509 -0.00885776 -0.00237881 -0.0390722 -0.0416772 0.0238875 -0.0407247
0.0117661 0.0426731 0.0397976 -0.00948912 0.0371165 0.0140502 -0.0173852 -0.0397594
-0.0433257 0.0374561 -0.00591033 -0.00170471 -0.0490852 0.0420046 0.0192282 -0.00870633
0.00850895 -0.0114781 -0.0237552 -0.0409598 0.0236515 0.0438733 0.0489058 -0.0263374
0.0790341 0.918022 -0.821329 0.746222 -0.860384 0.996999 0.0618879 0.0321947
0.0852896 -1.40646 -1.00471 -0.129787 -3.1921 -0.668851 0.450279 -0.589411
-0.175282 -0.8376 0.914184 -0.731508 0.449958 0.845183 0.82892 1.41863
-0.202961 -0.307984 1.77191 -0.344285 -0.343091 -0.376015 1.52774 -3.10635
-1.19035 0.710252 -0.501064 -1.47032 -1.20259 2.38938 0.332987 0.383826
-1.97845 -0.133638 0.95337 1.35005 0.61954 0.93086 -2.64039 1.3234
-0.954069 0.310907 1.70908 -1.72821 -0.94631 0.639029 -1.50204 0.375939
00000000: 9cbf d93e 0075 23be 56d4 1240 581d 89be
00000010: 9292 963e 906b a73f 850b 49bf 6327 0cbf
00000020: 6b60 2bbe ad6c 133f 567d 24c0 0e9e 813e
00000030: 8506 7ebf 4b0a 97bd 4433 433f 569a 10c0
00000040: 53b3 67be 9f39 17bf 2332 a83f c173 373f
00000050: 0caf 3c3f 70ea fbbe 6132 81bf 3350 29be
00000060: 34bb 26bf 90a0 4c3f 56d4 b8bf b326 6abf
00000070: 6f62 70bf 20c3 59bd 4a24 e9bf c7d7 82bf
00000080: 0f43 fb3e 3316 f53f 1537 debe 3997 c2bf
00000090: 7637 abbf 8cbe c6bf 8b52 fa3e 62a0 a33e
000000a0: 01bf 76be f393 8ebf 2c80 d9be f302 a0bf
000000b0: 95f1 8b3f 83fa c6bf c230 60be e9b7 0f40
000000c0: d40e 97bf ea04 8cbf 93c6 90bf 5056 5cbf
000000d0: 681f 333f 03ed be3e 1b81 c83e 800b cabe
000000e0: 7d05 edbf 5035 cabd f013 afbe 2cbb 68bf
000000f0: 9d12 6cbf 16a4 05c0 d121 983e 575b 81bf
00000100: a1d9 253f eaaf df3e 82c8 da3e 8236 e93e
00000110: bbb5 143f 1382 adbe 3143 23bf b37d f83e
00000120: 2e1c f8bf 460b 08bf f6e5 363d aa9c 52bf
00000130: 1492 0c3e 1cd2 a03e 4297 c0be 0229 11bf
00000140: 6c97 9e3e b2f1 983e 7cb9 173f 2d93 11be
00000150: 6e88 99be 70b3 003f da03 1dc0 e724 4abd
00000160: 4415 863e f6b4 97bf 8334 1fbf bd55 6b3f
00000170: 6402 3e3e 5d33 bdbf a0dc 86be fddb 49bf
00000180: 1006 9a3f a4c2 f4bf 7e35 0b3f 0709 25bf
00000190: aa60 02c0 d526 bebf 26df 28c0 68ec 0bbf
000001a0: 28d5 02c0 7fbc 8f3f 9ad0 54be f492 55bd
000001b0: 0404 e73f 97ff f4bf 423e 3ac0 a0c3 30c0
000001c0: ec86 49c0 594c 9cbf 28f2 9c3f d21d 4ec0
000001d0: 3b38 f8bd 3c4e 45c0 9d2e 2b40 e2b0 9c3e
000001e0: 64af 98c0 f6ee a33f c74c 36bf f52b a5be
000001f0: c269 91bf d9af 13bf acff 1b3f a016 abbe
00000200: fe45 5cbf 535c 33c0 a9f8 03bf 5df9 22c0
00000210: 6440 82bf 26df 40c0 156f 54c0 3220 e3bf
00000220: 59c0 2ac0 7bdb 7c3e c633 803f 414a 0cbe
00000230: 25af 22c0 2ac6 07c0 bbee cdbd ffcd 7bbe
00000240: c872 f7bc 3c31 37c0 29e8 95c0 7425 823e
00000250: a75a 6bbe c977 31bf 746a 1d3d a43f 2abd
00000260: ec5f e33c 651c e3bc 1a8e 823c b46f d5ba
00000270: d915 06bc cb86 15bd 5387 05bc f304 02bd
00000280: 8f7d 7f3c 3c37 883c a9a3 633a 984a a4bc
00000290: af37 7bbc d3c6 6cbc 5afa 2b3c 0d78 f43a
000002a0: f26c 45bc 7234 85bb 2320 11bc cfe5 1bbb
000002b0: 2c0a 20bd b6b5 2abd b8af c33c f1ce 26bd
000002c0: 9ac6 403c fdc9 2e3d cf02 233d 4178 1bbc
000002d0: 7907 183d cf32 663c 686b 8ebc c1da 22bd
000002e0: 4a76 31bd 916b 193d 71ab c1bb 9370 dfba
000002f0: 900d 49bd 040d 2c3d 7584 9d3c ffa4 0ebc
00000300: 1f69 0b3c a40e 3cbc 449a c2bc 77c5 27bd
00000310: cac0 c13c 7db4 333d 7351 483d 88c1 d7bc
00000320: a1dc a13d 7d03 6b3f 9e42 52bf 6808 3f3f
00000330: 2042 5cbf 543b 7f3f 2b7e 7d3d 97de 033d
00000340: 50ac ae3d e206 b4bf 569a 80bf e2e6 04be
00000350: 5e4b 4cc0 d239 2bbf f88a e63e a4e3 16bf
00000360: 207d 33be f46c 56bf f607 6a3f 1c44 3bbf
00000370: e560 e63e ea5d 583f 1a34 543f ab95 b53f
00000380: 02d5 4fbe 14b0 9dbe f2cd e23f 2046 b0be
00000390: a0a9 afbe 0a85 c0be fc8c c33f 70ce 46c0
000003a0: 645d 98bf 13d3 353f bb45 00bf 7233 bcbf
000003b0: 78ee 99bf 9aeb 1840 467d aa3e d784 c43e
000003c0: d93d fdbf 66d8 08be 0e10 743f 70ce ac3f
000003d0: 2c9a 1e3f d74c 6e3f 26fc 28c0 2c65 a93f
000003e0: de3d 74bf 342f 9f3e 22c3 da3f fc35 ddbf
000003f0: 5f41 72bf 6897 233f d942 c0bf 147b c03e

4.0.bias f4 [50]
-2.07952 -0.750751 -5.86851 -2.43484 -1.22506 -0.728685 1.18323 1.48051
-3.37662 -4.42755 -0.914872 -0.990815 -2.11818 -1.62131 -3.21778 -1.88606
1.42964 -1.49494 -2.19229 -0.930336 -1.27583 0.353312 -0.201846 -1.90734
-1.43747 -0.241492 -3.78114 1.17983 -1.03619 0.147302 -0.0672195 0.259424
-3.31107 -1.49085 2.67173 -1.18773 -2.42647 0.786786 0.041129 -0.566409
-0.734867 2.41476 -1.72954 -0.107252 0.837275 -0.566375 -0.681655 -2.79111
-0.760916 -0.835537
00000000: db16 05c0 3831 40bf d5ca bbc0 6bd4 1bc0
00000010: c4ce 9cbf 1a8b 3abf 1574 973f 5a81 bd3f
00000020: 8b1a 58c0 7dae 8dc0 0d35 6abf 0da6 7dbf
00000030: 4390 07c0 1687 cfbf 1cf0 4dc0 6a6a f1bf
00000040: 72fe b63f 325a bfbf 7b4e 0cc0 802a 6ebf
00000050: 664e a3bf 4fe5 b43e b8b0 4ebe b823 f4bf
00000060: 04ff b7bf ae49 77be 33fe 71c0 ab04 973f
00000070: e0a1 84bf 56d6 163e 61aa 89bd 39d3 843e
00000080: 92e8 53c0 2cd4 bebf a0fd 2a40 8907 98bf
00000090: 494b 1bc0 cf6a 493f e276 283d 2e00 11bf
000000a0: 3e20 3cbf 6e8b 1a40 9161 ddbf f0a6 dbbd
000000b0: a857 563f f4fd 10bf f180 2ebf 8ca1 32c0
000000c0: 64cb 42bf c1e5 55bf

4.0.weight f4 [50, 50]
-0.184693 0.26904 0.321222 0.0446479 -0.570836 0.173256 -0.0643621 0.389759
0.387646 -0.963277 -0.162147 -0.27637 -0.387474 1.58157 0.857669 0.541791
-0.519583 -1.22542 0.449621 0.586996 0.0652296 1.10193 0.440209 -1.0085
-1.41295 -0.400601 0.215504 -0.195669 0.0106825 0.312943 0.533603 -0.991282
0.22589 1.10045 -0.78968 -0.225392 0.545304 -0.681307 0.481417 0.604913
-0.588768 -1.47085 -0.0412012 1.79934 -0.750669 0.271634 -0.600912 0.192272
0.4498 0.414963 0.896688 -1.01974 0.0320886 0.0479261 -2.07885 -0.02813
-0.319715 -0.0570933 0.324097 0.537691 -1.2802 0.960738 -0.463948 1.57587
-0.268598 0.72282 -1.32103 -1.08104 1.00277 0.178655 1.7966 -0.818896
-0.998725 -0.538102 -0.93986 -0.658685 -0.421014 -3.96825 -0.235777 0.454467
0.680984 -1.48846 -1.50407 -0.0715155 -0.511362 0.704037 -1.43425 -0.461773
-0.09988 0.198224 -0.619052 -0.00279089 -0.0107152 -3.78034 -0.792101 -0.00384327
-0.733434 0.0549309 -3.06797 -0.316806 0.818529 -1.09632 0.212372 0.0473946
0.211026 1.70665 -1.17368 -3.78687 -2.2228 -1.34997 2.31207 1.06414
1.60501 -1.18612 -2.11773 -3.58458 0.566706 0.0686025 0.434025 1.07343
2.14302 0.499627 -1.13952 -3.37181 -0.79684 0.685134 0.535319 -0.31469
-0.670576 -1.80503 -0.184797 0.730089 -0.559443 -0.0259872 0.849521 -0.0017297
0.700164 0.99684 -0.23755 -1.63973 -0.910838 0.335258 -0.0160487 1.58167
0.0623884 -0.393933 -2.59619 -3.83755 -1.61132 1.35638 -0.431166 -1.67843
-0.238363 0.00794729 -0.232952 -0.11115 -0.29521 0.787541 -1.46832 -1.48889
2.9189 0.249963 0.722387 2.03301 -2.37419 -1.43553 0.880034 -0.398384
2.02015 1.77857 -1.11891 1.2828 -0.964851 0.0659649 1.21628 -1.81566
-0.261197 0.765824 2.23718 0.225146 0.944298 -0.336975 -2.10693 -0.159049
-2.50642 -0.689426 -0.318955 0.114508 -1.01494 0.396517 0.538434 1.70239
0.0309436 3.07851 0.207897 0.451783 0.902099 -0.312269 0.739915 -0.251802
0.159851 0.115222 -0.207426 0.0436523 -0.948096 0.258033 -2.91578 0.0730974
-0.815895 0.40331 1.31086 0.11466 0.198106 0.262215 0.36303 1.58128
0.608271 0.0655124 -6.4076 1.24185 -0.83086 -0.183436 0.340054 -1.94966
-0.111223 0.107825 -0.0648842 -0.854699 -0.28938 -1.04125 -1.45917 1.72436
0.235593 -0.13358 -0.531099 0.193251 -1.54582 -0.104429 -0.0576364 0.350923
-0.221872 -0.0620423 0.00554002 0.919633 -0.508539 0.19902 0.705187 0.503262
-1.38725 -0.154545 -0.187869 0.201068 -0.0742408 0.0140645 -0.0699351 0.0611681
00000000: 2920 3dbe 9cbf 893e 3677 a43e b7e0 363d
00000010: 4f22 12bf 056a 313e 47d0 83bd 7e8e c73e
00000020: 8979 c63e 5299 76bf dd09 26be 5e80 8dbe
00000030: fe62 c6be e370 ca3f 3290 5b3f d1b2 0a3f
00000040: 6403 05bf 90da 9cbf b934 e63e 5f45 163f
00000050: 1997 853d 0b0c 8d3f 1363 e13e 8716 81bf
00000060: 8cdb b4bf 931b cdbe 15ad 5c3e 745d 48be
00000070: a705 2f3c 113a a03e 359a 083f a8c4 7dbf
00000080: b54f 673e 8cdb 8c3f 7828 4abf 29cd 66be
00000090: 0b99 0b3f 236a 2ebf 4a7c f63e 94db 1a3f
000000a0: 80b9 16bf d044 bcbf 97c2 28bd c650 e63f
000000b0: d82b 40bf 9d13 8b3e 5ed5 19bf f3e2 443e
000000c0: 304c e63e 0876 d43e 588d 653f d786 82bf
000000d0: 566f 033d 294e 443d e10b 05c0 e370 e6bc
000000e0: afb1 a3be aada 69bd 0bf0 a53e 1ea6 093f
000000f0: 98dd a3bf edf2 753f 988a edbe 1cb6 c93f
00000100: ad85 89be bb0a 393f 8317 a9bf 855f 8abf
00000110: c45a 803f 56f1 363e fdf6 e53f 2ba3 51bf
00000120: 71ac 7fbf 0dc1 09bf aa9a 70bf 959f 28bf
00000130: 268f d7be cff7 7dc0 876f 71be e6af e83e
00000140: f854 2e3f db85 bebf 5e85 c0bf b876 92bd
00000150: 9fe8 02bf c53b 343f 8195 b7bf 836d ecbe
00000160: e38d ccbd 3bfb 4a3e 317a 1ebf 5de7 36bb
00000170: ce8e 2fbc 17f1 71c0 22c7 4abf 5fdf 7bbb
00000180: 55c2 3bbf 39ff 603d 9f59 44c0 6534 a2be
00000190: 1e8b 513f 3754 8cbf 0c78 593e d720 423d
000001a0: 3317 583e 8273 da3f 253b 96bf 145c 72c0
000001b0: 5b42 0ec0 d1cb acbf f4f8 1340 bd35 883f
000001c0: f870 cd3f c8d2 97bf e388 07c0 c269 65c0
000001d0: a513 113f 787f 8c3d 8638 de3e 2766 893f
000001e0: 3d27 0940 1ccf ff3e cbdb 91bf bccb 57c0
000001f0: b5fd 4bbf f164 2f3f aa0a 093f 0c1f a1be
00000200: deaa 2bbf 390b e7bf 6d3b 3dbe 1de7 3a3f
00000210: a837 0fbf 1ce3 d4bc 357a 593f 1ab7 e2ba
00000220: f33d 333f e830 7f3f 4f40 73be ace2 d1bf
00000230: ae2c 69bf f0a6 ab3e 9078 83bc 2a74 ca3f
00000240: fb8a 7f3d 96b1 c9be fa27 26c0 6b9a 75c0
00000250: bc3f cebf dc9d ad3f cac1 dcbe cbd6 d6bf
00000260: 6e15 74be 5a35 023c f88a 6ebe 9ca2 e3bd
00000270: c425 97be 499c 493f e9f1 bbbf f393 bebf
00000280: 42cf 3a40 4df6 7f3e 5bee 383f d61c 0240
00000290: bbf2 17c0 72bf b7bf e949 613f fdf8 cbbe
000002a0: 234a 0140 2fa8 e33f 7138 8fbf ca32 a43f
000002b0: 7a00 77bf 9b18 873d 10af 9b3f 8c67 e8bf
000002c0: 9dbb 85be 0b0d 443f f52d 0f40 ac8c 663e
000002d0: 84bd 713f fd87 acbe f1d7 06c0 bedd 22be
000002e0: 2f69 20c0 397e 30bf 124e a3be 2c83 ea3d
000002f0: 8ee9 81bf 4704 cb3e d0d6 093f eae7 d93f
00000300: 6f7d fd3c 4f06 4540 f3e2 543e 1a50 e73e
00000310: f6ef 663f b9e1 9fbe 126b 3d3f 31ec 80be
00000320: fbaf 233e 83f9 eb3d 7b67 54be c1cc 323d
00000330: 6bb6 72bf e71c 843e 249c 3ac0 17b4 953d
00000340: 7fde 50bf a67e ce3e 43ca a73f ddd2 ea3d
00000350: 4ddc 4a3e 0b41 863e 11df b93e 6267 ca3f
00000360: a6b7 1b3f 5d2b 863d 0f0b cdc0 f1f4 9e3f
00000370: 3eb3 54bf a6d6 3bbe 8f1b ae3e 758e f9bf
00000380: e2c8 e3bd 5bd3 dc3d 02e2 84bd 8ecd 5abf
00000390: 9e29 94be ae47 85bf 15c6 babf d4b7 dc3f
000003a0: 4b3f 713e 32c9 08be 1bf6 07bf 97e3 453e
000003b0: 6edd c5bf dfde d5bd 2514 6cbd 2eac b33e
000003c0: 6a32 63be 1120 7ebd 0e89 b53b 116d 6b3f
000003d0: 9d2f 02bf e6cb 4b3e 2387 343f c7d5 003f
000003e0: 6891 b1bf 0b41 1ebe bb60 40be c5e4 4d3e
000003f0: 900b 98bd ca6e 663c 223a 8fbd 678b 7a3d

5.0.bias f4 [50]
0.0456465 -1.11195 1.21602 -0.500238 -0.251653 -0.951778 5.68015 -0.480747
-7.28071 0.27102 -3.05468 1.15324 3.02245 3.49452 -5.82958 0.410248
-5.28859 3.97243 2.45552 0.206362 -1.87195 -5.34107 -6.03371 -5.09348
-2.43236 -5.70167 -6.84029 -5.07428 1.14679 -0.705319 -1.78757 -9.24442
-5.94027 -5.53108 3.2965 3.86348 1.45538 -6.71799 -2.67095 -0.190609
0.134909 -2.39184 1.74842 0.565536 -8.50215 1.41431 0.707502 -1.95293
1.62714 -0.0887532
00000000: d3f7 3a3d 6154 8ebf 8ba6 9b3f 990f 00bf
00000010: a9d8 80be b9a7 73bf cac3 b540 7924 f6be
00000020: 94fb e8c0 22c3 8a3e e17f 43c0 5e9d 933f
00000030: d26f 4140 37a6 5f40 eb8b bac0 070c d23e
00000040: 213c a9c0 4b3c 7e40 3d27 1d40 8f50 533e
00000050: 0f9c efbf 0cea aac0 2714 c1c0 cafd a2c0
00000060: c9ab 1bc0 1574 b6c0 a8e3 dac0 8060 a2c0
00000070: 04ca 923f c98f 34bf 18cf e4bf 25e9 13c1
00000080: b116 bec0 9bfe b0c0 dbf9 5240 4243 7740
00000090: e449 ba3f c6f9 d6c0 d8f0 2ac0 012f 43be
000000a0: 9625 0a3e e813 19c0 3acc df3f f8c6 103f
000000b0: ce08 08c1 1c08 b53f da1e 353f 9cf9 f9bf
000000c0: 2046 d03f 3dc4 b5bd

5.0.weight f4 [50, 50]
0.0261546 -0.0424504 0.00188898 -0.00266436 0.00230415 -0.106278 0.035063 -0.144418
0.0150833 0.0270642 -0.18959 -0.00483601 0.0139718 -0.010424 -0.00288279 -0.0224304
-0.0121149 -0.0382939 -0.012567 0.00441775 0.0116201 -0.334929 -0.0134358 0.0173596
-0.0130119 -0.000527131 -0.0437064 0.0262382 -0.0103168 -1.22565 0.00843817 -0.0144823
-0.0164823 0.014382 -0.00553049 -0.00103011 -0.0520215 -0.615348 -0.260005 -0.113035
-0.0167949 0.0156323 -0.0270327 0.0104154 0.0137301 0.00359407 -0.0618102 -0.0129839
-0.0158986 0.000238793 -1.54035 0.350143 -0.420548 0.552315 -0.399095 -0.70886
-1.50201 -0.00877177 -0.46543 -0.0342644 0.537933 -0.440971 1.54087 -1.28168
0.0216883 0.121447 -0.141962 -0.542322 0.21764 -0.0935754 0.214436 -2.26626
-0.998745 -2.87787 0.728451 -1.33061 1.28843 -0.337147 -1.56161 -0.313765
-0.0211083 -0.394676 -0.0211544 0.150599 0.76038 0.225643 -1.86194 1.6092
-2.66016 -0.600085 -1.55874 -0.573859 -1.31643 0.26342 0.124763 -0.17623
-1.33885 -1.85763 -0.587287 -0.860678 0.00926071 -0.134944 -0.0281126 0.0300818
-0.0237671 -0.0639566 -0.0921853 -0.112062 -0.0184483 0.115269 -0.177181 -0.0757844
0.0633347 -0.0272458 -0.00685837 0.303821 -0.0426838 -0.0290708 0.0330878 -0.00823089
-0.0238349 0.0629843 0.00211815 -0.0763293 0.00687813 -0.0768285 0.0789728 0.213431
-0.15191 -0.088309 0.0216567 -0.00760949 0.0727867 -0.121788 -0.0024299 -0.0182507
0.00152956 -0.0199999 0.253477 -0.224501 -0.0556477 -0.120854 -0.00321939 -0.0254048
-0.0305453 0.00876962 0.0392891 -0.0455563 -0.0103688 -0.0382808 0.011499 0.0362694
0.036002 -0.348876 0.157112 0.132559 -0.0469152 0.0924397 -0.000164503 -0.0427325
-0.198 -0.0406563 0.0395382 -0.145691 -0.0181286 -0.0896159 0.0218026 -0.78145
-0.0760266 0.0723794 -0.042319 0.10852 -0.0357851 0.121187 0.0121502 -0.210095
0.0374444 0.493698 -0.142404 -1.07836 -0.02833 -0.0801714 0.0325283 -1.0704
-0.0416245 0.0457406 -0.0930465 0.487151 -0.446681 0.354117 0.0339741 0.00944464
0.087686 -0.991135 -0.035988 -0.143898 0.142068 -0.291271 0.0559981 -0.113917
0.227934 0.02736 -1.25543 0.187751 0.433051 0.0207565 -0.299911 -0.368481
-0.101899 0.492521 -0.292818 -0.0858998 0.415219 0.508161 -0.126743 0.675163
-0.35849 -0.571955 0.119891 -0.276155 -0.66171 -0.0649156 -0.142068 -0.52006
0.190197 -0.0646845 -0.452976 -1.98446 -0.42002 -0.369282 0.0179457 -1.5598
-0.388875 0.199496 0.0142787 -0.0286347 -0.62115 0.107818 0.5324 -0.79376
-0.0224775 -0.309737 -1.26909 -1.01741 0.0410834 -0.163007 -0.16527 -0.233445
-0.118871 0.0256936 -1.64913 -1.13171 -0.241734 0.163966 0.676961 -1.58014
00000000: 2c42 d63c 78e0 2dbd a797 f73a 8b9c 2ebb
00000010: 3901 173b 48a8 d9bd 389e 0f3d 50e2 13be
00000020: f21f 773c beb5 dd3c e223 42be 6477 9ebb
00000030: fae9 643c 6dc9 2abc 31ed 3cbb f5bf b7bc
00000040: 937d 46bc 11da 1cbd d2e5 4dbc c6c2 903b
00000050: 3b62 3e3c d07b abbe d421 5cbc b835 8e3c
00000060: dd2f 55bc 2a2f 0aba 7b05 33bd 7ef1 d63c
00000070: cc07 29bc 19e2 9cbf 4040 0a3c 2b47 6dbc
00000080: e305 87bc 7ba2 6b3c 1d39 b5bb c204 87ba
00000090: 7f14 55bd 7287 1dbf 601f 85be e57e e7bd
000000a0: 7595 89bc 4f0f 803c ae73 ddbc 5ba5 2a3c
000000b0: 37f4 603c 7d8a 6b3b b12c 7dbd 6cba 54bc
000000c0: c83d 82bc 8264 7a39 302a c5bf f145 b33e
000000d0: 1152 d7be 8464 0d3f 2e56 ccbe d977 35bf
000000e0: dd41 c0bf 78b7 0fbc d74c eebe d458 0cbd
000000f0: fab5 093f f3c6 e1be 3a3b c53f 170e a4bf
00000100: a9ab b13c 34b9 f83d 7d5e 11be 9dd5 0abf
00000110: 05dd 5e3e 76a4 bfbd 1c95 5b3e 670a 11c0
00000120: c1ad 7fbf 062f 38c0 c47b 3a3f 6e51 aabf
00000130: 46eb a43f 889e acbe d6e2 c7bf cea5 a0be
00000140: 50eb acbc f912 cabe fe4b adbc a036 1a3e
00000150: 44a8 423f f50e 673e 0d54 eebf 44fa cd3f
00000160: 1040 2ac0 2c9f 19bf cb84 c7bf 6ce8 12bf
00000170: c780 a8bf fcde 863e be83 ff3d a375 34be
00000180: 705f abbf d2c6 edbf 7158 16bf 6555 5cbf
00000190: 3cba 173c c32e 0abe 654c e6bc 1b6e f63c
000001a0: 39b3 c2bc aefb 82bd a6cb bcbd c380 e5bd
000001b0: e420 97bc 2712 ec3d f06e 35be da34 9bbd
000001c0: a0b5 813d 9532 dfbc 2dbc e0bb 6d8e 9b3e
000001d0: 35d5 2ebd e325 eebc 1387 073d dbda 06bc
000001e0: 6941 c3bc eafd 803d a9d0 0a3b 8952 9cbd
000001f0: f061 e13b 4358 9dbd 7ebc a13d a88d 5a3e
00000200: 4c8e 1bbe 59db b4bd 6469 b13c 0759 f9bb
00000210: 3211 953d fd6b f9bd f53e 1fbb 7e82 95bc
00000220: 847b c83a d5d6 a3bc bdc7 813e 97e3 65be
00000230: d8ee 63bd 4d82 f7bd 67fc 52bb ba1d d0bc
00000240: 233a fabc 74ae 0f3c 9bed 203d 3e99 3abd
00000250: e6e1 29bc 54cc 1cbd 4d66 3c3c 398f 143d
00000260: d576 133d e09f b2be f8e1 203e 8cbd 073e
00000270: 272a 40bd 0751 bd3d 707e 2cb9 4608 2fbd
00000280: 83c0 4abe 3887 26bd cff2 213d 0630 15be
00000290: 6e82 94bc 8a88 b7bd 5e9b b23c 1b0d 48bf
000002a0: d6b3 9bbd a73b 943d b056 2dbd bc3f de3d
000002b0: 6693 12bd e430 f83d a211 473c 2523 57be
000002c0: 4d5f 193d fcc5 fc3e 5bd2 11be b307 8abf
000002d0: 5114 e8bc e730 a4bd 653c 053d de02 89bf
000002e0: 747e 2abd 7f5a 3b3d 2a8f bebd db6b f93e
000002f0: 5fb3 e4be d34e b53e 6d28 0b3d b1bd 1a3c
00000300: b894 b33d 06bb 7dbf 2768 13bd ff59 13be
00000310: 467a 113e 7921 95be 445e 653d 514d e9bd
00000320: 8867 693e 1422 e03c eeb1 a0bf cc41 403e
00000330: dcb8 dd3e 8909 aa3c ef8d 99be 8ba9 bcbe
00000340: 6cb0 d0bd b62b fc3e 3eec 95be 3cec afbd
00000350: 9697 d43e d716 023f ebc8 01be 7bd7 2c3f
00000360: 008c b7be a56b 12bf 6a89 f53d 3064 8dbe
00000370: d465 29bf 78f2 84bd 467a 11be a722 05bf
00000380: 01c3 423e 4f79 84bd 78ec e7be c902 febf
00000390: dd0c d7be 8812 bdbe dc02 933c 87a7 c7bf
000003a0: a01a c7be ae48 4c3e 35f1 693c 5293 eabc
000003b0: b003 1fbf afcf dc3d 5e4b 083f db33 4bbf
000003c0: bc22 b8bc d995 9ebe 8b71 a2bf 7e3a 82bf
000003d0: 1147 283d 4feb 26be 8a3c 29be 350c 6fbe
000003e0: a472 f3bd 627b d23c b116 d3bf e0db 90bf
000003f0: 1e89 77be b4e6 273e 514d 2d3f 0742 cabf

6.bias f4 [5]
-0.0201921 -0.0197997 0.0180209 -0.0186713 0.0182133
00000000: e769 a5bc fb32 a2bc 91a0 933c 8ef4 98bc
00000010: 0f34 953c

6.weight f4 [5, 50]
0.00168116 -0.032124 0.00853007 0.00539529 -0.007778 0.00990485 -0.000152393 0.00877121
0.00340044 -0.00749004 0.00584121 -0.0137862 -0.00553511 -0.0166607 0.00500229 0.00419797
0.00510903 -0.00548404 0.0296017 -0.0218403 0.0151992 0.00454485 0.004841 0.00479757
-0.00771145 0.00773659 0.0054854 0.00707811 0.0193408 -0.0530416 0.00642392 0.00589707
0.00399726 0.00546283 -0.00892006 -0.00398359 -0.00263645 0.00760894 0.00524917 -0.00450472
0.000657274 -0.00914521 -0.00856646 -0.006281 0.00312048 0.0126964 -0.00603174 0.0126756
-0.00399689 -0.00323442 0.00789898 0.00125485 -0.000253414 -0.000897036 9.38274e-05 -0.00157234
8.14294e-06 0.000818783 -0.000118525 -0.000403584 -3.79974e-05 0.000237269 0.000248614 0.000488086
0.000627832 0.00319587 0.000190706 -0.000191729 -0.0008721 0.0015763 0.0181881 -0.000819435
-0.000267882 -0.000245184 0.000732654 -0.000404568 -4.13803e-06 -0.000494718 -0.000334088 -0.000358501
-0.000127433 -6.75321e-05 -0.000210526 -0.00120799 0.000974941 5.41474e-05 -0.000603253 -0.00132977
-0.000988094 -4.52516e-06 0.00556557 0.0107708 0.000519164 0.00111348 -0.000449932 -0.000159069
0.000245868 0.000869277 1.72092e-05 -0.00229975 0.00718493 -0.000185194 0.000236262 0.0128097
0.000427267 0.000623165 1.31207e-05 0.0031971 0.000758245 0.000248818 -0.000255864 0.000203
-0.000489804 2.82358e-05 -0.00113975 0.00990979 0.00102205 -0.000509735 2.46333e-05 -0.000444075
-0.00378705 0.00016598 -0.000345617 0.00129505 -0.000824479 -0.0001068 0.000196667 0.000814388
0.000115335 0.0004818 0.000352322 -0.000285439 -0.000118319 0.000816448 -0.000332423 0.000488358
-7.24614e-05 0.000348223 0.000155076 0.000700833 -0.00344529 -0.00389693 -0.000138752 -0.000547325
0.00020461 -0.000216412 0.00066789 0.000173336 -0.000214589 0.0137934 0.00805447 -0.000206972
0.000600363 0.00304772 0.000268269 0.000474077 0.000562351 0.00552429 0.000132267 0.000620265
0.000189644 -0.000592132 -0.000101065 -0.000265498 -0.000248001 0.0109312 -0.000105422 -0.000569921
0.000283634 -0.00164402 0.00629859 0.00124042 0.00050934 -8.2388e-05 -0.000517608 0.000589877
0.000325779 0.00124757 0.00107715 -0.00247243 0.000183429 -0.000213681 0.000171695 0.000602837
0.000791616 -0.000131493 7.48515e-05 0.000458688 0.000132837 0.000259469 0.0250536 -0.00260966
-0.000112957 -0.000898187 6.1211e-05 0.000150432 -0.000559316 0.00259135 -0.000195244 -0.00663662
0.00765988 -0.00228271 0.000533497 0.0116923 0.000425024 7.36847e-05 0.000149823 0.00316396
0.000885508 -0.000542033 -4.51025e-05 0.000243714 0.000881728 -0.000614081 -0.000438621 0.0105554
0.000904956 -0.000169496 0.000391838 -0.00199465 -0.00271374 4.54529e-06 -0.000266273 0.000790392
-0.000992289 -1.68079e-05 1.96259e-05 0.00109797 0.000775069 0.00106711 0.000172682 -0.000477581
-0.000334059 0.000700514 0.000547096 -0.000139602 -1.24959e-05 0.0011597 -0.000231088 0.000196159
-0.000827891 -0.00367993 -0.000161255 -0.000726897 -0.000255807 -0.000535617 -0.00101734 0.000596835
3.82757e-05 0.0157996
00000000: 5e5a dc3a 7594 03bd b5c1 0b3c f9ca b03b
00000010: 98de febb f447 223c afcb 1fb9 1fb5 0f3c
00000020: ebd9 5e3b 026f f5bb 9f67 bf3b 84df 61bc
00000030: de5f b5bb 057c 88bc 40ea a33b 208f 893b
00000040: a669 a73b 76b3 b3bb 447f f23c 6eea b2bc
00000050: 1106 793c f7ec 943b 40a1 9e3b ef34 9d3b
00000060: 55b0 fcbb 3983 fd3b dfbe b33b 7def e73b
00000070: 9970 9e3c 2642 59bd bf7f d23b 353c c13b
00000080: 72fb 823b 8a01 b33b 7125 12bc c688 82bb
00000090: 4bc8 2cbb 6a54 f93b 3b01 ac3b 559c 93bb
000000a0: e94c 2c3a cad5 15bc 565a 0cbc d9d0 cdbb
000000b0: f880 4c3b 9004 503c e7a5 c5bb 52ad 4f3c
000000c0: 58f8 82bb 90f8 53bb b96a 013c c779 a43a
000000d0: a7dc 84b9 1127 6bba 34c5 c438 fa16 ceba
000000e0: a99d 0837 99a3 563a a090 f8b8 2198 d3b9
000000f0: 665f 1fb8 6acb 7839 6858 8239 cbe5 ff39
00000100: 1895 243a cd71 513b 41f8 4739 dd0a 49b9
00000110: a49d 64ba da9b ce3a 36ff 943c 5acf 56ba
00000120: 8372 8cb9 0a8c 80b9 940f 403a 331c d4b9
00000130: 68d9 8ab6 f7af 01ba 8828 afb9 31f5 bbb9
00000140: 899f 05b9 05a0 8db8 a5c0 5cb9 6b55 9eba
00000150: 2f93 7f3a 541c 6338 a023 1eba ad4b aeba
00000160: ef82 81ba d4d6 97b6 635f b63b 0278 303c
00000170: 8218 083a 30f2 913a dae4 ebb9 c2cb 26b9
00000180: d8e7 8039 31e0 633a 7a5c 9037 67b7 16bb
00000190: 906f eb3b a330 42b9 19bd 7739 c7df 513c
000001a0: ce02 e039 e55b 233a fa20 5c37 7086 513b
000001b0: f6c4 463a c973 8239 7c25 86b9 66dc 5439
000001c0: 3166 00ba ebdb ec37 aa63 95ba ac5c 223c
000001d0: 4ff6 853a bd9f 05ba 9ca3 ce37 bdd2 e8b9
000001e0: 2830 78bb eb0a 2e39 ee33 b5b9 abbe a93a
000001f0: d921 58ba d0f9 dfb8 6538 4e39 a77c 553a
00000200: 02e0 f138 1a9a fc39 dcb7 b839 f9a6 95b9
00000210: 0822 f8b8 e606 563a 0f49 aeb9 2705 003a
00000220: 6bf6 97b8 b391 b639 e69b 2239 1bb8 373a
00000230: 60ca 61bb a363 7fbb f57d 11b9 5c7a 0fba
00000240: 948c 5639 a7ec 62b9 5715 2f3a 87c1 3539
00000250: 4c03 61b9 b6fd 613c e5f6 033c a006 59b9
00000260: ae61 1d3a 42bc 473b 75a6 8c39 8a8d f839
00000270: bd6a 133a 1a05 b53b 27b1 0a39 4899 223a
00000280: 2cdb 4639 4e39 1bba dcf2 d3b8 8a32 8bb9
00000290: 2106 82b9 c718 333c 0116 ddb8 c066 15ba
000002a0: b6b4 9439 287c d7ba 6764 ce3b 9795 a23a
000002b0: 3b85 053a b8c7 acb8 16b0 07ba faa1 1a3a
000002c0: 51cd aa39 8185 a33a 282f 8d3a 7e08 22bb
000002d0: d956 4039 8f0f 60b9 0709 3439 b507 1e3a
000002e0: 7384 4f3a 62e1 09b9 98f9 9c38 107c f039
000002f0: 294a 0b39 5709 8839 353d cd3c d406 2bbb
00000300: 54e3 ecb8 4f74 6bba 685e 8038 48bd 1d39
00000310: 109f 12ba a4d3 293b 6aba 4cb9 0178 d9bb
00000320: bbff fa3b 8599 15bb 61da 0b3a 1091 3f3c
00000330: c1d5 de39 2c87 9a38 ce19 1d39 715a 4f3b
00000340: 7021 683a 3817 0eba 712c 3db8 7b8d 7f39
00000350: c423 673a 47fa 20ba b7f6 e5b9 8ef0 2c3c
00000360: 923a 6d3a bcba 31b9 9b6f cd39 adb8 02bb
00000370: 01d9 31bb be83 9836 8f9a 8bb9 4f32 4f3a
00000380: b20f 82ba b1fe 8cb7 4da2 a437 c2e9 8f3a
00000390: 002e 4b3a 45de 8b3a f911 3539 d663 fab9
000003a0: a424 afb9 b3a2 373a fe6a 0f3a 2062 12b9
000003b0: 7ba5 51b7 1301 983a 3650 72b9 08b0 4d39
000003c0: d306 59ba fb2a 71bb 8f16 29b9 3b8d 3eba
000003d0: d61d 86b9 a668 0cba 4458 85ba eb74 1c3a
000003e0: 388a 2038 2a6e 813c
