artifacts/acas_benchmark/onnx/N_2_9.onnx (onnx, 54312 bytes, 14 tensors)

0.0.bias f4 [50]
000000 e7 71 a0 3e 02 0c 6b be 2f 8a 2e bf da fd bf 3d
       0.313369 -0.229538 -0.681796 0.0937459
000010 0c e8 bd be dc 0f b8 bd 67 d2 76 3e b6 43 b8 bd
       -0.370911 -0.089874 0.241037 -0.0899729
000020 89 fc 44 3c 6a 39 ab 3d b3 7b 92 bd f1 29 e0 3d
       0.0120231 0.0836056 -0.071525 0.109455
000030 4c 19 58 3e 3a e9 4d be c8 c4 17 3d 04 21 91 be
       0.211034 -0.201085 0.0370529 -0.283455
000040 b2 f2 0b 3e 8a 3a 23 bf 13 63 b9 3d 79 65 8d bc
       0.136668 -0.637612 0.090521 -0.0172603
000050 79 76 a1 be 24 87 ae 3d 58 3c f5 be c6 c2 d0 be
       -0.315357 0.0852187 -0.478976 -0.407736
000060 fc 1b f4 bd 67 80 eb 3d 30 2e ed be f5 83 b2 be
       -0.119194 0.114991 -0.463243 -0.348663
000070 a4 de b3 be 0c 57 87 be 37 1b 5b be 93 8a 96 bd
       -0.351308 -0.264336 -0.213971 -0.0735065
000080 98 db 0d 3e b8 b0 fe be d2 c5 16 3e fa 27 f8 3d
       0.138533 -0.497442 0.147239 0.12117
000090 6c 36 40 3d c5 ac 67 3e 04 1a d1 3c 48 20 34 3d
       0.0469269 0.226245 0.0255251 0.0439761
0000a0 69 41 1e 3d 6c 0e ab bc 24 61 a7 be dc d7 51 be
       0.0386366 -0.0208809 -0.326913 -0.204925
0000b0 aa f4 f3 bd 99 11 de 3d 15 72 55 3e b6 43 c7 bb
       -0.119119 0.108432 0.208443 -0.00608107
0000c0 13 82 01 bf 4d 11 14 3f
       -0.505891 0.578389

0.0.weight f4 [50, 5]
000000 ba 15 02 3d 0d a6 dd bf bd 14 b3 bd 54 1b 7c 3e
       0.031759 -1.73163 -0.0874419 0.246198
000010 29 3e 2e 3e f2 b3 51 3e e6 74 c5 3f 99 64 14 be
       0.170159 0.204788 1.54263 -0.144915
000020 bd 70 af 3e b4 3c d7 be 65 07 ec bb b1 53 87 bd
       0.342657 -0.420385 -0.00720303 -0.0660776
000030 cb c0 5c bc e3 e8 85 ba 88 4b f6 bf 43 aa 8b 3b
       -0.0134737 -0.00102165 -1.92418 0.00426224
000040 0e 4e 28 3f d3 84 01 3f 29 3f 79 be e0 d9 0e 3e
       0.657441 0.505933 -0.243405 0.139503
000050 3a 5d 18 c0 92 45 15 3d 30 d5 cc 3b 5d 82 18 bd
       -2.38069 0.0364433 0.006251 -0.0372337
000060 03 a4 cb bb 77 0f d0 bd a9 87 06 c0 d4 82 d7 bf
       -0.00621462 -0.101592 -2.10203 -1.68368
000070 2a 54 07 3f 5a 2c a5 be 45 63 0c bc 26 e4 03 3e
       0.528628 -0.322604 -0.00856859 0.1288
000080 50 01 44 c0 34 4d 68 3e 0a b9 d2 bb 68 05 26 be
       -3.06258 0.226857 -0.00643075 -0.16213
000090 9b e6 1b bc 5a 93 88 bd 54 8d 32 bf c7 d5 e8 3e
       -0.00951543 -0.0666873 -0.697469 0.454756
0000a0 f1 45 ff ba 8b 32 1d c0 b6 4b 83 be 2d 25 cb 3e
       -0.00194758 -2.45621 -0.256437 0.396768
0000b0 96 e7 89 be c1 02 34 bf 1f 20 a9 3c 7e 27 5a 3b
       -0.269345 -0.703167 0.0206452 0.00332877
0000c0 1b 9c 08 bd 61 17 45 be 19 ae 1e bf 79 ea d1 3d
       -0.033352 -0.192472 -0.619844 0.102498
0000d0 86 b3 b6 bd c4 21 47 3f b3 40 63 bf 51 c8 b4 3d
       -0.0892096 0.777859 -0.887706 0.0882727
0000e0 93 53 1b bf e5 0a df bf 5f 43 00 bf 90 f5 0c 3f
       -0.606744 -1.74252 -0.501028 0.550622
0000f0 af 73 b8 3c 17 d4 a7 3f e4 31 63 3d c7 ba 38 3e
       0.0225161 1.31116 0.0554675 0.1804
000100 57 2a c3 3d f2 0b a7 3e 11 19 b2 bf 9b ad fc 3d
       0.0952956 0.326263 -1.39139 0.123378
000110 d0 27 9a 3e 2d 95 0b bf cc b4 fd bd 8d b4 74 3d
       0.301085 -0.545245 -0.12388 0.0597425
000120 f2 c5 48 3d 51 da 0b 3e cb 53 0c 3d 9d 0d 7e bd
       0.0490169 0.136575 0.0342596 -0.0620247
000130 03 60 28 40 19 90 45 3f e9 30 ba 3d c8 45 85 be
       2.63086 0.77173 0.0909136 -0.260298
000140 78 44 f5 3e c1 e5 89 3e 4b b0 58 bf ae d3 08 bd
       0.479038 0.269331 -0.84644 -0.033405
000150 16 2f 16 3e b9 53 2a c0 30 2b f4 3d 9f 03 7b be
       0.146664 -2.66136 0.119223 -0.245131
000160 8d 80 ea 3d b2 15 cf 3c 12 31 e5 bd 32 aa 6c 3e
       0.114503 0.0252789 -0.11191 0.231118
000170 38 f8 02 be d1 78 56 bf 75 3f 67 3f 9f 57 18 bf
       -0.1279 -0.837781 0.903312 -0.595087
000180 b2 2b cd 3d 57 95 89 3f 27 dd 9e 3e bf 2c ed 3e
       0.100181 1.07487 0.310281 0.463232
000190 b3 98 88 3d ab 5b 85 3f 92 74 b1 bf 03 ce d2 3d
       0.0666975 1.04186 -1.38637 0.102932
0001a0 31 43 53 be 2e 3a 39 be 49 48 44 be 76 51 bc 3e
       -0.206311 -0.180886 -0.191682 0.367809
0001b0 1f 2b 24 bf c4 af 40 3f b6 9e 21 3c 79 79 5e bf
       -0.641283 0.752682 0.0098645 -0.869041
0001c0 6a c1 93 3f 89 40 05 be 59 69 b2 3e 04 01 b2 3c
       1.15434 -0.130129 0.34846 0.021729
0001d0 4d 86 03 3e 08 eb 9a 3c 3b 36 8a bf 71 57 4f be
       0.128442 0.0189109 -1.07978 -0.202482
0001e0 62 da b7 bb 6c 7c 3a bf 53 5a 0f be 02 0d 36 3e
       -0.00561075 -0.728461 -0.139993 0.177784
0001f0 a3 94 a8 3e 50 69 a9 bc ad 84 06 3f 65 6f 59 3e
       0.329259 -0.0206801 0.525462 0.212339
000200 87 5e 80 bd c4 06 4b 3e 54 a4 e7 bc 9c 88 6a 3f
       -0.0626803 0.198268 -0.0282766 0.916147
000210 49 63 9c bf de f7 b9 bd 07 41 87 3e a3 02 2b 3b
       -1.22178 -0.0908048 0.264168 0.00260941
000220 6d 73 8b 3f 27 a5 88 bf dd e1 40 bc d3 11 80 3e
       1.08946 -1.06754 -0.0117726 0.250136
000230 1d 32 ef 3c 43 74 90 3e 3a 24 a5 be 60 03 02 be
       0.0291987 0.282137 -0.322542 -0.126966
000240 f1 49 2f bf cc 05 84 b8 d4 d4 b6 bf 8b 32 bf 3f
       -0.684722 -6.29533e-05 -1.42837 1.49373
000250 8f fd d4 3e c7 80 1c bf e0 3a b5 bc d3 de 90 3f
       0.415997 -0.61134 -0.0221228 1.1318
000260 96 42 88 be 77 f3 99 3d ce e3 28 bf 1a 32 3a bf
       -0.266133 0.0751714 -0.659726 -0.727327
000270 03 b5 18 be 00 9a 35 3b a0 e2 08 3e dd a2 c2 3d
       -0.149128 0.00277102 0.133677 0.0950372
000280 3a 59 6a bc 19 90 15 bf ba 49 48 3f 9b 3d 20 3e
       -0.0143035 -0.58423 0.782375 0.156485
000290 e5 45 de be 48 19 71 3c ed b8 5d 3f 40 30 8b bf
       -0.434127 0.0147155 0.866103 -1.08741
0002a0 06 9a c4 bd 4b ac 4c 3e ee 58 d1 3c cc 7f 0c bf
       -0.0959969 0.199876 0.0255551 -0.548825
0002b0 3d 27 c5 3f 57 26 7c 3d 3c c0 73 3e 08 02 04 bd
       1.54026 0.06156 0.238038 -0.0322285
0002c0 23 dd d7 be 48 e2 a5 be 78 5e 6a be 42 08 e8 bd
       -0.421609 -0.323992 -0.228876 -0.113297
0002d0 50 5c 84 3c 25 58 ec 3f b9 e2 82 3e dd 0c 67 3e
       0.0161573 1.84644 0.255636 0.225635
0002e0 01 13 d8 bd f8 c1 79 3d 7a a9 60 3f bf d4 b3 bf
       -0.105505 0.060976 0.877586 -1.40493
0002f0 3f dd a5 3c 74 97 48 3f 0a a1 63 3d 15 37 de be
       0.0202471 0.783561 0.0555735 -0.434014
000300 a8 8a 0e bd 12 69 2b be e9 f0 50 3e 66 f8 df 3e
       -0.0348002 -0.167393 0.204044 0.437442
000310 55 a4 86 3f 0f b6 44 bf 32 e9 1f be 2f fc a0 3e
       1.05189 -0.768403 -0.156163 0.314424
000320 68 32 6d 3d 98 31 65 3e 6f 2e 0e 3e 77 d6 3e be
       0.0579094 0.223822 0.138849 -0.186365
000330 d6 1c 30 3e 0f d2 23 be ba 4e 67 3f 84 49 55 bf
       0.171985 -0.159981 0.903545 -0.833153
000340 af 43 a5 3d 40 a6 bd be 8c 6a 81 be da 38 d6 bf
       0.0806955 -0.370409 -0.252766 -1.67361
000350 b0 55 0a 40 0d 36 55 be 3c 4b 4c 3f ce 17 93 be
       2.16148 -0.208214 0.798023 -0.287291
000360 75 02 8a 3f 12 da e6 bf 11 8a ed bd 4d a1 c3 3e
       1.0782 -1.80353 -0.115986 0.38209
000370 3b ac 10 3e 7a 36 f7 3f a2 d4 5e be ac 00 c7 3e
       0.141282 1.93135 -0.217608 0.388677
000380 4d a0 04 bf 4f 05 dc 3d 50 53 83 3e f1 f6 a8 be
       -0.518071 0.107432 0.256495 -0.330009
000390 ef 1a ec be 06 11 d9 3e f5 ae 8b bc fc a6 d0 bd
       -0.461143 0.423958 -0.0170512 -0.101881
0003a0 41 9f dc bf 54 35 35 3f a4 37 28 bf 44 4b 23 3d
       -1.72361 0.707845 -0.657099 0.0398667
0003b0 5b 41 0f 3f 97 e4 64 3f a2 9b f5 3e 03 9a e3 3c
       0.559591 0.894113 0.479703 0.0277834
0003c0 38 7f b8 bc d5 e7 a2 bf a8 e3 c1 3f 14 6f 6e bd
       -0.0225216 -1.2727 1.51476 -0.0582114
0003d0 c9 ac c6 3e a6 d5 02 40 25 27 ae 3c 5c 33 9e bb
       0.388037 2.04429 0.0212589 -0.0048279
0003e0 fd 24 4a 3b 25 bd 1e 3d
       0.00308448 0.0387546

1.0.bias f4 [50]
000000 d8 10 a4 3e 50 89 ce bb 74 29 96 bf 98 91 30 bc
       0.320441 -0.00630299 -1.17314 -0.0107769
000010 5a 2f 21 bc ea 24 83 3e cd c2 63 bd a7 af 7f bf
       -0.00983795 0.256141 -0.0556057 -0.998774
000020 5a 37 34 3d e7 a9 14 c0 54 57 f6 be 11 fc 9f bf
       0.0439981 -2.32287 -0.481135 -1.24988
000030 9b 03 5c 3f 2c fe e3 bb 7d 22 0f bd b7 ef 15 3f
       0.85943 -0.00695779 -0.034945 0.585689
000040 d4 98 70 bf bd e2 61 3f ea 40 46 3e bd 5c ba bc
       -0.939832 0.882366 0.193607 -0.0227493
000050 d0 6d d7 bb 3c 1a a2 bc 42 77 61 3f f5 f4 a1 be
       -0.00657437 -0.0197879 0.880726 -0.316322
000060 ad da 95 3d a0 d2 92 bc ab af ae bc 76 f9 76 be
       0.073171 -0.0179227 -0.021324 -0.241186
000070 f5 30 f4 bc c9 7b cd bb 66 f5 3e be b3 5c 9b bc
       -0.0298085 -0.00627086 -0.186483 -0.0189651
000080 cf 65 a2 3e 4e 43 f4 be 0f 5e 3b bc c4 21 a3 be
       0.317183 -0.477076 -0.011436 -0.318617
000090 e4 32 4e 3e 77 fb 09 bc 89 7b c0 bf 00 c1 41 bc
       0.201366 -0.00842177 -1.50377 -0.0118258
0000a0 d9 5a cf 3f 88 f4 93 bf af 7a a8 3e 46 5d 7b be
       1.61996 -1.1559 0.329061 -0.245473
0000b0 71 02 33 be 33 8a 15 40 aa 7e 71 3f f2 b6 42 be
       -0.174814 2.33656 0.943339 -0.190151
0000c0 97 ca 3f 3f f0 a7 ae 3f
       0.749185 1.3645

1.0.weight f4 [50, 50]
000000 9f 72 8c be 99 0f e8 3e 57 78 87 be b3 41 56 be
       -0.274312 0.453244 -0.26459 -0.209235
000010 9e 27 86 3e f0 9a df bb c8 e1 9d bc e8 11 9b be
       0.262021 -0.00682389 -0.0192727 -0.302871
000020 82 58 de be 7d e7 bf 3e 00 56 1b 3f eb 00 28 be
       -0.434269 0.374813 0.606781 -0.164066
000030 7a 8f bb be 97 03 4d be 8c 95 20 bb 76 a3 d1 3b
       -0.366329 -0.200209 -0.00245032 0.00639766
000040 8e af 0d 3f 2d b1 82 3e f8 19 f7 bd 69 1d 11 3f
       0.55346 0.255258 -0.120655 0.566855
000050 c7 29 02 bf 28 9d 28 bf a1 5b 79 bc df dd f2 be
       -0.50845 -0.658648 -0.0152196 -0.474349
000060 76 09 bd 3c dc 62 22 bf 19 1e 33 bf 94 87 85 3f
       0.0230758 -0.634321 -0.699678 1.0432
000070 b9 35 29 3f 18 98 f5 bd 26 b1 ba bd d1 20 05 3e
       0.660976 -0.119919 -0.0911582 0.130008
000080 c6 dc 01 3f 99 48 c9 be 8e 3f 31 3e d9 09 4b bf
       0.507275 -0.393132 0.173094 -0.793119
000090 b5 fe 36 bf f6 1c 82 3d 78 3d 3d 3c 4d a1 b3 3c
       -0.714824 0.0635318 0.0115503 0.0219275
0000a0 9d 4c 5c 3e 9f ae 0e be 0d 8a 36 3e 5d 37 c5 3e
       0.215136 -0.139338 0.178261 0.385188
0000b0 07 7d a9 bd 49 13 97 3e a7 ca 8f 3e f7 9d 75 bd
       -0.082758 0.295069 0.280843 -0.0599651
0000c0 89 45 8c 3d 1d 03 c6 bf 83 d4 d2 3c 86 bd da bc
       0.068492 -1.54697 0.0257361 -0.0267017
0000d0 8c 4d 8a 3b f7 3b 14 3d 56 4f 1c 3d 7e bc 41 bd
       0.00422067 0.03619 0.0381616 -0.0472989
0000e0 87 00 82 3a b4 bf 1d 3d c1 f7 48 3c e0 0e 96 bb
       0.000991837 0.0385129 0.0122661 -0.00457941
0000f0 15 23 e6 3c f7 e9 b8 3c 12 f3 b0 3b c3 5d 22 bc
       0.0280929 0.0225725 0.00540007 -0.00991005
000100 fa de 1a ba 07 1d 3e 3c a5 fe d5 bc fc f8 30 bd
       -0.000590786 0.0116036 -0.0261224 -0.0432062
000110 03 0a f5 3c e9 b0 67 bc 7f 82 30 3c f0 03 26 bd
       0.029912 -0.0141413 0.0107733 -0.0405311
000120 06 92 41 bc c0 83 55 bd a1 12 37 bd 35 f6 5b bd
       -0.0118146 -0.0521276 -0.0446955 -0.0537016
000130 ea 01 38 3d 02 c9 85 bc 6b 87 da 3c e1 d4 62 3c
       0.0449237 -0.0163312 0.0266759 0.0138447
000140 e5 68 69 3c d6 0f 5b bd 92 4f 97 bb 2a 7a d6 bc
       0.0142462 -0.0534819 -0.00461764 -0.0261813
000150 96 17 6a bd 27 01 60 bd a9 55 4a bd ea 7f 90 bb
       -0.0571514 -0.0546886 -0.0493981 -0.00440978
000160 e0 52 29 bd fe aa 04 3a c6 a7 80 3c b8 fb c1 bc
       -0.0413388 0.000506088 0.015705 -0.0236796
000170 20 b2 28 bd 71 e4 e4 3a 0a bb 36 ba ff ca 6a bd
       -0.0411855 0.00174631 -0.000697062 -0.0573225
000180 39 d2 19 bd 6f 42 08 bc c0 4d 10 3d 07 fb c0 bc
       -0.037554 -0.00831662 0.0352304 -0.0235572
000190 ff d2 5d 3d 6e f8 6d bf 1e a7 84 bf ad 4c e0 bf
       0.0541563 -0.929572 -1.03635 -1.75234
0001a0 1c 25 eb bf aa bb ba be e1 5d 5e c0 10 b3 37 3f
       -1.83707 -0.364713 -3.47448 0.717576
0001b0 60 75 2c 3f e0 10 4e bf e4 f8 75 bf d3 de 20 be
       0.673666 -0.804945 -0.960829 -0.1571
0001c0 ae bb 99 bf 31 94 b3 3e 7c 0a a8 3e 1f ba 72 c0
       -1.20104 0.35074 0.328205 -3.79261
0001d0 12 84 4b 3e b1 a5 2b bf 3a ca 29 bf d5 d8 f3 bb
       0.198746 -0.670497 -0.663242 -0.00744162
0001e0 2a 80 18 3d fa 7f 9d be 57 60 ec 3f b6 db 0e c0
       0.0372316 -0.307617 1.84669 -2.23216
0001f0 00 8a a6 3d 93 6f ee bf 9d 0e a4 3c 08 de 1a bc
       0.0813179 -1.86278 0.0200265 -0.00945235
000200 8a 40 50 bc 41 bc e6 3f a5 66 8f bc 75 e9 47 bf
       -0.0127107 1.80262 -0.017505 -0.780906
000210 15 70 63 3f 84 25 a6 3b dc d9 3f 3f f6 7a a3 bf
       0.888429 0.00507039 0.749418 -1.27719
000220 64 e8 48 be 92 ce 6c bf 6e 4e 8d 3e 94 63 d7 bc
       -0.196199 -0.925027 0.275989 -0.0262926
000230 d2 54 d7 3e e7 38 07 3e 96 ec 8c 3f 04 71 5e 3d
       0.420569 0.132053 1.10097 0.054307
000240 e5 2a ce be 5f b3 64 bf 72 e1 a0 3e b6 a1 82 bf
       -0.402671 -0.893362 0.31422 -1.02056
000250 73 d7 2e 3f 5d 3d c2 3d ec c3 17 bc 33 40 58 bc
       0.682975 0.0948436 -0.00926302 -0.0131989
000260 5d 88 95 bc 59 bc 5c bb cb e6 bf bb 36 ac 09 3d
       -0.0182535 -0.00336816 -0.00585637 0.0336115
000270 21 e8 09 bc b7 eb 2a bd c2 66 65 bd ac 38 15 bd
       -0.00841716 -0.0417287 -0.0560062 -0.036431
000280 fc d3 57 3c a7 4f fc bc 61 41 50 3c e3 12 0c 3d
       0.0131731 -0.0307997 0.0127109 0.0341977
000290 44 85 6a bd f3 5c 1b 3c 8f 62 ce 3b a9 d6 67 3c
       -0.057256 0.00948261 0.00629837 0.0141503
0002a0 e3 0d ba 3c 92 ec 2c bd 74 b8 73 3b 92 19 f9 bc
       0.0227117 -0.0422178 0.00371888 -0.0304077
0002b0 b8 8a 4a 3d 18 38 0a bd 2f 5f e8 bc 65 72 6a bd
       0.0494487 -0.0337449 -0.0283657 -0.057238
0002c0 85 ad fe bc f7 a6 12 3c ce 87 4c bd 14 4c 6b bc
       -0.0310886 0.00895094 -0.0499342 -0.0143614
0002d0 e0 d9 9e 3c da 05 de b9 d7 e5 4a 3c 21 c5 e5 bc
       0.019391 -0.000423475 0.0123839 -0.0280481
0002e0 d3 9c 21 bd 81 0d a3 3c d1 19 de bb 7c 9b 5e bd
       -0.0394562 0.0199039 -0.00677798 -0.0543475
0002f0 35 65 c2 bc 4f 75 88 bc 18 58 09 bc 35 0a c9 3c
       -0.0237299 -0.0166575 -0.00838282 0.024541
000300 e3 bc 24 3d a5 53 b2 3c 95 a6 51 ba 50 1b d5 3c
       0.0402192 0.0217684 -0.000799754 0.026014
000310 f8 fa bf bc a6 4d 10 3d 4c ee 41 bc 60 da 01 bc
       -0.0234351 0.0352303 -0.0118366 -0.0079256
000320 92 a8 a1 3c 19 0c e4 bc 18 88 af ba f6 b0 fc bc
       0.0197337 -0.0278378 -0.0013392 -0.0308461
000330 3a b8 ea bc 03 8d a1 3b f9 65 55 bd a9 06 30 bd
       -0.0286523 0.00493014 -0.0520992 -0.0429751
000340 bc b8 05 bc 6a a9 f6 3b e9 c0 2d bd 86 8d 17 bd
       -0.00816172 0.00752752 -0.0424203 -0.0370002
000350 dc 6b 1c 3d 4b 5e 18 3d f5 6e c7 3c 98 27 e1 3c
       0.0381888 0.0371993 0.0243449 0.0274847
000360 3c 8e 7a 3c 77 2b 10 3d 0a 53 6f bc 14 28 3d bd
       0.0152927 0.0351977 -0.0146072 -0.0461808
000370 01 b8 7e 3c a5 3d 90 ba 2a c6 1a 3c 83 a7 0b 3d
       0.0155468 -0.00110047 0.00944666 0.0340953
000380 9c 04 05 bd 3f b4 45 3c 6e 52 0c bd a0 18 59 bd
       -0.0324751 0.0120669 -0.0342583 -0.053002
000390 fb cc d9 bc 33 45 eb 3b 17 2c 55 bc 60 70 b2 3c
       -0.026587 0.00717988 -0.013011 0.0217821
0003a0 fc f7 45 bd 9c d4 00 3c 64 00 4d bd 9b d9 78 bc
       -0.0483322 0.00786319 -0.0500492 -0.0151886
0003b0 0b a4 1a 3d 63 92 15 3c 7d 20 f9 3c 1d bb fa bb
       0.0377541 0.00912914 0.030411 -0.0076517
0003c0 ad 83 a8 bc aa 0b 38 bd 99 45 28 3c dd e4 fd 3b
       -0.0205706 -0.044933 0.0102705 0.00774823
0003d0 fc 54 55 bd 18 0c 29 bd e8 22 f4 3c 95 3e 5e bd
       -0.052083 -0.0412713 0.0298018 -0.0542589
0003e0 bc 48 57 bd 63 e0 4f bd 70 08 85 bf 8d 5f 48 3e
       -0.0525596 -0.0507511 -1.03932 0.195677
0003f0 4b 72 88 3e 33 56 b6 bc c4 97 89 be 15 ca 1e bf
       0.266497 -0.0222579 -0.268736 -0.620271

2.0.bias f4 [50]
000000 e7 1d f3 bf a9 87 58 3f f8 19 83 bf 21 06 ba 3d
       -1.89935 0.84582 -1.02423 0.090832
000010 91 9b c1 bf 5b 99 4c c0 a9 a4 3e c0 85 2f 92 3d
       -1.51256 -3.19686 -2.9788 0.0713797
000020 5f fc fe bc 74 09 3f bf f7 92 be 3f 8e 95 d0 3e
       -0.0311262 -0.746238 1.48886 0.407391
000030 fe 29 0d bf 1e 17 25 3e b3 ef 6a 3e b5 4f a7 bf
       -0.551422 0.161221 0.22943 -1.30712
000040 80 65 75 be 0a dc c6 bf 26 8d e9 be 30 9e e9 be
       -0.239645 -1.55359 -0.456155 -0.456285
000050 06 2a 48 bd fb 05 f7 bf 16 35 8c 3f dc 67 35 3e
       -0.0488682 -1.92987 1.09537 0.177154
000060 1c 5f 07 c0 de 5a 6a bf d2 8d 20 be 50 fb ad bc
       -2.11518 -0.915449 -0.156791 -0.021238
000070 e3 fc 8d bf 66 6b b1 bf b6 2d b6 bf 14 22 88 bf
       -1.10928 -1.38609 -1.42327 -1.06354
000080 5e 18 c4 bc 32 5a 9f 3f 68 b8 dc bc 18 b5 9b be
       -0.0239374 1.24494 -0.0269434 -0.304116
000090 66 31 c9 bf 10 ce 77 bf 6a dc a3 be af 42 8a bf
       -1.57182 -0.967988 -0.320041 -1.08016
0000a0 de 3c 25 be 17 82 80 bf 1d 03 46 bf 01 3d 81 bb
       -0.161365 -1.00397 -0.773485 -0.00394404
0000b0 a1 64 3a 3f 8d 0a 44 bf 2e 1f 29 bf fd a4 9a bf
       0.728098 -0.765786 -0.660632 -1.20816
0000c0 d4 7c 35 be 70 5f 3f c0
       -0.177234 -2.9902

2.0.weight f4 [50, 50]
000000 da 3a 08 3e ef 0a 33 bc 2d d0 16 3f 1c 32 92 bb
       0.133037 -0.0109279 0.589114 -0.00446154
000010 6b 2b b6 bc cc f1 8a 3d c4 c1 af bc bf 61 4e bf
       -0.0222375 0.067844 -0.0214547 -0.806179
000020 55 de 82 3f f0 15 9d 3e 82 90 2c 3e c7 f4 34 3f
       1.02241 0.306808 0.16852 0.70686
000030 38 32 31 c0 db b2 32 3c 64 77 21 bd ce c6 2e bf
       -2.76869 0.0109069 -0.0394205 -0.682721
000040 1e 16 4a be 27 6b 1c c0 be d9 3a 3f f4 b4 0d bd
       -0.19735 -2.44404 0.729885 -0.0345964
000050 6d d6 cf bc 66 ef b1 3c ce a7 6e be a9 d8 b8 3e
       -0.0253708 0.0217206 -0.233062 0.361028
000060 da c8 d5 bd 00 1b 0c 3f ed de 25 3d 36 ca f2 3e
       -0.104387 0.547287 0.0404958 0.474199
000070 75 35 5e bd 28 df c3 bb fb cb d2 bf bf 32 e5 bc
       -0.0542502 -0.00597753 -1.64685 -0.0279783
000080 b0 1e 27 bf 17 d8 5f bf 30 3b 55 bc 2e e2 73 3f
       -0.652812 -0.874391 -0.0130146 0.95267
000090 88 63 22 bd 8e 1e a4 3c ea b0 16 3f 63 a3 02 bd
       -0.0396457 0.0200341 0.588637 -0.0318941
0000a0 29 78 5a 3e b9 72 d6 bd 74 f1 16 bb 6f 81 cc bf
       0.213349 -0.104711 -0.00230321 -1.5977
0000b0 81 5c 0a bf bf 80 22 bf 26 c8 e3 bc 28 7b f0 bc
       -0.540474 -0.634777 -0.0278054 -0.0293556
0000c0 e2 af b9 3f b9 87 99 3d 4a 98 e5 3f b4 08 20 bd
       1.45068 0.0749659 1.79371 -0.0390708
0000d0 18 78 c6 bf 61 d2 09 bd cd 3b 31 bb c4 07 0a 3f
       -1.55054 -0.0336479 -0.00270437 0.539181
0000e0 7c 3d 84 bc d6 c5 95 3f e7 a9 2c c0 2b a4 2c 3f
       -0.0161426 1.1701 -2.69787 0.67438
0000f0 c0 cf ec bf ee 5a 9e 3f 57 96 c8 be d6 62 a6 3b
       -1.85009 1.23715 -0.391772 0.0050777
000100 5b a5 2a 3d 98 bf 3e bf 25 58 e8 3f 2a 52 8d bf
       0.0416616 -0.745111 1.81519 -1.10407
000110 7d 05 81 3f 1a c9 19 bd a1 2f 3d 3c ac 19 fe 3c
       1.00798 -0.0375453 0.011547 0.0310181
000120 a1 4d f6 3e d6 6f 8e 3e d1 21 e0 3e d8 47 37 40
       0.481061 0.278197 0.437758 2.86376
000130 9c 01 09 bd 75 5b d2 be a4 50 96 bb e8 44 2c bd
       -0.0334488 -0.410854 -0.00458725 -0.0420579
000140 f3 04 e2 bd 68 66 5c 3d 75 c8 c9 3f d4 9a 56 be
       -0.110361 0.0538086 1.57643 -0.209575
000150 e4 e3 49 3c a8 00 84 bf 76 89 2a 3e ed 99 4a bc
       0.0123224 -1.03127 0.16654 -0.0123658
000160 18 77 53 3e 9a 5f 0d bd 89 d2 92 3f fc a9 21 3f
       0.206509 -0.034515 1.14705 0.6315
000170 3f 35 6e 3f 4d 10 c9 bf 3b 6f 13 3f 61 6b be 3e
       0.9305 -1.57081 0.575916 0.371913
000180 a4 fc ec 3f ac 1f 5b 3e b6 12 2a 3f 87 15 ae bc
       1.85146 0.213988 0.664348 -0.0212505
000190 55 31 8d be 88 ce bc 3c 2d ed 48 3f 61 3e b4 3b
       -0.275767 0.0230477 0.784869 0.0055006
0001a0 78 c0 0b 3d 38 2c 4d 3f 81 88 9e bb 12 ab b5 bc
       0.0341191 0.801456 -0.00483805 -0.0221763
0001b0 52 98 af be d0 d2 11 3f f6 d1 a9 bf 07 d3 98 3f
       -0.342959 0.569623 -1.32672 1.19394
0001c0 3a 1e 33 be af 46 11 3d 13 ce 53 bd 87 50 81 3f
       -0.17492 0.0354678 -0.0517102 1.01027
0001d0 f4 36 8e 3e a4 8a 5e 3f 87 16 b9 3f 67 4e 72 3c
       0.277763 0.869303 1.446 0.0147892
0001e0 8b 8f aa bc c5 22 1f 3b 39 d6 11 3f 92 ea c3 3e
       -0.0208204 0.00242822 0.569675 0.382649
0001f0 a5 9f e0 be c2 34 90 3f 3b 28 97 bc 08 8f e6 3e
       -0.438718 1.12661 -0.0184518 0.45031
000200 7b 9f 4f 3c 03 50 05 3a 59 13 63 3f 17 7b d4 bc
       0.0126723 0.000508547 0.887014 -0.0259376
000210 a8 8a 7d 3f 96 40 fa be d5 37 d5 bb b1 a7 99 3f
       0.990397 -0.488774 -0.0065069 1.20043
000220 c5 8e be be 6c 37 cb 3c 1f 4b 8b 3f 7b 27 0b bd
       -0.372183 0.0248067 1.08823 -0.0339732
000230 f1 7f 47 3e 06 2a 37 40 97 71 63 be 25 96 58 3f
       0.194824 2.86194 -0.222113 0.846041
000240 45 f1 b2 3e 8a 3f 3a 3e 5c 1b aa 3f ec de 5e 3f
       0.349497 0.181883 1.32896 0.870589
000250 f1 d8 43 3f c1 ed 3f 3c 48 c7 70 3d 33 d0 ab bc
       0.765029 0.0117144 0.0587838 -0.0209733
000260 b6 be e8 3d 76 99 0c 3c 85 7f 2c 3d 0f 62 9f 3e
       0.113645 0.00858151 0.0421138 0.311295
000270 29 b4 ac bc b1 6e 00 3f 7a 18 c2 be 42 1a af 3d
       -0.021082 0.501689 -0.379093 0.0854993
000280 47 73 84 bd b0 1f fa 3e 2b 2f f1 be 4f 67 5d 3d
       -0.064673 0.488523 -0.471063 0.0540536
000290 9b 09 dd bb 5f 96 be 3e 39 5c 10 bd c5 e6 83 3f
       -0.00674553 0.372241 -0.0352442 1.03048
0002a0 49 a2 37 3e 31 a5 04 3d 9f 5c ae 3c 4e df 01 3d
       0.17933 0.0323841 0.0212844 0.0317071
0002b0 d9 b4 82 be 6e a4 b4 be cc d3 a1 be a0 14 a2 bd
       -0.255286 -0.352817 -0.316069 -0.0791409
0002c0 35 11 d1 3c 9e b3 e5 3e 70 fc 1a 3d b0 f3 5e ba
       0.0255209 0.448636 0.0378384 -0.000850494
0002d0 eb 70 cc 3e 72 10 d9 bc 49 ba 06 3e d8 d2 5f 3f
       0.399299 -0.0264971 0.13157 0.874311
0002e0 2d 32 4b 3c 45 2a ec 3f f5 f7 ea 3e 33 72 71 3c
       0.0124021 1.84504 0.458923 0.0147367
0002f0 47 50 c1 bd 73 3c 30 bc 06 4a ca be 53 24 d7 3e
       -0.0943914 -0.0107566 -0.395096 0.420199
000300 ef 38 0f 40 45 67 d9 3d 95 63 82 be a7 3f 7b 3e
       2.23785 0.106154 -0.254666 0.24536
000310 49 11 c1 3e d1 b7 e0 bc 0e 2d f2 be e4 a0 54 be
       0.377085 -0.0274314 -0.473 -0.207645
000320 47 1d fd 3e 02 6e 8c bc 4a d3 70 3f aa 6a 9d 3c
       0.494364 -0.0171423 0.940724 0.0192159
000330 1b cc b0 bc be d9 0a c0 02 d4 34 bd 46 94 b2 bf
       -0.0215817 -2.16954 -0.0441475 -1.39515
000340 41 0e fe bf 10 75 1b 3f e6 24 18 bf fb 95 ae 3e
       -1.98481 0.607255 -0.594313 0.340988
000350 41 9a b9 bf e6 eb 2d bd 69 80 dc bc 94 13 d5 bf
       -1.45002 -0.0424613 -0.0269167 -1.66466
000360 7a 19 e1 bf 20 24 23 c0 5b ce 8d bf 2a 58 a3 bc
       -1.75859 -2.54908 -1.10786 -0.0199395
000370 8d 03 14 bd 60 f1 4a bd 00 1d 78 c0 4f 1e 14 c0
       -0.0361362 -0.0495466 -3.87677 -2.31435
000380 ac 17 e8 bc a3 06 29 c0 9f 4a d7 bc db a2 f1 bc
       -0.0283316 -2.64103 -0.0262807 -0.0294966
000390 1c c1 bc bc 2b 16 ff 3c 96 b2 e8 bf 5d 8c 81 bc
       -0.0230413 0.0311385 -1.81795 -0.015814
0003a0 65 55 44 3e 61 37 68 bf f5 fb 99 bc 3b aa c6 c0
       0.191732 -0.907095 -0.0187969 -6.20828
0003b0 2a c4 93 3e 92 26 f9 bc da 57 4a 3f d0 fb 35 3d
       0.288606 -0.0304139 0.790403 0.0444296
0003c0 04 04 e7 3f 0a 68 fa 3f 10 5d 0b 3d 76 f9 42 bf
       1.80481 1.9563 0.0340243 -0.761619
0003d0 68 23 ff be cf 9f 6a bf 9b fe d4 3f ad 86 f4 c0
       -0.498317 -0.916501 1.66402 -7.64144
0003e0 cd cc 90 bf 6d 39 a3 3f 54 1d be 3f 6c cd 96 3c
       -1.13125 1.27519 1.48527 0.0184085
0003f0 35 0a 19 be 75 66 cc 3c 3c 92 01 bd 31 b7 7b 3e
       -0.149453 0.0249512 -0.0316336 0.245816

3.0.bias f4 [50]
000000 d0 44 98 c0 b4 58 c2 3e 9f ca 01 bf f9 a0 8b 3f
       -4.7584 0.379583 -0.506998 1.09085
000010 d6 6e bf bf 2a 6f 9b 3f cc 9b fb 3e 86 38 fa 3f
       -1.49557 1.21433 0.491423 1.95485
000020 42 26 c1 be 8e 58 e3 bf 6e 69 85 bf ce c7 05 40
       -0.377245 -1.77614 -1.04228 2.09032
000030 ed 47 8a c0 c8 ea 82 3f c1 c4 e1 bb d0 d3 70 3e
       -4.32128 1.02279 -0.00688991 0.235183
000040 32 72 aa 3f 97 56 3b c0 22 88 43 3f 00 38 b6 be
       1.33161 -2.92716 0.763796 -0.355896
000050 d4 9a 52 c0 f2 bb c4 bc 8f c2 c0 c0 4f 76 db be
       -3.2907 -0.0240154 -6.02375 -0.428637
000060 89 96 d4 be df e0 2f 3f b7 b7 0b 3e 84 0d 93 3f
       -0.415211 0.687025 0.136443 1.14885
000070 9b ff 7f 3f c6 8a ba 3f 1b 64 a2 3f bd 39 40 3f
       0.999994 1.45736 1.26868 0.750881
000080 5c 4f d9 bc 29 22 8f bf ed bb 2a 40 32 03 d5 3f
       -0.0265271 -1.11823 2.66772 1.66416
000090 57 09 96 bf 2d b2 a1 3f ef 72 dd bf a2 9c 1c c0
       -1.17216 1.26325 -1.73007 -2.44706
0000a0 90 31 03 c0 34 f5 1a bf 56 2a 2c bf f6 f0 25 be
       -2.0499 -0.605304 -0.672521 -0.162052
0000b0 51 d9 d0 be 3f a7 14 3f 84 2a 89 bf ba f9 86 be
       -0.407908 0.580677 -1.07161 -0.263624
0000c0 ca 50 71 bf 14 e8 a3 bf
       -0.942639 -1.28052

3.0.weight f4 [50, 50]
000000 c2 a6 26 bf 36 e5 2a bd 1f 2d 2e bf 8d 45 d3 3f
       -0.650982 -0.0417225 -0.680376 1.65056
000010 08 e8 32 3f 1e 33 84 3f a1 67 d7 3f c8 08 80 be
       0.698853 1.03281 1.68285 -0.250067
000020 ee aa 0c 3d c4 ce 94 3f ab ec a3 bf 8f 18 bd 3e
       0.0343427 1.16256 -1.28066 0.369328
000030 d2 18 0b 40 bb 55 a1 3d dd 97 a3 bd da ac 1c 40
       2.17339 0.0787768 -0.0798795 2.44805
000040 40 30 87 3f d8 4f ca bd 22 df 01 3f 06 80 7a be
       1.05616 -0.0987851 0.507311 -0.244629
000050 c4 41 42 bc 9e 44 68 3f 09 e0 26 be 1f 2e cd 3f
       -0.0118565 0.907297 -0.162964 1.60297
000060 0c 93 e5 3f 25 95 21 3f 37 e0 8a 40 71 8d 4f bc
       1.79355 0.631182 4.33987 -0.012668
000070 cf bd 71 40 33 8a ed 3f b1 33 91 3f 67 7d 1a bf
       3.77721 1.85578 1.13439 -0.603476
000080 e1 54 b5 bc 50 a6 d1 3d d4 27 b1 be be 4f d5 3e
       -0.0221352 0.102368 -0.346007 0.416624
000090 e8 a3 5c 3f 0a 13 e6 bd 4d 9e 92 3e 1e dc 85 3f
       0.861876 -0.112341 0.286364 1.04578
0000a0 44 dd 21 40 b3 3f 10 3e 0c 5b 0b bf d6 58 22 3d
       2.52913 0.140868 -0.544358 0.0396355
0000b0 44 2c 87 bd 79 23 0b 3f b8 93 38 be b5 6c d9 3f
       -0.0660024 0.54351 -0.180251 1.69863
0000c0 fd 4c 79 3f 1e 16 8d 40 55 fb 83 c0 55 a4 82 3e
       0.973831 4.40895 -4.12443 0.25516
0000d0 96 ec 04 40 8c 15 dd bf db dd b3 3e 4e b9 fa bf
       2.07694 -1.72722 0.351302 -1.95878
0000e0 f2 42 8a be 91 0f b6 bf cb 21 73 bc 53 ae 4e c0
       -0.270042 -1.42235 -0.0148396 -3.22939
0000f0 67 28 d6 be 97 56 33 c0 ac 1b 0f bf e8 a4 93 3f
       -0.418277 -2.80216 -0.559016 1.15347
000100 53 25 22 3f 16 a2 83 be 7d 22 8f bf 78 44 05 3f
       0.633382 -0.257096 -1.11824 0.520576
000110 b1 18 cd 3e 91 b7 b4 be e4 31 a3 3d c8 07 19 3f
       0.400579 -0.352963 0.079685 0.597775
000120 64 04 dc be f0 a7 ae 3f ad 10 9b 3d 86 8f 80 bf
       -0.429721 1.3645 0.0757154 -1.00438
000130 81 cc ee bd 03 38 87 3b 46 ce d6 bf 92 bb be bd
       -0.116601 0.00412655 -1.67817 -0.0931312
000140 99 47 30 40 b0 1d 1c be ce 86 00 3c 57 0a 35 bf
       2.75437 -0.152457 0.00784464 -0.707189
000150 35 7b 30 be 1e 4e 28 3f 33 31 d5 be 65 89 6e 3e
       -0.172345 0.657442 -0.416391 0.232946
000160 96 e7 e5 bf 0d fd b3 bf 33 6d e7 bf 07 c0 6e bd
       -1.79613 -1.40616 -1.80802 -0.0582886
000170 ad 15 cd bd 14 55 e4 bc 48 88 22 3f 39 b6 16 3f
       -0.100139 -0.0278726 0.634892 0.588718
000180 51 30 db 3e f7 01 e8 bf ee 77 a4 bf 6f 7f b6 3e
       0.428103 -1.81256 -1.28491 0.356441
000190 53 79 af 3f 08 72 98 bf 69 a9 d0 bf 40 de 07 3f
       1.37089 -1.19098 -1.63017 0.530735
0001a0 03 7a 31 3e 5d 35 ef 3e 74 61 48 3f 4c fd 90 bf
       0.173317 0.467204 0.782737 -1.13273
0001b0 40 3a d0 3c e2 b5 46 3d fd f6 1d 3f da e7 e1 3e
       0.0254184 0.0485133 0.61705 0.441222
0001c0 00 ae 04 40 9e e1 b7 3d 72 4f 9f 3e 10 5a 37 3f
       2.07312 0.0897858 0.311153 0.716218
0001d0 39 99 80 3e 36 01 4a 3f bf 60 b3 3f fb 59 7c 3e
       0.251169 0.789081 1.40139 0.246437
0001e0 4f 2a 90 3c 24 81 c6 3e f8 19 13 bf 75 3c 24 40
       0.0175983 0.387704 -0.574615 2.56619
0001f0 8a e6 81 be e5 b5 36 3f 70 ed 54 3e 98 a2 5c 3c
       -0.253712 0.713713 0.207937 0.0134665
000200 e0 ba 62 3c 65 71 9f 3e a7 5c cd 3f 07 2e 85 bc
       0.0138385 0.311412 1.60439 -0.0162573
000210 65 4e fc 3c 48 a5 88 3e fb ad 49 bf a5 13 b1 be
       0.0307991 0.266886 -0.787811 -0.345853
000220 0d d2 9d 3c 83 c0 0a 3e b4 93 ed 3f aa 44 2d bf
       0.0192652 0.1355 1.85607 -0.676829
000230 e4 0f 72 3f e5 45 36 3e 22 a8 da be f2 ed 9d 3c
       0.945555 0.178001 -0.427064 0.0192785
000240 4d cd 4f 3d 55 de 56 40 f7 64 84 3d 54 6f 1d 3f
       0.0507329 3.35732 0.0646457 0.61498
000250 80 0d 08 3e f5 f2 bb 3e e7 8c a1 40 90 12 9b 3d
       0.132864 0.367088 5.04845 0.075719
000260 38 67 34 bf ab 21 d1 bd b5 8d 5f be fd 82 5b 40
       -0.7047 -0.102115 -0.218314 3.42987
000270 6c 5b 00 40 e7 e4 75 3e 48 d2 ff bc 1b 0d f8 bf
       2.00558 0.240131 -0.0312282 -1.9379
000280 bd 77 6f bd f2 ea 00 bf 78 9c 72 40 3a 41 27 3f
       -0.0584638 -0.503585 3.7908 0.653339
000290 60 ac 0f 3e 47 5a b6 3f 56 2b 5b 3f e7 8c ac 3f
       0.140306 1.42463 0.85613 1.34805
0002a0 77 be 01 40 ee e8 1b 3f de df 45 bd bc 95 4d 3f
       2.02725 0.609023 -0.0483092 0.803066
0002b0 d6 01 a0 3e 4c ff 7e bf 0b b7 94 be 84 47 8b 3f
       0.312514 -0.996083 -0.290459 1.08812
0002c0 0a d7 9f 3f 40 d4 87 bc 86 3d b1 3f e0 9e e7 3d
       1.24875 -0.0165807 1.38469 0.113096
0002d0 42 43 53 40 fd 31 11 bf 87 09 99 3c 5b 98 e5 be
       3.30098 -0.567169 0.0186813 -0.448428
0002e0 f1 2d dc be 5c 02 30 3f d8 81 17 40 e9 d2 0b bf
       -0.430038 0.687536 2.3673 -0.546187
0002f0 29 cb 18 bf 55 c0 39 3f fe d7 99 3e 22 52 db 3e
       -0.59685 0.725591 0.300476 0.428361
000300 31 08 a0 bf a1 56 c7 3c cc 5d 97 3f 51 83 3f 40
       -1.25025 0.0243333 1.18255 2.99239
000310 77 15 2a 3f 7e 1d cc 3f 41 29 2a be 4c ff 52 3f
       0.66439 1.59465 -0.166173 0.824208
000320 d0 0a 8c 40 15 1c 26 bf 7b a2 7f bf 81 43 dc 3f
       4.37632 -0.648866 -0.998573 1.72081
000330 9e 07 27 c0 48 c4 2a 40 df 8b ff be 3e 05 14 40
       -2.60984 2.66823 -0.499114 2.31282
000340 a3 42 50 3d 65 8d 92 3f 48 fe 00 40 f2 28 65 3e
       0.0508448 1.14494 2.01552 0.223789
000350 33 1b 1a 40 e4 0f 88 40 d3 95 39 3d 5b 25 98 3f
       2.40791 4.25194 0.0453089 1.18864
000360 35 b8 2d 3e 5e 10 6d 3f 4f 58 14 40 f2 89 66 bd
       0.169648 0.926031 2.31789 -0.0562839
000370 6e 82 73 3b 3a 91 64 3f 1b be 69 bf ca 37 ff bf
       0.00371566 0.892841 -0.913057 -1.99389
000380 d1 cb e4 3f 79 06 c5 3f 4e d1 91 3f 9a 0f c2 3b
       1.78747 1.53926 1.1392 0.00592227
000390 d9 99 ae 3f e5 d5 a5 3f a8 c6 d3 3f a0 fc d5 be
       1.36407 1.29559 1.6545 -0.417943
0003a0 b5 c6 a0 bc 36 21 ed 3e ef cb 39 3e e0 9c 15 40
       -0.019626 0.463144 0.181442 2.3377
0003b0 81 25 2b 3f bb b4 01 bf 1f ba a0 3f 60 59 17 40
       0.668541 -0.506664 1.25568 2.36483
0003c0 99 f0 d3 3f 04 3a 7f 3f a2 28 12 c0 52 21 23 bd
       1.65578 0.996979 -2.28373 -0.0398267
0003d0 45 f3 5c bf 16 a1 0c bf be 4c 18 3f 4e d1 9d 3f
       -0.863087 -0.549333 0.594921 1.23295
0003e0 40 f6 da be 52 7e 06 40 fe d4 1a c0 71 1f b9 bd
       -0.42766 2.10146 -2.41925 -0.090392
0003f0 a8 8c ff 3d d9 d0 7d be d4 28 f4 3e a7 3b df be
       0.12478 -0.247867 0.476874 -0.436002

4.0.bias f4 [50]
000000 0a bf f4 bf 91 7e 9f 3f 29 cb 36 40 e6 3f 94 bf
       -1.91208 1.24605 2.85615 -1.1582
000010 e1 0b 51 c0 b7 9c 37 c0 b9 16 a5 be ff 78 9b c0
       -3.26635 -2.86894 -0.322439 -4.85852
000020 80 75 07 3c 55 de 96 3f 4e d1 d9 3f 5e 69 a9 3e
       0.00826776 1.17866 1.7017 0.330882
000030 48 6d 56 40 2c 65 7b c0 b0 ae 26 3f 6c 78 02 40
       3.35042 -3.92805 0.651103 2.0386
000040 02 bb fa 3d db 87 34 bf 5c ac a0 3f 10 3b 4b bf
       0.122427 -0.705198 1.25526 -0.79387
000050 26 f0 38 bd 54 e0 f4 be 28 27 ee bf 09 1b 20 40
       -0.0451509 -0.478274 -1.86057 2.50165
000060 c5 c9 3d c0 65 a5 11 bf a9 f6 bd bf b1 c1 72 bf
       -2.96544 -0.56893 -1.48409 -0.948268
000070 c3 b8 37 bf 77 84 8b 3e db 6f 65 3f ac 56 40 40
       -0.717663 0.272495 0.896238 3.00529
000080 f7 3f a8 3e a9 a4 22 bf 33 e1 81 c0 c2 fb 06 3f
       0.328613 -0.635325 -4.05874 0.527279
000090 45 12 89 bf c4 d3 96 3d 4a 5e 85 3e 29 07 0f 3f
       -1.07087 0.0736461 0.260485 0.558703
0000a0 58 ab 36 3e c8 cd 1e c0 84 81 7f c0 7a a8 e5 3e
       0.178388 -2.48131 -3.99228 0.448551
0000b0 19 ad 97 bf 05 6e 71 40 48 c4 00 40 9e 41 93 3f
       -1.18497 3.77234 2.01198 1.15044
0000c0 56 0e 89 c0 db 6d f7 bf
       -4.283 -1.93304

4.0.weight f4 [50, 50]
000000 5b a3 54 3d 51 13 4d be 5a 95 2e bd 06 d9 22 be
       0.0519136 -0.200269 -0.0426229 -0.159031
000010 a9 16 89 be a7 77 e1 3e 5b 25 ac 3f 25 cc bc bf
       -0.267751 0.440366 1.34489 -1.47498
000020 14 54 79 3d f2 7f 42 bd f3 20 29 3f 01 fb 10 3f
       0.0608712 -0.0474853 0.660659 0.56633
000030 88 7a cb 3d 7d 91 94 bf 44 55 e7 3c 7d 64 ce 3c
       0.0993548 -1.16069 0.0282389 0.0251944
000040 96 ea 22 be d5 59 a5 be 98 fa a5 bf de 1d 75 3f
       -0.159098 -0.322951 -1.29671 0.957487
000050 1c 91 a4 3d 65 8a e1 3e c0 ea b8 3e 1a 88 f5 be
       0.0803549 0.440509 0.361166 -0.479554
000060 3a 9a 7e bd a4 a9 0e bf 13 d5 1b bd 9b a4 5e bd
       -0.0621588 -0.557276 -0.038045 -0.0543562
000070 cf 81 05 be 62 f8 b3 c0 08 1f da 3e 96 ec 98 3f
       -0.130378 -5.62407 0.426018 1.19472
000080 21 ed 5a 3d a0 26 89 bd 9b ed 60 bd 78 83 83 bd
       0.0534488 -0.0669682 -0.0549141 -0.0642156
000090 6d f8 14 3a 85 24 57 bf 67 61 8b 3f 59 c0 bc bf
       0.000568277 -0.840401 1.08891 -1.47462
0000a0 5f 27 1d bf 36 93 9f bf 54 c4 0d bf 3e ec 49 3f
       -0.613882 -1.24668 -0.553777 0.788761
0000b0 00 e4 ac 3e 3e 14 9b 3d 4c e0 96 3e cf bf 35 3f
       0.337677 0.0757222 0.29468 0.709958
0000c0 03 ec 77 3f ec 33 77 3e 96 42 70 3e f8 a7 74 bd
       0.968445 0.241409 0.234629 -0.0597305
0000d0 ad 15 e5 be bc ae c7 3f ec dd 1b 3f 6c 25 54 3f
       -0.447431 1.56002 0.608855 0.828696
0000e0 1d bb 15 bd 8c a1 dc 3e 94 fb 91 3f 51 a5 41 bc
       -0.0365554 0.43092 1.14049 -0.0118192
0000f0 76 fd fe 3f 6b 0e 50 be 66 f4 67 bf 2a 54 67 be
       1.99211 -0.20318 -0.906073 -0.225907
000100 27 dc ab bc 04 5a f2 be 58 c5 cf 3f e6 21 3b 3f
       -0.020979 -0.473343 1.62321 0.730986
000110 42 b2 98 bf b9 53 d6 3f b6 f1 56 3a 20 ef c5 3f
       -1.19294 1.67443 0.000819947 1.54636
000120 8c d8 c7 3e 1c b6 05 c0 76 f9 22 bf f5 f1 70 bf
       0.390324 -2.08924 -0.636619 -0.941192
000130 3d 70 24 3d 65 e4 c8 bf 88 d7 95 3f 53 25 7a 3e
       0.0401461 -1.56947 1.17064 0.244283
000140 08 91 5c be df 37 0e be 3e 03 cf 3c a6 9b 3c bf
       -0.215397 -0.138885 0.0252701 -0.73675
000150 b0 e8 26 3e c4 96 5e 3e 65 36 a8 bf 4e 62 dc 3f
       0.162997 0.217372 -1.31416 1.72175
000160 53 08 24 3f 1d 72 9b 3e 91 7f e6 bd ad a4 45 3e
       0.640752 0.303605 -0.112548 0.193011
000170 a1 83 4e bd 44 a8 e6 bf 14 21 f5 3e 10 94 07 3f
       -0.0504185 -1.80201 0.478768 0.529603
000180 b5 6c d5 bf 81 ec e5 be 38 10 d2 3c 72 19 07 be
       -1.66738 -0.44907 0.0256425 -0.131933
000190 f8 fe 4a bf bb c3 5c bd 37 6e e1 3e 3f 73 fe be
       -0.792953 -0.0538976 0.440294 -0.496973
0001a0 57 3e 8b be 4a 79 1d 3f fb b4 95 bd 2b 6a 94 bf
       -0.27196 0.615132 -0.0730991 -1.15949
0001b0 31 24 17 be 75 b0 fe 3e 0b 98 90 bf 70 25 db be
       -0.147599 0.49744 -1.12964 -0.42802
0001c0 40 de 9b be 2a 57 f8 be 59 2d b4 bb eb 71 1b 3f
       -0.30443 -0.48504 -0.00549857 0.607207
0001d0 8f 8e 4b 3e 61 6e 77 3f 1a 11 c1 3d 3d 2c c8 bf
       0.198786 0.966528 0.0942709 -1.56385
0001e0 b0 ca 25 3e 73 2c f7 be ca 6a e2 3e 58 e7 b4 3f
       0.161906 -0.482761 0.442221 1.41331
0001f0 21 ce 2f 3f 27 6b cc bf d4 82 1d c0 21 1f 94 be
       0.686739 -1.59702 -2.46111 -0.2893
000200 0f 29 ce be 99 9e 78 c0 3a 21 10 3f ff ea 21 3f
       -0.402657 -3.88468 0.563007 0.632492
000210 cd 41 2b bd f7 e9 54 3f 8f 19 40 bf 86 57 52 be
       -0.0418108 0.831695 -0.75039 -0.205412
000220 87 fa 15 3f 15 3a 9f 3e 00 74 dc bf 50 8d 2b c0
       0.585854 0.31099 -1.72229 -2.6805
000230 57 78 c7 bf 66 f5 4a 3f fe b7 08 c0 e6 58 de 3c
       -1.55836 0.792807 -2.13623 0.027142
000240 9a cd 3b bf 06 64 47 bf e8 66 df bd af eb 9f 3e
       -0.733606 -0.77887 -0.109083 0.312345
000250 4c c3 1e c0 61 a8 53 3f 95 d2 b3 3e 3f e6 6b 3f
       -2.48067 0.826788 0.351216 0.921482
000260 37 71 44 c0 e2 59 42 bd d7 c3 77 be 19 55 36 3f
       -3.06941 -0.047449 -0.241958 0.712236
000270 c9 93 bc bf 0b 60 02 3f 2c 29 43 3f 78 0d 3e 3f
       -1.47326 0.509278 0.762347 0.742393
000280 3f c9 85 be f3 e3 9f 3e 0a 2f a1 3d 3c bd 52 3e
       -0.261301 0.312286 0.078703 0.2058
000290 6f 8a a2 3c d4 61 55 bf 1c 99 a7 be 3b fc 95 3f
       0.0198414 -0.833524 -0.32734 1.17176
0002a0 5c 38 5a c0 1c d2 a0 be eb e4 84 be 42 43 6b 3f
       -3.40969 -0.314103 -0.259559 0.918995
0002b0 76 a0 93 bd e9 29 4a bf 6b 82 80 be 2e 59 75 be
       -0.0720834 -0.789702 -0.250995 -0.239598
0002c0 14 76 21 be 07 0c 5e bf 8a 20 26 3f 10 02 da 3e
       -0.157677 -0.867371 0.648934 0.425797
0002d0 85 23 0c bf 64 24 6b bf 08 d7 92 3c 58 e3 3c be
       -0.547417 -0.918524 0.0179248 -0.184461
0002e0 55 17 20 3e e6 79 b8 be ec 8a c1 be dc 7e 19 3e
       0.156339 -0.360305 -0.378013 0.149898
0002f0 0b 28 1c 3f bb 7b 10 be 75 5b 3a bf 4f af a4 bf
       0.609986 -0.141097 -0.727958 -1.2866
000300 ff 09 86 bf c7 9d 06 c0 3e e7 73 bd 99 82 6d 3f
       -1.04718 -2.10338 -0.0595467 0.927774
000310 b0 e6 44 40 25 77 48 3e f2 0c 8e 3f cb bf 42 bf
       3.07658 0.195767 1.10977 -0.760739
000320 ea 5b 2a c0 26 36 9f 3f 15 01 0a bf 22 e1 ab 3e
       -2.66186 1.24384 -0.539079 0.335702
000330 42 ea 06 be 26 51 8f be ac 73 90 3f 90 83 c2 bf
       -0.131753 -0.279916 1.12853 -1.51964
000340 47 01 32 3f 69 1e 78 3f 1f 81 2f 3f c4 b5 fa 3d
       0.695332 0.969214 0.685564 0.122417
000350 0f 15 3e 3c 8d ee a4 3f d5 2a 95 bc 27 db 2c 3f
       0.0116017 1.28853 -0.0182089 0.675219
000360 28 d7 6c 3f 04 72 59 bf 79 5d 13 3f 2b 4d 8a 3f
       0.925158 -0.849396 0.575645 1.08048
000370 15 8c 02 3f 20 b5 89 bf 32 03 95 bf a6 f0 50 3f
       0.50995 -1.07584 -1.16416 0.816172
000380 6b 9a e7 3e 4a 7b fb bf 41 f3 a1 3e e2 56 c1 3e
       0.45235 -1.9647 0.316309 0.377616
000390 1d 01 dc bd 24 97 51 c0 b1 6c 02 3f e0 84 da 3f
       -0.107424 -3.27485 0.509471 1.70718
0003a0 ad 67 2d 3c d6 ad a6 bf 14 b2 5b bf 94 31 6e 3e
       0.0105838 -1.30218 -0.858186 0.232611
0003b0 b0 ac 9c 3e fc 00 9c 3f 30 64 e5 be 40 30 af 3e
       0.306005 1.21878 -0.44803 0.342165
0003c0 6f 47 84 3f db 50 43 c0 6a c1 37 bf b9 a8 96 3e
       1.03343 -3.05181 -0.717795 0.294256
0003d0 37 c6 7a 3f f6 9b 2d 3f 6a da bd 3e f5 2d c7 3f
       0.979587 0.678161 0.370807 1.55609
0003e0 7e 3a 56 3f c4 95 07 bf da c8 25 3e bd 35 80 bf
       0.83683 -0.529629 0.161899 -1.00164
0003f0 12 da 1c 40 5b b1 47 3f d7 a5 16 bf f4 c0 97 be
       2.45081 0.78005 -0.588468 -0.296394

5.0.bias f4 [50]
000000 98 13 e4 be 88 49 b8 3b 73 80 bc 40 2d 41 8e 3e
       -0.445462 0.005624 5.89068 0.277841
000010 74 46 b4 3f 14 8c 6f 3c 4c fd 58 40 57 43 ba c0
       1.4084 0.0146208 3.39046 -5.82072
000020 a9 c1 e4 c0 fd 4d 88 40 46 7c bc c0 33 1b c4 c0
       -7.14864 4.25952 -5.89017 -6.12832
000030 bd e3 44 3e cc 9a f8 3d 3a 92 b7 c0 86 5a 45 40
       0.192275 0.121389 -5.7366 3.08365
000040 46 96 48 3f e6 96 b2 c0 1f 85 a3 bf 4d 15 12 c1
       0.783543 -5.58092 -1.2775 -9.1302
000050 f2 d2 cd bf bb 0a 59 40 b5 e0 7f c0 97 ca c7 3f
       -1.608 3.39128 -3.99809 1.56087
000060 eb e2 26 c1 f8 b6 0f c1 da 8f 1e c1 1f 2e 9c c0
       -10.4304 -8.98217 -9.91012 -4.88063
000070 b5 37 bc bf 6a 18 64 c0 da c9 9c c0 31 42 c2 c0
       -1.47045 -3.56399 -4.89964 -6.07058
000080 d7 2f 98 3f e4 25 69 3d bf 48 54 c0 2b a4 a9 c0
       1.18896 0.0569209 -3.31694 -5.30129
000090 a5 38 fd bc 09 f9 e6 c0 9c f9 61 40 9a 77 4c c1
       -0.0309108 -7.2179 3.53086 -12.7792
0000a0 5d bf 56 c0 9c 4d e7 3d c8 ea 54 40 54 3a c0 c0
       -3.35543 0.112941 3.32683 -6.00712
0000b0 ed f0 83 3f a9 d9 94 40 67 ed f3 c0 3f 52 fc 3f
       1.03079 4.65157 -7.62273 1.97126
0000c0 d2 19 7c bf e7 52 11 c1
       -0.984769 -9.08274

5.0.weight f4 [50, 50]
000000 b1 a7 fd 3d 2b ad f5 bc 8b af 0c bd 9f 56 71 3e
       0.123855 -0.0299898 -0.0343471 0.235682
000010 34 76 53 3d a0 fc 3d 3e 1b 9e 2e 3e e1 0c 5e 3e
       0.0516264 0.185534 0.170525 0.216846
000020 2f 58 c5 bd 37 53 99 3e 00 8f 68 be 61 c3 d3 3c
       -0.0963596 0.299463 -0.227108 0.02585
000030 df a3 de bd c8 5c d9 bc 48 f8 1e 3d 07 50 02 3d
       -0.108711 -0.0265335 0.038811 0.0318146
000040 60 e7 06 3d 3e 20 00 3e 97 37 57 be 43 29 90 bd
       0.0329355 0.125123 -0.210173 -0.0703912
000050 92 cd 75 3e d6 36 9d 3e 9f 57 1c 3e c9 76 de 3d
       0.240042 0.307059 0.152678 0.108625
000060 83 6b 2e 3e b1 86 0b 3e d0 f7 4e bd b7 ce 94 3d
       0.170332 0.136256 -0.0505293 0.0726599
000070 e8 1e a8 bd ea c7 2b bd 92 3d 12 be 92 ba c3 3d
       -0.0820902 -0.0419387 -0.142813 0.0955707
000080 fc 8f 47 bd da b1 bc 3d e7 c5 e9 3d 9a b1 28 3e
       -0.0487213 0.0921361 0.114147 0.16474
000090 a8 df 05 3e de 8b a4 3d 61 d8 b6 3d 47 ab 1a 3e
       0.130736 0.0803449 0.0892799 0.151044
0000a0 5d 7a 4a bd 05 07 ba 3d fb 02 0a 3e ac 4b 77 bd
       -0.0494331 0.0908337 0.134777 -0.0603749
0000b0 36 8f 8b 3e cf 22 45 bd f2 50 08 3c 4a 50 32 bd
       0.272577 -0.0481289 0.00832008 -0.0435336
0000c0 0d 00 15 3d 85 b3 ab 3e 5a bb 1d 3f e0 48 4c bf
       0.036377 0.335354 0.61614 -0.797987
0000d0 6e 86 8b bf 46 64 b3 3c de 8e 8c bf 00 36 44 bf
       -1.09004 0.0218984 -1.09811 -0.766449
0000e0 0a bc ab 3e ad 14 da be 3c f7 0a c0 2f c0 de 3e
       0.335419 -0.425939 -2.17134 0.43506
0000f0 6a f8 56 be 23 69 3f 3f c2 86 b3 bf b4 b0 ff be
       -0.209932 0.747698 -1.40255 -0.499395
000100 d9 93 40 bd e4 87 c2 be dc f4 73 bf 50 9d 18 3d
       -0.047016 -0.379943 -0.952955 0.0372594
000110 f8 aa b9 bf 78 6d 25 3d d8 81 bf bf d8 ef 21 bf
       -1.45053 0.0403876 -1.49615 -0.632566
000120 a0 fd 0c c0 cc ec 53 be 34 80 2b c0 40 dd 88 be
       -2.20298 -0.206958 -2.6797 -0.267313
000130 5e 13 42 be 29 b3 47 c0 5d 35 e7 be 0c 78 05 bf
       -0.189527 -3.12031 -0.451579 -0.521363
000140 b1 a7 fd bf 19 87 1f 3d 90 31 c3 bf ff 21 81 c0
       -1.98168 0.0389472 -1.52495 -4.0354
000150 6f 20 ae bc b8 91 42 be b8 02 3a 3f 9c 46 24 bc
       -0.0212557 -0.190009 0.726604 -0.0100266
000160 0c cc ea be 1c 27 3d 3f b2 d6 88 3e e4 10 11 be
       -0.458588 0.738878 0.267263 -0.141666
000170 9b 37 1a bf f8 aa ad 3e e3 ff 9e 3e f8 6b 46 c0
       -0.602411 0.339195 0.310546 -3.10034
000180 93 c4 82 be c6 16 06 bf b9 16 15 bf 45 81 8a bf
       -0.255406 -0.523785 -0.582378 -1.08207
000190 f8 38 6f bf 10 3b 81 c0 bb d2 ea be b0 55 ba bf
       -0.934463 -4.03846 -0.458639 -1.45574
0001a0 35 7e e9 3e ca 4f be bf 17 b5 b0 3d 85 7c 16 c0
       0.456041 -1.48681 0.0862829 -2.35135
0001b0 93 39 16 bf 9f b0 f0 bf 17 f0 12 bf 9a 08 11 c0
       -0.586816 -1.88039 -0.573976 -2.26615
0001c0 e4 0f 76 bf 14 3f ce bf 15 3b 0e 3f 0e 68 41 bf
       -0.96118 -1.6113 0.555589 -0.755494
0001d0 5f 5e 64 c0 50 fb ed 3e b5 89 d7 bf c5 72 2b be
       -3.56826 0.464808 -1.68389 -0.16743
0001e0 5e 9e 7e bf 5a f0 0e c0 9b 8f 2d c0 fa 60 79 be
       -0.994604 -2.23342 -2.71189 -0.243534
0001f0 be 6a df c0 44 69 fb bf 74 b5 89 bf 44 4d f4 3d
       -6.98178 -1.96415 -1.07585 0.119288
000200 b2 9d 1f c0 e7 c8 0a bf 62 2f ec be 20 24 8b 3f
       -2.494 -0.542128 -0.461299 1.08704
000210 6a de 1b c0 c4 94 82 c0 37 89 91 bf f0 4f e9 3e
       -2.43545 -4.08066 -1.137 0.455688
000220 1a 86 43 c0 f2 35 07 c1 91 f2 25 c0 ab 09 d6 bf
       -3.05506 -8.45067 -2.59293 -1.67217
000230 b9 19 96 c0 20 42 2c bf 52 2c 23 c0 aa f7 8f 3d
       -4.69064 -0.672884 -2.54958 0.0702966
000240 e4 66 04 c0 4b 3b 65 be b8 23 40 c0 3d 27 e9 bf
       -2.06878 -0.223859 -3.00218 -1.82151
000250 ee d1 1f 3f d2 0c 00 c1 10 06 8e bf 2c a0 bb 3d
       0.624297 -8.00313 -1.10956 0.0916141
000260 5f 29 bf bf b2 d7 31 c0 2d 60 1e c0 b0 8e 1b bf
       -1.49345 -2.77879 -2.47462 -0.607646
000270 d6 c5 67 c0 01 19 76 3f 02 29 79 bf 00 57 1a 40
       -3.62145 0.961319 -0.973282 2.41156
000280 cb 65 67 bf 49 a0 89 be 0a ba 7d bf 26 37 52 3f
       -0.903897 -0.268801 -0.99112 0.821154
000290 c2 c0 8f 3f 5a d9 ce be 23 bf 86 3e 17 4a b1 bd
       1.12307 -0.404002 0.263177 -0.0865671
0002a0 63 97 dc bf 69 57 a9 be 13 9b 89 c0 38 bc 20 3f
       -1.72337 -0.330745 -4.30018 0.627872
0002b0 b6 a4 be bd 2b 86 5b 3f 6e 51 f2 bf 6b 0d 55 3e
       -0.0930876 0.857516 -1.89311 0.208059
0002c0 11 39 b5 be 05 c2 b6 be 19 71 31 bf a8 47 a4 bc
       -0.353951 -0.356949 -0.693132 -0.0200537
0002d0 9f 1f b2 bf 62 10 b8 be 36 91 d1 be 4f 40 9b be
       -1.39159 -0.3595 -0.409311 -0.303225
0002e0 20 61 58 bd 99 f1 2a bf ae ba 36 bf ae 9b a2 be
       -0.052827 -0.667749 -0.713786 -0.317594
0002f0 d5 b2 91 bf 09 c1 ba be 9e 07 df 3f e6 22 86 3f
       -1.13827 -0.364754 1.74242 1.04794
000300 4a 43 51 3f 53 b1 a9 be c1 01 7d be f0 0f 40 3d
       0.817433 -0.331431 -0.247077 0.0468902
000310 a8 35 c5 3e 18 43 ed bf 9f 76 f0 3f 11 c5 cc 3e
       0.385175 -1.85361 1.87862 0.399941
000320 61 fd 0f be aa aa 06 bd ac c7 7d 3d 73 a1 8a 3e
       -0.140615 -0.0328776 0.061958 0.270763
000330 be f0 4f bd de 3a 87 3e 61 8a d2 be 93 c7 d3 3d
       -0.0507667 0.264121 -0.411212 0.103408
000340 61 35 f6 3e 07 7c b6 be 50 a6 11 3d 39 0c 36 3e
       0.480876 -0.356415 0.035559 0.177781
000350 65 ef 86 3d 60 bc c5 3d 0d 78 af bd b9 6a 03 bd
       0.0658863 0.0965507 -0.0856782 -0.0320842
000360 2c b6 59 be 15 02 d1 be fd b2 45 3c 20 1d a8 bd
       -0.212609 -0.408219 0.0120666 -0.0820868
000370 89 b4 e5 3e 25 92 68 be 9e 26 d3 be 3d d3 bb be
       0.448643 -0.22712 -0.412404 -0.366846
000380 72 c3 cf bd cb 65 73 3e 76 43 89 bd f1 9e 93 3d
       -0.101447 0.237693 -0.0670232 0.0720805
000390 e2 06 84 be 53 cf 42 be 0c 3d 02 3e e4 86 8f be
       -0.257865 -0.190244 0.127186 -0.280326
0003a0 be 36 16 bd 7e e0 f2 be 8a e3 25 bd 26 e5 7e be
       -0.0366733 -0.474369 -0.0405002 -0.248921
0003b0 51 85 1f 3e da 91 82 3e 76 38 8a 3e a8 8d 9a be
       0.155782 0.255019 0.269962 -0.301862
0003c0 45 12 0d 3e ff 08 e3 3d d8 48 d2 3d b1 f9 48 be
       0.137765 0.110857 0.102678 -0.196265
0003d0 48 6d a2 be 97 3b f3 bd 04 ab b2 be eb c3 da bd
       -0.31724 -0.118766 -0.348961 -0.106819
0003e0 5a d8 d3 3d cb f8 57 3e 74 41 7d 3c bc 42 7a bc
       0.10344 0.21091 0.0154575 -0.0152747
0003f0 e1 f6 7f 3d 01 32 d4 bd 25 63 a0 bd 69 e0 07 3e
       0.0624913 -0.103611 -0.0783141 0.132692

6.bias f4 [5]
000000 30 ac ac bc d6 7e a1 bc 84 a5 95 3c bd 06 98 bc
       -0.0210782 -0.0197138 0.0182674 -0.0185579
000010 6a 96 95 3c
       0.0182602
