artifacts/acas_benchmark/onnx/N_2_1.onnx (onnx, 54312 bytes, 14 tensors)

0.0.bias f4 [50]
0.162566 -0.581828 -0.801547 -0.0309025 -0.80615 -0.0449193 0.398231 -0.0129171
-0.151088 -0.0833659 0.017289 0.276964 -0.131788 0.162162 0.0952082 -0.501321
-0.318886 -0.0747224 -0.467965 -0.197454 -0.124737 -0.162732 -0.0641459 0.206512
-0.25668 0.193478 -0.912158 0.0034535 -0.295902 -0.706669 0.0515315 -0.100574
-0.11314 -0.685706 -0.755382 0.612299 0.0901586 -0.477876 -0.0693106 -0.630124
-0.499707 0.155584 -0.360529 0.0822959 -0.0468979 0.0532989 0.446511 -0.460732
0.162085 -0.618927
00000000: b477 263e aef2 14bf 2f32 4dbf 3d27 fdbc
00000010: d95f 4ebf 4dfd 37bd efe4 cb3e 3fa2 53bc
00000020: d0b6 1abe bebb aabd a9a1 8d3c 3ace 8d3e
00000030: 6ff3 06be cc0d 263e 84fc c23d 9356 00bf
00000040: 0745 a3be 0f08 99bd 1c99 efbe 6231 4abe
00000050: 1d76 ffbd 38a3 26be ed5e 83bd e277 533e
00000060: 906b 83be 191f 463e 3083 69bf 1e54 623b
00000070: 7880 97be 42e8 34bf b212 533d bef9 cdbd
00000080: f2b5 e7bd 6e8a 2fbf b760 41bf a1bf 1c3f
00000090: 12a5 b83d 2aac f4be b7f2 8dbd ce4f 21bf
000000a0: 99d9 ffbe 6951 1f3e 4297 b8be c18a a83d
000000b0: 0318 40bd f34f 5a3d 179d e43e 11e5 ebbe
000000c0: 9cf9 253e 0072 1ebf

0.0.weight f4 [50, 5]
0.0242586 0.215358 -1.67512 0.0489392 -0.0214581 -2.10531 -0.0591078 -0.0155554
0.00056395 0.00729671 -0.0335044 -0.217469 0.65978 0.278623 -1.67258 0.00466507
-0.0970378 -0.10375 -1.31273 0.438954 -0.483539 -0.0255582 0.0191186 -1.02543
-0.584972 -0.0622167 0.000417769 -0.488697 0.419286 -0.986861 -0.00512404 0.00260409
0.000397117 -0.377371 -0.563559 0.291278 -2.15315 0.408166 -0.0739676 -0.0757031
0.187148 1.46523 -0.426451 0.178251 -0.222091 -0.104022 0.00780313 -0.00587912
-0.0556003 -0.0302216 -0.00849451 -0.0320372 0.0965535 0.929161 -1.217 0.0288386
1.63764 0.305945 0.139741 -0.0923197 -1.01467 0.0989883 -0.0941548 -0.00925216
0.0535497 0.016843 0.0269672 -0.603252 0.128582 -0.423074 0.000929618 0.00172977
-0.050055 -0.627401 -0.473236 -2.07916 -0.00189537 0.0834804 -0.00482603 0.0141156
-1.65337 0.0818179 -0.0867731 0.000929149 -0.0260651 -0.670972 -0.00343537 -0.0351821
0.328944 -0.0015995 -0.00447838 0.436565 -0.549214 -0.114613 -1.60601 -0.0383047
-1.04022 -0.441022 0.0691863 -0.122379 -0.0110098 0.975297 -0.417488 0.282709
-0.72655 0.00113462 0.0246489 -0.0688285 -1.35747 0.836513 -1.02885 0.0221775
-0.00132325 -0.00509575 -0.126936 -0.26599 -0.310618 -0.0315233 0.0631361 0.223359
-0.0101554 1.22174 0.769491 0.394843 -0.312782 0.00860279 0.0195463 -0.00673362
0.691859 -0.787064 0.0742988 0.0720528 -0.0339982 -0.554855 -1.72414 0.0127156
-0.00625154 1.75622 0.0403366 -0.0245474 -1.58782 -0.0309545 0.0706132 0.00660367
-0.0700207 -1.71328 0.00645871 -0.00226721 -0.331592 -0.225972 -0.314796 0.545465
-0.0591957 0.0866129 -0.0113576 0.00101826 -0.869717 0.827865 0.308639 -0.949028
-0.798248 -0.187237 0.171357 0.0644221 0.110944 -0.0770685 0.256999 -0.391014
-0.689525 -1.17568 0.00245105 0.267029 -0.276599 -1.65386 -0.560233 0.117396
1.19861 -1.05315 -0.0406927 0.0666345 -0.0515638 0.191389 0.97396 0.11993
-0.0430912 -1.82405 0.00937442 -0.00622634 -0.0114474 -0.195155 -0.33522 1.39049
-1.51916 0.0660383 -0.21147 -0.0560721 0.522486 -1.48803 0.483245 -1.35786
-2.02372 0.0732572 -0.115669 -0.0128415 0.00603697 0.0100066 0.735572 -0.837463
0.0358615 -0.27643 -0.185979 1.31165 -0.398691 -0.280865 0.0597906 0.0266438
-0.26193 -0.584518 -0.360067 0.336245 -0.0722786 0.0485961 -1.08391 0.198335
0.00680873 -0.401388 -1.07226 1.20368 -0.0519881 -0.401089 -0.00915924 0.0125257
-0.024784 -0.553244 -0.706304 0.0556907 1.25769 -1.23158 0.0760164 0.056118
-0.0210796 0.316848 -0.601792 -0.275798 0.134227 -0.00620876 -0.0713229 0.115324
-1.58311 -0.569723
00000000: f9b9 c63c cf86 5c3e 556a d6bf 7874 483d
00000010: e6c8 afbc 66bd 06c0 051b 72bd 14dc 7ebc
00000020: 0bd6 133a 3d19 ef3b e93b 09bd 32b0 5ebe
00000030: 58e7 283f ada7 8e3e 1a17 d6bf 72dd 983b
00000040: c1bb c6bd e17a d4bd 8907 a8bf 94be e03e
00000050: 6c92 f7be 6e5f d1bc 9c9e 9c3c 4a41 83bf
00000060: bac0 15bf f0d6 7ebd 0208 db39 7e36 fabe
00000070: a8ac d63e eca2 7cbf 90e7 a7bb 61a9 2a3b
00000080: 2434 d039 c636 c1be 6745 10bf 6422 953e
00000090: 36cd 09c0 22fb d03e 537c 97bd 3a0a 9bbd
000000a0: baa3 3f3e a88c bb3f c957 dabe 6e87 363e
000000b0: d36b 63be 7d09 d5bd 66b1 ff3b a2a5 c0bb
000000c0: 24bd 63bd 4a93 f7bc 8f2c 0bbc 7039 03bd
000000d0: d7bd c53d 7fdd 6d3f a8c6 9bbf ed3e ec3c
000000e0: 309e d13f d3a4 9c3e 4418 0f3e 1c12 bdbd
000000f0: b5e0 81bf 61ba ca3d 3bd4 c0bd 5f96 17bc
00000100: ee56 5b3d 55fa 893c 51ea dc3c b96e 1abf
00000110: 00ab 033e 289d d8be 9cb1 733a 73b9 e23a
00000120: 7906 4dbd 5a9d 20bf fd4b f2be f510 05c0
00000130: 106e f8ba c6f7 aa3d ad23 9ebb 1e45 673c
00000140: a1a1 d3bf 2590 a73d 18b6 b1bd 2292 733a
00000150: 7a86 d5bc d2c4 2bbf f223 61bb 1b1b 10bd
00000160: 596b a83e 50a6 d1ba 60bf 92bb 7385 df3e
00000170: 4a99 0cbf 38ba eabd bc91 cdbf 64e5 1cbd
00000180: ee25 85bf a3cd e1be 8cb1 8d3d d7a1 fabd
00000190: 7362 34bc 10ad 793f fdc0 d5be 3cbf 903e
000001a0: 2eff 39bf 88b7 943a 7dec c93c f5f5 8cbd
000001b0: 94c1 adbf b725 563f 5bb1 83bf 97ad b53c
000001c0: e770 adba 40fa a6bb 83fb 01be d72f 88be
000001d0: 5309 9fbe 931e 01bd 804d 813d 39b8 643e
000001e0: d662 26bc fa61 9c3f 5dfd 443f dd28 ca3e
000001f0: f624 a0be b7f2 0c3c 901f a03c b3a5 dcbb
00000200: ac1d 313f 077d 49bf f829 983d 6b90 933d
00000210: b241 0bbd fa0a 0ebf 9fb0 dcbf 1855 503c
00000220: b8d9 ccbb d1cb e03f fe37 253d a117 c9bc
00000230: b03d cbbf 4b94 fdbc a79d 903d 9963 d83b
00000240: 0367 8fbd c24c dbbf 96a3 d33b 7995 14bb
00000250: 6dc6 a9be 3465 67be f12c a1be 98a3 0b3f
00000260: 3177 72bd 1b62 b13d 3a15 3abc 2377 853a
00000270: c6a5 5ebf f6ee 533f ee05 9e3e 80f3 72bf
00000280: fb59 4cbf 0ebb 3fbe 3678 2f3e bcef 833d
00000290: 9c36 e33d 17d6 9dbd 5f95 833e fd32 c8be
000002a0: b684 30bf af7c 96bf cca1 203b 06b8 883e
000002b0: 629e 8dbe afb1 d3bf 6e6b 0fbf 506d f03d
000002c0: 0d6c 993f 9fcd 86bf 63ad 26bd ab77 883d
000002d0: 9034 53bd 7afb 433e 7155 793f dc9d f53d
000002e0: 6680 30bd 787a e9bf 2b97 193c 5306 ccbb
000002f0: e08d 3bbc b6d6 47be f5a1 abbe 94fb b13f
00000300: d673 c2bf 173f 873d 978b 58be dcab 65bd
00000310: a4c1 053f c477 bebf e36b f73e 5bce adbf
00000320: a184 01c0 df07 963d dee3 ecbd 2865 52bc
00000330: c6d1 c53b b9f2 233c 724e 3c3f fa63 56bf
00000340: 82e3 123d 3c88 8dbe 4771 3ebe 26e4 a73f
00000350: 3a21 ccbe 8acd 8fbe fde6 743d 1944 da3c
00000360: b01b 86be f9a2 15bf b45a b8be 4e28 ac3e
00000370: cd06 94bd b40c 473d 90bd 8abf 5518 4b3e
00000380: c41b df3b ba82 cdbe d13f 89bf 3012 9a3f
00000390: 79f1 54bd 8a5b cdbe a310 16bc 9838 4d3c
000003a0: d107 cbbc 66a1 0dbf 57d0 34bf ee1b 643d
000003b0: fcfb a03f 6aa4 9dbf 7cae 9b3d fddb 653d
000003c0: 20af acbc e739 a23e 0a0f 1abf 6535 8dbe
000003d0: cd72 093e db72 cbbb be11 92bd fd2e ec3d
000003e0: 59a3 cabf 5ed9 11bf

1.0.bias f4 [50]
0.552667 -0.65039 0.797833 -0.362175 0.612626 0.75285 -0.122281 -0.00412945
-0.141453 -0.656488 0.247606 -0.0221705 0.739827 -0.226283 0.94934 -0.00591921
-0.601019 -0.226948 1.03944 -0.0566925 -0.914616 0.163332 0.30491 -0.708322
1.2788 1.05287 -0.225431 -0.235733 0.145609 0.79075 -0.0065291 0.60662
-0.675158 0.689737 -0.0395758 0.0268293 -0.428933 -0.0243698 -1.28911 -0.241658
-0.376342 -0.124747 -0.287583 -0.413969 0.0944862 0.162761 -0.340011 -0.40003
0.431481 -1.51409
00000000: 967b 0d3f f67f 26bf c93e 4c3f 006f b9be
00000010: 0fd5 1c3f c7ba 403f 766e fabd 5650 87bb
00000020: 0ed9 10be 990f 28bf 6d8c 7d3e e99e b5bc
00000030: 4d65 3d3f bbb6 67be f207 733f eff5 c1bb
00000040: 62dc 19bf 0e65 68be 5f0c 853f 6536 68bd
00000050: 4624 6abf 8140 273e 2a1d 9c3e 9754 35bf
00000060: b8af a33f 72c4 863f 62d7 66be fe63 71be
00000070: 871a 153e 986e 4a3f 0ff2 d5bb 734b 1b3f
00000080: 28d7 2cbf 9b92 303f 3c1a 22bd 1fc9 db3c
00000090: 1b9d dbbe 2da3 c7bc 8e01 a5bf 3275 77be
000000a0: e6af c0be 5b7b ffbd 143e 93be bff3 d3be
000000b0: fb81 c13d d2aa 263e ec15 aebe bbd0 ccbe
000000c0: 14eb dc3e b3cd c1bf

1.0.weight f4 [50, 50]
0.109954 -0.220712 0.820342 -1.64149 -0.00273168 1.12845 -1.64301 0.128164
0.291186 0.0021713 0.856528 -0.0723521 -0.280303 -1.41776 -4.31384 -0.148348
0.157232 0.0541576 0.0178614 -0.422829 0.47015 1.20963 0.234638 -0.536328
0.264196 0.180363 -0.0114482 -0.650892 0.0215777 -0.0392736 -0.251773 -0.668688
-0.204415 -0.0219298 -0.0422222 -0.449444 -0.0909396 -0.562288 -0.21178 1.09057
0.527711 -0.0587103 -0.370647 0.649356 0.239996 0.378344 -0.180705 -0.211996
-1.70812 -0.0304095 -2.01817 0.329284 -1.24657 0.525877 1.37986 0.7161
-0.0490013 1.26215 0.438875 -0.025844 -0.376631 -0.586549 -0.190664 0.529715
-0.124768 -0.160666 -0.124817 0.23692 1.96366 -0.299606 0.854847 -0.104593
0.225806 -0.00380551 -0.686885 0.259001 -1.2988 0.665299 0.108591 0.425545
-0.573177 0.409192 -0.00611395 0.436865 0.774319 -1.42168 0.123117 0.309196
-1.91211 -0.227191 -0.415549 2.66079 1.23451 -0.349203 -2.33695 0.583188
-0.779664 -0.0450082 -1.37499 -0.888868 -3.16102 -0.771546 -2.44458 0.624081
-1.47595 -1.04537 0.117337 -0.105343 0.155041 0.140681 -1.10884 0.39789
0.713708 -0.900157 0.0687053 -0.423681 0.623591 -0.649012 -0.269751 0.453882
0.000716538 -0.806654 -0.0628171 0.626309 0.293495 -0.545681 -2.48865 -0.871519
-0.400619 -0.206271 -0.410617 0.634183 0.22175 0.387244 -0.278886 -0.34233
0.00779693 -0.0483659 0.170209 1.35693 1.07011 0.0229022 -0.065886 0.611639
-2.07523 -0.100167 -0.226874 -0.133173 0.671113 0.786037 -0.0227819 -0.0738469
-0.929041 0.104813 -2.57127 -1.16308 1.35758 -0.414552 0.908025 0.0730358
-0.00114778 -0.621964 0.0120455 -1.13929 0.452251 1.0611 0.0165111 0.204959
-1.22618 -0.114835 -0.0642462 -0.553868 -0.391192 0.67027 -0.0732695 0.799857
-3.36042 -0.200338 0.232211 0.246511 -0.0517046 0.563213 0.0533096 0.135561
1.05981 0.0825289 0.844359 -0.533964 0.799166 1.52697 -0.0173818 -1.36026
1.11616 0.169442 1.20717 0.131234 -1.03606 -1.30597 0.554247 0.013733
-2.10512 0.024905 1.45536 -0.0919537 0.0204035 -0.880761 0.80901 -1.31717
-0.63448 0.188154 0.604722 0.388522 -0.111044 -0.374516 0.280798 0.255516
-0.385091 -0.300683 -0.283084 0.882547 0.304778 -0.0680986 0.365001 0.313871
0.162929 0.00882087 1.0554 -0.187296 0.368972 0.175906 0.922027 -0.796947
-0.115714 0.735569 -0.252589 1.02244 0.665744 -0.156856 -1.44524 2.71107
-0.411704 -1.69975 -0.446466 0.502675 0.269948 -1.0963 0.127114 -0.732528
0.0141791 0.739846 0.340462 0.519795 0.182602 0.654928 0.921686 -0.20256
00000000: 902f e13d 5402 62be ef01 523f 581c d2bf
00000010: fc05 33bb 0d71 903f 274e d2bf 6c3d 033e
00000020: 5516 953e 5e4c 0e3b 6b45 5b3f 562d 94bd
00000030: e083 8fbe 2979 b5bf fa0a 8ac0 8ae8 17be
00000040: 6d01 213e 5cd4 5d3d 1252 923c 0b7d d8be
00000050: 80b7 f03e 28d5 9a3f f244 703e cb4c 09bf
00000060: b344 873e 14b1 383e 3b91 3bbc dca0 26bf
00000070: b7c3 b03c 5bdd 20bd 64e8 80be 232f 2bbf
00000080: 2a52 51be 20a6 b3bc 30f1 2cbd 861d e6be
00000090: 8a3e babd 1bf2 0fbf dbdc 58be cc97 8b3f
000000a0: 1118 073f 367a 70bd 72c5 bdbe 323c 263f
000000b0: 83c1 753e 4eb6 c13e bb0a 39be 7b15 59be
000000c0: ada3 dabf 581d f9bc b329 01c0 ea97 a83e
000000d0: 9b8f 9fbf e09f 063f 419f b03f 5452 373f
000000e0: 96b5 48bd 228e a13f 39b4 e03e ccb6 d3bc
000000f0: c7d5 c0be 1328 16bf 6c3d 43be 679b 073f
00000100: 5d86 ffbd a185 24be 0ea0 ffbd 289b 723e
00000110: 3659 fb3f f565 99be 41d7 5a3f db34 d6bd
00000120: b039 673e dd65 79bb b2d7 2fbf c79b 843e
00000130: 143f a6bf 0951 2a3f f564 de3d 09e1 d93e
00000140: babb 12bf 9d81 d13e 8857 c8bb c5ac df3e
00000150: c539 463f 9cf9 b5bf c424 fc3d f04e 9e3e
00000160: 05c0 f4bf c2a4 68be d7c2 d4be 624a 2a40
00000170: 6c04 9e3f bcca b2be 9790 15c0 cf4b 153f
00000180: 0f98 47bf 855a 38bd acff afbf da8c 63bf
00000190: 274e 4ac0 0a84 45bf 0074 1cc0 c6c3 1f3f
000001a0: eeeb bcbf afce 85bf 624e f03d 12be d7bd
000001b0: 11c3 1e3e ae0e 103e 78ee 8dbf 3db8 cb3e
000001c0: 91b5 363f b070 66bf 5db5 8c3d b7ec d8be
000001d0: a9a3 1f3f a725 26bf ce1c 8abe 3963 e83e
000001e0: 0dd6 3b3a e080 4ebf 40a6 80bd c955 203f
000001f0: fa44 963e c0b1 0bbf 0b46 1fc0 df1b 5fbf
00000200: ef1d cdbe b438 53be 643c d2be d159 223f
00000210: 6f12 633e d844 c63e 25ca 8ebe e145 afbe
00000220: 647d ff3b 521b 46bd 454b 2e3e e2af ad3f
00000230: 5df9 883f 659d bb3c 3def 86bd 6094 1c3f
00000240: 91d0 04c0 5b24 cdbd a851 68be 815e 08be
00000250: 10ce 2b3f b939 493f 1ba1 babc 0b3d 97bd
00000260: a2d5 6dbf 33a8 d63d b08f 24c0 cedf 94bf
00000270: 2ec5 ad3f 2940 d4be 5474 683f cb93 953d
00000280: 1b71 96ba 0839 1fbf 7d5a 453c 41d4 91bf
00000290: 718d e73e 20d2 873f 4942 873c c6e0 513e
000002a0: 77f3 9cbf 9d2e ebbd 8393 83bd 4bca 0dbf
000002b0: 514a c8be d196 2b3f 520e 96bd 6ec3 4c3f
000002c0: 1f11 57c0 6825 4dbe b8c8 6d3e 616d 7c3e
000002d0: 34c8 53bd ba2e 103f 2b5b 5a3d 81d0 0a3e
000002e0: dba7 873f e904 a93d e927 583f ddb1 08bf
000002f0: 2596 4c3f c173 c33f 4764 8ebc 001d aebf
00000300: 55de 8e3f 3482 2d3e 8c84 9a3f 3562 063e
00000310: 9d9d 84bf 062a a7bf 22e3 0d3f 6000 613c
00000320: 49ba 06c0 9205 cc3c 3d49 ba3f 3952 bcbd
00000330: 3e25 a73c 8e79 61bf 481b 4f3f 0799 a8bf
00000340: 486d 22bf 71ab 403e 10cf 1a3f 5bec c63e
00000350: 096b e3bd 90c0 bfbe c1c4 8f3e fed2 823e
00000360: a62a c5be 1ff3 99be 63f0 90be 9aee 613f
00000370: dd0b 9c3e 4777 8bbd 69e1 ba3e b3b3 a03e
00000380: dcd6 263e 6985 103c 5917 873f 86ca 3fbe
00000390: e6e9 bc3e b420 343e f609 6c3f b804 4cbf
000003a0: 76fb ecbd 404e 3c3f 5853 81be 50df 823f
000003b0: 336e 2a3f dc9e 20be a0fd b8bf 2c82 2d40
000003c0: deca d2be 6891 d9bf 3197 e4be 4faf 003f
000003d0: a036 8a3e 8f53 8cbf 2c2a 023e f486 3bbf
000003e0: 754f 683c 8c66 3d3f 0951 ae3e 4911 053f
000003f0: 05fc 3a3e 5da9 273f 9df3 6b3f e36b 4fbe

2.0.bias f4 [50]
0.113538 -0.472491 -0.146405 -0.0399391 -0.328557 -0.284202 1.01061 0.611488
0.176704 -0.806866 -0.618649 -0.372391 -0.785102 -0.40175 -0.481047 -0.399036
-0.0856752 -1.59371 -0.874677 -0.307539 0.15539 -0.214197 0.320206 0.172618
-1.32446 0.456202 -0.307864 -0.280792 -0.140655 0.34281 -0.00654457 0.101644
0.285916 -0.0597304 -0.612524 0.631603 0.0737176 -0.224181 0.357451 0.834271
-0.118034 -0.0230687 1.62097 0.418847 -0.593869 -0.795908 0.116862 0.782311
0.862594 0.618408
00000000: 9c86 e83d 57ea f1be 31eb 15be 2f97 23bd
00000010: a038 a8be ed82 91be ab5b 813f 7a8a 1c3f
00000020: e5f1 343e c58e 4ebf c85f 1ebf 08aa bebe
00000030: 72fc 48bf 2db2 cdbe cb4b f6be 724e ccbe
00000040: 7b76 afbd b0fe cbbf d5ea 5fbf c075 9dbe
00000050: 8e1e 1f3e 7556 5bbe 0af2 a33e c6c2 303e
00000060: e887 a9bf 4f93 e93e 5aa0 9dbe f8c3 8fbe
00000070: dd07 10be cb84 af3e d573 d6bb bb2a d03d
00000080: 9563 923e dda7 74bd 5fce 1cbf bcb0 213f
00000090: 41f9 963d b48f 65be d103 b73e c992 553f
000000a0: cfbb f1bd 92fa bcbc f27b cf3f 1d73 d63e
000000b0: cc07 18bf a0c0 4bbf 5855 ef3d 8945 483f
000000c0: f6d2 5c3f fd4f 1e3f

2.0.weight f4 [50, 50]
-0.38577 -0.121951 1.07133 -0.177492 0.331354 0.820553 0.284974 -0.774203
0.231504 0.0156 -0.0325585 0.0306942 -0.0907682 -0.431465 0.291176 -0.0154526
0.153387 0.580129 0.550305 0.305872 -1.40312 0.480194 1.46199 -0.305786
-0.0217029 0.139473 -0.437796 -0.482429 0.459321 -1.0429 -0.0275292 1.03457
0.482928 -0.146013 -0.46972 -1.03484 -2.18839 0.0471285 0.643921 0.894923
0.0381856 -0.114631 -0.001958 0.062312 0.616625 1.7068 -0.200484 1.22085
-0.167206 -0.257601 -0.474382 -0.913191 0.59749 1.14885 -0.49875 1.32425
-0.394981 -0.000894539 0.241822 0.259557 0.204363 0.00204733 -0.174439 -0.40455
-0.0336055 -0.00839311 0.498388 1.998 -0.327558 0.910219 1.00033 1.00449
1.16324 0.275368 0.296324 -0.0359507 -1.11772 0.140981 0.0232634 1.19591
0.0153204 0.502028 0.48525 0.502737 0.0333938 -0.297294 -0.0688464 -0.022988
0.286521 0.395855 -0.274581 0.395241 -0.291073 -0.075567 -0.0363479 -0.0651444
0.0446806 1.5087 -0.786133 -0.561264 -0.542679 0.342257 -0.0998416 0.0180588
-0.118813 0.490423 0.403689 0.0412987 1.0261 -0.273513 0.128038 -0.00909128
-0.477797 0.529994 0.227407 0.0461815 -0.489646 -1.15013 -0.188675 0.0138217
0.353177 -0.553891 -0.912707 -0.0896551 0.075307 -0.884576 -0.010086 -0.529932
-0.368616 0.0150153 -0.0440093 -0.312967 -0.215334 -0.371099 -0.0230968 0.323165
-0.0366707 -0.0344322 -0.159053 -0.122849 -1.05899 0.380064 -0.074729 1.1779
-0.278285 0.290546 -0.0726934 -0.969389 0.174777 2.21576 0.34585 0.0283941
0.232751 -0.0788171 -0.247239 1.38345 -0.14301 0.193501 0.542823 0.359764
-0.280611 0.0399974 0.719396 0.589141 0.0668335 -0.0415178 0.685457 -0.108749
-0.56083 0.617589 -0.449704 -0.133394 -1.14442 -0.731565 -0.375484 -0.339566
-0.866692 -0.598868 -0.45782 0.207257 0.000116386 -0.314289 0.282259 -0.697501
0.403057 0.35304 0.1418 0.0209897 -0.0204645 0.358682 -0.00923647 1.03878
0.542093 0.475857 -0.261352 0.331201 0.380979 0.456956 -0.165981 -2.39551
0.151305 -0.781845 -0.515177 0.27907 -0.342257 0.956546 0.938812 0.0235249
0.465331 -0.1687 -0.409597 0.039647 -0.3856 -0.0875915 -1.70606 -0.0346022
-0.168732 -0.0451596 -0.686632 0.878738 -1.13059 1.10354 0.469991 0.784266
-0.685598 0.257918 -0.755657 -0.0357149 -0.419767 -0.490834 0.00968077 0.453707
0.45492 0.398493 -0.0304136 -0.422754 -0.674103 -0.0225969 0.226972 0.586002
-0.105644 -0.393506 0.302207 0.717313 -0.325466 0.365168 -0.0936731 1.83096
-0.357699 0.0485955 -0.00187286 -0.900855 0.576429 0.352799 -0.148759 1.1074
00000000: a583 c5be 72c1 f9bd 5721 893f 76c0 35be
00000010: 3ba7 a93e c30f 523f 1de8 913e 2b32 46bf
00000020: 620f 6d3e 2497 7f3c 105c 05bd 6772 fb3c
00000030: aee4 b9bd fbe8 dcbe 0515 953e e72c 7dbc
00000040: 7b11 1d3e 5683 143f cae0 0c3f 419b 9c3e
00000050: 7099 b3bf fddb f53e 7d22 bb3f fc8f 9cbe
00000060: 48ca b1bc 03d2 0e3e cc26 e0be ef00 f7be
00000070: 1f2c eb3e bf7d 85bf eb84 e1bc ca6c 843f
00000080: 5742 f73e 6f84 15be 247f f0be a375 84bf
00000090: 950e 0cc0 d009 413d 02d8 243f ac19 653f
000000a0: 8168 1c3d a8c3 eabd ca51 00bb de3a 7f3d
000000b0: 23db 1d3f 6c78 da3f ad4b 4dbe d044 9c3f
000000c0: 0d38 2bbe 47e4 83be 33e2 f2be e3c6 69bf
000000d0: 1bf5 183f 840d 933f 295c ffbe 0681 a93f
000000e0: f33a cabe 7f7f 6aba 30a0 773e a8e4 843e
000000f0: 8944 513e 7f2c 063b 23a0 32be 2d21 cfbe
00000100: eca5 09bd 4183 09bc b62c ff3e 77be ff3f
00000110: afb5 a7be 1d04 693f d00a 803f 2193 803f
00000120: 0ce5 943f 09fd 8c3e c8b7 973e 0b41 13bd
00000130: 7311 8fbf 535d 103e e392 be3c 9413 993f
00000140: 6a02 7b3c e884 003f b072 f83e 5fb3 003f
00000150: f0c7 083d eb36 98be 57ff 8cbd 5551 bcbc
00000160: e1b2 923e 82ad ca3e e195 8cbe 075d ca3e
00000170: 8507 95be dfc2 9abd 89e1 14bd 6d6a 85bd
00000180: 0103 373d 151d c13f 0340 49bf ffae 0fbf
00000190: 03ed 0abf 4f3c af3e c179 ccbd 0cf0 933c
000001a0: 3b54 f3bd b918 fb3e 53b0 ce3e d328 293d
000001b0: 3f57 833f e509 8cbe 651c 033e 98f3 14bc
000001c0: cfa1 f4be b0ad 073f 61dd 683e d028 3d3d
000001d0: e1b2 fabe 7637 93bf 0534 41be 6974 623c
000001e0: 9ed3 b43e cdcb 0dbf 2aa7 69bf 189d b7bd
000001f0: 8e3a 9a3d 9373 62bf c03f 25bc a0a9 07bf
00000200: 3dbb bcbe bc02 763c 1943 34bd 363d a0be
00000210: 8480 5cbe b000 bebe 8035 bdbc e275 a53e
00000220: 0434 16bd c708 0dbd cade 22be 4298 fbbd
00000230: fc8c 87bf c097 c23e 850b 99bd 6dc5 963f
00000240: 5f7b 8ebe 72c2 943e 47e0 94bd e129 78bf
00000250: bef8 323e 03cf 0d40 4013 b13e be9a e83c
00000260: 4756 6e3e dc6a a1bd 382c 7dbe e414 b13f
00000270: 3771 12be 2025 463e 73f6 0a3f fd32 b83e
00000280: 3fac 8fbe 50d4 233d 562a 383f f2d1 163f
00000290: 01e0 883d 920e 2abd 1c7a 2f3f ccb7 debd
000002a0: 8e92 0fbf 501a 1e3f 9a3f e6be 7098 08be
000002b0: 5b7c 92bf d847 3bbf 703f c0be 98db adbe
000002c0: 87df 5dbf 6a4f 19bf 6267 eabe 2e3b 543e
000002d0: 4214 f438 7dea a0be 4084 903e 6d8f 32bf
000002e0: 7d5d ce3e a9c1 b43e 0534 113e 97f2 ab3c
000002f0: 2ba5 a7bc 2ba5 b73e 9054 17bc bef6 843f
00000300: 9bc6 0a3f 87a3 f33e eecf 85be 2d93 a93e
00000310: ae0f c33e 23f6 e93e ecf6 29be 0950 19c0
00000320: b3ef 1a3e fe26 48bf a4e2 03bf 43e2 8e3e
00000330: 4f3c afbe 33e0 743f fc55 703f 4bb7 c03c
00000340: dd3f ee3e b1bf 2cbe b3b6 d1be e564 223d
00000350: 5d6d c5be 2c63 b3bd 2d60 dabf 09bb 0dbd
00000360: 15c8 2cbe 46f9 38bd 1dc7 2fbf f9f4 603f
00000370: 2cb7 90bf cc40 8d3f a9a2 f03e a8c5 483f
00000380: 5a83 2fbf d40d 843e bd72 41bf c949 12bd
00000390: b3eb d6be 984e fbbe 189c 1e3c 494c e83e
000003a0: 46eb e83e 4607 cc3e f125 f9bc 3673 d8be
000003b0: 0492 2cbf 221d b9bc 596b 683e 3a04 163f
000003c0: e25b d8bd 9e79 c9be e0ba 9a3e d3a1 373f
000003d0: 7ba3 a6be 4df7 ba3e afd7 bfbd e65c ea3f
000003e0: 5324 b7be 130c 473d c17a f5ba 6f9e 66bf
000003f0: da90 133f 12a2 b43e 4754 18be 48bf 8d3f

3.0.bias f4 [50]
-1.59708 0.126912 0.576845 0.241268 0.529727 -1.34351 -0.0225044 -1.03296
-1.08734 -0.394829 1.12613 -0.891788 -1.81592 0.13146 0.150375 -0.0299447
-1.20887 -1.30062 0.0253828 -1.69267 -0.382523 -0.88644 0.445492 -1.06084
-1.26019 -0.887518 -1.53339 -0.378825 0.905989 -0.492835 1.01401 0.983365
0.0144093 -0.199052 0.481032 -1.34149 1.0829 0.628406 -0.472692 -0.00342631
0.621032 -1.35118 -2.65407 0.147121 -0.826029 -0.600955 0.109817 0.106491
0.672791 -1.31472
00000000: 1e6d ccbf 38f5 013e 1dac 133f f50e 773e
00000010: 309c 073f 23f8 abbf 265b b8bc 0938 84bf
00000020: f52d 8bbf 0727 cabe 0725 903f 384c 64bf
00000030: 1170 e8bf 739d 063e e7fb 193e 964e f5bc
00000040: 41bc 9abf b77a a6bf 97ef cf3c 69a9 d8bf
00000050: 0eda c3be bbed 62bf 8717 e43e 9bc9 87bf
00000060: e84d a1bf 6134 63bf 2046 c4bf 5af5 c1be
00000070: e5ee 673f de54 fcbe 14cb 813f cfbd 7b3f
00000080: fc14 6c3c 4ad4 4bbe d449 f63e f2b5 abbf
00000090: 789c 8a3f 37df 203f b004 f2be f18b 60bb
000000a0: f4fb 1e3f 77f3 acbf 48dc 29c0 e3a6 163e
000000b0: a376 53bf 30d8 19bf bce7 e03d f417 da3d
000000c0: 083c 2c3f bf48 a8bf

3.0.weight f4 [50, 50]
-2.68845 -0.311658 -0.412302 -0.406799 -2.66052 -0.0558698 0.157082 -0.0074942
-0.0109341 0.183127 -1.13542 0.150235 0.349291 -0.296259 -0.403205 2.16085
-1.1554 0.125044 -0.280037 0.352667 -0.189551 -0.0490237 0.26449 0.221363
1.44528 0.495537 0.114242 -0.397357 -0.455481 0.0106623 -0.0280144 0.727664
0.530436 0.214993 -0.292092 -2.7799 -0.401521 -0.338042 -0.307975 -0.18754
0.148539 0.0437992 -0.82438 0.252854 -0.0857855 1.02316 0.427687 0.145227
-4.89556 0.0479226 0.148507 0.0454903 0.0133205 -0.0305748 0.026283 -0.0575612
-0.0558496 0.0410594 -0.136963 -0.0249192 -0.110098 0.102096 0.0941768 -0.0878927
-0.372901 0.24506 -0.261019 -0.0383382 0.145935 -0.00967662 -0.0485391 -0.0199248
-0.180214 -0.167427 0.570736 0.152194 -0.0942308 0.0431105 0.185337 0.124446
-0.0445385 0.204582 -0.213639 -0.111841 0.204076 -0.0928445 -0.188435 0.167117
-0.113336 0.00627814 -0.221474 -0.0267773 -0.163785 -0.101377 0.171936 0.215223
0.0973214 -0.149672 -0.491814 0.1093 0.118639 0.653747 1.11479 -0.524549
0.28449 0.370236 -1.31562 -0.22869 0.621343 0.175694 0.00647129 0.981779
0.270348 0.402315 0.248215 -0.771706 -1.88919 -0.156805 -0.0874586 0.608092
0.774561 0.0762152 -0.786348 0.76785 0.0767711 0.679275 -0.11938 0.675331
0.255557 0.665301 0.00175752 0.315524 0.235365 -0.565199 -0.430258 -0.764016
0.0773052 0.19072 -0.355948 0.830201 0.295942 -0.00786008 -0.849699 0.176585
0.591457 -0.420673 -0.247752 -0.744456 -2.84331 0.619529 -0.0531382 -0.254593
0.39279 -0.460172 -1.21727 0.351103 0.0753483 -0.729828 -0.181464 0.349157
0.25515 -0.872171 0.0229453 -1.11006 1.06002 -0.879593 -0.455433 0.199815
-0.753457 0.431294 0.847401 0.00859617 0.204791 0.271745 0.479946 -0.751929
-0.168653 -0.143999 0.477971 0.0568529 0.0432572 -0.679159 -0.430921 0.159593
-0.362029 0.16939 -0.232849 0.417676 -0.393944 0.167803 -0.352497 -0.0232097
0.177858 0.186866 0.561613 -2.40754 0.637271 -0.921805 1.08281 -0.368808
0.113852 -0.151429 0.0412342 -0.450665 0.453527 0.411746 -0.36775 -0.274001
-0.396837 0.264111 0.819038 -0.197496 -0.374408 0.247892 -0.652016 0.158797
0.249615 0.0561703 -0.394332 -0.028628 0.156271 0.27237 -0.18355 -0.430224
0.154017 -0.313159 0.077904 -1.03318 -0.206734 -0.451268 -0.00348832 -0.827171
-0.289418 0.147316 -0.278351 -0.717989 -0.031078 0.379122 0.146601 0.26297
0.19079 -0.00867949 0.273976 0.632682 0.804601 -0.394884 0.692292 0.166499
0.724702 -0.000785246 -0.416296 0.203344 0.229187 0.407788 -0.273761 0.389539
00000000: 910f 2cc0 a391 9fbe 3f19 d3be f547 d0be
00000010: f645 2ac0 bbd7 64bd 1bda 203e e891 f5bb
00000020: f024 33bc a585 3b3e 7155 91bf 34d7 193e
00000030: 45d6 b23e 42af 97be e370 cebe 5e4b 0a40
00000040: 26e4 93bf 890b 003e 0261 8fbe c590 b43e
00000050: a819 42be 13cd 48bd 3c6b 873e fbac 623e
00000060: effe b83f 07b7 fd3e b6f7 e93d 6072 cbbe
00000070: ce34 e9be edb0 2e3c 747e e5bc 3048 3a3f
00000080: a7ca 073f 2027 5c3e 158d 95be e2e9 31c0
00000090: 2994 cdbe d713 adbe e6ae 9dbe 7c0a 40be
000000a0: 9c1a 183e ca66 333d 910a 53bf 1476 813e
000000b0: 4fb0 afbd e8f6 823f caf9 da3e 63b6 143e
000000c0: 6da8 9cc0 7d4a 443d 3812 183e 0954 3a3d
000000d0: 3a3e 5a3c 0178 fabc 724f d73c 4bc5 6bbd
000000e0: 8dc2 64bd e72d 283d 0740 0cbe 5a23 ccbc
000000f0: 0f7b e1bd b517 d13d c4df c03d 1701 b4bd
00000100: e1ec bebe 02f1 7a3e 48a4 85be 8408 1dbd
00000110: fc6f 153e b08a 1ebc efd0 46bd 5639 a3bc
00000120: 058a 38be fc71 2bbe c11b 123f bed8 1b3e
00000130: 14fc c0bd a394 303d fcc8 3d3e 8bdd fe3d
00000140: 016e 36bd f27d 513e 2fc4 5abe e50c e5bd
00000150: 4df9 503e 4225 bebd 1bf5 40be b820 2b3e
00000160: b41c e8bd dbb8 cd3b 15ca 62be 115c dbbc
00000170: 41b7 27be bf9e cfbd fe0f 303e 6b63 5c3e
00000180: 7150 c73d 9e43 19be 0bcf fbbe aed8 df3d
00000190: 01f9 f23d f75b 273f 70b1 8e3f d848 06bf
000001a0: aca8 913e 938f bd3e 3c66 a8bf b62d 6abe
000001b0: 5610 1f3f 21e9 333e 1d0d d43b de55 7b3f
000001c0: 0e6b 8a3e 3bfc cd3e 132c 7e3e 868e 45bf
000001d0: fad0 f1bf 7d91 20be 7f1d b3bd ebab 1b3f
000001e0: a149 463f b716 9c3d 1a4e 49bf d191 443f
000001f0: 2b3a 9d3d f7e4 2d3f 807d f4bd 7ee2 2c3f
00000200: 5ed8 823e 2b51 2a3f 965c e63a 5d8c a13e
00000210: 8603 713e e2b0 10bf c74a dcbe 8d96 43bf
00000220: 3052 9e3d 1b4c 433e d13e b6be 0e88 543f
00000230: b685 973e 91c7 00bc e085 59bf b3d2 343e
00000240: ba69 173f 7462 d7be b3b2 7dbe ab94 3ebf
00000250: cbf8 35c0 7499 1e3f 71a7 59bd 045a 82be
00000260: c51b c93e aa9b ebbe 81cf 9bbf c6c3 b33e
00000270: 3650 9a3d 02d6 3abf b3d1 39be b5c4 b23e
00000280: 05a3 823e 9946 5fbf c8f7 bb3c 7216 8ebf
00000290: bcae 873f 022d 61bf 842e e9be 4e9c 4c3e
000002a0: 8fe2 40bf 91d2 dc3e 46ef 583f f3d6 0c3c
000002b0: bbb4 513e 2922 8b3e 7bbb f53e 6b7e 40bf
000002c0: 5fb3 2cbe 7974 13be 9db8 f43e 96de 683d
000002d0: 762e 313d 5ddd 2dbf ada1 dcbe 596c 233e
000002e0: dd5b b9be 9274 2d3e f86f 6ebe a1d9 d53e
000002f0: 07b3 c9be 8dd4 2b3e 7d7a b4be 4522 bebc
00000300: 6820 363e cd59 3f3e dfc5 0f3f 2315 1ac0
00000310: 3124 233f 6afb 6bbf 8599 8a3f 67d4 bcbe
00000320: 3d2b e93d 3410 1bbe 31e5 283d 90bd e6be
00000330: b134 e83e 5fd0 d23e ba49 bcbe dc49 8cbe
00000340: 382e cbbe 8f39 873e 79ac 513f 643c 4abe
00000350: 68b2 bfbe 67d7 7d3e 85ea 26bf ae9b 223e
00000360: 139b 7f3e d412 663d e2e5 c9be 4485 eabc
00000370: 8105 203e 1574 8b3e 88f4 3bbe 5246 dcbe
00000380: a2b6 1d3e 6056 a0be 228c 9f3d 3e3f 84bf
00000390: 14b2 53be 990c e7be 4c9c 64bb 7bc1 53bf
000003a0: 992e 94be 01da 163e 0684 8ebe 21ce 37bf
000003b0: 4a97 febc 471c c23e 931e 163e 01a4 863e
000003c0: 745e 433e 6b34 0ebc 9546 8c3e 73f7 213f
000003d0: 55fa 4d3f 3c2e cabe 0c3a 313f b77e 2a3e
000003e0: 1286 393f f8d8 4dba c024 d5be 6939 503e
000003f0: ffaf 6a3e 97c9 d03e 672a 8cbe a871 c73e

4.0.bias f4 [50]
-2.63901 -2.01371 -0.512194 0.649013 -0.828956 0.0687646 -0.77872 1.69166
-0.618007 -0.212073 0.495755 -1.3397 -0.021657 0.989799 0.985985 0.56455
-0.613627 0.162098 1.02506 -0.356615 -0.335927 1.01909 -0.120471 -0.676624
0.982763 1.02972 1.07912 0.729618 -1.41129 1.18978 1.10065 0.588091
0.230441 1.29656 -0.935904 0.0345051 -0.0332838 0.958101 1.15549 -1.97788
-0.0857724 0.965994 0.792399 0.447935 0.716385 0.836248 -0.313513 0.496579
0.899958 1.20534
00000000: 8ae5 28c0 a0e0 00c0 251f 03bf b725 263f
00000010: 7636 54bf 74d4 8c3d 325a 47bf 5188 d83f
00000020: b535 1ebf aa29 59be 99d3 fd3e 4a7b abbf
00000030: 056a b1bc 7863 7d3f 8369 7c3f 5986 103f
00000040: a916 1dbf 05fd 253e 2b35 833f 3e96 b6be
00000050: a0fe abbe 8b71 823f 80b9 f6bd 3b37 2dbf
00000060: 5b96 7b3f ddcd 833f 9b20 8a3f 3fc8 3a3f
00000070: 27a5 b4bf b64a 983f 19e2 8c3f 228d 163f
00000080: baf8 6b3e aef5 a53f 6897 6fbf 3855 0d3d
00000090: 9854 08bd 1b46 753f 19e7 933f 2c2b fdbf
000000a0: 71a9 afbd 624b 773f a9da 4a3f bc57 e53e
000000b0: 0265 373f 5914 563f c784 a0be 9a3f fe3e
000000c0: a663 663f 9548 9a3f

4.0.weight f4 [50, 50]
0.80067 -1.78095 0.521429 0.929711 0.0203129 0.980173 0.00666835 -0.0211514
-1.13066 -0.820263 -1.219 -1.80262 0.932854 0.547242 0.232711 -0.00787607
0.30975 -0.929653 0.221517 0.0552255 0.869585 1.12616 -0.670445 -1.7419
0.806021 -0.492349 -0.607227 -1.82519 0.009225 0.0666038 -1.42993 -0.598978
-0.784663 0.644358 -1.34289 0.348416 1.06267 0.503782 -0.266041 -0.0363976
-0.259689 -2.08997 -0.187849 -0.174153 1.61439 -0.779412 0.0114443 -1.23536
0.0104938 0.294793 0.665486 -0.207763 -0.0765155 0.343971 -0.400315 0.122219
0.0225307 0.0460137 -0.834896 0.0465025 0.241085 0.142832 0.158202 -0.151863
0.406986 -0.0713143 -0.157159 0.606298 0.390956 -1.21927 -2.18132 0.0232267
-0.17769 0.712772 0.0188691 0.0194879 0.192324 0.159856 -0.125404 -0.163653
0.105375 0.445453 -0.119504 0.0679226 -0.220122 0.37422 -0.211251 0.538992
0.514139 0.0270861 -0.140685 0.959104 0.590864 -0.619412 0.198808 0.459486
-0.145329 -0.472805 0.0704159 -0.0194935 -2.95792 0.220897 -0.00824083 0.0550074
-1.01419 0.176372 0.0289463 -0.471091 0.322436 -0.377166 0.457784 -0.0313127
0.661842 -0.125068 -0.237276 0.00990422 0.129523 -0.25768 -8.1982 -0.373123
-0.152351 -1.74686 0.845505 -1.62283 0.200021 -3.84397 0.680588 0.249838
1.32759 -0.155541 -0.280509 -0.531022 0.144756 0.105428 -0.201185 -0.147759
0.160655 -0.0552106 -0.291568 -0.0278275 -0.105102 -2.65004 -3.37452 -0.0315333
0.947355 -1.55239 0.069797 0.320532 -0.0507804 -0.797099 -0.456392 0.102473
-0.0507343 -0.0754695 -0.23945 -0.058423 0.0121922 0.0913777 0.167971 0.0237992
-0.0160928 0.137865 -0.198327 -0.168646 -0.234038 -0.0113334 0.00365014 -0.471232
-0.425343 -0.191955 -0.361663 0.15956 -0.0196655 -0.528603 0.427548 -0.17445
-0.219069 0.610629 0.034488 -0.260888 -0.135914 -0.0196177 0.0793072 0.185141
-0.0410962 0.0603608 -0.00746763 -0.225121 0.36673 0.0280386 -0.0412428 -0.28815
-0.0833242 -0.165056 0.0439055 0.182492 -0.169033 0.269506 -0.04843 0.0962804
-1.37309 0.0885322 0.438576 -0.132786 0.157923 0.156071 -0.0303222 -0.0845478
-0.444996 0.548611 0.781508 0.197181 -0.23487 -0.490676 -0.191447 0.0121033
0.21506 0.66651 0.746406 -0.103887 0.218155 -0.0577665 0.545669 0.264041
-0.343387 -0.264119 0.331057 -0.65088 0.580621 -0.66962 -0.0155784 -0.583596
-0.5538 -0.300456 0.204616 0.0623461 0.0192491 0.47948 -0.034694 0.0350165
-0.296271 0.253858 0.165375 -0.249687 0.0688396 0.0919452 0.191799 0.544265
-0.305071 -0.0911601 -5.1621 -1.06962 0.31214 0.0709453 -0.0883915 0.114716
00000000: b6f8 4c3f 2bf6 e3bf 5f7c 053f 8a01 6e3f
00000010: 3d67 a63c 9eec 7a3f 2d82 da3b b345 adbc
00000020: 78b9 90bf c2fc 51bf 3108 9cbf 41bc e6bf
00000030: 85cf 6e3f 0d18 0c3f cb4b 6e3e a20a 01bc
00000040: 8d97 9e3e bdfd 6dbf 5ad5 623e 2234 623d
00000050: 1f9d 5e3f 0326 903f 49a2 2bbf 94f6 debf
00000060: 6457 4e3f 2b15 fcbe 3b73 1bbf d39f e9bf
00000070: 7424 173c 9367 883d f207 b7bf 9f56 19bf
00000080: addf 48bf a5f4 243f d2e3 abbf 9563 b23e
00000090: 9205 883f dbf7 003f 8736 88be a615 15bd
000000a0: f5f5 84be 12c2 05c0 7d5b 40be 2a55 32be
000000b0: 55a4 ce3f 8b87 47bf e080 3b3c 4720 9ebf
000000c0: 30ee 2b3c 1cef 963e 4a5d 2a3f d3bf 54be
000000d0: 29b4 9cbd f81c b03e 16f6 ccbe f44d fa3d
000000e0: 4d92 b83c dd78 3c3d bfbb 55bf 6879 3e3d
000000f0: fcde 763e 8d42 123e b5ff 213e f981 1bbe
00000100: 7860 d03e 3b0d 92bd 4aee 20be 5936 1b3f
00000110: 632b c83e 0a11 9cbf bf9a 0bc0 ec45 be3c
00000120: 5ef4 35be 3a78 363f 5f93 9a3c 17a5 9f3c
00000130: 95f0 443e 4bb1 233e e869 00be a794 27be
00000140: d9ce d73d 6a12 e43e 83be f4bd 011b 8b3d
00000150: a967 61be c499 bf3e 2f52 58be 61fb 093f
00000160: 9d9e 033f abe3 dd3c bb0f 10be d787 753f
00000170: dd42 173f c991 1ebf 5394 4b3e c041 eb3e
00000180: 20d1 14be 7f13 f2be 3636 903d d5b0 9fbc
00000190: 904e 3dc0 d332 623e 8c04 07bc 714f 613d
000001a0: fad0 81bf dd9a 343e ca20 ed3c d732 f1be
000001b0: 5516 a53e e71b c1be aa62 ea3e bf41 00bd
000001c0: 7a6e 293f d311 00be 7bf8 72be 4f45 223c
000001d0: ada1 043e a2ee 83be d42b 03c1 fa09 bfbe
000001e0: e701 1cbe 1c99 dfbf 0473 583f e5b8 cfbf
000001f0: 4ed2 4c3e 9b03 76c0 043b 2e3f 88d5 7f3e
00000200: 78ee a93f 2446 1fbe e09e 8fbe 0ff1 07bf
00000210: eb3a 143e a3ea d73d 7103 4ebe 234e 17be
00000220: bf82 243e 8324 62bd 6748 95be 7ff6 e3bc
00000230: b83f d7bd 419a 29c0 23f8 57c0 1029 01bd
00000240: db85 723f b7b4 c6bf bbf1 8e3d c51c a43e
00000250: 1cff 4fbd ae0e 4cbf 36ac e9be 5ddd d13d
00000260: c5ce 4fbd c18f 9abd 6132 75be f54c 6fbd
00000270: cbc1 473c 3b24 bb3d 9700 2c3e 8af6 c23c
00000280: 0cd5 83bc 7c2c 0d3e 3c16 4bbe 89b1 2cbe
00000290: a8a7 6fbe baaf 39bc 3037 6f3b 5245 f1be
000002a0: 8fc6 d9be da8f 44be e52b b9be b263 233e
000002b0: 8b19 a1bc 8752 07bf 92e7 da3e 05a3 32be
000002c0: a053 60be 2f52 1c3f 4a43 0d3d 1d93 85be
000002d0: 0a2d 0bbe 4cb5 a0bc d06b a23d 9a95 3d3e
000002e0: 7d54 28bd e33c 773d 05b3 f4bb 1f86 66be
000002f0: 09c4 bb3e 35b1 e53c 36ee 28bd 6688 93be
00000300: e1a5 aabd 7104 29be 41d6 333d 2fdf 3a3e
00000310: fd16 2dbe b1fc 893e 895e 46bd a92e c53d
00000320: 6ac1 afbf 5f50 b53d 098d e03e 0ef9 07be
00000330: 91b6 213e 14d1 1f3e 4366 f8bc 6627 adbd
00000340: 84d6 e3be c571 0c3f e910 483f d1e9 493e
00000350: c381 70be e239 fbbe af0a 44be eb4c 463c
00000360: b038 5c3e 66a0 2a3f 7714 3f3f b5c2 d4bd
00000370: 0664 5f3e 919c 6cbd f7b0 0b3f 6230 873e
00000380: 6cd0 afbe 9b3a 87be 4e80 a93e 12a0 26bf
00000390: 94a3 143f 376c 2bbf 8c3c 7fbc 8c66 15bf
000003a0: d6c5 0dbf 5ed5 99be db86 513e a05e 7f3d
000003b0: 4ab0 9d3c 677e f53e 4c1b 0ebd 766d 0f3d
000003c0: d5b0 97be adf9 813e 1058 293e f3ad 7fbe
000003d0: c7fb 8c3d c44d bc3d f566 443e f354 0b3f
000003e0: 4432 9cbe 26b2 babd ec2f a5c0 4fe9 88bf
000003f0: d0d0 9f3e c54b 913d 9a06 b5bd 39f0 ea3d

5.0.bias f4 [50]
-0.215365 -0.0621094 -0.0716 -1.48827 -0.0133386 -0.0360931 -0.838673 0.0149603
-0.239361 0.0590718 -0.0638223 -0.919128 -0.403914 0.14372 -2.14405 -0.0470655
0.20942 -0.0347379 -0.738887 -0.0212696 -0.531304 -0.0430944 -0.122758 -0.391702
-0.329054 -0.0320802 -0.551147 0.0189694 0.0410187 0.54283 0.461774 -0.0131702
-0.968392 -0.27991 -0.736091 -1.1585 -1.6296 -0.229091 -0.214003 -1.26826
-0.101573 -0.39259 -0.33924 0.551802 -0.53329 -0.340165 0.032162 -0.569715
-0.0915195 0.229386
00000000: a488 5cbe 6d66 7ebd 05a3 92bd a27f bebf
00000010: 258a 5abc 5cd6 13bd 46b3 56bf 0c1c 753c
00000020: 0d1b 75be 46f5 713d 44b5 82bd f94b 6bbf
00000030: d1cd cebe 562b 133e 1d38 09c0 c1c7 40bd
00000040: 3272 563e 5449 0ebd b327 3dbf 963d aebc
00000050: 8a03 08bf c183 30bd 8c68 fbbd 2a8d c8be
00000060: c479 a8be 8766 03bd f817 0dbf b765 9b3c
00000070: 3903 283d e8f6 0a3f a46d ec3e d3c7 57bc
00000080: 8ae8 77bf 5d50 8fbe 7670 3cbf ba49 94bf
00000090: bc96 d0bf d596 6abe 9a23 5bbe 5856 a2bf
000000a0: 8105 d0bd 8e01 c9be deb0 adbe e542 0d3f
000000b0: b285 08bf 1b2a aebe 4dbc 033d d8d8 11bf
000000c0: 936e bbbd 2ae4 6a3e

5.0.weight f4 [50, 50]
-0.443748 0.168263 -0.0880947 0.208997 0.0270508 -0.185481 0.0569661 -0.576546
-0.432154 -0.423991 -0.0857315 -0.332877 0.0130542 -1.16518 0.217 0.178049
-0.670658 -0.0554122 0.163622 -0.299786 -0.589544 -0.0851874 -0.922511 0.0578446
-0.677581 0.915049 -0.284082 0.122197 -0.324538 -0.259015 -0.0585308 -0.200041
-0.497107 0.17978 -0.0982303 -0.441724 0.012596 0.438319 -0.562691 0.737789
0.401292 -0.265056 0.306771 -0.248493 -0.150401 0.459417 0.73599 -0.961672
0.0224662 0.433775 0.0318029 0.0256782 0.425165 -0.00918889 -0.0469303 -0.075336
-0.0436074 -0.00824651 0.089508 0.048771 -0.103649 0.331251 -0.0453707 0.0825812
0.243714 0.00121646 -0.0340412 -0.232673 -0.255464 0.0342911 -0.158289 -0.0140961
-0.126967 0.133658 -0.0821262 0.351321 -0.386696 0.0299873 -0.130746 -0.0908819
-0.334927 0.175886 0.26094 0.0485549 -0.0829893 -0.0488648 -0.0133161 -0.00083606
-0.253197 -0.125201 -0.0184486 0.0171339 0.0802588 -0.0376896 0.125137 0.297493
-0.342624 0.0839311 0.0807507 -0.124472 -0.091042 -0.0855035 0.435544 0.116171
-0.171705 -0.0363068 -0.300677 -0.0701128 0.0440325 -0.383212 -0.064087 0.264995
-0.03244 -0.139665 -0.0379423 0.137422 0.411591 -0.54231 0.334477 0.0491396
0.111909 0.161598 0.00807221 0.618452 -0.17015 0.375391 -0.0791483 0.012938
-0.229121 0.0240425 -0.281215 0.0908646 -0.0194183 0.0702898 0.0335097 0.0382241
-0.0214031 -0.110586 -0.0481755 -0.524358 0.0449853 0.0475399 -0.908708 0.020626
-0.357577 -0.137581 0.132991 0.131026 0.114581 0.102927 -0.217277 0.163107
-0.220934 0.00027478 -0.108663 0.0492831 0.0889724 0.398275 0.332211 0.0779686
-0.210622 0.451627 -0.0220354 -0.038315 0.200729 -0.415668 0.736439 -0.618563
-0.733159 0.0928839 0.232994 -0.131749 0.0352088 0.295671 -4.24858 0.0479303
0.125359 0.0939901 0.0330652 -0.114121 -0.113314 -0.186269 0.16756 0.112707
-0.190122 0.062931 -0.0432483 0.161698 0.184254 -0.0738352 -1.98286 0.0293733
0.169744 0.139305 -1.5304 -0.0824949 -0.121229 -0.993333 0.386592 0.555821
0.0967965 -0.0375359 0.271792 -0.163707 0.0384887 0.0405991 -0.0173768 -0.0141092
-0.0927792 -0.113651 -0.170812 -0.0968551 -0.0111881 -0.166217 -0.228139 0.0694441
-0.108169 0.0992967 0.0263885 0.0261678 -0.565953 -0.00997007 -0.0221085 -0.0433955
0.0239963 0.117531 -0.00659021 -0.0697259 -0.00389876 -0.0519267 0.0532037 0.130288
-0.102242 -0.194702 0.0964047 0.0668861 -0.0395888 -0.0115823 0.10664 -0.0292196
0.0239558 -0.109488 0.36361 0.0241374 -0.498265 -0.218361 -0.385983 -1.42354
0.0262119 -0.0391835 0.01052 -0.00932161 0.140426 0.0866567 0.0589726 -0.188402
00000000: f032 e3be 234d 2c3e fe6a b4bd 4f03 563e
00000010: a499 dd3c bbee 3dbe 4955 693d 8598 13bf
00000020: 4a43 ddbe 5915 d9be ff93 afbd db6e aabe
00000030: 49e1 553c 9e24 95bf 3f35 5e3e 7a52 363e
00000040: 3eb0 2bbf e7f7 62bd 878c 273e 8d7d 99be
00000050: 5bec 16bf bb76 aebd ae29 6cbf 76ee 6c3d
00000060: f375 2dbf a740 6a3f 3273 91be 6c42 fa3d
00000070: d829 a6be 9d9d 84be febd 6fbd 8cd7 4cbe
00000080: cf84 febe 4018 383e f82c c9bd a629 e2be
00000090: 745f 4e3c 596b e03e 840c 10bf bddf 3c3f
000000a0: 2576 cd3e 6cb5 87be 1711 9d3e f374 7ebe
000000b0: b802 1abe b438 eb3e d769 3c3f 2330 76bf
000000c0: 090b b83c c217 de3e c243 023d 175b d23c
000000d0: 3aaf d93e 008d 16bc fc39 40bd c349 9abd
000000e0: ac9d 32bd 5f1c 07bc f84f b73d 1ac4 473d
000000f0: ed45 d4bd bb99 a93e a1d6 39bd 5520 a93d
00000100: 2a90 793e a071 9f3a c96e 0bbd d541 6ebe
00000110: 2dcc 82be d374 0c3d 8316 22be 54f3 66bc
00000120: a303 02be a5dd 083e c831 a8bd 59e0 b33e
00000130: 05fd c5be eda7 f53c 48e2 05be 4a20 babd
00000140: 8d7b abbe 761b 343e ed99 853e 81e1 463d
00000150: 4bf6 a9bd 7526 48bd c62b 5abc 092b 5bba
00000160: 0aa3 81be b134 00be 8521 97bc 655c 8c3c
00000170: ba5e a43d 6960 1abd ea23 003e 0151 983e
00000180: 6a6c afbe 12e4 ab3d 9f60 a53d 2deb febd
00000190: 3a74 babd 761c afbd a0ff de3e 10eb ed3d
000001a0: 6fd3 2fbe 70b6 14bd 56f2 99be 4d97 8fbd
000001b0: 6c5b 343d 5d34 c4be 0c40 83bd 6dad 873e
000001c0: cedf 04bd 5704 0fbe 6369 1bbd 5ab8 0c3e
000001d0: 0ebc d23e d4d4 0abf 9240 ab3e 9b46 493d
000001e0: 8c30 e53d f279 253e 4d41 043c df52 1e3f
000001f0: cd3b 2ebe 4033 c03e 8118 a2bd e8f9 533c
00000200: b29e 6abe c7f4 c43c 6afb 8fbe 3817 ba3d
00000210: 2013 9fbc 19f4 8f3d 7841 093d e090 1c3d
00000220: 8e55 afbc ea7a e2bd ac53 45bd 533c 06bf
00000230: 8242 383d 33b9 423d 16a1 68bf dbf7 a83c
00000240: 5514 b7be 09e2 0cbe cb2e 083e ae2b 063e
00000250: 71a9 ea3d 64cb d23d dd7d 5ebe 8505 273e
00000260: 863c 62be 5910 9039 b58a debd 13dd 493d
00000270: 2937 b63d b3ea cb3e 8f17 aa3e 00ae 9f3d
00000280: 4bad 57be a73b e73e 9583 b4bc 30f0 1cbd
00000290: e78b 4d3e 70d2 d4be 4487 3c3f 255a 1ebf
000002a0: 4fb0 3bbf ea39 be3d fb95 6e3e 36e9 06be
000002b0: 1a37 103d 3062 973e 5ef4 87c0 9052 443d
000002c0: 1c5e 003e e27d c03d 606f 073d 45b8 e9bd
000002d0: 2c11 e8bd 4dbd 3ebe d994 2b3e edd2 e63d
000002e0: 57af 42be f8e1 803d 2125 31bd 2994 253e
000002f0: 15ad 3c3e e936 97bd 5bce fdbf 46a0 f03c
00000300: 5fd1 2d3e f8a5 0e3e 26e4 c3bf 16f3 a8bd
00000310: e946 f8bd 124b 7ebf 63ef c53e 494a 0e3f
00000320: 3e3d c63d 3ebf 19bd 5228 8b3e cfa2 27be
00000330: 54a6 1d3d 3e4b 263d ca59 8ebc 462a 67bc
00000340: 0503 bebd dbc1 e8bd 57e9 2ebe f75b c6bd
00000350: 4b4e 37bc ca34 2abe 459d 69be b538 8e3d
00000360: b587 ddbd 115c cb3d b22c d83c db5d d63c
00000370: 4ce2 10bf 8159 23bc e31c b5bc 7bbf 31bd
00000380: e393 c43c 18b4 f03d b0f2 d7bb 74cc 8ebd
00000390: 5782 7fbb 17b1 54bd 1fec 593d 386a 053e
000003a0: 4164 d1bd f65f 47be d46f c53d 94fb 883d
000003b0: de27 22bd b0c3 3dbc 1366 da3d f15d efbc
000003c0: f43e c43c 3f3b e0bd 172b ba3e ccbb c53c
000003d0: 971c ffbe 079a 5fbe 909f c5be 8f36 b6bf
000003e0: 57ba d63c e17e 20bd 145c 2c3c abb9 18bc
000003f0: d5cb 0f3e 1179 b13d 418d 713d 74ec 40be

6.bias f4 [5]
0.0888431 0.0550738 0.0932116 0.0427507 0.0873439
00000000: 5ff3 b53d 1195 613d b9e5 be3d 5c1b 2f3d
00000010: 5ce1 b23d

6.weight f4 [5, 50]
0.00489123 -0.00412104 0.0103019 0.0494871 -0.0191518 0.0115815 0.0423436 -0.00286722
0.0498379 0.00173214 0.0200854 -0.00773043 0.0304688 -0.0511473 -0.0135322 -0.00836498
-0.0163988 0.0329518 -0.0019894 0.0251909 0.0401267 0.0388231 -0.0204741 -0.0122988
0.00492122 0.0146215 -0.0203838 0.0380187 0.00131272 -0.022506 -0.0959028 0.0310521
-0.0121306 -0.0066569 0.0150211 -0.0115716 -0.011969 0.0119933 0.0390235 0.00462264
0.0363275 0.0105965 0.0172745 -0.0645359 0.179151 0.0358118 0.000698007 0.0582654
0.0221742 -0.0208482 -0.0360246 -0.0156774 0.0135287 0.0430781 0.0172604 0.0268688
-0.00263474 -0.00330046 0.0543538 0.0333592 0.0115573 -0.0347279 0.0215853 0.00676431
-0.021002 0.0162337 -0.04312 0.0344081 0.00335814 -0.00865212 0.0386794 0.0340425
0.00737204 0.00724675 -0.00575051 0.00373944 -0.0111206 0.0341931 -0.00626505 -0.0311975
-0.10096 0.0277561 0.0413846 -0.020155 0.00299564 -0.0129532 -0.00162181 0.0146814
0.00933916 -0.00706337 0.0146037 0.0133111 0.0187396 0.00686815 0.0828048 0.0368201
-0.00920409 0.057136 0.0205821 -0.0168471 -0.00611489 0.0100339 0.0299521 0.0451988
-0.0102613 0.002349 -0.000772758 -0.00924755 0.0516597 -0.00515741 0.0117158 -0.00119015
0.0250711 -0.00915767 0.00152969 -0.0141104 -0.0177657 0.0365272 0.0024499 0.00896321
0.0405073 0.031171 0.00811813 -0.0138018 0.0595345 0.0174171 -0.0234324 0.0412762
0.0347464 -0.0258405 -0.101548 0.0301585 0.0137172 -0.0112563 0.00250676 -0.0297244
-0.029809 0.0189294 0.0443305 0.0100748 0.0205425 -0.0084282 0.0144087 -0.00128821
0.147216 0.035568 -0.005643 0.0695709 0.0259935 -0.014659 0.0239919 0.0310775
-0.0296194 0.0177271 -0.0113155 0.0141022 -0.000111762 0.0352621 0.054636 0.0118716
-0.0188763 -0.0413368 0.0231533 -0.00983078 -0.0331738 0.0241988 0.0195921 0.0252067
-0.0392108 -0.0392317 0.0351641 0.0290981 0.00816032 0.0282045 -0.0216576 -0.0191863
-0.00672538 0.0216074 -0.0193292 -0.0289102 -0.0885643 0.0173154 0.0449712 0.0207629
0.0539853 0.0292873 -0.00217074 0.0161525 0.0246619 -0.00332262 0.0626746 0.0333167
0.00667728 0.005547 0.130597 0.0403117 -0.0377132 0.0279638 0.0146767 -0.0224917
0.0140077 0.0101509 0.0459511 0.0635216 0.0596733 -0.0190794 0.000213909 -0.0188531
0.0495574 -0.00644821 0.0206043 0.0150188 0.0245939 -0.00864996 0.0246017 -0.040042
-0.0111442 0.0408148 0.0257029 -0.0389985 0.0416612 0.0316358 0.00602747 -0.0252523
0.0660123 0.0212809 -0.0254455 0.0400124 0.0427278 -0.0253456 -0.0957054 0.0294366
0.0108385 -0.00847252 -0.0322819 -0.0487826 -0.0329242 0.0182975 0.0292403 0.0214112
0.0143416 -0.0336866 -0.00900918 2.57238e-05 0.186305 0.0335027 -0.00688309 0.0705459
0.0300086 -0.0117824
00000000: 9c46 a03b ca09 87bb 4dc9 283c fcb2 4a3d
00000010: 3ce4 9cbc 55c0 3d3c 7c70 2d3d f8e7 3bbb
00000020: d322 4c3d f908 e33a 238a a43c 8c4f fdbb
00000030: b499 f93c d57f 51bd 29b6 5dbc 450d 09bc
00000040: c756 86bc 77f8 063d 9860 02bb 255d ce3c
00000050: e55b 243d f904 1f3d 4db9 a7bc e880 49bc
00000060: 2f42 a13b 048f 6f3c edfb a6bc 7fb9 1b3d
00000070: 930f ac3a 815e b8bc b068 c4bd f960 fe3c
00000080: 6dbf 46bc 2022 dabb 0f1b 763c cf96 3dbc
00000090: a019 44bc 8c7f 443c 1bd7 1f3d 8479 973b
000000a0: 25cc 143d f19c 2d3c 4183 8d3c 662b 84bd
000000b0: 5c73 373e 65af 123d 75fa 363a b3a7 6e3d
000000c0: aba6 b53c d8c9 aabc 888e 13bd e46d 80bc
000000d0: 7ba7 5d3c a972 303d af65 8d3c f51b dc3c
000000e0: 9aab 2cbb 884c 58bb 17a2 5e3d a8a3 083d
000000f0: d45a 3d3c d83e 0ebd a8d3 b03c 25a7 dd3b
00000100: 630c acbc 89fc 843c 999e 30bd 82ef 0c3d
00000110: 3d14 5c3b 9fc1 0dbc 4a6e 1e3d 2670 0b3d
00000120: 2791 f13b 2576 ed3b c66e bcbb 6511 753b
00000130: 2d33 36bc 100e 0c3d 0c4b cdbb e691 ffbc
00000140: 1ec4 cebd c360 e33c e682 293d 191c a5bc
00000150: 8052 443b a939 54bc ea92 d4ba 418a 703c
00000160: 4703 193c d873 e7bb 5b44 6f3c cd16 5a3c
00000170: ca83 993c 380e e13b 9095 a93d acd0 163d
00000180: c0cc 16bc 7007 6a3d cb9b a83c ee02 8abc
00000190: 6a5f c8bb 3a65 243c 1b5e f53c 6022 393d
000001a0: 031f 28bc aef1 193b e992 4aba 0983 17bc
000001b0: 1f99 533d 7eff a8bb a0f3 3f3c cffe 9bba
000001c0: e861 cd3c 0d0a 16bc e17f c83a 4f2f 67bc
000001d0: 6089 91bc 8c9d 153d 808e 203b 6dda 123c
000001e0: fcea 253d 535a ff3c e801 053c f220 62bc
000001f0: 73da 733d 4eae 8e3c 4ef5 bfbc 3c11 293d
00000200: 3e52 0e3d 75af d3bc 66f8 cfbd f50e f73c
00000210: 1bbe 603c 586c 38bc 7448 243b 9680 f3bc
00000220: 0132 f4bc d411 9b3c e693 353d c610 253c
00000230: bf48 a83c 6f16 0abc 7812 6c3c 28d9 a8ba
00000240: cbbf 163e c0af 113d eae8 b8bb 307b 8e3d
00000250: 52f0 d43c 4d2c 70bc a98a c43c 3e96 fe3c
00000260: 62a4 f2bc 6c38 913c a664 39bc ea0c 673c
00000270: c461 eab8 fe6e 103d 00ca 5f3d 1981 423c
00000280: 78a2 9abc c750 29bd fdab bd3c 4811 21bc
00000290: 40e1 07bd 903c c63c 9d7f a03c 487e ce3c
000002a0: 819b 20bd 6bb1 20bd 3b08 103d 235f ee3c
000002b0: ddb2 053c 200d e73c 476b b1bc 962c 9dbc
000002c0: 9460 dcbb 0102 b13c 4558 9ebc 15d5 ecbc
000002d0: 3361 b5bd 07d9 8d3c b933 383d f516 aa3c
000002e0: b11f 5d3d ebeb ef3c f942 0ebb 3f52 843c
000002f0: c107 ca3c 50c0 59bb 8a5b 803d 1877 083d
00000300: 16cd da3b 9cc3 b53b 38bb 053e e21d 253d
00000310: 2879 1abd 5714 e53c 8b76 703c 8340 b8bc
00000320: 8d80 653c f64f 263c 3837 3c3d 9d17 823d
00000330: fd6b 743d 674c 9cbc c34c 6039 d171 9abc
00000340: b3fc 4a3d 824b d3bb 59ca a83c 6a11 763c
00000350: 2679 c93c 90b8 0dbc 8189 c93c 1503 24bd
00000360: 2a96 36bc 6b2d 273d e38e d23c e4bc 1fbd
00000370: efa4 2a3d 8a94 013d 1582 c53b e9dd cebc
00000380: 7531 873d 4855 ae3c 1573 d0bc 0be4 233d
00000390: 5803 2f3d 93a1 cfbc 3101 c4bd 0625 f13c
000003a0: f793 313c 53d0 0abc 073a 04bd 43d0 47bd
000003b0: 87db 06bd a4e4 953c 5b89 ef3c 8a66 af3c
000003c0: 08f9 6a3c f6fa 09bd 3d9b 13bc 71c9 d737
000003d0: bdc6 3e3e 213a 093d 8b8b e1bb 5e7a 903d
000003e0: 98d4 f53c f80a 41bc
