artifacts/acas_benchmark/onnx/N_4_1.onnx (onnx, 54312 bytes, 14 tensors)

0.0.bias f4 [50]
0.134823 -0.0238181 -0.11955 -0.380141 -0.45322 -0.79016 -0.592019 -0.0609974
0.0411919 0.138994 0.523039 0.168339 -0.20972 -0.300477 -0.660147 0.337758
-0.729383 -0.354288 0.330224 -0.0113531 -0.0360037 -0.024425 0.232812 0.18198
0.0352263 0.458882 -0.178321 0.0550811 -0.0150708 -0.458016 -0.050009 0.0670919
-0.323991 0.233887 0.179522 -0.471035 0.117804 -0.160583 -0.0259534 -0.196492
0.0936763 -0.264063 -0.350741 -0.684482 -0.215386 0.600053 0.276144 -0.57574
-0.582374 0.112395
00000000: 0a0f 0a3e 2d1e c3bc a1d6 f4bd d7a1 c2be
00000010: 740c e8be ed47 4abf 8f8e 17bf 69d8 79bd
00000020: d6b8 283d 7154 0e3e e2e5 053f 0f61 2c3e
00000030: d7c0 56be 1fd8 99be 65ff 28bf 9eee ac3e
00000040: d8b8 3abf 3d65 b5be 1f13 a93e 5a02 3abc
00000050: 9e78 13bd f016 c8bc 4566 6e3e f758 3a3e
00000060: 7449 103d 95f2 ea3e c899 36be b89c 613d
00000070: 84eb 76bc 1381 eabe 3dd6 4cbd 7a67 893d
00000080: 26e2 a5be 1380 6f3e 9dd4 373e 802b f1be
00000090: 3943 f13d df6f 24be 3a9c d4bc 3335 49be
000000a0: 5cd9 bf3d 4433 87be 5394 b3be 363a 2fbf
000000b0: 268e 5cbe 139d 193f bf62 8d3e b263 13bf
000000c0: 7616 15bf 5a2f e63d

0.0.weight f4 [50, 5]
0.0190726 -0.780016 0.60404 -0.279416 0.245609 0.014983 -0.000586773 -0.00310431
0.0122129 0.000668996 -1.07265 -0.0129129 -0.0202544 -0.129153 0.0597887 -1.61267
-0.0990762 0.0092816 -0.0492426 -0.140565 -0.114565 1.16273 0.67031 -0.656003
0.144041 -0.0824893 -0.00481159 -0.00371447 -0.378612 -1.60245 0.0386627 0.0302648
-0.112425 -0.748805 -1.28929 -0.10738 0.000997375 0.0022812 -0.0329268 -0.0145761
-0.228838 -0.0613463 -0.0869211 0.0867948 0.381765 0.018336 0.0300344 1.30536
0.00543312 -0.0109986 0.138367 1.74364 -0.651569 -0.0277626 0.00113603 0.0504267
-0.0188546 -0.163527 -0.905892 0.631797 0.00202082 0.0293435 -0.114185 -1.56582
1.09265 -0.10823 -0.862961 -0.231269 -0.251939 0.0964371 0.0146831 0.0112659
-0.0218142 -0.842337 -1.69006 0.0325931 -0.920358 0.0642363 -0.345407 0.00592128
-0.83506 -0.0312797 0.0118667 -0.880116 -0.326652 -0.00250287 -0.0103734 0.0117255
-1.59951 -0.570795 -0.0225296 -0.210317 0.696391 -0.311118 0.424942 0.00717049
-0.000109155 -0.000184048 0.00437753 -0.00599603 -0.041279 -0.137368 -1.1392 0.0758592
-0.0127438 -0.672515 -0.541385 -0.00828298 0.0298303 -0.0910278 0.0164325 0.118763
-0.639524 -0.271592 0.246179 -0.0994608 0.581721 -0.941143 0.234724 -0.490753
-0.400205 0.0509078 0.0255312 -0.185177 -0.120075 -0.0113 0.11043 -0.105374
-0.513843 -0.655783 -0.00266031 -0.160428 0.0959342 -1.09058 -1.40858 -0.401528
0.0163935 0.205223 -0.754102 -0.0910722 -0.264041 0.121441 0.634117 0.185321
-0.0866865 -0.00260591 -0.0137551 0.0193957 -1.76937 -1.05702 -0.554809 -0.502159
0.532557 0.0588323 -0.189915 0.0133655 0.0533784 2.14075 0.0370221 -0.033822
-1.59143 -0.039333 -0.00169082 -0.136929 0.0710614 -0.00754837 -0.0148108 0.0382179
0.181271 -0.886364 0.0201615 -0.886937 0.0558688 0.212718 -0.18491 -2.01963
0.00328112 0.000896336 -0.00305379 -0.00100556 0.0195926 -0.0457487 0.927999 -0.477826
0.247014 -0.553932 -0.129341 0.434338 -0.271324 0.501327 -0.387867 0.0239092
-0.0757617 0.160342 0.0290949 -0.165461 -0.697208 -1.13417 0.0496825 0.164643
0.184088 -2.5144 0.292316 -0.046777 -0.190962 -1.30622 0.188313 -0.0958642
0.0487345 -0.0828727 -0.00573033 -0.012735 0.000645098 -1.87871 1.18519 0.25423
-0.00851565 0.0162371 -0.888945 -1.14631 -1.19296 -0.120681 0.071895 0.0119609
-0.0842719 1.44318 -0.014447 0.00155285 -0.0653157 -0.0906248 0.374812 2.0973
0.0467862 -0.025158 0.15538 -0.309269 -0.0574535 0.0443991 -1.26804 0.0541758
-0.0581536 -0.145328 1.52932 0.302216 -0.980383 0.025812 -0.00374027 -0.889528
-0.600683 0.324436
00000000: 243e 9c3c 21af 47bf 5ea2 1a3f 9d0f 8fbe
00000010: ed80 7b3e 427b 753c abd1 19ba ae71 4bbb
00000020: 9e18 483c 905f 2f3a 984c 89bf a190 53bc
00000030: 8eec a5bc af40 04be ffe4 743d f86b cebf
00000040: 76e8 cabd da11 183c 9cb2 49bd 45f0 0fbe
00000050: 0ea1 eabd 56d4 943f 7099 2b3f d0ef 27bf
00000060: 7c7f 133e 26f0 a8bd 8baa 9dbb 776e 73bb
00000070: 6fd9 c1be 151d cdbf c85c 1e3d e3ed f73c
00000080: 143f e6bd afb1 3fbf 7407 a5bf 0cea dbbd
00000090: 5aba 823a 2f80 153b 41de 06bd 98d0 6ebc
000000a0: 8254 6abe 4246 7bbd b103 b2bd 79c1 b13d
000000b0: b476 c33e 6135 963c b40a f63c 0916 a73f
000000c0: 5008 b23b 7933 34bc 14b0 0d3e 982f df3f
000000d0: 3acd 26bf 646e e3bc d7e6 943a 3a8c 4e3d
000000e0: f674 9abc 9f73 27be 8ae8 67bf 73bd 213f
000000f0: bc6f 043b c861 f03c d3d9 e9bd ca6c c8bf
00000100: f5db 8b3f b1a7 ddbd 03eb 5cbf c8d1 6cbe
00000110: 26fe 80be d080 c53d 6391 703c 9c94 383c
00000120: b1b3 b2bc 66a3 57bf e353 d8bf 5880 053d
00000130: 959c 6bbf 528e 833d 30d9 b0be 4c07 c23b
00000140: 7ec6 55bf 251f 00bd 8c6c 423c 484f 61bf
00000150: ee3e a7be 3107 24bb 31f5 29bc 501c 403c
00000160: bebc ccbf 9f1f 12bf ff8f b8bc 575d 57be
00000170: ae46 323f dc4a 9fbe ff91 d93e 6ef6 ea3b
00000180: 25ea e4b8 02fd 40b9 6271 8f3b 587a c4bb
00000190: 2b14 29bd 32aa 0cbe 4ed1 91bf 115c 9b3d
000001a0: 5fcb 50bc f129 2cbf 3598 0abf 56b5 07bc
000001b0: ac5e f43c c96c babd 739d 863c 043a f33d
000001c0: d8b7 23bf 1b0e 8bbe 5916 7c3e 1bb2 cbbd
000001d0: abeb 143f bfee 70bf 7d5b 703e fa43 fbbe
000001e0: abe7 ccbe b384 503d cf26 d13c 0a9f 3dbe
000001f0: e2e9 f5bd a323 39bc 2029 e23d 53ce d7bd
00000200: 378b 03bf 65e1 27bf 9858 2ebb 3d47 24be
00000210: 2679 c43d 2098 8bbf 594c b4bf 1495 cdbe
00000220: a94b 863c fa25 523e d40c 41bf 1084 babd
00000230: 6230 87be 0fb6 f83d 7e55 223f cac4 3d3e
00000240: b188 b1bd eac7 2abb 125d 61bc bbe3 9e3c
00000250: b77a e2bf 6e4c 87bf f607 0ebf 7e8d 00bf
00000260: a855 083f 23fa 703d 1479 42be f8fa 5a3c
00000270: 4fa3 5a3d 0c02 0940 7ca4 173d f088 0abd
00000280: fab3 cbbf a41b 21bd 819e ddba 1e37 0cbe
00000290: a488 913d 5158 f7bb ffa8 72bc 5f8a 1c3d
000002a0: 1b9f 393e c0e8 62bf bb29 a53c 4e0e 63bf
000002b0: afd6 643d bfd2 593e 0c59 3dbe 9e41 01c0
000002c0: 0f08 573b 17f8 6a3a 1822 48bb ffcc 83ba
000002d0: a980 a03c fd62 3bbd 5891 6d3f 9ca5 f4be
000002e0: 3df1 7c3e 7dce 0dbf f871 04be 8d61 de3e
000002f0: fbea 8abe f756 003f 8196 c6be 3add c33c
00000300: f328 9bbd b130 243e 6d58 ee3c 9c6e 29be
00000310: 397c 32bf 7c2c 91bf e17f 4b3d 2d98 283e
00000320: 9181 3c3e eeeb 20c0 71aa 953e 3d99 3fbd
00000330: 8b8b 43be 3832 a7bf 20d5 403e 7354 c4bd
00000340: d49d 473d 2ab9 a9bd 7ec5 bbbb 76a6 50bc
00000350: cb1b 293a 9279 f0bf 4eb4 973f 6f2a 823e
00000360: 3a85 0bbc ab03 853c e691 63bf 49ba 92bf
00000370: eab2 98bf 9a27 f7bd b03d 933d a7f7 433c
00000380: bf96 acbd 1fba b83f 1cb3 6cbc 0089 cb3a
00000390: 3dc4 85bd 7f99 b9bd 5ce7 bf3e 2a3a 0640
000003a0: e3a2 3f3d 2618 cebc ef1b 1f3e 8258 9ebe
000003b0: 5c54 6bbd d5db 353d 224f a2bf 72e7 5d3d
000003c0: 7832 6ebd ddd0 14be c2c0 c33f 0ebc 9a3e
000003d0: 61fa 7abf b073 d33c 511f 75bb 1bb8 63bf
000003e0: 5cc6 19bf 7a1c a63e

1.0.bias f4 [50]
0.432822 -1.25937 -0.457137 -0.652483 0.0116892 0.96861 -0.001097 -0.0144965
-0.0155353 -0.17113 1.34641 -0.0236382 1.13674 -0.986887 -0.202731 0.288836
-0.189539 -0.676432 -0.773032 1.26426 -0.511365 1.36038 -0.0432718 -0.273574
0.308975 -0.0526436 1.1708 -0.0106433 -0.506442 0.1564 0.185592 -0.0237029
-0.951728 -0.322857 -0.382485 -0.134576 -0.0145515 -0.269761 -0.885234 9.96807e-05
-0.0100039 1.25124 0.171112 -0.409106 -0.699444 0.44459 0.535841 0.046942
0.211387 0.584567
00000000: d89a dd3e 0933 a1bf dc0d eabe 2009 27bf
00000010: 0f84 3f3c d3f6 773f 36c9 8fba ba82 6dbc
00000020: c587 7ebc b43c 2fbe 2a57 ac3f e6a4 c1bc
00000030: b280 913f a0a4 7cbf b798 4fbe 50e2 933e
00000040: 8316 42be a62a 2dbf 6de5 45bf 46d3 a13f
00000050: d1e8 02bf ef20 ae3f c53d 31bd e411 8cbe
00000060: f931 9e3e d1a0 57bd c6dc 953f 3c61 2ebc
00000070: 2fa6 01bf 5227 203e d40b 3e3e 962c c2bc
00000080: 72a4 73bf 834d a5be 13d5 c3be 4ace 09be
00000090: 6a69 6ebc 1d1e 8abe b29e 62bf ab0b d138
000000a0: 66e7 23bc a228 a03f fc37 2f3e 5776 d1be
000000b0: c30e 33bf 4da1 e33e e02c 093f 4146 403d
000000c0: d575 583e 2fa6 153f

1.0.weight f4 [50, 50]
-0.259792 0.0145022 0.0668882 -0.095573 -0.322459 -3.86994 0.715509 0.115475
-0.468432 0.22439 0.205166 -0.343103 0.0172372 0.731974 -0.510901 0.0254667
-0.247444 -0.133445 0.78425 0.0124335 -2.48183 0.13475 1.33862 -1.23696
0.493492 1.22499 0.426664 -0.821168 0.464638 -0.016469 -0.43907 -0.506021
0.431725 -0.500911 -1.00494 0.370332 0.53441 -0.763374 -0.570046 0.0503726
-0.367638 -0.401878 -0.261913 -0.00928872 -0.258522 0.0126179 -0.521736 0.335232
-0.652165 0.0468908 0.50467 0.0221439 -0.104646 0.0466607 0.470237 -2.03388
0.113892 -0.0572188 -0.302775 0.340206 -0.844637 0.182309 -0.609713 0.453121
0.552448 0.390857 0.370669 0.824974 0.426431 -0.000673826 -2.89201 0.13327
-1.10611 0.881859 -0.266518 -0.500227 0.289402 -0.0499207 0.12832 -1.38492
-0.121904 0.541914 0.241116 0.597297 0.288638 -0.3569 0.297767 0.192549
0.390691 -0.40628 1.05808 0.60909 0.498554 -0.282835 -0.173843 0.111584
-0.474243 0.252285 -0.595338 -1.23166 0.305853 0.0211362 -0.0889641 1.96858
-0.177847 0.948365 0.0037303 0.129128 0.200259 0.0680626 0.224461 -0.087244
-0.128022 0.90917 -0.458786 -0.273755 0.16994 0.0312679 0.0445439 -0.0345444
-0.00197254 -0.0747437 -0.168113 -0.701876 -0.0164716 0.683852 0.272502 -0.104707
0.147571 -0.146645 0.110776 -0.359359 0.527743 0.0692618 -0.549278 1.46583
-0.0520097 0.54674 0.156895 0.519711 -0.657358 1.23853 0.0333678 -0.504072
0.637068 -4.00976 0.152647 -0.206151 0.0789222 0.0139902 -0.0156891 -0.0434506
-0.314447 0.433419 -0.0436068 -0.0310179 -0.0281785 0.0170652 -0.722446 0.0132096
-0.362805 -4.37811 0.0230586 -2.37522 -0.0568589 0.252039 -0.033391 -0.0183064
0.117836 -0.004671 0.175452 0.471344 -1.10336 0.0906092 0.0446602 1.75166
-7.27011 0.401104 -0.639757 0.0329148 -0.329083 -0.455767 -0.577483 0.60754
-0.627067 0.0827519 0.994893 0.0275707 -0.468443 -0.0946548 -0.0500327 -0.0687155
-0.0481201 -0.0230147 0.256425 -0.0830952 0.176092 -0.0138357 0.580606 0.798794
-0.609325 -0.0506799 0.258586 -0.572141 0.0431254 -0.370744 -0.0663543 0.235532
0.0769294 0.0297599 0.161234 0.262333 0.270043 0.0868356 0.0833729 -0.442385
-0.822445 0.0562018 -0.127867 0.0317942 0.267065 -0.138998 -0.0535714 -0.262808
0.412 0.112694 0.0941222 0.207196 -0.123472 0.250604 0.180797 0.0809611
1.06907 0.00197197 -0.373475 1.74485 -0.390455 0.162992 0.218825 -0.0783434
0.387686 0.647912 -0.257912 0.925522 -0.218343 -2.01772 0.184691 -0.0240296
0.243488 -0.143217 -0.33318 0.0159034 0.162191 -0.90468 -0.42845 -1.08128
00000000: 7503 85be a39a 6d3c aefc 883d c7bb c3bd
00000010: 5919 a5be 19ad 77c0 992b 373f 287e ec3d
00000020: 52d6 efbe 7ec6 653e 0917 523e 32ab afbe
00000030: 0735 8d3c a662 3b3f 68ca 02bf 8a9f d03c
00000040: f661 7dbe cea5 08be 9cc4 483f e1b5 4b3c
00000050: 4dd6 1ec0 e7fb 093e e657 ab3f b554 9ebf
00000060: fcaa fc3e 79cc 9c3f b473 da3e 1138 52bf
00000070: 08e5 ed3e ffe9 86bc c8cd e0be 988a 01bf
00000080: 0f0b dd3e b43b 00bf e0a1 80bf 289c bd3e
00000090: 18cf 083f 7a6c 43bf 89ee 11bf 8053 4e3d
000000a0: 0c3b bcbe f4c2 cdbe 7619 86be b72f 18bc
000000b0: ff5c 84be 4fbb 4e3c 7e90 05bf 87a3 ab3e
000000c0: 49f4 26bf 9110 403d 0e32 013f 2067 b53c
000000d0: a450 d6bd 4a1f 3f3d e7c2 f03e 172b 02c0
000000e0: 3540 e93d 435e 6abd 5305 9bbe 7b2f ae3e
000000f0: 213a 58bf 36af 3a3e 2716 1cbf 7aff e73e
00000100: 3b6d 0d3f 691e c83e 54c8 bd3e 7f31 533f
00000110: 2a55 da3e b3a3 30ba b116 39c0 ee77 083e
00000120: 0395 8dbf 83c1 613f 0c75 88be e00e 00bf
00000130: 802c 943e a679 4cbd 5166 033e 0f45 b1bf
00000140: cea8 f9bd e0ba 0a3f 1de7 763e 75e8 183f
00000150: 5cc8 933e 99bb b6be eb74 983e 912b 453e
00000160: a708 c83e ef03 d0be 2a6f 873f 52ed 1b3f
00000170: 7842 ff3e c0cf 90be e603 32be 2786 e43d
00000180: facf f2be 802b 813e 1268 18bf 09a7 9dbf
00000190: c498 9c3e d325 ad3c cf32 b6bd 6efa fb3f
000001a0: 861d 36be 0cc8 723f 0d78 743b 213a 043e
000001b0: b210 4d3e 6864 8b3d 1bd9 653e fbac b2bd
000001c0: 3318 03be 5dbf 683f 00e6 eabe 9e29 8cbe
000001d0: c004 2e3e c512 003d aa73 363d 6e7e 0dbd
000001e0: bb45 01bb 3a13 99bd d025 2cbe 25ae 33bf
000001f0: 73ef 86bc ed10 2f3f 6285 8b3e a070 d6bd
00000200: da1c 173e 1b2a 16be 87de e23d e7fd b7be
00000210: 2a1a 073f 21d9 8d3d 7c9d 0cbf 51a0 bb3f
00000220: 2008 55bd 27f7 0b3f 15a9 203e c80b 053f
00000230: 9d48 28bf 2788 9e3f adac 083d dd0a 01bf
00000240: e316 233f f44f 80c0 7f4f 1c3e 3f19 53be
00000250: f6a1 a13d 2737 653c 6d86 80bc 42f9 31bd
00000260: 32ff a0be 18e9 dd3e 0b9d 32bd 4019 febc
00000270: 99d6 e6bc 51cc 8b3c 39f2 38bf 146d 583c
00000280: 94c1 b9be 7a19 8cc0 64e5 bc3c 9b03 18c0
00000290: e1e4 68bd 410b 813e 00c5 08bd 4ef7 95bc
000002a0: 0054 f13d 300f 99bb b0a9 333e 0054 f13e
000002b0: e73a 8dbf 5191 b93d 9ded 363d 6536 e03f
000002c0: bea4 e8c0 815d cd3e 1dc7 23bf abd1 063d
000002d0: 917d a8be 4b5a e9be edd5 13bf be87 1b3f
000002e0: 7787 20bf d479 a93d 4fb1 7e3f f3db e13c
000002f0: c3d7 efbe 60da c1bd 17ef 4cbd b6ba 8cbd
00000300: 9519 45bd 5389 bcbc 234a 833e d12d aabd
00000310: 7651 343e 22af 62bc 98a2 143f c37d 4c3f
00000320: b9fc 1bbf ba95 4fbd 6265 843e d577 12bf
00000330: 42a4 303d 28d2 bdbe c3e4 87bd 4d2f 713e
00000340: 298d 9d3d 09cb f33c 871a 253e 8350 863e
00000350: 1343 8a3e ddd6 b13d 69bf aa3d 4980 e2be
00000360: c18b 52bf dc33 663d 91ef 02be a33a 023d
00000370: bebc 883e 7e55 0ebe af6d 5bbd c58e 86be
00000380: aaf1 d23e 1dcc e63d 24c3 c03d 302b 543e
00000390: e3de fcbd 2b4f 803e d922 393e efce a53d
000003a0: 49d7 883f 2b3c 013b 1d38 bfbe 3f57 df3f
000003b0: b8e9 c7be 60e7 263e a913 603e 8172 a0bd
000003c0: c87e c63e 90dd 253f 0b0d 84be 03ef 6c3f
000003d0: 4f95 5fbe 5322 01c0 a31f 3d3e b9d9 c4bc
000003e0: eb54 793e 7aa7 12be 9296 aabe d947 823c
000003f0: 6615 263e 1c99 67bf cc5d dbbe 6267 8abf

2.0.bias f4 [50]
0.759662 -0.838962 -1.12003 -0.510973 -0.135125 -0.829951 -0.714161 1.5105
0.282935 -0.294371 -0.455873 -0.735098 -0.368556 -0.141824 -0.984596 -0.144471
0.632478 -0.631877 -0.00854198 0.617061 -1.30531 0.654451 -0.896892 0.0228113
-0.347494 -0.138658 -0.819985 -1.01807 -0.882696 -1.58562 -1.11313 -0.888299
-1.03111 -0.482538 -0.363474 -0.67015 -0.645362 0.362043 -1.36927 -2.15332
0.321092 1.49177 0.130302 -0.706037 1.15474 -0.735467 -0.207057 -0.957388
-1.30007 -0.165565
00000000: 3579 423f 37c6 56bf 255d 8fbf 20cf 02bf
00000010: 355e 0abe ab77 54bf 41d3 36bf 1058 c13f
00000020: dbdc 903e ccb7 96be 3068 e9be 622f 3cbf
00000030: 5fb3 bcbe 503a 11be 7c0e 7cbf 35f0 13be
00000040: 14ea 213f b1c2 21bf a9f3 0bbc b6f7 1d3f
00000050: 6614 a7bf 1a8a 273f b79a 65bf c3de ba3c
00000060: bcea b1be 5dfc 0dbe 89ea 51bf 1e50 82bf
00000070: 5df8 61bf 99f5 cabf 0b7b 8ebf 9067 63bf
00000080: 6afb 83bf 390f f7be 4419 babe f38e 2bbf
00000090: 7236 25bf b35d b93e 3d44 afbf ffcf 09c0
000000a0: 2c66 a43e 52f2 be3f e36d 053e d7be 34bf
000000b0: 85ce 933f 9147 3cbf c006 54be 6117 75bf
000000c0: b268 a6bf df89 29be

2.0.weight f4 [50, 50]
0.581204 0.249288 -1.5312 1.22818 0.355242 0.305721 -0.0201104 -0.0203555
0.0421327 -1.50837 -0.261762 -0.0271798 -0.0794247 0.187242 0.312663 0.118608
-0.553984 -0.0478198 0.226016 0.546165 0.612789 0.818194 0.752725 -0.288647
-1.79609 1.34818 -0.848001 -0.0156601 -0.50205 -0.0688548 -1.75602 0.0373994
-0.0246161 -1.71157 0.169338 0.36 -0.00182319 -0.0658437 -0.293292 0.0111924
0.0155011 -0.833983 1.1296 0.869708 1.49281 -0.0399691 0.0434317 0.580893
-0.606439 -1.38235 -0.343903 1.11531 -0.18481 0.760499 0.0922097 -0.0398472
-0.0184452 0.0229227 0.0486495 -0.00400186 -0.55849 0.0104912 0.865498 0.466169
0.17473 0.0428291 0.682781 -0.828628 0.00617367 -0.487005 0.0854022 -0.474931
0.708418 -0.190311 0.0827709 0.135924 -0.320565 -0.00877266 1.27166 0.906842
1.15192 -0.00997209 1.37942 -0.145415 0.21731 0.0789932 -0.039717 0.0212761
-0.025963 -0.443705 0.0181926 -0.670387 0.0596286 1.08002 -0.146661 0.780579
-0.10796 0.221133 -0.18798 0.674058 0.578383 0.68477 0.0719437 -1.31027
0.593509 -0.872901 -0.0315711 0.00691693 -0.0134803 -1.09955 -1.58439 0.0435551
-1.68966 -0.582503 -0.350623 1.11268 0.0135837 0.681753 1.24004 0.22388
0.736326 -0.779301 1.51735 0.504144 1.42383 0.335738 -4.52055 0.00367084
1.16787 0.243164 1.91702 0.0223521 -0.557338 0.821254 1.37811 1.52355
-0.0248553 -0.0928032 -0.761167 0.310858 -0.0157693 -0.302976 0.585095 0.387041
0.794721 -0.0944836 0.0276243 0.13239 -0.500812 -0.72887 0.24931 -0.132798
1.23769 -0.414878 0.175859 -0.0729134 0.0195241 -0.00550989 0.0140983 -0.102131
-0.354187 0.0080251 0.205888 1.1133 0.354355 0.310126 0.439434 -1.07442
0.113397 0.0450462 0.058262 0.617874 -0.0394969 0.332325 0.241642 0.286917
0.144639 0.0119153 -1.04774 0.257379 0.066957 0.0226506 -0.8115 -0.357483
-0.426898 -0.17847 0.0256672 0.0460911 -0.311271 -0.371438 0.0382868 0.165564
-0.202561 -1.1906 -0.642782 -0.476973 -0.484414 -0.0340703 0.0374431 -0.901385
1.01124 0.250071 0.776765 0.0230734 -0.0539415 -0.592572 -0.0294669 -0.0309936
-0.0059168 0.34576 -0.632226 -0.0151612 -0.894074 -1.49718 -0.375253 0.706746
-0.297827 0.311271 -0.427166 -0.0578551 -0.00595593 -0.194505 0.0438034 -0.0248364
0.00485858 -0.627862 0.0027448 0.000744451 -0.771245 -0.30412 1.26545 0.0412657
-0.172268 -0.248032 0.264988 0.178929 0.0145636 -0.0336957 0.323933 -0.157371
-0.0193265 0.33704 -0.37898 -1.08045 -0.0929897 -0.219537 0.924275 -0.195917
-0.531326 0.264873 0.0483426 -0.39153 -0.126109 -0.15116 0.168366 0.778999
00000000: c9c9 143f 5a45 7f3e 5dfe c3bf 0135 9d3f
00000010: 48e2 b53e 7787 9c3e 91be a4bc 94c0 a6bc
00000020: 5793 2c3d 4512 c1bf ab05 86be 2ca8 debc
00000030: 6ba9 a2bd 5ebc 3f3e 5d15 a03e c0e8 f23d
00000040: e5d1 0dbf b2de 43bd bd70 673e 78d1 0b3f
00000050: bddf 1c3f 2975 513f 96b2 403f 8ac9 93be
00000060: 47e6 e5bf 2a91 ac3f 9816 59bf 9c49 80bc
00000070: 5986 00bf bf03 8dbd 43c5 e0bf 1d30 193d
00000080: b4a7 c9bc ba14 dbbf f166 2d3e ec51 b83e
00000090: 1bf8 eeba 10d9 86bd 5e2a 96be 5460 373c
000000a0: 53f8 7d3c e97f 55bf bc96 903f 2fa5 5e3f
000000b0: 6614 bf3f a4b6 23bd 70e5 313d 67b5 143f
000000c0: 963f 1bbf d8f0 b0bf 0e14 b0be 7ac2 8e3f
000000d0: d53e 3dbe 10b0 423f 70d8 bc3d d136 23bd
000000e0: 631a 97bc 63c8 bb3c b344 473d 0922 83bb
000000f0: 33f9 0ebf 48e3 2b3c 4791 5d3f b4ad ee3e
00000100: 6cec 323e 916d 2f3d bcca 2e3f f720 54bf
00000110: 7f4c ca3b b858 f9be 59e7 ae3d 282a f3be
00000120: e25a 353f e3e0 42be ca83 a93d a92f 0b3e
00000130: 1821 a4be 34bb 0fbc c1c5 a23f cc26 683f
00000140: 1d72 933f fa61 23bc d690 b03f abe7 14be
00000150: 8386 5e3e 30c7 a13d 4bae 22bd 374b ae3c
00000160: 5bb0 d4bc 4d2d e3be a608 953c 7c9e 2bbf
00000170: 1e3d 743d 183e 8a3f 4d2e 16be 06d4 473f
00000180: 221a ddbd b070 623e d47d 40be 118f 2c3f
00000190: e910 143f 164d 2f3f 3857 933d edb6 a7bf
000001a0: 35f0 173f 7176 5fbf b350 01bd 6aa7 e23b
000001b0: 7adc 5cbc 0ebe 8cbf 4bcd cabf d566 323d
000001c0: c746 d8bf eb1e 15bf dc84 b3be 4c6c 8e3f
000001d0: 2b8e 5e3c 5d87 2e3f a1b9 9e3f cc40 653e
000001e0: dc7f 3c3f 4580 47bf 8638 c23f 950f 013f
000001f0: 1040 b63f dae5 ab3e 58a8 90c0 7a92 703b
00000200: c47c 953f fcff 783e e960 f53f c01b b73c
00000210: b4ad 0ebf b43d 523f e965 b03f b003 c33f
00000220: 589d cbbc 9b0f bebd d7db 42bf c828 9f3e
00000230: 9e2e 81bc ac1f 9bbe c9c8 153f 3d2a c63e
00000240: d672 4b3f 9e80 c1bd 5b4c e23c 3f91 073e
00000250: 3735 00bf 3997 3abf 1f4b 7f3e 33fc 07be
00000260: a06c 9e3f e46a d4be 6214 343e 9f53 95bd
00000270: 01f1 9f3c 4f8c b4bb 8efc 663c 0f2a d1bd
00000280: 0058 b5be b67b 033c 4ed4 523e 9d80 8e3f
00000290: 056e b53e d6c8 9e3e 7efd e03e 9886 89bf
000002a0: b03c e83d 5d82 383d 23a4 6e3d fe2c 1e3f
000002b0: 80c7 21bd 8126 aa3e 0071 773e c9e6 923e
000002c0: 3f1c 143e 6438 433c 581c 86bf 2ec7 833e
000002d0: c020 893d c08d b93c 77be 4fbf 0308 b7be
000002e0: 6092 dabe d7c0 36be 0544 d23c 05ca 3c3d
000002f0: ea5e 9fbe 1f2d bebe 9fd2 1c3d 9c89 293e
00000300: 276c 4fbe 9565 98bf 5c8d 24bf ce35 f4be
00000310: 1d05 f8be 4d8d 0bbd f05d 193d 2bc1 66bf
00000320: 5070 813f 4e09 803e 12da 463f 6d04 bd3c
00000330: c3f1 5cbd ccb2 17bf 9164 f1bc 4ae6 fdbc
00000340: b7e1 c1bb 7407 b13e 90d9 21bf af66 78bc
00000350: 09e2 64bf 98a3 bfbf 2921 c0be 4eed 343f
00000360: c87c 98be ea5e 9f3e 80b5 dabe 78f9 6cbd
00000370: f629 c3bb 522c 47be 326b 333d b575 cbbc
00000380: b934 9f3b 90bb 20bf 1ae2 333b 4327 433a
00000390: 5070 45bf 9eb5 9bbe 44fa a13f 3906 293d
000003a0: 0667 30be 1afc 7dbe 82ac 873e 2a39 373e
000003b0: 2a9c 6e3c 8104 0abd 8cda a53e dd25 21be
000003c0: 9c52 9ebc 8290 ac3e ab09 c2be 304c 8abf
000003d0: 6271 bebd 4fce 60be 499d 6c3f 779e 48be
000003e0: fb04 08bf 6f9d 873e e402 463d 9f76 c8be
000003f0: b822 01be b0c9 1abe 2368 2c3e 7a6c 473f

3.0.bias f4 [50]
-0.682008 -3.08437 0.585556 -0.539836 -0.550253 0.0256048 -1.72901 -0.129861
-0.830579 -0.196812 -0.616064 0.343399 -1.59721 0.157645 0.883178 -0.70012
-0.286934 0.637162 1.25167 -0.0116285 -0.557847 -1.00338 1.05572 -1.24139
0.186378 0.00173742 0.105161 0.548058 0.0885662 0.157973 -0.0757978 1.25859
-1.46196 0.629023 -0.747984 0.0996423 1.00611 0.777117 0.32539 -1.76365
-0.533279 -0.776928 -0.731043 0.647566 -0.143471 0.751274 0.447306 1.29458
-0.552126 1.03809
00000000: 1498 2ebf 5166 45c0 ffe6 153f b132 0abf
00000010: 61dd 0cbf 28c1 d13c 3350 ddbf 48fa 04be
00000020: d3a0 54bf 1689 49be 5fb6 1dbf fed1 af3e
00000030: 6171 ccbf b16d 213e f417 623f 103b 33bf
00000040: 03e9 92be 0d1d 233f b936 a03f 7785 3ebc
00000050: 10cf 0ebf c16e 80bf d521 873f dee5 9ebf
00000060: e0d9 3e3e 24ba e33a a65e d73d 874d 0c3f
00000070: 3262 b53d adc3 213e e13b 9bbd 7a19 a13f
00000080: 8121 bbbf a707 213f e17b 3fbf 4311 cc3d
00000090: 36c8 803f 24f1 463f 8599 a63e 48bf e1bf
000000a0: f984 08bf c1e4 46bf a225 3bbf e3c6 253f
000000b0: 10ea 12be 7e53 403f 4b05 e53e ccb4 a53f
000000c0: 2158 0dbf 22e0 843f

3.0.weight f4 [50, 50]
-0.478062 0.155137 0.448606 0.503823 -2.72379 -0.509578 -0.740534 -0.795735
0.61705 0.279017 1.82674 0.27963 -0.0678328 -0.038721 0.276034 -0.0274862
0.121961 -0.274236 0.0349122 0.240559 1.27284 0.504962 -0.0590282 -2.35489
-2.30141 0.870506 -1.63305 -1.41333 0.330179 0.0106156 -1.22954 -0.007178
-1.94051 -0.170268 1.22023 -0.822069 -0.827838 0.503444 -1.11098 -0.334906
0.162351 0.235324 -0.262988 -0.112187 -0.603811 0.0601741 -0.181155 -0.927828
-0.0193443 -0.715858 -0.0493443 -0.10332 0.553298 0.201571 3.08705 0.696007
2.23145 0.316129 1.05501 0.132017 0.0133047 0.0481236 -0.659774 -1.60474
-0.00347528 0.067497 -0.00532433 0.146651 -0.0328122 -1.19369 0.0670576 1.19409
-0.0426762 2.00831 0.643319 -0.360113 0.337621 -0.323272 0.239482 0.713771
1.09083 -0.482378 -0.383618 -0.138529 1.01552 0.178842 0.308809 0.0130702
2.20966 1.48866 1.10925 -0.237579 0.470614 0.475995 -0.388798 -1.27789
0.62788 1.78337 0.174905 -0.270541 -0.447215 -0.726529 0.223595 -0.090164
-0.29383 0.932698 0.296191 -0.45874 0.602208 0.350148 0.086742 0.0889811
0.606112 0.223657 -0.0410699 0.941611 0.188155 0.044661 -0.0291272 0.320086
0.30267 -0.457299 -0.224484 -1.0738 -0.406624 0.0157369 1.47486 -0.191107
-0.0249473 0.237253 0.165199 0.0855259 0.476963 0.393337 0.560294 -0.140847
0.284964 -0.0390307 0.488846 0.402983 -0.363315 0.191157 0.00767444 -0.526079
-0.0144393 0.246414 -0.11268 -0.449472 0.336007 0.114675 0.179694 0.179393
0.218635 -0.0654106 0.927068 0.319135 0.579082 0.275198 -0.378987 -0.592962
-0.33525 0.226653 -0.409412 0.0240244 -0.0621375 0.600053 0.0407719 0.425847
-0.0438014 -0.11137 -0.378122 -0.523936 0.240793 -0.16304 -0.265942 -0.244754
1.8717 -0.850504 -0.070778 -0.336752 -0.249385 0.104183 -0.526986 -0.0649249
0.169807 0.309322 0.173576 0.50903 -0.138909 0.640968 0.276454 0.0105241
-0.0811148 0.0961633 0.214243 0.0187172 -0.321252 -0.454396 -0.786984 0.357235
-0.152628 0.166959 0.278445 -0.767247 0.184741 0.445536 0.734904 0.474414
0.603998 0.713482 0.163195 0.104328 -0.245931 -0.486986 -0.502144 -0.0581749
0.438001 0.0173692 0.000624643 -0.164111 0.129191 0.65654 0.0654551 -0.27978
-0.902081 -0.192905 -0.0804623 -0.676728 -0.0152783 1.19936 0.342092 -0.108359
0.783022 0.917787 0.071122 -0.856111 0.278147 -0.0385617 -0.675484 0.419539
0.118723 0.0463425 0.429901 -0.0108164 -0.144936 -0.930681 -0.486362 0.743051
-3.06037 -0.879332 -0.07672 -0.404691 0.405383 -0.105806 0.0390672 0.416461
00000000: 8bc4 f4be 3cdc 1e3e b0af e53e 8bfa 003f
00000010: 9352 2ec0 b473 02bf a393 3dbf 4ab5 4bbf
00000020: fdf6 1d3f 51db 8e3e 9ed2 e93f aa2b 8f3e
00000030: eceb 8abd e999 1ebd 5454 8d3e bd2a e1bc
00000040: b0c6 f93d a968 8cbe 1800 0f3d 1955 763e
00000050: 6cec a23f 3145 013f 8ec7 71bd 85b6 16c0
00000060: 4d4a 13c0 7bd9 5e3f c807 d1bf ffe7 b4bf
00000070: 390d a93e 0eed 2d3c 9161 9dbf 6e35 ebbb
00000080: a262 f8bf bc5a 2ebe 7f30 9c3f 1d73 52bf
00000090: 31ed 53bf b5e1 003f 9834 8ebf cd78 abbe
000000a0: 573f 263e c6f8 703e 5da6 86be 4cc2 e5bd
000000b0: 5c93 1abf 1e79 763d b280 39be 2386 6dbf
000000c0: f077 9ebc 7842 37bf 401d 4abd 7099 d3bd
000000d0: f0a4 0d3f a168 4e3e 3a92 4540 842d 323f
000000e0: 14d0 0e40 a9db a13e 910a 873f 772f 073e
000000f0: f5fb 593c 411d 453d f3e6 28bf 1f68 cdbf
00000100: 86c1 63bb de3b 8a3d b877 aebb ae2b 163e
00000110: 1666 06bd d5ca 98bf 7f55 893d f1d7 983f
00000120: 3dcd 2ebd 2788 0040 8eb0 243f bb60 b8be
00000130: a9dc ac3e e883 a5be c53a 753e b2b9 363f
00000140: 51a0 8b3f 40fa f6be 9469 c4be 8cda 0dbe
00000150: 8ffc 813f 5b22 373e 371c 9e3e 6424 563c
00000160: 126b 0d40 698c be3f e7fb 8d3f e947 73be
00000170: 51f4 f03e 9eb5 f33e 8810 c7be e691 a3bf
00000180: bebc 203f 7845 e43f 4c1a 333e 5a84 8abe
00000190: 5df9 e4be cefd 39bf 16f6 643e e7a7 b8bd
000001a0: e370 96be 4cc5 6e3f 59a6 973e f8df eabe
000001b0: 4e2a 1a3f 9946 b33e caa5 b13d b93b b63d
000001c0: 282a 1b3f 5706 653e e938 28bd 6b0d 713f
000001d0: b4ab 403e 74ee 363d 2a9c eebc 50e2 a33e
000001e0: 90f7 9a3e 1823 eabe 22df 65be 4772 89bf
000001f0: 0531 d0be acea 803c 36c8 bc3f 8eb1 43be
00000200: 485e ccbc 73f2 723e ed29 293e 3428 af3d
00000210: 7f34 f43e 7863 c93e 6d6f 0f3f 323a 10be
00000220: cde6 913e a8de 1fbd 064a fa3e ca53 ce3e
00000230: 6c04 babe a9be 433e de79 fb3b 1dad 06bf
00000240: d092 6cbc f453 7c3e c6c4 e6bd 3221 e6be
00000250: 1c09 ac3e bada ea3d b401 383e ccb2 373e
00000260: dae1 5f3e fef5 85bd 5454 6d3f aa65 a33e
00000270: b83e 143f c1e6 8c3e 960a c2be 5ccc 17bf
00000280: e3a5 abbe b917 683e 739e d1be d2ce c43c
00000290: e483 7ebd 139d 193f 7000 273d 9e08 da3e
000002a0: 1969 33bd f415 e4bd 3599 c1be ab20 06bf
000002b0: 7192 763e f5f3 26be 8d29 88be cba0 7abe
000002c0: de93 ef3f a1ba 59bf 0ef4 90bd c26a acbe
000002d0: c85e 7fbe e65d d53d 8ee8 06bf 59f7 84bd
000002e0: e3e1 2d3e 745f 9e3e e8bd 313e ca4f 023f
000002f0: 293e 0ebe 7b16 243f 618b 8d3e 466d 2c3c
00000300: 841f a6bd 44f1 c43d 8462 5b3e d054 993c
00000310: 247b a4be 98a6 e8be c977 49bf 82e7 b63e
00000320: 844a 1cbe 4df7 2a3e 5890 8e3e 4d6a 44bf
00000330: bf2c 3d3e 4b1d e43e ab22 3c3f 64e6 f23e
00000340: 9d9f 1a3f c2a6 363f 971c 273e eba9 d53d
00000350: 56d5 7bbe 3b56 f9be 828c 00bf ce48 6ebd
00000360: ab41 e03e da49 8e3c 15bf 233a b70c 28be
00000370: a54a 043e 0113 283f 530d 863d 533f 8fbe
00000380: c8ee 66bf e388 45be 6bc9 a4bd 0c3e 2dbf
00000390: d651 7abc a184 993f af26 af3e 53eb ddbd
000003a0: 2174 483f 17f4 6a3f 69a8 913d 172a 5bbf
000003b0: 4969 8e3e e0f2 1dbd 85ec 2cbf d1cd d63e
000003c0: 0b25 f33d a2d1 3d3d fc1b dc3e 4537 31bc
000003d0: 1a6a 14be 1c41 6ebf 7104 f9be 9738 3e3f
000003e0: 1add 43c0 e71b 61bf 601f 9dbd a933 cfbe
000003f0: 5c8e cf3e d1b0 d8bd ee04 203d 603a d53e

4.0.bias f4 [50]
-1.1488 -1.26878 -0.44814 0.404679 1.01715 0.305279 0.0839215 0.522151
-1.07498 -1.42738 0.528871 -0.284767 0.462852 -1.43493 1.02127 1.42971
-0.552774 -1.43316 0.644381 1.32359 -0.356341 -1.32534 0.478997 0.0904428
-0.189794 0.0816887 -0.139381 0.793287 0.853005 0.811669 0.134221 -0.895525
0.418824 0.55555 0.230276 1.29375 0.658802 0.387862 -0.1656 1.00757
0.19454 -1.03254 -0.144121 0.427397 -1.15566 1.26179 -0.282252 -0.00985551
0.888923 2.44446
00000000: e10b 93bf 6267 a2bf 9b72 e5be 1632 cf3e
00000010: f931 823f 874d 9c3e 09df ab3d b0ab 053f
00000020: f298 89bf 63b4 b6bf 1764 073f fbcc 91be
00000030: f0fa ec3e c9ab b7bf fab8 823f bd00 b73f
00000040: 9982 0dbf c971 b7bf 27f6 243f 666b a93f
00000050: 5472 b6be bea4 a9bf 183f f53e 133a b93d
00000060: 5c59 42be 684c a73d e5b9 0ebe db14 4b3f
00000070: 895e 5a3f 8ac9 4f3f 3b71 093e 2041 65bf
00000080: 1970 d63e 8638 0e3f 79cd 6b3e 9a99 a53f
00000090: 3fa7 283f d995 c63e 0c93 29be 0ef8 803f
000000a0: 7e35 473e 452a 84bf 7594 13be c8d3 da3e
000000b0: abec 93bf 5682 a13f 5683 90be 0179 21bc
000000c0: 7590 633f 0872 1c40

4.0.weight f4 [50, 50]
0.337577 -0.111308 0.156716 -0.0609927 -0.0813685 -0.271569 -0.00734514 0.06499
0.148034 0.0887927 0.356469 -0.446427 0.331223 0.17373 0.0433451 0.449858
0.190425 0.0392857 0.0425742 0.518442 -0.00928841 -0.109335 -0.401785 0.396854
-0.182497 -0.260731 0.427709 -0.142636 0.150839 0.2868 0.0588139 -0.119552
0.0980104 0.139094 -0.0772378 -0.512132 -0.368958 0.411272 0.141136 0.367438
0.497737 -0.43628 -0.0962155 0.41203 0.227589 0.135613 0.0168928 -0.0358347
-0.184266 0.576125 1.29845 0.0280551 -0.073291 -0.420751 -2.99414 -1.42112
-0.0640952 0.130602 -1.04931 -0.135639 -2.35219 0.919604 0.151257 -0.424395
-1.05147 -0.124731 0.495755 -1.36761 0.525727 1.28355 -1.23518 -0.189603
0.299285 -0.0798392 0.948309 -1.11463 -0.59084 -0.355282 0.646257 0.275324
-0.372792 0.123187 -0.316208 -1.26726 -0.14606 -2.54969 -3.89049 0.871888
0.628193 0.362914 0.632787 0.358934 -0.1503 0.455535 -0.34487 -0.098376
0.624217 -0.60504 -0.681135 -0.251304 -0.837478 -1.08042 0.621432 -0.660963
0.166846 -0.463344 0.654073 -0.56514 -0.59652 -2.68923 -1.76433 -0.237289
-2.25877 -1.56274 -3.86703 0.0656919 0.384674 0.0702655 0.127681 0.52898
-1.97767 -0.096112 -1.25629 -0.0369594 -0.642165 -0.44708 0.301439 0.45609
-0.84393 0.866574 0.0311887 -0.620769 0.516393 0.0432651 0.138057 -0.434823
2.12706 -0.0486198 -0.569022 0.272031 -1.55196 -1.35177 -0.0577722 0.389217
-0.439545 0.486525 0.539718 0.00422801 0.695206 0.823698 -0.045318 0.0544451
-0.294883 0.0446548 -0.0606562 -0.0416325 0.0118494 0.0111655 0.00285011 -0.00703997
-0.433549 -0.172478 -0.126922 -0.883082 0.120232 -0.451676 0.156726 0.506339
0.0814123 0.0155232 -0.673338 -0.818392 -0.43155 -0.209513 -0.0535549 -0.16638
0.208222 -0.524926 -0.501744 0.515926 -0.249272 0.0261939 -0.150349 -0.0672958
-0.142403 0.677951 -0.222242 -0.242887 0.19654 0.126076 -0.201808 -0.451897
0.362831 0.256426 -0.326758 0.454565 -0.289333 0.257114 -0.577634 0.561141
-0.115558 -0.356263 -0.391945 0.077192 0.760661 -0.539082 -0.483916 -0.060545
-0.490601 -0.0922539 -0.197819 -1.34396 -0.452047 0.177927 0.465416 0.222199
-0.0403652 -0.0680241 0.0331382 0.073556 -0.361156 0.135356 -0.740718 0.206246
0.0737787 -0.690615 -0.679124 -1.29751 -0.45722 0.355121 0.39283 0.357445
-1.99824 0.145397 -0.167049 0.567668 0.064035 0.192759 -0.392161 0.43846
0.25469 -3.45512 0.4865 0.411561 -0.885567 0.0916382 0.000804465 -0.371229
0.479136 0.203016 -0.0361361 -0.512301 -0.659788 -0.352177 -0.0861319 -1.70408
00000000: e4d6 ac3e 73f5 e3bd 297a 203e 7bd3 79bd
00000010: 87a4 a6bd 180b 8bbe 80af f0bb 7a19 853d
00000020: 3a96 173e f2d8 b53d 1b83 b63e 1492 e4be
00000030: 1096 a93e 47e6 313e a28a 313d ca53 e63e
00000040: c5fe 423e 0bea 203d 4962 2e3d 9db8 043f
00000050: 6a2e 18bc 07eb dfbd c3b6 cdbe 7330 cb3e
00000060: 7ee0 3abe 897e 85be adfc da3e 2c0f 12be
00000070: 8a75 1a3e 73d7 923e d8e6 703d aed7 f4bd
00000080: adb9 c83d a86e 0e3e da2e 9ebd 151b 03bf
00000090: 10e8 bcbe 3e92 d23e f585 103e d520 bc3e
000000a0: 62d7 fe3e 1860 dfbe a20c c5bd 99f5 d23e
000000b0: 170d 693e 22de 0a3e c562 8a3c 68c7 12bd
000000c0: 3ab0 3cbe ee7c 133f 9c33 a63f cfd3 e53c
000000d0: 9819 96bd ad6c d7be fd9f 3fc0 43e7 b5bf
000000e0: 5844 83bd 88bc 053e ca4f 86bf f3e4 0abe
000000f0: 488a 16c0 2b6b 6b3f 1de3 1a3e 4d4a d9be
00000100: 9296 86bf f772 ffbd 99d3 fd3e d80d afbf
00000110: 0b96 063f 5e4b a43f 611a 9ebf 4a27 42be
00000120: e23b 993e bc82 a3bd 61c4 723f 32ac 8ebf
00000130: 4a41 17bf 86e7 b5be 1971 253f 44f7 8c3e
00000140: 98de bebe 7749 fc3d 04e6 a1be 9335 a2bf
00000150: c190 15be 1f2e 23c0 cafd 78c0 0d34 5f3f
00000160: 42d1 203f ddcf b93e 54fe 213f 32c6 b73e
00000170: 3ee8 19be e23b e93e cd92 b0be 5b79 c9bd
00000180: afcc 1f3f e7e3 1abf dd5e 2ebf ebaa 80be
00000190: f564 56bf 344b 8abf 2b16 1f3f df34 29bf
000001a0: aed9 2a3e 6d3b edbe 5471 273f 04ad 10bf
000001b0: 89b5 18bf 581c 2cc0 91d5 e1bf e3fb 72be
000001c0: b08f 10c0 dd07 c8bf 6b7d 77c0 7a89 863d
000001d0: fef3 c43e 5ce7 8f3d cfbe 023e 3c6b 073f
000001e0: 4a24 fdbf 5ed6 c4bd 1cce a0bf bd62 17bd
000001f0: ed64 24bf abe7 e4be 3656 9a3e a184 e93e
00000200: cc0b 58bf cbd7 5d3f 727f ff3c b8ea 1ebf
00000210: 5532 043f bf36 313d d05e 0d3e 1fa1 debe
00000220: c021 0840 8e25 47bd 6dab 11bf a647 8b3e
00000230: a0a6 c6bf cd06 adbf 8ba2 6cbd 7347 c73e
00000240: 0b0c e1be ce19 f93e f52a 0a3f 1e8b 8a3b
00000250: 05f9 313f dfdd 523f 5e9f 39bd d301 5f3d
00000260: e8fa 96be f4e7 363d a372 78bd d786 2abd
00000270: fc23 423c 80ef 363c e9c8 3a3b 8caf e6bb
00000280: 22fa ddbe 139e 30be d7f7 01be a911 62bf
00000290: 323c f63d 1442 e7be c87c 203e 6f9f 013f
000002a0: 7ebb a63d 0555 7e3c e15f 2cbf 2382 51bf
000002b0: 1ff4 dcbe 938a 56be 625c 5bbd 855f 2abe
000002c0: 2638 553e 8d61 06bf 4b72 00bf ba13 043f
000002d0: 2941 7fbe 9794 d63c 17f5 19be 61d2 89bd
000002e0: 18d2 11be 328e 2d3f 6893 63be 5fb7 78be
000002f0: c841 493e 111a 013e c2a6 4ebe 0b5f e7be
00000300: fcc4 b93e 454a 833e d34c a7be bebc e83e
00000310: 7423 94be 72a4 833e d2df 13bf f0a6 0f3f
00000320: aca9 ecbd 1b68 b6be 04ad c8be d716 9e3d
00000330: aeba 423f 4701 0abf d7c3 f7be 09fe 77bd
00000340: 0e30 fbbe 9def bcbd 1091 4abe e206 acbf
00000350: b472 e7be 7f32 363e 024b ee3e 2288 633e
00000360: fb55 25bd 3850 8bbd ecbb 073d 87a4 963d
00000370: 70e9 b8be c39a 0a3e b29f 3dbf 2732 533e
00000380: 4919 973d 25cc 30bf 12db 2dbf cf14 a6bf
00000390: bd18 eabe 6bd2 b53e 0421 c93e 0803 b73e
000003a0: 54c6 ffbf f3e2 143e e50e 2bbe b152 113f
000003b0: c824 833d 9e62 453e 54c9 c8be d47d e03e
000003c0: ba66 823e b020 5dc0 8716 f93e 20b8 d23e
000003d0: 85b4 62bf cfac bb3d bbe2 523a ba11 bebe
000003e0: 5051 f53e 6de3 4f3e 7203 14bd 2926 03bf
000003f0: dee7 28bf 8b50 b4be ec65 b0bd 4b1f dabf

5.0.bias f4 [50]
-2.64738 -0.102139 0.098316 0.205869 -0.0282584 0.196272 -0.495776 -0.0319723
0.03432 -0.00590201 -0.0861803 -0.0802787 0.102548 -0.0959117 -1.22707 0.147602
-0.00941826 -0.868981 -0.419634 -1.06106 -0.234508 0.572186 0.331647 -1.96291
-0.440466 -0.203299 -0.132805 -0.0326376 -0.472158 -0.548769 -1.2891 0.0377617
0.210908 0.412216 0.153415 -0.598471 -0.596017 -2.02935 0.368556 0.176722
-0.721947 0.305311 0.346762 -0.0917031 -2.20703 -0.932763 -0.377265 -1.37501
-1.01189 0.203765
00000000: ad6e 29c0 412e d1bd e659 c93d 53cf 523e
00000010: 297e e7bc 87fb 483e 5ad6 fdbe 63f5 02bd
00000020: 2193 0c3d a665 c1bb 4c7f b0bd 2969 a4bd
00000030: b004 d23d 5a6d c4bd a110 9dbf fb24 173e
00000040: 0c4f 1abc 8a75 5ebf 45da d6be d0d0 87bf
00000050: dd22 70be c87a 123f a3cd a93e a340 fbbf
00000060: c284 e1be 9d2d 50be 09fe 07be 01af 05bd
00000070: b2be f1be 207c 0cbf 3b01 a5bf 03ac 1a3d
00000080: 44f8 573e fa0d d33e d218 1d3e 6535 19bf
00000090: 9294 18bf dfe0 01c0 5fb3 bc3e 9df6 343e
000000a0: 85d1 38bf b951 9c3e ca8a b13e d6ce bbbd
000000b0: fb3f 0dc0 8ec9 6ebf e128 c1be 5400 b0bf
000000c0: 9d85 81bf c6a7 503e

5.0.weight f4 [50, 50]
-0.108655 1.06962 -0.0874475 -0.000769788 0.222544 0.0159431 1.10189 0.141867
-0.73646 0.333457 -0.586186 0.949686 -0.836094 0.558574 -0.694387 0.121015
0.578094 0.430725 0.709729 -1.39941 0.00109648 0.031248 1.59235 -0.0181862
0.231839 0.319778 0.885183 -0.134043 0.0681232 0.715318 0.121812 -0.466935
0.334383 0.318548 0.535875 -0.941266 0.111514 -0.0964224 -0.813783 -0.558182
-0.363007 1.1561 0.343959 -0.0544476 0.465178 -1.37922 0.0731544 -0.878556
-0.00865584 -0.0641778 -0.0996424 -0.915458 0.104127 0.124282 -0.020778 -0.541253
0.116159 0.087407 -0.135616 0.025509 0.0796002 0.161737 -0.185736 -0.615867
-0.141836 -0.139369 -0.0283354 0.137429 -0.180497 -0.283621 -0.13433 0.168168
0.0734421 -0.0303828 -0.0714998 -0.185747 0.131445 -0.0405307 0.191357 0.197842
0.0766618 -0.0510007 0.151656 0.429896 0.0168794 -0.00583514 0.260911 -0.766815
-0.516549 -0.385685 -0.382041 0.00558732 -0.132263 0.269806 0.179297 -0.208569
0.126751 -0.234138 0.338645 0.0713695 -0.722905 -1.72596 -0.158293 -0.259108
0.548398 -0.0412242 0.658596 0.285505 -1.68596 0.393942 -0.130722 -2.6123
0.118446 0.189816 0.246234 -0.475781 -0.843359 0.125939 -0.512572 0.248277
0.418404 -0.361922 -0.62573 0.603995 -0.518744 0.00453879 -0.347758 -0.129935
0.285951 0.0264714 0.00265895 -0.0282949 -1.06961 0.590867 -0.714279 0.0855132
-0.0203057 -0.0586943 -1.48297 -0.198637 0.185094 -0.0275067 -1.3721 0.666217
-0.596884 -0.481677 0.210246 -0.271062 -0.899503 0.106815 -0.0141376 0.238862
-0.00147967 0.0971352 0.0934429 -0.147679 0.222389 0.0209028 -0.207922 0.0557433
-0.283194 0.070779 0.447861 -0.0291556 0.124132 -0.012613 -0.272667 -0.174548
-0.961046 0.100936 -0.0213375 -0.0865395 -0.243274 -0.156036 0.00254371 0.0810903
0.0797297 0.0113926 -0.0232238 0.0337015 0.0414073 -0.411554 -0.0835162 -0.325037
-0.47777 0.0664019 -0.0777712 -0.0174121 -0.0445934 0.105525 0.682766 0.422025
-0.122539 0.406058 0.0642552 -0.242419 -0.173622 -0.147326 -0.181054 0.0194286
-0.169938 0.0400934 -0.940314 0.193872 -1.20886 0.0208326 -0.0074915 -0.589543
-0.548864 0.0632213 -0.184713 0.292995 -0.00509272 0.0336686 0.0751205 -0.205422
0.0475707 0.205884 0.13106 0.22933 -3.23822 -0.160238 -0.0529857 -1.15705
-0.133969 0.296823 -0.0938205 -1.23772 -0.435968 0.016197 -0.44532 0.00973132
-0.684665 0.37934 0.342572 0.0214904 0.140225 -0.022514 -0.197125 0.013243
-0.0620945 -1.28731 -0.229251 0.301568 -2.32988 -0.4697 -0.0451769 -0.455876
-0.662822 -0.231091 -0.291515 -0.106345 -1.52164 -0.0592565 0.159307 -0.388922
00000000: 8386 debd 4fe9 883f ad17 b3bd 99cb 49ba
00000010: 93e2 633e 1b9b 823c bb0a 8d3f 9545 113e
00000020: a488 3cbf e0ba aa3e 4910 16bf 9f1e 733f
00000030: 420a 56bf b5fe 0e3f 59c3 31bf b6d6 f73d
00000040: f8fd 133f fd87 dc3e cdb0 353f de1f b3bf
00000050: c3b7 8f3a cefb ff3c 20d2 cb3f 3afb 94bc
00000060: 3467 6d3e f1b9 a33e 5a9b 623f 9142 09be
00000070: 2d84 8b3d 151f 373f 9278 f93d 1b12 efbe
00000080: 4034 ab3e b918 a33e 1b2f 093f cff6 70bf
00000090: 7461 e43d 1b79 c5bd 1554 50bf 04e5 0ebf
000000a0: 0edc b9be 16fb 933f 651b b03e 7204 5fbd
000000b0: d02b ee3e 488a b0bf f9d1 953d 0ce9 60bf
000000c0: 39d1 0dbc a76f 83bd 5111 ccbd 755b 6abf
000000d0: 8940 d53d 9087 fe3d a036 aabc 8e8f 0abf
000000e0: c5e4 ed3d 7102 b33d ecde 0abe 40f8 d03c
000000f0: 6e05 a33d 629e 253e 9431 3ebe 76a9 1dbf
00000100: 753d 11be bfb6 0ebe a41f e8bc 30ba 0c3e
00000110: 35d4 38be c636 91be ce8d 09be 3b34 2c3e
00000120: d068 963d 5ae5 f8bc 7d6e 92bd 7634 3ebe
00000130: 8599 063e 8503 26bd 17f3 433e 1897 4a3e
00000140: dd00 9d3d 1ce6 50bd b64b 1b3e 541b dc3e
00000150: ab46 8a3c b434 bfbb 2096 853e fd4d 44bf
00000160: 8e3c 04bf 8178 c5be e19a c3be d615 b73b
00000170: f46f 07be 0324 8a3e a299 373e 1d93 55be
00000180: 04cb 013e dfc1 6fbe e162 ad3e 2c2a 923d
00000190: 4d10 39bf 42ec dcbf 8f17 22be cea9 84be
000001a0: d063 0c3f b5da 28bd bf99 283f b62d 923e
000001b0: 8acd d7bf c4b2 c93e fddb 05be ec2f 27c0
000001c0: d193 f23d 205f 423e c424 7c3e 9199 f3be
000001d0: 60e6 57bf 27f6 003e eb37 03bf 533c 7e3e
000001e0: 0d39 d63e d74d b9be d72f 20bf 6b9f 1a3f
000001f0: 68cc 04bf 21ba 943b 560d b2be ae0d 05be
00000200: 2b68 923e 8dda d83c c741 2e3b b5ca e7bc
00000210: fbe8 88bf 0f43 173f fdda 36bf 8b21 af3d
00000220: 2458 a6bc 6f69 70bd f6d1 bdbf 7f67 4bbe
00000230: 4889 3d3e bb55 e1bc f9a0 afbf 338d 2a3f
00000240: 64cd 18bf 5e9e f6be ba4a 573e a3c8 8abe
00000250: d445 66bf d3c1 da3d 64a1 67bc 3d98 743e
00000260: 7df1 c1ba d2ee c63d fe5e bf3d 2a39 17be
00000270: f1b9 633e 593c ab3c 81e9 54be 1653 643d
00000280: cefe 90be 95f4 903d 094e e53e bad7 eebc
00000290: eb38 fe3d c2a6 4ebc 029b 8bbe b6bc 32be
000002a0: 1c07 76bf 89b7 ce3d fbcb aebc 9f3b b1bd
000002b0: d21c 79be e7c7 1fbe 5fb4 263b ac12 a63d
000002c0: 5349 a33d 07a8 3a3c d73f bebc 960a 0a3d
000002d0: b39a 293d 35b7 d2be 8b0a abbd 406b a6be
000002e0: 459e f4be b8fd 873d 8246 9fbd d2a3 8ebc
000002f0: 92a7 36bd 7e1d d83d c1c9 2e3f a913 d83e
00000300: baf5 fabd d6e6 cf3e 3b98 833d b03c 78be
00000310: f7c9 31be a0dc 16be 3866 39be ba28 9f3c
00000320: 3a04 2ebe fa38 243d 6bb8 70bf 6286 463e
00000330: edbb 9abf 21a9 aa3c 427b f5bb 4aec 16bf
00000340: 5a82 0cbf 2b7a 813d 6825 3dbe 7103 963e
00000350: d5e0 a6bb 16e8 093d c7d8 993d 255a 52be
00000360: 7fd9 423d 41d3 523e 9834 063e 7cd5 6a3e
00000370: ff3e 4fc0 6e15 24be 8907 59bd 371a 94bf
00000380: 2b2f 09be 2ff9 973e f624 c0bd 9c6d 9ebf
00000390: 3337 dfbe 92af 843c fc00 e4be 1d70 1f3c
000003a0: 3546 2fbf da38 c23e 9965 af3e a30c b03c
000003b0: 2497 0f3e 486f b8bc 23db 49be 2bf9 583c
000003c0: cd56 7ebd 93c6 a4bf c6c0 6abe 1f67 9a3e
000003d0: c11c 15c0 857c f0be 6a0b 39bd 9468 e9be
000003e0: b4ae 29bf 1ea3 6cbe 7441 95be 68cb d9bd
000003f0: 19c5 c2bf f2b6 72bd 6021 233e c920 c7be

6.bias f4 [5]
-0.0208698 -0.0182586 0.0181765 -0.0184268 0.0179381
00000000: 25f7 aabc 0f93 95bc e2e6 943c cdf3 96bc
00000010: ecf2 923c

6.weight f4 [5, 50]
-0.00973152 0.0162697 0.010714 -0.00861864 -0.0115373 0.204349 0.015167 0.0364792
0.00581204 0.103657 0.000650178 -0.000145841 0.00874927 0.0362083 -0.00871422 0.0171628
-0.115497 0.00971885 -0.00255351 -0.00519763 0.0208913 0.0853013 0.11583 0.0294003
0.025148 0.174312 0.0252864 0.0420806 -0.0176931 0.0193175 0.0405354 0.0272018
0.04345 -0.0117932 -0.00980308 -0.0247942 0.152597 0.048062 0.00920775 -0.012075
-0.0116101 -0.00707101 0.0320008 0.00942592 0.022936 0.0330639 -0.0170744 -0.0141346
-0.0221607 0.0119305 -0.00737188 0.0117239 0.0188071 0.0218241 0.011903 0.189406
0.0178953 0.0292474 -0.00307432 0.181572 0.0236193 -0.00961892 0.0103365 0.0228322
-0.0184302 0.0321458 0.00552148 0.0154803 -0.0193331 -0.0168963 0.0160838 0.0832616
-0.000406198 -0.00668546 0.0305886 0.153663 0.0550171 0.0183433 0.0189486 -0.00202335
0.0422929 -0.00217964 0.0380084 -0.00837762 -0.0233663 -0.0241382 0.156256 0.0365494
0.035921 -0.00661659 0.0154 -0.0080091 -0.008558 0.00795218 -0.00231547 0.0350713
-0.0095019 -0.0204899 -0.0233897 0.0341639 -0.017107 0.0245255 -0.00853901 -0.0125789
-0.0285705 0.226777 0.0152701 0.0130569 0.0552732 0.179187 0.00113479 0.00592407
0.0521168 0.0254535 -0.00323532 -0.0024014 -0.00295471 0.022253 0.0210065 -0.000575804
0.0185133 0.0823076 0.00697476 0.00147774 0.0154302 0.179252 0.0133236 -0.019406
0.00553577 0.0226215 0.0385169 0.00667494 0.046915 -0.0137863 -0.00264598 -0.0304345
0.181141 0.0745623 0.0325687 -0.0175603 -0.0341947 -0.0145583 -0.000306721 -0.00730261
0.00546956 0.0296435 -0.0152055 -0.0157746 -0.02314 0.00837541 0.00844522 -0.0232768
0.0414059 0.0300229 0.0598289 0.161148 -0.0110555 0.0355004 -0.00293276 0.136966
0.0476328 -0.0381797 0.00598442 0.0143028 -0.0358198 -0.0192416 0.00625472 -0.0520924
-0.0193351 -0.0222557 0.0187124 0.0631653 -5.0286e-05 -0.000835304 0.0257348 0.196806
0.00999197 -0.0270586 0.0290359 0.00899712 0.0468325 -0.0222245 0.0281263 0.00241496
-0.0512366 -0.0206602 0.0583101 -0.0145545 0.0375608 0.0391448 0.00647146 0.0151742
-0.00199492 0.0677713 0.0261824 0.0250122 0.0201027 -0.0191112 -0.0255458 -0.0096318
-0.0168595 0.0425119 -0.0367829 -0.00389095 -0.0660589 0.176175 0.0136139 0.00195464
0.0718061 0.183584 -0.0200516 0.0138912 0.0497072 0.0185731 0.00419929 -0.0140779
0.00421973 0.0694792 0.0459971 0.0105536 0.0196824 0.0804412 -0.00373784 0.00192606
0.00266938 0.0698291 -0.0106176 -0.0531523 0.0146982 0.0375692 0.0437135 0.00245053
0.0461174 -0.0262029 0.0147644 -0.0253413 0.227113 0.0773054 0.0339035 -0.0267906
-0.0449387 -0.0361669 0.00746194 -0.00987567 0.0182267 0.0245813 -0.0317725 -0.0114131
-0.014164 0.00691787
00000000: f470 1fbc 0948 853c c689 2f3c 3235 0dbc
00000010: f206 3dbc dd40 513e 027f 783c 376b 153d
00000020: ed72 be3b 1f4a d43d b570 2a3a e5ec 18b9
00000030: 1959 0f3c 284f 143d 16c6 0ebc 0099 8c3c
00000040: b189 ecbd d03b 1f3c ca58 27bb e150 aabb
00000050: 3b24 ab3c 73b2 ae3d 4738 ed3d e6d8 f03c
00000060: 2e03 ce3c d87e 323e 6d25 cf3c b55c 2c3d
00000070: 1ff1 90bc bc3f 9e3c 7308 263d 4fd6 de3c
00000080: a1f8 313d 4438 41bc 199d 20bc 351d cbbc
00000090: 6342 1c3e a9dc 443d 1adc 163c 39d6 45bc
000000a0: 4a38 3ebc eeb3 e7bb 4513 033d 2d6f 1a3c
000000b0: 47e4 bb3c 036e 073d 9ddf 8bbc cf94 67bc
000000c0: 5b8a b5bc 2578 433c d08f f1bb 9a15 403c
000000d0: 5911 9a3c 74c8 b23c cd04 433c a5f3 413e
000000e0: 2a99 923c 3e98 ef3c 887a 49bb 03ee 393e
000000f0: 437d c13c ad98 1dbc 6c5a 293c 980a bb3c
00000100: eefa 96bc 50ab 033d 88ed b43b 16a1 7d3c
00000110: 7360 9ebc 1c6a 8abc 2cc2 833c 0f85 aa3d
00000120: f9f6 d4b9 b411 dbbb f294 fa3c d559 1d3e
00000130: 9c59 613d b044 963c 183a 9b3c 2e9a 04bb
00000140: 523b 2d3d 4bd8 0ebb b2ae 1b3d 4942 09bc
00000150: af6a bfbc 79bd c5bc 9301 203e d3b4 153d
00000160: e621 133d fbcf d8bb 4850 7c3c 9a38 03bc
00000170: db36 0cbc dc49 023c 24bf 17bb eca6 0f3d
00000180: dbad 1bbc 6fda a7bc c29b bfbc 72ef 0b3d
00000190: fb23 8cbc b4e9 c83c 34e7 0bbc bb17 4ebc
000001a0: ae0c eabc 3b38 683e 712f 7a3c 9cec 553c
000001b0: 2766 623d cc7c 373e 3cbd 943a b31e c23b
000001c0: 6d78 553d dc83 d03c aa07 54bb ce60 1dbb
000001d0: cfa3 41bb ec4b b63c d315 ac3c 8df1 16ba
000001e0: 34a9 973c e390 a83d 878c e43b bab0 c13a
000001f0: f3ce 7c3c d68d 373e 3b4b 5a3c 55f9 9ebc
00000200: 6865 b53b b950 b93c e6c3 1d3d 75b9 da3b
00000210: f129 403d efdf 61bc 2e68 2dbb c651 f9bc
00000220: 077d 393e 1fb4 983d c266 053d 9eda 8fbc
00000230: be0f 0cbd f085 6ebc 65cf a0b9 bc4a efbb
00000240: ff39 b33b edd6 f23c 7d20 79bc bc39 81bc
00000250: 1990 bdbc 0439 093c d25d 0a3c fdae bebc
00000260: 3c99 293d 96f2 f53c 260f 753d fb03 253e
00000270: 2122 35bc de68 113d 8c33 40bb d140 0c3e
00000280: 9c1a 433d 5162 1cbd f418 c43b 4b56 6a3c
00000290: c8b7 12bd 8fa0 9dbc 65f4 cc3b d75e 55bd
000002a0: a564 9ebc 9651 b6bc bf4a 993c cf5c 813d
000002b0: 2eea 52b8 4df8 5aba cad1 d23c 8387 493e
000002c0: 5cb5 233c ffa9 ddbc b2dc ed3c a868 133c
000002d0: 6fd3 3f3d 2810 b6bc 2069 e63c 4e44 1e3b
000002e0: 78dd 51bd 943f a9bc 92d6 6e3d ff75 6ebc
000002f0: 5ad9 193d 4c56 203d 8b0e d43b 359d 783c
00000300: 34bd 02bb aecb 8a3d 797c d63c 63e6 cc3c
00000310: 6bae a43c 178f 9cbc 6d45 d1bc b3ce 1dbc
00000320: ef1c 8abc f520 2e3d aba9 16bd 4fff 7ebb
00000330: e349 87bd 3867 343e d60c 5f3c 6b19 003b
00000340: 140f 933d 72fd 3b3e 4143 a4bc ea97 633c
00000350: c799 4b3d 9d26 983c 339a 893b fea6 66bc
00000360: a945 8a3b 1c4b 8e3d 7567 3c3d 02e9 2c3c
00000370: fc3c a13c 5bbe a43d 8df6 74bb d973 fc3a
00000380: c4f0 2e3b 8f02 8f3d 71f5 2dbc 3ab6 59bd
00000390: b8d0 703c 29e2 193d ed0c 333d 1299 203b
000003a0: 99e5 3c3d 77a7 d6bc 62e6 713c 8f98 cfbc
000003b0: 4f90 683e 4b52 9e3d 65de 0a3d f677 dbbc
000003c0: a411 38bd be23 14bd 4a83 f43b 90cd 21bc
000003d0: 2950 953c b95e c93c e223 02bd 03fe 3abc
000003e0: 1f10 68bc 4daf e23b
