artifacts/acas_benchmark/onnx/N_4_5.onnx (onnx, 54312 bytes, 14 tensors)

0.0.bias f4 [50]
0	0xbf0e9952	-0.557027
1	0xbea25376	-0.317043
2	0x3e0d6b23	0.138104
3	0x3e428998	0.189978
4	0x3e40aa22	0.188149
5	0x3d623f5b	0.0552362
6	0xbd8a9692	-0.06767
7	0xbe85883c	-0.260805
8	0xbe88cc36	-0.267183
9	0xbeb270f4	-0.348518
10	0xbf1d3437	-0.614078
11	0x3e5f26af	0.217921
12	0xbe2011d3	-0.156318
13	0xbe43968d	-0.191004
14	0xbf103f60	-0.563467
15	0x3e4b7dc8	0.198722
16	0xbf247c95	-0.642526
17	0xbd6bd190	-0.0575729
18	0x3d516de7	0.0511302
19	0xbe40474e	-0.187772
20	0xbccb78a4	-0.0248378
21	0xbca94970	-0.0206649
22	0x3e84ce3e	0.259386
23	0xbe3be1a8	-0.183478
24	0xbe19856a	-0.149923
25	0x3d38c90a	0.0451136
26	0xbebe4de4	-0.371688
27	0xbc9a83da	-0.0188617
28	0x3d163b5b	0.0366777
29	0xbf0d8afc	-0.552902
30	0x3e4289db	0.189979
31	0xbeb7c159	-0.358897
32	0x3e834224	0.256364
33	0x3e0d82fd	0.138195
34	0xbef4f54d	-0.478434
35	0x3c5b5378	0.0133866
36	0xbe08537e	-0.133131
37	0xbeb2f09e	-0.349492
38	0xbc610d61	-0.0137361
39	0xbf26f9a9	-0.652247
40	0x3e388c61	0.180223
41	0xbed126c8	-0.408499
42	0xbedbecee	-0.429542
43	0xbca55341	-0.0201813
44	0x3d917119	0.0710165
45	0x3d8c73d4	0.0685803
46	0xbe9b2442	-0.303011
47	0xbd9e5d83	-0.0773268
48	0x3cf1a26f	0.0294964
49	0xbe4d8ec9	-0.20074

0.0.weight f4 [50, 5]
0	0x3d62d63e	0.0553801
1	0x3e42c344	0.190198
2	0xbd1a6f17	-0.0377036
3	0xbfa8f8b6	-1.32009
4	0xbf347a5b	-0.704992
5	0xbc2bb880	-0.010481
6	0xbdf2d55a	-0.118571
7	0x3e1da405	0.153946
8	0xbf3c71f8	-0.736114
9	0xbf811fb4	-1.00878
10	0x3ef712a1	0.482564
11	0x3d676eda	0.0565022
12	0x3d357e31	0.0443098
13	0x3d760b04	0.0600691
14	0x3b08d01e	0.0020876
15	0xbd9f60b9	-0.0778212
16	0xbd6cb56b	-0.0577902
17	0xbe1d42c4	-0.153575
18	0x3d77ff9b	0.0605465
19	0x3ee68124	0.450204
20	0x3c6bd53b	0.0143941
21	0xbe805682	-0.25066
22	0xbe07edc8	-0.132743
23	0x3f087d0b	0.533158
24	0xbd9ffa64	-0.0781143
25	0xbc0e7c65	-0.00869665
26	0xbee51a00	-0.447464
27	0xbd53d07d	-0.0517125
28	0xbdcadc17	-0.0990526
29	0x3e513d75	0.204336
30	0x3c248733	0.010042
31	0xbaa9e039	-0.00129605
32	0xbba87e8f	-0.00514204
33	0xbd926f97	-0.0715019
34	0xbd32f520	-0.0436908
35	0xbd8ea81f	-0.0696566
36	0x3e5c9c91	0.215441
37	0xbb9e473e	-0.00483027
38	0x3e1ef848	0.155244
39	0xbf5bcd14	-0.858598
40	0xbd28e45b	-0.0412334
41	0x3f587981	0.845604
42	0x3e741d8f	0.238394
43	0x3e2a01ac	0.166022
44	0xbda6589c	-0.0812237
45	0x3ec5cb79	0.386318
46	0xbd01403c	-0.0315554
47	0x3c17d4d3	0.00926705
48	0xbebd377e	-0.369564
49	0xbf3b2a6b	-0.731116
50	0xbf3a552a	-0.727862
51	0xbe0c3266	-0.136911
52	0x3c710c47	0.0147124
53	0xbf432aae	-0.76237
54	0xbe396af0	-0.181072
55	0x3aed4c49	0.00181044
56	0xbe06f75e	-0.131803
57	0x3dc52a0b	0.0962716
58	0x3e33879c	0.175322
59	0xbf5d08d5	-0.863416
60	0x3caf4e37	0.0213996
61	0x3e01650a	0.126362
62	0x3cf9be68	0.0304863
63	0xbf91013b	-1.13285
64	0x3f96c4c6	1.17788
65	0xbfb50e02	-1.41449
66	0xbb3a5a04	-0.0028435
67	0xbc6c8dc8	-0.0144381
68	0xbc594581	-0.0132612
69	0x3b2db42e	0.00265051
70	0xbe0140dd	-0.126224
71	0x3deb96f2	0.115034
72	0xbdffc4c1	-0.124887
73	0xbf413ac5	-0.754803
74	0xbef4f052	-0.478396
75	0x3ba06174	0.00489443
76	0xbd7e6d8e	-0.0621162
77	0xbee297c0	-0.442564
78	0xbea66ddf	-0.325057
79	0x3e995bff	0.29953
80	0x3cc3ad69	0.0238864
81	0xbe96d938	-0.294626
82	0x3edffa3c	0.437456
83	0x3e2b417d	0.167242
84	0xbfc987e8	-1.57446
85	0xbd0b07ec	-0.0339431
86	0x3e59da16	0.212746
87	0x3f0e3077	0.555427
88	0x3ecd5348	0.401026
89	0xbde7ce96	-0.113187
90	0x3d5abb88	0.0534015
91	0x3f018687	0.505959
92	0xbf31ecc4	-0.695019
93	0xbf190939	-0.597797
94	0x3f420297	0.757852
95	0x3d9b9fdc	0.0759885
96	0x3f82a359	1.02061
97	0xbf445f4a	-0.767079
98	0x3f4a759b	0.790857
99	0xbf480618	-0.781343
100	0x3ce5c3df	0.0280475
101	0xbd5efdbc	-0.0544412
102	0x3efc126a	0.492328
103	0xbec6e526	-0.388467
104	0x3e4126e9	0.188625
105	0x3aa64e89	0.00126882
106	0xbb5976d4	-0.00331824
107	0x3b6f94f9	0.00365573
108	0xbc49023d	-0.0122686
109	0x3c7d9847	0.0154782
110	0x3ec1bbcf	0.378386
111	0x400e8588	2.2269
112	0x3defb8f5	0.117052
113	0xbe663cfb	-0.224842
114	0x3eabf2d4	0.335837
115	0x3e19c51e	0.150166
116	0xc00eede5	-2.23327
117	0x3c9179db	0.0177583
118	0x3e15c67e	0.146265
119	0xbeaa70f4	-0.332893
120	0xbd98f82c	-0.0746921
121	0xbf756702	-0.958603
122	0x3f78b60f	0.971528
123	0x3f1c1d19	0.609819
124	0xbf512817	-0.817018
125	0xbc17eab8	-0.00927227
126	0xbfcb2181	-1.58696
127	0x3c87bcc3	0.0165695
128	0x3b36cb59	0.00278922
129	0x3d6b214c	0.0574048
130	0xbc585b76	-0.0132054
131	0xbf596f97	-0.849359
132	0x3f0c83dc	0.548887
133	0x3e9ed95a	0.310252
134	0xbfbe7d03	-1.48819
135	0x3d43d237	0.0478079
136	0xbf2e66ed	-0.681258
137	0xbf5e73c5	-0.868954
138	0x3f15523b	0.583286
139	0xbe9cb3a2	-0.306058
140	0x3da9b9bd	0.0828738
141	0x3ee1856a	0.440471
142	0x3f2175d1	0.630704
143	0xbd08aa94	-0.0333658
144	0x3bfd2f81	0.00772661
145	0xbc041a0b	-0.00806285
146	0x3d598a80	0.0531106
147	0xbe63671b	-0.222073
148	0x3d8cac81	0.0686884
149	0xbfc03372	-1.50157
150	0xbdeb31c2	-0.114841
151	0x3f6b4e55	0.919164
152	0x3e42c062	0.190187
153	0x3d335207	0.0437794
154	0x3baab58b	0.00520963
155	0xbfe1f99c	-1.76543
156	0xbc80f9fb	-0.0157442
157	0xbd013c0a	-0.0315514
158	0x3c19d762	0.00938973
159	0xba339be8	-0.000685154
160	0xbd593dd9	-0.0530375
161	0xbee68534	-0.450235
162	0x3fe27770	1.76927
163	0x3f17f62b	0.5936
164	0xbf286595	-0.6578
165	0x3ca24788	0.0198095
166	0xbde7735c	-0.113013
167	0xbf0d77c9	-0.552609
168	0xbf049edc	-0.518049
169	0x3e91ffd6	0.285155
170	0x3caff2d7	0.0214781
171	0xbfdee0f4	-1.74124
172	0x3fddfbe7	1.73425
173	0xbd68031f	-0.0566436
174	0x3eeb571d	0.459649
175	0xbf266395	-0.649957
176	0xbd22aaf0	-0.0397138
177	0xbbbf622b	-0.00584056
178	0xbc21fdcc	-0.00988717
179	0x3c88a845	0.0166818
180	0x3bdf03c7	0.00680587
181	0x3c8c0fd9	0.0170974
182	0xbca5ea40	-0.0202533
183	0xbfd0c34c	-1.63096
184	0xbf71cf9a	-0.944574
185	0xbdeec205	-0.116581
186	0x3ff460aa	1.9092
187	0xc01b6a6a	-2.42837
188	0xbddbf834	-0.107407
189	0x3e7e65bf	0.248435
190	0xbb226dd4	-0.00247847
191	0xb9f2c42d	-0.00046304
192	0x3bb929ed	0.00565075
193	0xb9103858	-0.000137539
194	0x3b25022e	0.00251783
195	0xbd1243b5	-0.0357091
196	0xbe2ae70c	-0.166897
197	0xbaeaf353	-0.00179253
198	0xbf144641	-0.579197
199	0xbf851f60	-1.04002
200	0x3eb054ce	0.344397
201	0xbf7080b6	-0.939464
202	0x3abb092b	0.00142697
203	0xbe40a527	-0.18813
204	0x3e42d59d	0.190268
205	0x3d8137b0	0.0630945
206	0x3f9663c7	1.17492
207	0xbfa2db0e	-1.27231
208	0x3e21b4bb	0.157916
209	0xbb9e364c	-0.00482825
210	0xbfe83958	-1.81425
211	0xbbcc3aac	-0.00623258
212	0xbc82bdeb	-0.0159597
213	0x3bf19bfa	0.00737333
214	0xbbbc7800	-0.00575161
215	0xbc07f827	-0.00829891
216	0xbc3daa85	-0.0115763
217	0xbb1e80df	-0.00241857
218	0x3b274350	0.00255223
219	0xbc8dd038	-0.0173112
220	0xbd9ed203	-0.077549
221	0xbe91719f	-0.28407
222	0x3bc36c51	0.00596384
223	0xbed772d6	-0.420798
224	0x3f02f230	0.511508
225	0xbad4cda2	-0.00162356
226	0xbf1f08dd	-0.621229
227	0x3f199210	0.599885
228	0xbe2ed289	-0.170725
229	0x3f2ed71f	0.68297
230	0xbe4912dc	-0.196361
231	0xbf68df37	-0.909656
232	0x3e226202	0.158577
233	0xbf1b27bb	-0.606075
234	0xbe4c84b6	-0.199725
235	0x3c85ca0f	0.0163317
236	0x3c9ba436	0.0189992
237	0x3ba8b95d	0.00514905
238	0xbd82fc92	-0.0639583
239	0xbd33f39d	-0.0439335
240	0xbd528bbe	-0.0514028
241	0xbf96bf87	-1.17772
242	0xbe9a5786	-0.301449
243	0x3ec3e879	0.382633
244	0xbf00284e	-0.500615
245	0xbf6fdab6	-0.936931
246	0xbe50728f	-0.203562
247	0x3e8f0d41	0.279398
248	0xbe4e3151	-0.20136
249	0x3ea41e36	0.320543

1.0.bias f4 [50]
0	0xbf39c023	-0.725588
1	0xbb49a8d6	-0.00307708
2	0xbcafe7ef	-0.0214729
3	0xbf82e58a	-1.02263
4	0x3c5875e3	0.0132117
5	0x3e8252f0	0.254539
6	0xbc8493ae	-0.0161837
7	0x3f80a03c	1.00489
8	0x3ebbc46e	0.366733
9	0x3f139b24	0.576586
10	0xbf8fa7db	-1.12231
11	0xbdcf10aa	-0.101106
12	0x3e70a1be	0.234992
13	0x3efeebb3	0.497892
14	0x3ec29a3d	0.380083
15	0xbdd9a0f1	-0.106264
16	0xbc0f7f44	-0.00875837
17	0xbe5e9c88	-0.217394
18	0xbd0aba53	-0.0338691
19	0x3e326c3c	0.174241
20	0x3f70c543	0.94051
21	0xbee4c144	-0.446787
22	0xbedd49f9	-0.432205
23	0xbf2c116f	-0.672141
24	0xbf58dc12	-0.847108
25	0xbfa3f877	-1.28102
26	0xbc3e27ee	-0.0116062
27	0xbd8e87e0	-0.0695951
28	0x3f437836	0.763553
29	0xbc1d79c3	-0.00961155
30	0xbee96a05	-0.455887
31	0xbf6213d3	-0.883115
32	0xbe1f8c65	-0.155809
33	0xbe8740a3	-0.264165
34	0x3f937f39	1.15232
35	0xbab9edf8	-0.00141853
36	0xbe41d14e	-0.189275
37	0x3b971419	0.00461055
38	0xbd0970dd	-0.0335549
39	0xbcd4ec56	-0.0259916
40	0xbf1ed213	-0.620393
41	0xbf166a12	-0.587556
42	0x3e83482c	0.25641
43	0x3ea561d4	0.323012
44	0xbeadbc45	-0.339327
45	0x3dae2138	0.0850243
46	0xbdbd8341	-0.0925355
47	0x3de2bb66	0.110709
48	0xbbd58e7d	-0.00651723
49	0x3f420514	0.75789

1.0.weight f4 [50, 50]
0	0x3d6811b2	0.0566575
1	0xbf630eb2	-0.886943
2	0x3e6c1ebd	0.230586
3	0x3fba2d62	1.45451
4	0x3f1905d1	0.597745
5	0x3e68e9f7	0.227455
6	0x3d04e9df	0.0324496
7	0x3dc53678	0.0962953
8	0x3f222984	0.633446
9	0xbea4b641	-0.321703
10	0x3f1d5a4b	0.614659
11	0x3f0371da	0.513456
12	0xbe54face	-0.207988
13	0xbdd98740	-0.106215
14	0x3fc86349	1.56553
15	0x3e848a59	0.258868
16	0xbf3c3819	-0.735231
17	0xbf739d5e	-0.95162
18	0xbdb30a4e	-0.087422
19	0x3d34f0bd	0.0441749
20	0xbf5c531a	-0.860643
21	0x3c5f55d1	0.0136313
22	0xbd9c49d5	-0.0763127
23	0xbc8bd62d	-0.0170699
24	0xbd9c5edb	-0.0763528
25	0x3e074fb5	0.13214
26	0x3f061944	0.523823
27	0xbde6e08f	-0.112733
28	0x3eabb40b	0.335358
29	0x3f80c2a4	1.00594
30	0x3f1198bf	0.568737
31	0xbfb306f7	-1.39865
32	0x3e51dabe	0.204936
33	0xbe1843c4	-0.148696
34	0x3e3167ec	0.173248
35	0xbda17bd9	-0.0788495
36	0x3f95e743	1.17112
37	0x3d01b5fd	0.0316677
38	0x3d63e99a	0.0556427
39	0xbf223d3e	-0.633747
40	0x3c8c2898	0.0171092
41	0xbd750de4	-0.0598277
42	0xc0058549	-2.08626
43	0xbb981e85	-0.00464231
44	0xbe10218e	-0.140753
45	0x3e02d2bb	0.127757
46	0xbe4d6e48	-0.200616
47	0x3d6cea44	0.0578406
48	0xbd7e2e39	-0.0620558
49	0x3f2d03a7	0.675837
50	0x3c37f031	0.0112267
51	0xbceaffbe	-0.0286864
52	0x3cfef432	0.0311223
53	0x3d2bde5b	0.0419601
54	0xbcb2a6e7	-0.0218081
55	0xbbfdc4d2	-0.00774441
56	0x3d640be3	0.0556754
57	0xbceaf725	-0.0286823
58	0xbc532b8c	-0.0128888
59	0x3d1a82ce	0.0377224
60	0x3d263107	0.0405741
61	0xbc7e3b6f	-0.0155171
62	0xbceaa2d6	-0.0286421
63	0xbd33316b	-0.0437483
64	0xbd2ddba6	-0.0424458
65	0xbd3ecfcf	-0.0465849
66	0x3c0ab997	0.0084671
67	0x3972475b	0.000231055
68	0xbcd52a34	-0.0260211
69	0xbd27942e	-0.0409128
70	0xbc1a2b3a	-0.00940972
71	0xbbac72fb	-0.00526273
72	0xbcd9d239	-0.0265895
73	0x3c69f7eb	0.0142803
74	0xbccea68c	-0.0252259
75	0xbc6b5914	-0.0143645
76	0xbc6922d9	-0.0142295
77	0x3c1b3c1c	0.00947478
78	0x3cc06d43	0.0234896
79	0xbd6ad886	-0.0573354
80	0xbcf03588	-0.0293224
81	0xbd5650da	-0.0523232
82	0xbaee372b	-0.00181744
83	0xbc577d95	-0.0131525
84	0xbd1c42c1	-0.0381496
85	0xbd4e0cd3	-0.0503052
86	0xbc0fdb3f	-0.0087803
87	0xbccacf67	-0.0247571
88	0x3bfe8557	0.00776736
89	0x3ba03906	0.00488961
90	0xbb4ab1ea	-0.00309288
91	0x3c113074	0.00886165
92	0x3c47438b	0.0121621
93	0x3d178862	0.0369953
94	0xbd15e778	-0.0365977
95	0xbc391850	-0.0112973
96	0x3d33a472	0.043858
97	0xbaba5b05	-0.00142178
98	0xbca7688f	-0.0204356
99	0x3cbdf5cf	0.0231885
100	0x3ba545f5	0.00504374
101	0xbd3e1819	-0.0464097
102	0xbd4c2b87	-0.0498462
103	0xbcf97933	-0.0304533
104	0x3b460e17	0.00302208
105	0x3d03fe27	0.0322248
106	0x3cf32237	0.0296794
107	0x3d16a685	0.0367799
108	0x3cbabd6b	0.0227954
109	0xbd1d3dae	-0.0383889
110	0x3d1dda20	0.0385381
111	0xbd169065	-0.0367588
112	0xbbdec095	-0.00679786
113	0xbd4e85f0	-0.0504207
114	0x3d01aedc	0.0316609
115	0xbd2f2679	-0.0427613
116	0xbcb565de	-0.0221433
117	0xbcd302a7	-0.0257581
118	0xbd237a8e	-0.0399118
119	0xbd0b5e53	-0.0340255
120	0x3cbe07d8	0.0231971
121	0x3cb7ce02	0.0224371
122	0xbc3c84ec	-0.0115063
123	0x3bb50733	0.00552454
124	0xbaf0d845	-0.0018375
125	0x3c75bbd9	0.0149984
126	0xbcdb8272	-0.0267956
127	0xbd5ca8ad	-0.0538718
128	0x3d0b9ecf	0.034087
129	0x3d10e560	0.035375
130	0xbd3e0c25	-0.0463983
131	0xbc837fb2	-0.0160521
132	0x3cde812a	0.0271612
133	0xbba50939	-0.0050365
134	0xbd40b8f8	-0.0470514
135	0x3cee989a	0.0291255
136	0x3cdf5134	0.0272604
137	0xb9649596	-0.000217995
138	0x3d12344b	0.0356944
139	0xbc860136	-0.016358
140	0x3c1200d4	0.00891133
141	0x3d1a4a7f	0.0376687
142	0xbd42a7e6	-0.0475234
143	0x3d37279a	0.0447155
144	0x3cea04b6	0.0285667
145	0xbccee251	-0.0252544
146	0x3b3b092b	0.00285394
147	0xbb3141d7	-0.00270473
148	0xbcdc2fac	-0.0268782
149	0xbaf38dd7	-0.00185817
150	0x3ec14af5	0.377525
151	0x3de5c140	0.112185
152	0xbf94b924	-1.1619
153	0xbee3a1f5	-0.444595
154	0xbfdb8d50	-1.71525
155	0xbfce79bc	-1.61309
156	0xbd8a151f	-0.0674231
157	0x3fab68f1	1.33914
158	0x3f310cd4	0.691602
159	0x3f16b346	0.588673
160	0x3ebcff43	0.369135
161	0xbf586e7e	-0.845436
162	0xc021b329	-2.52656
163	0x3f0ef827	0.558474
164	0x3faf4f0e	1.3696
165	0x3f400885	0.75013
166	0x3ef073de	0.469634
167	0xbf079c0f	-0.529725
168	0xbe44c76d	-0.192167
169	0x3ed068fd	0.407051
170	0x3ead9642	0.339037
171	0x3d22a180	0.0397048
172	0xbdbdd1f3	-0.0926856
173	0xc00e5144	-2.22371
174	0xbd28e806	-0.0412369
175	0xbfe1883c	-1.76197
176	0x3f3f8d93	0.748254
177	0x3b2cc36d	0.00263616
178	0xbdd21c47	-0.102593
179	0x3fc1551d	1.51041
180	0x3e2694cd	0.162677
181	0xbf2e2307	-0.680222
182	0x3eb42c80	0.351902
183	0x3f2bef6b	0.671622
184	0x3f7f3b32	0.996997
185	0x3fc49763	1.53587
186	0xbe851def	-0.259994
187	0xbee27200	-0.442276
188	0x3cf00b61	0.0293023
189	0x3fe48d3b	1.78556
190	0x3f81dfb9	1.01464
191	0x3e20010c	0.156254
192	0x3fd557bc	1.66674
193	0x3d0cb8ab	0.0343558
194	0x3ed65ba7	0.418668
195	0xbe535dee	-0.206413
196	0x3ea251e3	0.317031
197	0xbd7a2d73	-0.0610785
198	0x3f007a07	0.501862
199	0x3ee3ff26	0.445306
200	0x3eb2ba9d	0.34908
201	0x3df761cc	0.120792
202	0x3f8db3d0	1.10705
203	0x3d8b9149	0.0681482
204	0xbe85adfb	-0.261093
205	0x3dfddca5	0.123956
206	0x3daaf011	0.0834657
207	0xbde84ad8	-0.113424
208	0xbdbf7107	-0.0934773
209	0x3fb08d8f	1.37932
210	0xc017913f	-2.36824
211	0x3ead30ad	0.338262
212	0x3e9ce2f3	0.306419
213	0xbf330e6f	-0.699439
214	0x3f34f2ae	0.706828
215	0xba8787f4	-0.00103402
216	0xbde3f035	-0.111298
217	0xbf2fd2b7	-0.686809
218	0x3c2ae303	0.0104301
219	0xbd4f17e6	-0.0505599
220	0xbf39f01c	-0.72632
221	0xbc21751b	-0.00985458
222	0x3eab415b	0.334483
223	0x3f96ae7d	1.1772
224	0x3e53ad19	0.206715
225	0xbd87e473	-0.0663537
226	0xbe5c2d28	-0.215016
227	0x3ebb01eb	0.365249
228	0x3e2322f2	0.159313
229	0x3e9d143c	0.306795
230	0xbcc6f47b	-0.0242865
231	0xbe446e8f	-0.191828
232	0x3ec23fcd	0.379393
233	0x3e8e7a53	0.278277
234	0xbf307379	-0.689262
235	0xbe2d36b5	-0.169154
236	0xbef4db7b	-0.478237
237	0xbd05558f	-0.0325523
238	0xbb12133d	-0.00222893
239	0x3f6b73d2	0.919736
240	0x3ef6e88e	0.482243
241	0xbed3c361	-0.4136
242	0x3eac26dd	0.336234
243	0xbcc87189	-0.0244682
244	0xbed463d0	-0.414824
245	0xbce2c054	-0.0276796
246	0x3e1158fb	0.141941
247	0x3d1b3f06	0.0379019
248	0xbeb434e3	-0.351966
249	0x3e2aa609	0.166649
250	0xbd2d5355	-0.0423158
251	0x3f34e0db	0.706556
252	0x3e196313	0.149792
253	0xbf50ffc9	-0.816403
254	0xbe46a487	-0.193987
255	0xbfba03c5	-1.45324

2.0.bias f4 [50]
0	0x3f9bf23d	1.21833
1	0x3ec06fce	0.375853
2	0xbeffc0d3	-0.499518
3	0x3e6b3893	0.229708
4	0xbe6c182f	-0.230561
5	0x3f1aa0a9	0.604014
6	0xbe01700d	-0.126404
7	0xbf93cf81	-1.15477
8	0x3f6cd9c7	0.925198
9	0x3ec85554	0.391276
10	0xbec8e51d	-0.392373
11	0xbd46c7b5	-0.0485303
12	0x3f29435b	0.661184
13	0xbe8483a9	-0.258817
14	0xbe86379b	-0.262143
15	0xbed7ba88	-0.421345
16	0xc00ede7f	-2.23233
17	0xbece19db	-0.402541
18	0xbfa29b28	-1.27036
19	0x3f205858	0.626348
20	0xbfb33919	-1.40018
21	0xbf7b2cf9	-0.981155
22	0xbfcaa64c	-1.5832
23	0x3d840cba	0.0644774
24	0x3e89ec2d	0.26938
25	0xbeb9df76	-0.363033
26	0xbbff8a24	-0.00779845
27	0xbf0e19a8	-0.555079
28	0x3f5b3f21	0.856432
29	0x3e79edc0	0.244071
30	0xbeae90de	-0.340949
31	0x3fe803ef	1.81262
32	0x3f5ca43c	0.861881
33	0x3f33e2b5	0.702678
34	0xc007af64	-2.12008
35	0xbef30e5e	-0.474719
36	0x3f3c8aad	0.736491
37	0xbe442edc	-0.191585
38	0xbf7f1ec1	-0.996563
39	0xbfa62c67	-1.29823
40	0xbebffc76	-0.374973
41	0x3eb62fbe	0.355833
42	0x3eeef8f0	0.466743
43	0x3e489939	0.195897
44	0xbe56e654	-0.209863
45	0x3fb889a0	1.4417
46	0xbff6a4fd	-1.92691
47	0xbfaa7a63	-1.33186
48	0xbf1bacf7	-0.608108
49	0xbd624cac	-0.0552489

2.0.weight f4 [50, 50]
0	0x3f4fb235	0.811313
1	0xbc915055	-0.0177385
2	0xbabfd644	-0.0014636
3	0x3c5a00fd	0.0133059
4	0xbec6b639	-0.388109
5	0x3e5af790	0.213835
6	0x3b94791e	0.00453104
7	0xbf46dc7f	-0.776802
8	0xbe0cf28c	-0.137644
9	0xbd3d8856	-0.0462726
10	0xbe7cf851	-0.247041
11	0x3ed301c9	0.412123
12	0xbef8852b	-0.485391
13	0xbed17a25	-0.409135
14	0xbef12ee8	-0.471061
15	0x3f7ae169	0.980002
16	0xbefe2cfe	-0.496437
17	0xbe1d9d77	-0.153921
18	0x3d282d46	0.0410588
19	0x3ea836eb	0.328544
20	0xbee3e78e	-0.445126
21	0xbf4d2945	-0.801411
22	0x3f56105a	0.836187
23	0x3edc6cdb	0.430518
24	0xbc89dedc	-0.0168299
25	0x3ff0bf5d	1.88084
26	0xbdd71865	-0.105027
27	0xbebab3cc	-0.364653
28	0xbf01d430	-0.507144
29	0xbce1b160	-0.0275504
30	0xbf754424	-0.958071
31	0x3ee0882f	0.438539
32	0xbe7ca8a0	-0.246737
33	0x3f0ecf53	0.557851
34	0x3f19641f	0.599184
35	0x3dfab192	0.122409
36	0xbe5c1ebd	-0.214961
37	0x3f9f3c0c	1.24402
38	0xbd0de8dc	-0.0346459
39	0xbea53437	-0.322664
40	0xbdbfd31f	-0.0936644
41	0xbeb510d4	-0.353644
42	0xbd7a417a	-0.0610976
43	0x3e2711d8	0.163154
44	0xbec6e0b1	-0.388433
45	0x3e821b3b	0.254114
46	0xbdf58f2e	-0.119902
47	0x3eececea	0.462745
48	0x3d374cd3	0.044751
49	0xbe9ec509	-0.310097
50	0xbdcdce3a	-0.100491
51	0x3c9a8bd2	0.0188655
52	0xbc17b244	-0.00925881
53	0xbf0e6666	-0.55625
54	0xbf1e2b9d	-0.617853
55	0x3ec2276b	0.379207
56	0x3c26754a	0.0101598
57	0xbebf7d52	-0.374003
58	0x3da9926b	0.0827988
59	0x3e72c9d1	0.237098
60	0xbdbc3b27	-0.0919097
61	0x3c85ad1e	0.0163179
62	0x3ee053a0	0.438138
63	0x3e122c88	0.142748
64	0xbd1c6541	-0.0381825
65	0xbf1715c6	-0.590176
66	0x3d98f6ea	0.0746897
67	0x3f025f20	0.509264
68	0xbd4a0664	-0.0493225
69	0xbe8f57d6	-0.279967
70	0xbe96c95c	-0.294505
71	0x3f32bd3c	0.6982
72	0xbe1c3ac9	-0.152568
73	0xbc0e988a	-0.00870336
74	0x3d1abc29	0.0377771
75	0x3f1ff23d	0.62479
76	0x3ed9c2a0	0.425313
77	0x3d4aa69d	0.0494753
78	0xbf30f4b6	-0.691234
79	0x3c6caf56	0.0144461
80	0x3e86d8b2	0.263372
81	0x3dea17b1	0.114303
82	0x3dd402d1	0.103521
83	0xbecef0f1	-0.404182
84	0xbc8b78da	-0.0170254
85	0xbebccec4	-0.368765
86	0x3e1a105a	0.150453
87	0x3e04f484	0.129839
88	0x3d096788	0.033546
89	0xbc8df91d	-0.0173307
90	0x3da532bf	0.0806632
91	0x3e5344c3	0.206317
92	0x3d9285b7	0.0715441
93	0x3ed05597	0.406903
94	0xbdb5eb74	-0.088828
95	0xbd5f5ca2	-0.0545317
96	0x3e33c6c9	0.175563
97	0x3c9f410e	0.0194402
98	0xbd24a673	-0.0401978
99	0x3caaf252	0.0208675
100	0xbf3b368b	-0.731301
101	0xbc33b6e7	-0.0109689
102	0x3b7b160b	0.00383127
103	0xc03775e2	-2.86657
104	0xbf036849	-0.51331
105	0x3ba549d1	0.0050442
106	0xbcb4582c	-0.0220147
107	0x3ea366d8	0.319144
108	0x3fa227d0	1.26684
109	0xbf6832a9	-0.907023
110	0xbd19de12	-0.0375653
111	0x3f4ee979	0.80825
112	0xbf397b20	-0.724535
113	0x3f9cc7e3	1.22485
114	0xbc521434	-0.0128222
115	0xbfb8980b	-1.44214
116	0x3e3e19b9	0.185645
117	0xbeebd4ae	-0.460607
118	0x3c39a24e	0.0113302
119	0x3fba12d7	1.4537
120	0xbe67fe8f	-0.226557
121	0x3f527a85	0.822182
122	0x3f3cb72c	0.73717
123	0xbeb9c4fc	-0.362831
124	0x3f1d18e3	0.613661
125	0x4094613d	4.63687
126	0xbef3ea92	-0.476399
127	0xbecac732	-0.396051
128	0x3f8da9fc	1.10675
129	0x3c38305e	0.011242
130	0x3f335600	0.700531
131	0xbf04778a	-0.517449
132	0x3ecb33db	0.39688
133	0xbedc4913	-0.430245
134	0x3c33c37c	0.0109719
135	0x3e77a787	0.24185
136	0x3f33de83	0.702614
137	0x3fdad2dd	1.70956
138	0xbce705fe	-0.0282011
139	0xbf014456	-0.504949
140	0xbe9effe3	-0.310546
141	0xbfb24b34	-1.39292
142	0x3eb46d83	0.352398
143	0x3dcd612c	0.100283
144	0x3ee91687	0.45525
145	0xbe925a47	-0.285845
146	0xbf8209ab	-1.01592
147	0xbf6152d2	-0.88017
148	0x3c782907	0.0151465
149	0x3e8679cc	0.262648
150	0x3f76a476	0.963447
151	0x3c975a24	0.0184756
152	0x3d56fff7	0.0524902
153	0xc0595ca7	-3.39628
154	0x3e4ea811	0.201813
155	0xbf161427	-0.586245
156	0x3bf63490	0.00751359
157	0x3d80f7ac	0.0629724
158	0x3f8342ee	1.02548
159	0xbf97a249	-1.18464
160	0xbfc3121b	-1.52399
161	0x3eb4ead1	0.353354
162	0x3f227009	0.634522
163	0x401fa398	2.49436
164	0xbf8ce5b4	-1.10076
165	0xc006fe9b	-2.10929
166	0xbe1ed56b	-0.155111
167	0x3f9a9b7c	1.20787
168	0x3d246e09	0.040144
169	0x3eb71759	0.3576
170	0x3ea25743	0.317072
171	0x3e2491f3	0.160713
172	0xbff44285	-1.90828
173	0xbf974eba	-1.18209
174	0x3ee9882b	0.456117
175	0x3feaf987	1.83574
176	0xbe40d8cb	-0.188327
177	0x3f381893	0.719125
178	0x3fc7620f	1.55768
179	0x3d1c4439	0.038151
180	0x3f2c54ef	0.673171
181	0xc06e7914	-3.72614
182	0xbf21b75a	-0.631704
183	0xbf4983d8	-0.787168
184	0x3d618ae5	0.0550641
185	0x3bb9f9cc	0.00567553
186	0x3fcfa58f	1.62224
187	0xbe8bbff9	-0.272949
188	0xbd09cad5	-0.0336407
189	0xbe9be814	-0.304505
190	0x3d8573eb	0.0651625
191	0xbf9dbca9	-1.23232
192	0xbe35ab3b	-0.177411
193	0x3e53f0bb	0.206973
194	0x3f5baecd	0.858136
195	0xbe37ed85	-0.179617
196	0xbec821f3	-0.390884
197	0xbfb6b702	-1.42746
198	0x3ac1b064	0.00147773
199	0x3fc9ee24	1.57758
200	0x3f04e193	0.519067
201	0xbcc9a962	-0.0246169
202	0xbc344bcd	-0.0110044
203	0xbed9f234	-0.425676
204	0x3f956777	1.16722
205	0x4007c6a8	2.1215
206	0xbaa8dd84	-0.00128834
207	0x3f52d99d	0.823633
208	0xbf0525ee	-0.52011
209	0xbe730015	-0.237305
210	0x3efd76ee	0.495048
211	0x3e5095f2	0.203697
212	0x3e8fac3f	0.280611
213	0x3f3bf349	0.734181
214	0x3ffcb04b	1.97413
215	0x3d179ad7	0.0370129
216	0x3f3f393b	0.746967
217	0xbcccc89b	-0.024998
218	0xbc4663fd	-0.0121088
219	0xbe03eb3a	-0.128827
220	0x3f5c3aa8	0.86027
221	0x3ecfa8f8	0.405586
222	0x3e891bc5	0.26779
223	0xbe330271	-0.174814
224	0xbd546075	-0.0518498
225	0xbd249ee6	-0.0401906
226	0x3ea12dfd	0.314804
227	0x3f1f0692	0.621194
228	0xbf9067e0	-1.12817
229	0xbc970062	-0.0184328
230	0x3e9e16b5	0.308767
231	0x401fb6c3	2.49553
232	0xbf86161e	-1.04755
233	0x3f87eff2	1.06201
234	0x3d173a79	0.036921
235	0x3cf0b3fd	0.0293827
236	0x3e29988d	0.165621
237	0x3f8b15b5	1.0866
238	0xbc1f2245	-0.00971276
239	0x3f3ead0c	0.744828
240	0x3dafdbc6	0.0858684
241	0x40483372	3.12814
242	0xbf756b23	-0.958666
243	0x3d502836	0.0508196
244	0x3f3d50fc	0.739517
245	0xbf042d06	-0.516312
246	0x3ef18d26	0.47178
247	0x3ece5604	0.403
248	0x3d38cd56	0.0451177
249	0x3e9cfd8f	0.306622
250	0xbff6cd9f	-1.92815
251	0x3a8c94ce	0.00107255
252	0xbd168eed	-0.0367574
253	0xbf23eab3	-0.6403
254	0x3df9a7c1	0.121902
255	0xbe9042fa	-0.281761

3.0.bias f4 [50]
0	0xbf918740	-1.13694
1	0xbfb8b631	-1.44306
2	0xbeeb97dd	-0.460143
3	0xbdb9d396	-0.0907356
4	0x3e77531e	0.241528
5	0xbe455ffe	-0.192749
6	0xbf2171b0	-0.630641
7	0x3f56f49d	0.83967
8	0xbfb32e49	-1.39985
9	0x3da87768	0.082259
10	0x3f24fd09	0.644486
11	0x3eb12cf1	0.346046
12	0xbfafc45d	-1.37318
13	0x3ff57785	1.91771
14	0x3fb072b0	1.3785
15	0x3f8c1648	1.09443
16	0x3ff9f601	1.95282
17	0x3e143633	0.144738
18	0xc000df26	-2.01362
19	0x3eaaccb4	0.333593
20	0xbc54632f	-0.0129631
21	0x3f967968	1.17558
22	0x3d9437ab	0.0723718
23	0xbf87a29c	-1.05965
24	0xbf7b16e3	-0.980818
25	0xc0739946	-3.80623
26	0xc0046152	-2.06844
27	0xc05a18bd	-3.40776
28	0xbffd10a1	-1.97707
29	0x3f0ac333	0.542041
30	0xc00576b4	-2.08537
31	0xc0238423	-2.55494
32	0xbfa2e829	-1.27271
33	0x3ff14e90	1.88521
34	0x3ed6030c	0.417992
35	0xbf8095c0	-1.00457
36	0x4081d124	4.05678
37	0xbfb41744	-1.40696
38	0xbfa2f8df	-1.27322
39	0x3bab0801	0.00521946
40	0xbd847a5b	-0.0646865
41	0xbde9cd3e	-0.114161
42	0xbf4954a8	-0.786448
43	0x3fa072b0	1.2535
44	0xbfc0f323	-1.50742
45	0xbe77d73d	-0.242032
46	0x3fa9c1e8	1.32623
47	0x3e450764	0.192411
48	0xbca42686	-0.0200379
49	0xbfeb9e5a	-1.84077

3.0.weight f4 [50, 50]
0	0xbe918c7e	-0.284275
1	0x3fa22728	1.26682
2	0x3e69118c	0.227606
3	0xbedc8302	-0.430687
4	0x3e33764f	0.175256
5	0xc039dc9c	-2.90409
6	0xbeb569d3	-0.354323
7	0xbdd80fdc	-0.105499
8	0xbd85d851	-0.065354
9	0xbd8ccba6	-0.0687478
10	0x3f6df2cb	0.929486
11	0xbb8c6279	-0.0042842
12	0xbe895055	-0.268191
13	0xbd9ecc81	-0.0775385
14	0xbd787237	-0.0606558
15	0x3eb79e38	0.358629
16	0xbef8ca1d	-0.485917
17	0x3f4cd6a1	0.80015
18	0x3fbc801f	1.47266
19	0x3f08fa8b	0.535073
20	0x3e8db446	0.276766
21	0x3e38cf7d	0.180479
22	0xbec27bd5	-0.379851
23	0x3f570825	0.839968
24	0xbe155a7d	-0.145853
25	0x3d4e052c	0.0502979
26	0xbd1d0ab8	-0.0383403
27	0x3f3f42bb	0.747112
28	0x3e264628	0.162377
29	0x3f9103da	1.13293
30	0x3f077c03	0.529236
31	0x3d9664d4	0.0734345
32	0x3f0b8a2b	0.545077
33	0xbc22ff09	-0.0099485
34	0xbf980b24	-1.18784
35	0xbeab4938	-0.334543
36	0x3e3048e0	0.172153
37	0xbe3ba733	-0.183255
38	0xbe93e37e	-0.288845
39	0xbe997b53	-0.299769
40	0xbf0f0878	-0.558723
41	0xbdf6c376	-0.12049
42	0xbf11f762	-0.570181
43	0xbe378fac	-0.179259
44	0xbf6b0692	-0.918069
45	0xbf103f70	-0.563468
46	0x3f7c8d4c	0.986531
47	0x3f1d1f92	0.613763
48	0x3f270197	0.652368
49	0x3e86134d	0.261866
50	0xbeb74ea9	-0.358022
51	0x3f0b1316	0.54326
52	0xbf223876	-0.633674
53	0xbd13113a	-0.0359051
54	0x3c32547c	0.0108844
55	0x3fa18a33	1.26203
56	0x3e84aafc	0.259117
57	0xbf2083ed	-0.627013
58	0x3e17d6b6	0.14828
59	0xbd579421	-0.0526315
60	0xbeafbf62	-0.343257
61	0x3bd10a34	0.00637939
62	0xbfb3ae68	-1.40376
63	0x3f490bd8	0.785337
64	0xbf8f47d8	-1.11938
65	0xbfae39d6	-1.36114
66	0x3fbfc505	1.4982
67	0xbd11bf45	-0.0355828
68	0x3e84cad5	0.25936
69	0x3ea8409e	0.328618
70	0x3fa2718b	1.26909
71	0x3fb7775c	1.43333
72	0xbe8196fb	-0.253105
73	0xbf6de14c	-0.929219
74	0xbfb1fc3b	-1.39051
75	0xbf4b1f9b	-0.793451
76	0xbd47b80b	-0.0487595
77	0xc00581ae	-2.08604
78	0xbd8523c1	-0.0650096
79	0x3f80ba73	1.00569
80	0x3ec31056	0.380984
81	0xbf037b4a	-0.5136
82	0xc034e758	-2.82662
83	0xbeaaf428	-0.333894
84	0x3ff1c044	1.88868
85	0x4027ebd9	2.62377
86	0x3e5eb463	0.217485
87	0x3f0dd191	0.553979
88	0x3fa31d93	1.27434
89	0x3f0b6849	0.54456
90	0x3f83bb30	1.02915
91	0x3e8f6cce	0.280127
92	0xc03fa6df	-2.99456
93	0x3e45625a	0.192758
94	0xbf8425af	-1.0324
95	0x3f1f4bc7	0.62225
96	0xbf4d9371	-0.803031
97	0x3f53da0e	0.827546
98	0xbea19115	-0.31556
99	0x3fbe0f3d	1.48484
100	0xbcc017e8	-0.0234489
101	0xc01fd0d0	-2.49712
102	0x3deade65	0.114682
103	0xbd8d8a7d	-0.0691118
104	0xbe2b1a2a	-0.167092
105	0xbf49fe11	-0.789033
106	0x3f1e5c0c	0.618592
107	0x3f0959a3	0.536524
108	0xbc8a4e6d	-0.0168831
109	0xbe809fa5	-0.251218
110	0xbe9b0143	-0.302744
111	0x3d26919a	0.0406662
112	0xbe050b0f	-0.129925
113	0xbe12c7b9	-0.14334
114	0xbed58794	-0.41705
115	0xbb7afee4	-0.00382989
116	0x3d472e93	0.0486284
117	0x3f23fa2b	0.640536
118	0x3f5ced4e	0.862996
119	0xbceb24dc	-0.0287041
120	0xbf351e64	-0.707495
121	0xbf0f863c	-0.560642
122	0xbf805c14	-1.00281
123	0xbfbf53a4	-1.49474
124	0xbe4c59b8	-0.199561
125	0xbe11d25b	-0.142404
126	0x3cd89771	0.0264394
127	0x3f4a9004	0.79126
128	0x3ee46823	0.446107
129	0x3e9fafc9	0.311888
130	0xbe0714fd	-0.131916
131	0xbe7f8551	-0.249532
132	0x3e9e81ed	0.309585
133	0xbcbc32b6	-0.0229734
134	0xbfa87358	-1.31602
135	0xbf2f7415	-0.685365
136	0x3eb6c0b5	0.356939
137	0x3f1715e8	0.590178
138	0xbf0e758a	-0.556481
139	0xbf3d105e	-0.738531
140	0x3d301373	0.0429873
141	0xbec5b5fa	-0.386154
142	0x3e695d4f	0.227895
143	0xbdb89ae7	-0.0901392
144	0xbcb9e859	-0.0226938
145	0x3ed64170	0.418468
146	0xbc8cae64	-0.017173
147	0x3e02eba2	0.127852
148	0xbe8a67c7	-0.270323
149	0x3f374f72	0.716056
150	0xbf7fbefd	-0.999008
151	0xbf4a52ce	-0.790326
152	0x3fa658a3	1.29958
153	0x3f7aa37b	0.979057
154	0x3ebefd22	0.373025
155	0x3ead77b8	0.338804
156	0xbf84e1c6	-1.03814
157	0x4005dcc6	2.0916
158	0xbf93aace	-1.15365
159	0x3dafe719	0.08589
160	0xbefb8130	-0.49122
161	0xbca4879f	-0.0200842
162	0x3e0855da	0.13314
163	0xbfa64010	-1.29883
164	0x3f345c14	0.70453
165	0xc00ae022	-2.16993
166	0x3f8feea2	1.12447
167	0x3fd651c2	1.67437
168	0xbfc0432d	-1.50205
169	0x3f4adbd7	0.792417
170	0x3ec2c42f	0.380403
171	0x3feea897	1.86452
172	0xc0093626	-2.14393
173	0xbe31b3f2	-0.173538
174	0x3f7fed85	0.999718
175	0xbeaff4dc	-0.343665
176	0xbbd4d23f	-0.00649479
177	0xc06c0f67	-3.68844
178	0x4019ae92	2.40128
179	0xc09b93c9	-4.86179
180	0x3f75d24a	0.96024
181	0x40561f9f	3.34568
182	0x3f5daea3	0.865946
183	0xbf520b80	-0.820488
184	0xbf2c0d5f	-0.672079
185	0xc08ea14d	-4.45719
186	0x3f8dc726	1.10764
187	0x4001b8e5	2.02691
188	0x3e2e80bf	0.170413
189	0x3fdecdf2	1.74066
190	0xbf41564b	-0.755223
191	0xbe3d5348	-0.184888
192	0x3f7a516e	0.977805
193	0x3fea0bf6	1.82849
194	0x3fd860aa	1.69045
195	0x3d244c7b	0.040112
196	0xbdbb7458	-0.0915305
197	0x40191eb8	2.3925
198	0x3f24ba95	0.643472
199	0xbf9332df	-1.14999
200	0x3dca8c66	0.0989006
201	0x3f22d699	0.636087
202	0xbde0c847	-0.109757
203	0xbeb9ec4e	-0.363131
204	0xbecfafea	-0.405639
205	0x3e672757	0.225736
206	0x3d7d3dfe	0.0618267
207	0x3e3c0c63	0.183641
208	0xbec8d691	-0.392262
209	0x3f10ee6c	0.566138
210	0x3f4e9479	0.806953
211	0xbd164932	-0.0366909
212	0x3db288dc	0.0871751
213	0xbf59a35d	-0.850149
214	0x3e670718	0.225613
215	0xbe86939f	-0.262845
216	0x3edc8dc1	0.430769
217	0x3f85a954	1.04423
218	0x3f5de42e	0.866763
219	0xbfb67968	-1.42558
220	0xbed82257	-0.422137
221	0x3efb228e	0.490498
222	0xbeef060c	-0.466843
223	0x3e580560	0.210958
224	0x3ecbcab8	0.398031
225	0x3e99eaff	0.300621
226	0xbc0e19d4	-0.00867315
227	0xbe644e0e	-0.222954
228	0x3f5e24ee	0.867751
229	0x3fa4aa65	1.28645
230	0x3e947086	0.289921
231	0xbe7fb2ab	-0.249705
232	0xbe1ec13c	-0.155034
233	0x3d3bffc0	0.0458982
234	0x3e209d49	0.15685
235	0xbe505858	-0.203462
236	0x3e0f7510	0.140095
237	0x3f314035	0.692386
238	0x3d128ab2	0.0357768
239	0x3dcf3a15	0.101185
240	0xbf4a60c4	-0.790539
241	0xbf1b8cb9	-0.607616
242	0x3f5becdd	0.859083
243	0x3da744f6	0.0816745
244	0xbd6c85b5	-0.0577447
245	0xbebe00d2	-0.3711
246	0x3f337004	0.700928
247	0x3f0e6634	0.556247
248	0xbdd87f88	-0.105712
249	0x3d8508b3	0.064958
250	0xbdc66758	-0.0968768
251	0x3e4a8ef7	0.197811
252	0xbf180304	-0.593796
253	0x3e86e06e	0.263431
254	0x3e52d491	0.205889
255	0x3d337c49	0.0438197

4.0.bias f4 [50]
0	0xbbae2887	-0.00531489
1	0x3f8b92e2	1.09042
2	0x400900bd	2.14067
3	0x3f811a76	1.00862
4	0x4006277c	2.09616
5	0x400af377	2.17111
6	0x3f1ba909	0.608048
7	0xbeea415f	-0.45753
8	0x400c39ac	2.19102
9	0xbfd2f449	-1.64808
10	0xbeffe154	-0.499766
11	0x3f5a7bd5	0.853452
12	0x40008a9c	2.00846
13	0xbcd56770	-0.0260503
14	0x400bba34	2.18324
15	0x3e8803ef	0.265655
16	0x3f73bc3c	0.952091
17	0x3f0a02c9	0.539105
18	0x405cfb01	3.45282
19	0x3f29666b	0.661719
20	0xbf4fe0f0	-0.812026
21	0xbf29a32b	-0.662646
22	0xbd1c4a69	-0.0381569
23	0x40453f53	3.08199
24	0x3e84a5be	0.259077
25	0x3f113c68	0.567328
26	0x3debcada	0.115133
27	0x40931926	4.59682
28	0x00000000	0.0
29	0xbf808f32	-1.00437
30	0xc020c0ad	-2.51176
31	0x3f17e3d2	0.59332
32	0x3f965a47	1.17463
33	0x3efd9d34	0.49534
34	0xbfebfcb9	-1.84365
35	0x403354ca	2.80205
36	0xbecb517a	-0.397106
37	0xbe2c9c0b	-0.168564
38	0x3fdb1aa0	1.71175
39	0x3f991b71	1.19615
40	0x3fa57785	1.29271
41	0x401f689d	2.49076
42	0xbeabde40	-0.33568
43	0x3f99bab2	1.20101
44	0x3f7bf62b	0.984225
45	0x3f6d3283	0.926552
46	0x40583444	3.37819
47	0x3f8bdaa5	1.09261
48	0xbf99d0fa	-1.20169
49	0x3df82774	0.121169

4.0.weight f4 [50, 50]
0	0x3ff56430	1.91712
1	0x3fdb165d	1.71162
2	0xbf5d9ac8	-0.865643
3	0xbf2cdcdb	-0.675245
4	0x3ded727a	0.115941
5	0x4014ae00	2.32312
6	0x40439168	3.05575
7	0xbf3f4f2f	-0.747302
8	0x3fd68827	1.67603
9	0x3f79be7f	0.975563
10	0x3f108399	0.564508
11	0xbd313eb7	-0.0432727
12	0x3e3c2720	0.183743
13	0x3f92db62	1.14732
14	0xbf329de9	-0.697722
15	0x3cf95b00	0.0304389
16	0x3e71d68c	0.23617
17	0x4011fe87	2.28116
18	0x3e960008	0.292969
19	0x3f8428f6	1.0325
20	0x3baabe85	0.0052107
21	0x3e1a6fc6	0.150817
22	0xbe97e77d	-0.296688
23	0xbf3bea81	-0.734047
24	0xbf787076	-0.970466
25	0xbf83280f	-1.02466
26	0xbff9e647	-1.95234
27	0xbe9aa6b1	-0.302053
28	0x400a62f6	2.16229
29	0xbed37fbf	-0.413084
30	0xbe446a1a	-0.191811
31	0x3f86ee63	1.05415
32	0xbf60a622	-0.877535
33	0xbf09185d	-0.535528
34	0x3fc4b8d0	1.53689
35	0x40640419	3.56275
36	0x3fd812ae	1.68807
37	0xbf29eabc	-0.663738
38	0xbf94370d	-1.15793
39	0x3d933c6d	0.0718926
40	0x4012fba9	2.29661
41	0x3ee24702	0.441948
42	0x3ff2d480	1.89711
43	0x3e90ef13	0.283074
44	0x3f14534c	0.579396
45	0x3ff4dd83	1.91301
46	0x3fb78f9b	1.43407
47	0x400afca4	2.17167
48	0xbcadd01d	-0.0212174
49	0xbe07f280	-0.132761
50	0x3f030ae5	0.511885
51	0xbd9d1c2d	-0.0767139
52	0x3efbbea9	0.491689
53	0xbc317706	-0.0108316
54	0x3db7c8b7	0.0897383
55	0x3f7966f1	0.974227
56	0x3ec19cbf	0.378149
57	0x3d5af5f0	0.0534572
58	0x3f0eb980	0.557518
59	0x3ca77d52	0.0204455
60	0xbe3932d7	-0.180858
61	0xbde1650a	-0.110056
62	0x3e45eaee	0.193279
63	0xbcbe2a07	-0.0232134
64	0xbdbb1408	-0.0913468
65	0x3cdcfd67	0.0269763
66	0xbe38954a	-0.180257
67	0xbd559289	-0.0521417
68	0xbf11044f	-0.566472
69	0xbf33c771	-0.702262
70	0xbcb34a45	-0.021886
71	0x3d948c14	0.0725328
72	0xbec98f82	-0.393673
73	0xbf510a78	-0.816566
74	0xbe72f87b	-0.237276
75	0x3fa948fe	1.32254
76	0xbf21984a	-0.63123
77	0x3d254c70	0.0403561
78	0x3f09b952	0.537984
79	0xbe9d67fd	-0.307434
80	0xbeb11969	-0.345897
81	0x3e3683c3	0.178237
82	0xbe7d1394	-0.247145
83	0xbce36b3f	-0.0277611
84	0x3f053d75	0.520469
85	0x3f17aa37	0.592441
86	0xbe22b1b3	-0.158881
87	0x3e22146a	0.158281
88	0x3da090cf	0.0784012
89	0x3e4b890d	0.198765
90	0x3f8b7d41	1.08976
91	0xbe52ee42	-0.205987
92	0xbeca16c6	-0.394705
93	0x3c7ec786	0.0155505
94	0xbe9d744f	-0.307528
95	0x3e40902e	0.18805
96	0xbebb1401	-0.365387
97	0xbdb046d5	-0.0860726
98	0xba4d4bd6	-0.000783143
99	0xbdd986ba	-0.106214
100	0x400a1e26	2.15809
101	0x3fb78961	1.43388
102	0xbfda62cc	-1.70614
103	0x3efb5372	0.490871
104	0x3f1ea002	0.619629
105	0xbf42e84b	-0.761357
106	0x40419168	3.0245
107	0xbeebc904	-0.460518
108	0x3ef18efc	0.471794
109	0x3f4fa798	0.811151
110	0x403351d7	2.80187
111	0xbf375808	-0.716187
112	0xbf359642	-0.709324
113	0x3f54bd34	0.831012
114	0x3fc67daa	1.55071
115	0x3e9e4bcb	0.309172
116	0x3ed4241c	0.414338
117	0x3ff1a7b1	1.88793
118	0x3dc800f8	0.0976581
119	0x3dbd215e	0.0923488
120	0xbce807f1	-0.0283241
121	0x3f8beff2	1.09326
122	0x3f0c0208	0.546906
123	0x3e658644	0.224145
124	0x3e1389b5	0.14408
125	0x3f67ec78	0.905952
126	0x3f11c0fd	0.569351
127	0x3d8c6d46	0.0685678
128	0xbd2e8874	-0.0426106
129	0x3ee90668	0.455127
130	0xbf9f4342	-1.24424
131	0xbea2fd11	-0.318337
132	0x3f1caf1d	0.612047
133	0xbfd7559b	-1.6823
134	0xbf1503fb	-0.582092
135	0x3f068c37	0.525577
136	0xbe227632	-0.158654
137	0xbf8043d4	-1.00207
138	0x3e96149c	0.293126
139	0x3ce1a56c	0.0275447
140	0x3f91c098	1.13869
141	0x3de812be	0.113317
142	0x3f5673b4	0.837703
143	0xbe03f78c	-0.128874
144	0xbc6b3065	-0.0143548
145	0x3ff8bd12	1.94327
146	0x3f6b7f06	0.919907
147	0xbfaeb9f5	-1.36505
148	0xbcf7f788	-0.0302694
149	0xc063c654	-3.55898
150	0xc12bc49c	-10.7355
151	0xc02d8c7e	-2.7117
152	0x3fe6e686	1.80391
153	0x3f343e42	0.704075
154	0xbfc20a52	-1.51594
155	0x3ed443f6	0.414581
156	0xc0b72268	-5.72295
157	0x3e89e0c6	0.269293
158	0xc00f5422	-2.23951
159	0x3f32eefa	0.698959
160	0xc0865e74	-4.19903
161	0x3eff646b	0.498813
162	0xbf616ead	-0.880595
163	0x3fe1c3df	1.76379
164	0xc062742a	-3.53834
165	0xc039ad6d	-2.90121
166	0xbf27634e	-0.653859
167	0xc0a2779a	-5.0771
168	0xc0cdc2ce	-6.43003
169	0x400bbca9	2.18339
170	0xbcc491cb	-0.0239953
171	0xbf803a54	-1.00178
172	0xc08ba0e4	-4.36339
173	0x3f1f5808	0.622437
174	0xbf854c98	-1.0414
175	0x3f55f948	0.835835
176	0xbf7be985	-0.984032
177	0xc0af6959	-5.48161
178	0x3eed9296	0.464009
179	0x400e294a	2.22127
180	0xc09d50db	-4.91612
181	0xc0bd93f3	-5.92431
182	0xbf0ca516	-0.549394
183	0xc10fa162	-8.9769
184	0x3fd4d9e8	1.6629
185	0xc0562ce4	-3.34649
186	0x3ef4970f	0.477715
187	0xc0f35769	-7.60442
188	0xc06bf30e	-3.68671
189	0xbd3cb89d	-0.0460745
190	0xc0ec57bc	-7.38571
191	0xc0cb6cdf	-6.35704
192	0xbf96b075	-1.17726
193	0xbf5916fd	-0.848007
194	0xbfdb26c0	-1.71212
195	0xbf57fc98	-0.843698
196	0x3e37e282	0.179575
197	0xc00765aa	-2.11558
198	0x3d32bbfa	0.0436363
199	0xbfbad624	-1.45966
200	0x3f0d802c	0.552737
201	0x3e0f227d	0.13978
202	0xbe84fa27	-0.259721
203	0x3d83284b	0.0640417
204	0x3e013ad6	0.126201
205	0xbf219392	-0.631158
206	0x3f89f7a5	1.07787
207	0xbe261b6d	-0.162214
208	0x3f7405f7	0.953216
209	0xbed3ad9f	-0.413434
210	0xbec10279	-0.376972
211	0x3ebd3fc0	0.369627
212	0xbf0598d0	-0.521863
213	0x3ea90060	0.330081
214	0x3e919179	0.284313
215	0x3e9b1e19	0.302964
216	0x3deb923a	0.115025
217	0x3f052d13	0.520219
218	0xbd082096	-0.0332342
219	0x3e478c00	0.19487
220	0x3c0a5c24	0.00844482
221	0x3dbc0fd9	0.0918271
222	0xbe0a6656	-0.135156
223	0x3d7545ad	0.0598809
224	0xbe108356	-0.141126
225	0x3ec9a997	0.393872
226	0x3e2b606b	0.16736
227	0xbeccb87c	-0.399845
228	0x3e40c34c	0.188245
229	0x3e2d449a	0.169207
230	0xbe35dc40	-0.177598
231	0xbdda3a8e	-0.106557
232	0x3ce88814	0.0283852
233	0xbe850460	-0.259799
234	0x3e953e4f	0.291491
235	0x3f338b69	0.701346
236	0xbde23316	-0.110449
237	0xbf15593e	-0.583393
238	0xbd1cdce5	-0.0382966
239	0xbdb269c5	-0.0871158
240	0x3c96e702	0.0184207
241	0xbe103255	-0.140817
242	0xbebdb941	-0.370554
243	0x3e2ff2a1	0.171824
244	0x3f0133e3	0.504698
245	0x3fdabd3c	1.7089
246	0xbdbb88bd	-0.0915694
247	0x3ed151c6	0.408827
248	0x3d0ec12e	0.0348522
249	0xbf2f2064	-0.684088
250	0x3f2dbbae	0.678645
251	0x3ea44370	0.320827
252	0xbd072416	-0.0329934
253	0x3ca93045	0.0206529
254	0xbf4cfb44	-0.800709
255	0xbe99db23	-0.3005

5.0.bias f4 [50]
0	0x3e67670a	0.225979
1	0x3f24218e	0.641137
2	0xbf8f9eae	-1.12203
3	0xbe844d66	-0.258403
4	0x3e8f0e0b	0.279404
5	0xc04a1ecd	-3.15813
6	0x40747914	3.81989
7	0xbf56bcb6	-0.838817
8	0x3eac9c2c	0.337129
9	0x3fbd9f80	1.48143
10	0xbec64da1	-0.387311
11	0xc09b4799	-4.85249
12	0xbfbb497b	-1.46318
13	0xbf1f41c0	-0.622097
14	0xc0b7a733	-5.73916
15	0xbf0a1d00	-0.539505
16	0x3eb62da5	0.355817
17	0xc04d5f46	-3.20894
18	0xbf2b777d	-0.669792
19	0xbd5a3388	-0.0532718
20	0xbf894aa1	-1.07259
21	0x3e6ed1bf	0.233222
22	0x3f0a4628	0.540133
23	0x3d0e2592	0.0347038
24	0xbfe77c46	-1.80848
25	0xbf8036b9	-1.00167
26	0xbffc5cbc	-1.97158
27	0x3fff3333	1.99375
28	0x3f2ad5e0	0.667326
29	0xc01adf50	-2.41988
30	0xbe86455f	-0.262248
31	0xc014a20a	-2.32239
32	0xc0c3d64d	-6.11991
33	0xc023d902	-2.56012
34	0x3e79c94f	0.243932
35	0xbe671ef3	-0.225704
36	0xbdfde721	-0.123976
37	0x3fed6b66	1.85484
38	0xbefc024b	-0.492205
39	0xbf129446	-0.572575
40	0xbf07e197	-0.530786
41	0xbf17d20f	-0.593049
42	0x3b417ebb	0.0029525
43	0xc04abfb1	-3.16795
44	0xbf4e8da8	-0.806849
45	0xc050e65c	-3.26406
46	0xbf5ff099	-0.874765
47	0xc00db329	-2.21406
48	0x3e97ee4e	0.29674
49	0xc0b54fa0	-5.66597

5.0.weight f4 [50, 50]
0	0x3cfd6b9b	0.0309351
1	0x3c93ff26	0.018066
2	0xbc82517e	-0.015908
3	0xbba5c374	-0.0050587
4	0x3de1e81d	0.110306
5	0x3aba5653	0.00142164
6	0xbdd61240	-0.104527
7	0x3c809ef7	0.0157008
8	0xbdfc12f1	-0.123083
9	0x3cd0891a	0.025456
10	0x3c4d3ab1	0.0125262
11	0x3ce3d84c	0.0278131
12	0x3bbb3d6e	0.00571411
13	0x3fcd6d5d	1.6049
14	0xbc2d7874	-0.0105878
15	0x3cb449e9	0.0220079
16	0x3e0377e2	0.128387
17	0xbc2d65ff	-0.0105834
18	0x3daebde1	0.0853231
19	0xb8515c5c	-4.99155e-05
20	0x3bb6f205	0.00558305
21	0x3e694706	0.22781
22	0xbdb31d13	-0.0874578
23	0x3c9d2575	0.0191829
24	0xbd1728dc	-0.0369042
25	0x3c9f11a9	0.0194176
26	0x3c2cd5b7	0.010549
27	0x3c4ddc2c	0.0125647
28	0x3d349a8c	0.0440927
29	0xbd2f087c	-0.0427327
30	0xbd0cb7d4	-0.034355
31	0x3d69ddb4	0.0570962
32	0x3e1d92b8	0.15388
33	0x3ca86bfa	0.0205593
34	0xbd99ad00	-0.075037
35	0xbc807e40	-0.0156852
36	0xbd36d290	-0.0446344
37	0xbb79ef1a	-0.00381369
38	0xbc55786d	-0.0130292
39	0x3bc17fbd	0.00590512
40	0x3ca97361	0.0206849
41	0xbc4d56cb	-0.0125329
42	0xbcaa4d7c	-0.0207889
43	0xbd441b4d	-0.0478776
44	0x3bdb8db0	0.00670024
45	0xbba759a1	-0.00510712
46	0xbb86e1b1	-0.00411626
47	0x3cd76252	0.026292
48	0xb9d40e3d	-0.000404464
49	0xbc186735	-0.00930195
50	0x3dc22333	0.0947937
51	0x3d1b21df	0.0378741
52	0x3d1a385b	0.0376514
53	0xbc8ce810	-0.0172005
54	0x3c54fc46	0.0129996
55	0xbd001ca0	-0.0312773
56	0x3d523217	0.0513173
57	0x3c1dda46	0.00963456
58	0x3d5006c3	0.0507877
59	0xbca77b39	-0.0204445
60	0x3bfeb8c3	0.00777349
61	0x3d214819	0.0393754
62	0x3d70fcf8	0.058835
63	0xbf892e1f	-1.07172
64	0x3cae5b5d	0.0212838
65	0xbcb6d5b5	-0.0223187
66	0xbda94efe	-0.0826702
67	0x3d60b029	0.0548555
68	0x3d319dd2	0.0433634
69	0x3caf9b64	0.0214364
70	0x3cb9cfd0	0.0226821
71	0x3c38da3c	0.0112825
72	0xbda07c92	-0.0783626
73	0x3c3080d1	0.0107729
74	0x3d63cbb7	0.0556142
75	0x3c7b395c	0.0153335
76	0x3c711871	0.0147153
77	0x3d05f7ac	0.0327069
78	0x3d02d715	0.0319434
79	0xbc89ccd3	-0.0168213
80	0xbdb89e92	-0.0901462
81	0x3dbae6c9	0.0912605
82	0x3d479174	0.0487227
83	0xbc909d3c	-0.0176531
84	0xbc6cabfb	-0.0144453
85	0x3c3a0e19	0.0113559
86	0x3da43fb0	0.0801996
87	0xbc569248	-0.0130964
88	0xbccfe734	-0.0253788
89	0x3cc37429	0.0238591
90	0xbb3383d1	-0.00273918
91	0xbce0d131	-0.0274435
92	0xbcdbc0bb	-0.0268253
93	0xbc7e29d2	-0.0155129
94	0x3c9a6465	0.0188467
95	0x3ce88814	0.0283852
96	0x3b79b4b7	0.00381021
97	0xbbc7d6c4	-0.0060986
98	0xbc814007	-0.0157776
99	0x3c77effc	0.0151329
100	0x3e7258d6	0.236667
101	0x3cb208c6	0.0217327
102	0x3dc4d0ea	0.0961016
103	0xbdb05088	-0.0860911
104	0xbd5c69c3	-0.0538118
105	0xbdc0b1a1	-0.0940888
106	0x3c41b039	0.0118218
107	0xbc81f065	-0.0158617
108	0xbe2b6955	-0.167394
109	0xbeeac98e	-0.458569
110	0xbad93510	-0.00165716
111	0x3da160cb	0.0787979
112	0xbdd84988	-0.105609
113	0xbd4c3746	-0.0498574
114	0x3e4b7dc8	0.198722
115	0x3daa02ab	0.0830129
116	0xbecf44d4	-0.404822
117	0x3d4ffe2a	0.0507795
118	0x3c6e54dd	0.0145466
119	0x3b61683a	0.00343944
120	0x3d932534	0.0718483
121	0x3e1eb895	0.155001
122	0xbd9b2222	-0.0757487
123	0xbe5f76a3	-0.218226
124	0x3e3334c6	0.175006
125	0x3d4d9381	0.0501895
126	0x3d757994	0.0599304
127	0xbdb0fdc1	-0.0864215
128	0x395b8bac	0.000209375
129	0xbd6fdd73	-0.0585608
130	0xbe911b82	-0.283413
131	0x3dfe18f0	0.124071
132	0xbe0f2064	-0.139772
133	0xbd04d841	-0.0324328
134	0xc01ff338	-2.49922
135	0x3ec31d93	0.381085
136	0xbda675de	-0.0812795
137	0xbaa6b3de	-0.00127184
138	0xbe0718ec	-0.131931
139	0xbe2b749b	-0.167437
140	0xbdc32965	-0.0952938
141	0x3a86b9ee	0.00102788
142	0xbd80ed73	-0.0629529
143	0x3d578191	0.0526138
144	0xbedcf399	-0.431546
145	0xbd4064fa	-0.0469713
146	0x3e44c6a4	0.192164
147	0xbddddb98	-0.108329
148	0x3d53a3ec	0.05167
149	0x3ddb5200	0.10709
150	0x3f69b003	0.912842
151	0xbff79a17	-1.93439
152	0xbf416463	-0.755438
153	0xbf979f02	-1.18454
154	0xbf6646d0	-0.899518
155	0xbfb8a969	-1.44267
156	0x3d9c7658	0.0763976
157	0xbe96cdf2	-0.29454
158	0xbf6655b0	-0.899745
159	0xbf1530cf	-0.582776
160	0x3eed0310	0.462914
161	0xbdca903a	-0.0989079
162	0xc083dff8	-4.12109
163	0x3ee5a965	0.448558
164	0x3df6f75e	0.120589
165	0x3f1b1f36	0.605945
166	0x3fe286d7	1.76974
167	0xc047e204	-3.12317
168	0xbf4fc7d6	-0.811643
169	0x3e9d562a	0.307298
170	0xbec875d5	-0.391524
171	0x3d42c64e	0.0475524
172	0xbf1a6ddf	-0.603239
173	0xbd874c83	-0.0660639
174	0xbfbc0496	-1.46889
175	0xbf9733db	-1.18127
176	0xc0240cf2	-2.56329
177	0xbe94408e	-0.289555
178	0xbd162efc	-0.0366659
179	0x3e7049ed	0.234657
180	0xbf5507fb	-0.832153
181	0x3f3078d9	0.689344
182	0x3fe30942	1.77372
183	0xbf0c8345	-0.548878
184	0xbf16de22	-0.589327
185	0x3f22a6d2	0.635358
186	0xbfd90d06	-1.69571
187	0x3e0867ae	0.133208
188	0xc00884b6	-2.1331
189	0xbff19ed8	-1.88766
190	0xbefa31c6	-0.488661
191	0xbf824dd3	-1.018
192	0xbf4c8a05	-0.798981
193	0x3ef15f89	0.471432
194	0x3e0f6d76	0.140066
195	0xc068887b	-3.63333
196	0x3ed6ce79	0.419544
197	0xc01338ef	-2.30035
198	0xbdc540a4	-0.0963147
199	0xbfac5198	-1.34624
200	0x3cc8850a	0.0244775
201	0xbc99e36b	-0.0187852
202	0xbb878733	-0.00413599
203	0xbb80cc99	-0.00393064
204	0xbc38d1d9	-0.0112805
205	0x3d516243	0.0511191
206	0xbb8645aa	-0.00409766
207	0xbc07aacf	-0.00828047
208	0xbba71bce	-0.00509975
209	0x3b296ecf	0.00258534
210	0x3bbadea3	0.00570281
211	0x3cdf2df8	0.0272436
212	0x3cd14b4c	0.0255486
213	0xbe2293d1	-0.158767
214	0x3daa687c	0.0832071
215	0xb9f9fdd5	-0.000476821
216	0xbd781beb	-0.0605735
217	0xbb144649	-0.00226249
218	0x3dc43fbe	0.0958247
219	0x3c1623ee	0.00916384
220	0x3b2d5360	0.00264474
221	0x3d0a8742	0.0338204
222	0xbd567507	-0.0523577
223	0x3d4ac810	0.0495072
224	0xb9b694ec	-0.000348247
225	0xbabd4dff	-0.00144428
226	0xbc7dc30f	-0.0154884
227	0x3bfb6d1e	0.00767292
228	0x3c73d11e	0.0148814
229	0xbc58f19e	-0.0132412
230	0xbc8165c6	-0.0157956
231	0xbcb8dbea	-0.0225658
232	0x3e21d14e	0.158025
233	0xbb231acd	-0.00248878
234	0x3be2e28e	0.00692398
235	0x3bdeb33f	0.00679627
236	0xbcdc0519	-0.0268579
237	0xbb989c6f	-0.00465732
238	0x3938a03c	0.000176073
239	0xbb6729c5	-0.00352727
240	0x3a2067b6	0.000611897
241	0x3a462ec5	0.000756007
242	0xbbe0b02f	-0.00685694
243	0x39ef9c30	0.00045702
244	0x3b356654	0.00276794
245	0x3c4a3253	0.0123411
246	0x3d779bfe	0.0604515
247	0x3bc0800d	0.00587464
248	0xbb4ab1c0	-0.00309287
249	0x39cb4882	0.000387732
250	0xbc7b32a6	-0.0153319
251	0xbd9be1c3	-0.0761142
252	0x3c7b9460	0.0153552
253	0xbd909488	-0.0705958
254	0x39c8c84a	0.000382962
255	0x3e90fda0	0.283185

6.bias f4 [5]
0	0xbca92d56	-0.0206515
1	0xbc9be828	-0.0190316
2	0x3c9495ef	0.0181379
3	0xbc96ff56	-0.0184323
4	0x3c967019	0.018364
