artifacts/acas_benchmark/onnx/N_4_4.onnx (onnx, 54312 bytes, 14 tensors)

0.0.bias f4 [50]
0.185357 0.161592 0.0937879 -0.0209425 -0.0462509 0.51067 -0.342286 -0.00752997
0.538272 0.180623 0.283243 -0.157653 0.155984 0.0706297 0.413838 0.0262945
0.0677285 0.271427 0.426537 -0.121005 0.321653 -0.130899 -0.151635 -0.0933599
-0.430195 -0.0596742 -0.103037 -0.281403 0.156569 0.286477 -0.148822 -0.324587
-0.679284 -0.10523 -0.257714 -0.236154 -0.0652364 -0.611564 -0.0472552 -0.445644
0.106481 0.188536 -0.304245 -0.299263 0.00413811 0.399015 -0.289302 0.13975
0.142182 0.603604
00000000: 3ace 3d3e 6078 253e df13 c03d 9b8f abbc
00000010: 9571 3dbd 45bb 023f 1c40 afbe f7bd f6bb
00000020: 32cc 093f 3cf5 383e 3a05 913e ca6f 21be
00000030: 45ba 1f3e 4ea6 903d 93e2 d33e 9067 d73c
00000040: 3db5 8a3d 7bf8 8a3e 0f63 da3e 78d1 f7bd
00000050: b4af a43e 630a 06be 3546 1bbe 7a33 bfbd
00000060: 8542 dcbe ef6c 74bd 1005 d3bd 0e14 90be
00000070: a053 203e 1dad 923e cb64 18be 4430 a6be
00000080: 8ee5 2dbf d482 d7bd 17f3 83be 5bd2 71be
00000090: a99a 85bd 758f 1cbf ab8e 41bd 732b e4be
000000a0: b612 da3d 950f 413e 00c6 9bbe 0039 99be
000000b0: fc98 873b b24b cc3e 641f 94be a01a 0f3e
000000c0: 2998 113e cb85 1a3f

0.0.weight f4 [50, 5]
-0.0600233 -0.113572 0.150111 0.339056 0.0203565 0.0233497 1.31246 0.101216
0.563952 -0.215938 0.193788 0.542475 0.247151 -0.146442 -0.0908047 0.0117779
-0.0129513 -0.00353161 0.00557341 -0.00075392 0.0324917 -0.680833 -0.618215 -0.53207
0.158259 -0.0105239 -0.105027 0.0789953 0.618189 -1.01388 -1.76119 -0.123878
-0.0711364 0.0213388 0.0423662 -0.530761 -0.00592758 0.110623 -0.0361684 0.480584
0.0187988 2.25235 -0.031527 0.253769 0.536158 0.0114769 0.204201 -0.178459
0.828307 -0.841433 -0.00366204 -0.137472 0.135167 0.752105 -1.31335 0.0962743
1.25543 -0.000460756 0.675248 -1.05773 -0.0303455 -0.189515 -0.911188 -0.0909292
0.106621 -0.0158939 0.0271513 -1.58104 0.0882112 -0.0261143 0.88694 -0.00750336
-0.0018608 0.52713 -0.274863 -0.000427558 1.32505 0.0351683 0.59192 -1.12774
-0.000821211 -0.50639 -0.351788 -0.303118 0.151549 -0.01513 0.0185344 0.00101703
0.67566 0.843874 0.0337376 0.172996 -0.192619 0.00714025 -1.33927 0.0249335
0.5589 -0.5238 0.0245447 -1.04084 -0.00848168 0.258634 -0.291726 0.789495
-0.0832389 0.0403839 -1.59906 0.00478729 0.599601 -0.764058 -0.0183669 0.62769
0.393423 -0.595645 0.197857 -1.23924 -0.0187484 -0.0467601 -0.0791979 -0.138905
-0.0242805 0.728463 -0.631385 -1.93275 -0.00613415 -1.03175 0.196959 -0.0145159
0.190469 0.019347 -0.0131605 -0.0511848 0.079341 -1.01619 -0.946334 -0.0720083
-2.28638 2.26105 -0.134231 0.325345 -0.00844432 -0.166409 0.31107 -0.661385
0.61175 -0.0229585 0.0872283 0.00209261 0.147214 0.69815 0.0327191 -0.0250312
-0.0157905 0.572215 -1.52259 -1.09865 -0.231402 0.309155 -0.543455 0.310776
-0.0141184 -0.243618 0.245787 -1.34876 0.523124 0.510945 -0.0687667 -3.22421e-05
-0.00799677 0.105714 -0.910836 -0.0383092 0.709647 0.0856676 0.0321664 -0.939313
0.159439 -0.169051 0.0671578 -0.327161 -0.0334416 0.45784 0.796355 -0.420928
0.143638 -0.988988 -0.0186681 0.00502681 -0.105348 -0.782752 0.0585001 0.268257
0.521975 0.792449 -1.42623 0.044342 -1.43241 1.34304 0.146662 -0.0311523
-0.154157 -0.150608 0.00571438 0.25119 0.117483 0.0716817 0.0822828 1.42244
0.379409 -0.166032 -0.0896512 -0.50913 0.538148 -0.0651891 -1.91042 -0.0194255
2.04177 -2.31203 -0.0345806 0.355651 -0.34763 0.287673 0.0454675 0.328446
-0.178532 -0.00212753 -0.485202 0.513511 0.914026 -1.2306 -1.59895 0.103773
0.01376 0.00658662 -0.101478 0.0642998 -0.490795 0.279891 -0.0142663 0.173184
0.0279219 -1.10946 -0.174608 0.533959 -0.266908 1.59787 0.0440101 -0.0125607
-0.186515 0.286266
00000000: feda 75bd 7098 e8bd b3b6 193e bf98 ad3e
00000010: adc2 a63c df47 bf3c b0fe a73f 564a cf3d
00000020: 295f 103f da1e 5dbe 5d70 463e a4df 0a3f
00000030: 2715 7d3e e4f4 15be d1f7 b9bd 18f8 403c
00000040: b031 54bc 9572 67bb 27a1 b63b b7a2 45ba
00000050: 0416 053d 124b 2ebf 5743 1ebf bd35 08bf
00000060: a60e 223e 706c 2cbc 6518 d7bd 4ac8 a13d
00000070: a241 1e3f d2c6 81bf ad6e e1bf c0b3 fdbd
00000080: f6af 91bd b5ce ae3c 2e88 2d3d f4df 07bf
00000090: 253c c2bb 508e e23d 5125 14bd 1b0f f63e
000000a0: f1ff 993c 8126 1040 7522 01bd 03ee 813e
000000b0: a741 093f 9c09 3c3c 111a 513e f5bd 36be
000000c0: ed0b 543f 2768 57bf d6fe 6fbb 76c5 0cbe
000000d0: 3869 0a3e f489 403f da1b a8bf 762b c53d
000000e0: eeb1 a03f a091 f1b9 0edd 2c3f b263 87bf
000000f0: 2097 f8bc 3810 42be 9e43 69bf 1739 babd
00000100: 1c5c da3d ed33 82bc 676c de3c 855f cabf
00000110: 13a8 b43d a8ed d5bc 800e 633f bfde f5bb
00000120: 16e6 f3ba fef1 063f d8ba 8cbe dd29 e0b9
00000130: 3d9b a93f a30c 103d 1288 173f c959 90bf
00000140: 8a46 57ba c6a2 01bf 8f1d b4be 4832 9bbe
00000150: a92f 1b3e d2e3 77bc 74d5 973c dd4d 853a
00000160: 0ef8 2c3f 2008 583f 7030 0a3d dd25 313e
00000170: ea3d 45be c2f8 e93b 336d abbf 5741 cc3c
00000180: 1214 0f3f c217 06bf f711 c93c 3f3a 85bf
00000190: bff6 0abc ad6b 843e 1c5d 95be 581c 4a3f
000001a0: 2879 aabd 9769 253d 00ae ccbf b3de 9c3b
000001b0: 737f 193f 4e99 43bf 2e76 96bc 4bb0 203f
000001c0: bd6e c93e 317c 18bf 079b 4a3e 6b9f 9ebf
000001d0: 3f96 99bc 8587 3fbd 8232 a2bd 1d3d 0ebe
000001e0: e6e7 c6bc 8d7c 3a3f 73a2 21bf 5a64 f7bf
000001f0: fb00 c9bb 6210 84bf 9faf 493e 19d4 6dbc
00000200: 4e0a 433e 9a7d 9e3c 239f 57bc 27a7 51bd
00000210: 897d a23d 8412 82bf f242 72bf 1679 93bd
00000220: 0d54 12c0 0bb5 1040 da73 09be 9f93 a63e
00000230: 0c5a 0abc 1f67 2abe 9144 9f3e 8750 29bf
00000240: a69b 1c3f 7713 bcbc c0a4 b23d 2c24 093b
00000250: 44bf 163e f5b9 323f 7704 063d 3b0e cdbc
00000260: 145b 81bc af7c 123f 3be4 c2bf 90a0 8cbf
00000270: a5f4 6cbe 9049 9e3e de1f 0bbf 081e 9f3e
00000280: dd50 67bc ff76 79be 96af 7b3e 2ba4 acbf
00000290: 74eb 053f 4bcd 023f 8ed5 8cbd b13b 07b8
000002a0: e204 03bc 9580 d83d 8c2c 69bf 1cea 1cbd
000002b0: 6dab 353f 7f72 af3d eac0 033d d176 70bf
000002c0: fa43 233e b51b 2dbe 078a 893d a681 a7be
000002d0: 0ffa 08bd 016a ea3e ecdd 4b3f e083 d7be
000002e0: d715 133e 512e 7dbf d8ed 98bc f0b7 a43b
000002f0: b1c0 d7bd 6f62 48bf cd9d 6f3d fb58 893e
00000300: 27a0 053f f0dd 4a3f b48e b6bf f59f 353d
00000310: 3659 b7bf bce8 ab3f 902e 163e 1c33 ffbc
00000320: 55db 1dbe fc38 1abe b23f bb3b fa9b 803e
00000330: ed9a f03d dbcd 923d e283 a83d 8412 b63f
00000340: e541 c23e 4b04 2abe 0c9b b7bd 5856 02bf
00000350: 11c4 093f dd81 85bd a488 f4bf 3a22 9fbc
00000360: 5cac 0240 4df8 13c0 63a4 0dbd e317 b63e
00000370: 8ffc b1be e049 933e 213c 3a3d 132a a83e
00000380: 18d1 36be 086e 0bbb 666c f8be 7575 033f
00000390: 9cfd 693f 4d84 9dbf 65aa ccbf f086 d43d
000003a0: 9f71 613c 93d4 d73b b3d3 cfbd 9daf 833d
000003b0: 7b49 fbbe e04d 8f3e 33bd 69bc 2657 313e
000003c0: 78bc e43c c902 8ebf 71cc 32be 89b1 083f
000003d0: 2aa8 88be 0187 cc3f ef43 343d 65cb 4dbc
000003e0: cafd 3ebe 7591 923e

1.0.bias f4 [50]
-0.758837 0.452266 0.630315 -0.0110358 -0.485579 -0.87777 -0.0145092 0.273046
-0.011568 -0.119603 -0.0180009 -0.758178 -0.00832216 -0.0941918 -0.010604 -0.0820378
0.772964 -0.300327 -0.760116 -0.102698 -1.17224 -0.414665 0.771325 -0.610927
-0.0263295 -0.336843 0.907369 -1.12709 -0.454239 -0.011818 -0.00632192 -0.0151577
-0.0183931 -0.0127747 0.090779 -0.489008 -0.0210333 -0.236112 0.0179617 1.06198
1.07408 -0.181814 0.316321 -0.241774 0.382976 -0.140282 -1.26306 0.55672
0.984004 -0.00774479
00000000: 2443 42bf 698f e73e 535c 213f 80cf 34bc
00000010: d09d f8be 89b5 60bf ffb7 6dbc afcc 8b3e
00000020: b587 3dbc 6bf2 f4bd a076 93bc f417 42bf
00000030: ab59 08bc a1e7 c0bd 66bc 2dbc 6f03 a8bd
00000040: f8e0 453f 76c4 99be f696 42bf 5453 d2bd
00000050: f60b 96bf f94e d4be 8e75 453f b665 1cbf
00000060: f7b0 d7bc b076 acbe 5649 683f 7c44 90bf
00000070: 0492 e8be 49a0 41bc 1c28 cfbb 0058 78bc
00000080: 20ad 96bc fa4c 51bc 57ea b93d 425f fabe
00000090: 074e acbc 58c7 71be 6a24 933c f6ee 873f
000000a0: 747b 893f 732d 3abe d3f4 a13e 9a93 77be
000000b0: 6e15 c43e 16a6 0fbe f3ab a1bf 3485 0e3f
000000c0: b0e7 7b3f 02c8 fdbb

1.0.weight f4 [50, 50]
0.240332 0.418712 0.548534 0.0169924 -0.736598 -0.9105 -0.105273 0.0958515
0.00219298 -2.39512 -1.47102 0.866519 -0.155866 0.0170335 0.33174 -0.465865
-0.22193 0.371995 1.51235 -0.795706 1.1148 -0.12286 -0.281248 0.0986815
1.39797 0.0369545 -1.02951 2.30936 0.0550204 -1.34845 -0.106141 0.392996
1.60496 -0.196666 -0.960996 -0.40777 0.136648 -3.24166 -1.1906 1.29688
0.450391 0.151424 -0.42199 2.67202 0.949625 0.5556 0.556642 0.206061
0.665476 -0.178275 -0.319724 -0.370192 -1.30925 -0.0163861 -0.615817 -0.903715
2.28972 0.239651 0.294869 0.195602 0.000586863 0.179005 -0.388367 1.1446
0.260849 -0.555097 -0.71783 -0.0832326 -0.0188368 -0.451827 0.145935 -0.641518
-0.513445 1.88631 0.230413 1.42134 -0.0839143 0.132457 0.784505 0.550094
0.264813 0.596051 0.419125 0.0933981 1.5189 1.19478 0.211868 2.4909
0.187185 -0.220408 1.15037 -0.154397 -0.359312 -0.201973 0.610341 0.27772
1.71201 -0.144636 -0.178963 -2.13825 0.843252 0.208571 -0.199695 0.0126472
-0.717661 0.437886 0.391749 -2.30589 0.528008 -0.983983 0.802088 0.790062
0.151548 0.52311 -1.44537 0.0803206 0.436751 -1.05537 -0.265522 -0.252112
-0.170661 -0.544045 -0.22954 1.27854 -0.147719 0.45644 0.633807 0.518932
-0.668008 -0.383664 -0.830021 -0.125816 -0.441213 1.06448 -0.637049 0.705139
-0.336358 -0.720043 -1.21386 -1.04972 -0.487731 0.0876426 0.108959 -0.324054
0.178667 0.0621379 0.919273 1.10867 -0.735684 -0.0377158 -0.006571 -0.000358995
0.0387039 0.00349463 0.0080778 -0.0212232 -0.0107978 0.00386259 -0.0405647 0.0330587
-0.0342857 0.0142757 0.00332574 -0.0564901 -0.0289148 -0.0220346 -0.0192183 0.00286776
-0.0204882 0.00458771 -0.0325881 -0.0217993 0.0369042 -0.032736 -0.0270865 -0.00503159
0.0374441 -0.00954455 0.0308584 -0.0326801 -0.0474769 -0.0133385 -0.0290981 -0.0266657
0.0336148 -0.00566477 -0.045366 -0.0142206 0.0393354 -0.0505039 0.00655221 -0.0320046
-0.0160911 -0.0387835 -0.0176561 0.0196709 0.0221803 -0.0188768 0.00398637 0.0295304
-0.651062 -0.0351237 -0.00113533 -0.00890107 0.179122 -0.458129 1.24405 -0.579471
-0.116266 0.0178826 -0.0740912 0.0499549 -0.258851 -0.0519395 -3.61529 0.151805
-0.00214093 -0.768086 -0.247906 0.43145 0.240472 0.16896 0.0394493 0.344405
0.376473 0.444527 0.218735 0.0511159 -0.500732 -0.0679418 0.598021 0.466384
-1.08354 -0.265232 0.338842 0.794144 -0.0832654 1.96622 0.285346 0.00782654
-0.983403 -0.0360294 0.403778 -0.22594 -0.205667 -0.000111072 0.936698 -0.342539
-0.0410691 -1.9152 -0.270959 0.429362 -0.372211 -0.0327668 0.822323 -0.424436
00000000: 9819 763e 6b61 d63e b96c 0c3f a533 8b3c
00000010: b091 3cbf 8716 69bf 5f99 d7bd cb4d c43d
00000020: 19b8 0f3b a549 19c0 624a bcbf 30d4 5d3f
00000030: 569b 1fbe d789 8b3c d3d9 a93e db85 eebe
00000040: 9e41 63be 2176 be3e af94 c13f 63b3 4bbf
00000050: c4b1 8e3f 069e fbbd bdff 8fbe 8719 ca3d
00000060: aef0 b23f 9a5d 173d fcc6 83bf 8ecc 1340
00000070: 125d 613d 029a acbf 7460 d9bd c636 c93e
00000080: 546f cd3f d062 49be d503 76bf 3bc7 d0be
00000090: 74ed 0b3e 5c77 4fc0 9565 98bf 2a00 a63f
000000a0: a699 e63e e50e 1b3e 130f d8be 6002 2b40
000000b0: a01a 733f cd3b 0e3f 1780 0e3f a801 533e
000000c0: a35c 2a3f b98d 36be ddb2 a3be ce89 bdbe
000000d0: 8195 a7bf 243c 86bc 2fa6 1dbf de59 67bf
000000e0: c68a 1240 1267 753e 12f9 963e e44b 483e
000000f0: b6d7 193a 164d 373e 0ad8 c6be 4182 923f
00000100: 008e 853e d61a 0ebf b5c3 37bf da75 aabd
00000110: a24f 9abc de55 e7be fc6f 153e 863a 24bf
00000120: 2271 03bf 9b72 f13f 63f1 6b3e 78ee b53f
00000130: 43db abbd cfa2 073e 52d5 483f f6d2 0c3f
00000140: 9295 873e cc96 183f 8d97 d63e 8147 bf3d
00000150: 516b c23f 8dee 983f edf3 583e e86a 1f40
00000160: 6dad 3f3e a2b2 61be 533f 933f 3f1a 1ebe
00000170: bef7 b7be 03d2 4ebe 4f3f 1c3f 5131 8e3e
00000180: 2523 db3f 761b 14be 1442 37be 17d9 08c0
00000190: 5ddf 573f a393 553e d97c 4cbe 3436 4f3c
000001a0: a2b8 37bf 9832 e03e 5393 c83e b493 13c0
000001b0: 882b 073f 4fe6 7bbf a455 4d3f 8141 4a3f
000001c0: 662f 1b3e 89ea 053f e201 b9bf 207f a43d
000001d0: d49d df3e 5d16 87bf 80f2 87be d314 81be
000001e0: c2c1 2ebe 8846 0bbf 890c 6bbe 33a7 a33f
000001f0: a643 17be 81b2 e93e 2d41 223f bad8 043f
00000200: 9302 2bbf 9c6f c4be 427c 54bf e9d5 00be
00000210: ace6 e1be e140 883f a515 23bf fd83 343f
00000220: 1e37 acbe bd54 38bf c45f 9bbf 3a5d 86bf
00000230: e1b7 f9be f77d b33d e525 df3d 68ea a5be
00000240: 7bf4 363e 5084 7e3d 7a55 6b3f e6e8 8d3f
00000250: c955 3cbf e27b 1abd 8b51 d7bb 7e37 bcb9
00000260: fb87 1e3d 2a06 653b c058 043c 47dc adbc
00000270: 41e9 30bc 8223 7d3b 2c27 26bd 8f68 073d
00000280: 2a6f 0cbd a0e4 693c a9f4 593b 2a62 67bd
00000290: bbde ecbc e881 b4bc b26f 9dbc 07f1 3b3b
000002a0: dfd6 a7bc 8054 963b 197b 05bd 7294 b2bc
000002b0: dc28 173d 2f16 06bd 82e4 ddbc 09e0 a4bb
000002c0: fc5e 193d bf60 1cbc c1ca fc3c 92db 05bd
000002d0: 2377 42bd b989 5abc 235f eebc 0772 dabc
000002e0: acaf 093d 899f b9bb b3d1 39bd 85fd 68bc
000002f0: 281e 213d 2ddd 4ebd ecb3 d63b 4117 03bd
00000300: 7cd1 83bc 73db 1ebd 87a3 90bc de24 a13c
00000310: 76b3 b53c 85a3 9abc 18a0 823b bde9 f13c
00000320: 00ac 26bf dedd 0fbd 5acf 94ba cbd5 11bc
00000330: c26b 373e e28f eabe 083d 9f3f 3658 14bf
00000340: de1c eebd 887e 923c 21bd 97bd 829d 4c3d
00000350: 1e88 84be 83be 54bd e960 67c0 c572 1b3e
00000360: d84e 0cbb 49a1 44bf 12db 7dbe 04e7 dc3e
00000370: 4b3e 763e da03 2d3e 9795 213d da55 b03e
00000380: 12c1 c03e 0b99 e33e 11fc 5f3e e85e 513d
00000390: f92f 00bf 1225 8bbd e717 193f e2c9 ee3e
000003a0: 70b1 8abf 7dcc 87be b37c ad3e 054d 4b3f
000003b0: 0d87 aabd 19ad fb3f df18 923e e33a 003c
000003c0: 4dc0 7bbf 9093 13bd fdbb ce3e d15c 67be
000003d0: 5f9a 52be 53ef e8b8 71cb 6f3f 4661 afbe
000003e0: 1338 28bd 4625 f5bf 23bb 8abe 56d5 db3e
000003f0: 7192 bebe 7b36 06bd c383 523f ad4f d9be

2.0.bias f4 [50]
-0.0258787 -0.128359 -0.308331 -2.05929 1.53391 0.0758473 -1.61828 0.516139
-3.81748 -1.54183 -1.42958 -0.565289 -0.189322 -1.15263 -0.0080841 -0.062034
-1.14822 0.241794 -0.771244 -2.0873 -1.61211 -1.35503 0.453259 -1.13412
-0.0312913 -0.544785 0.678779 0.354297 -1.18352 0.0821535 -0.046714 -0.713546
0.966175 -1.25953 0.105618 -0.231774 0.174345 0.0466482 0.646602 -0.343278
-0.0534568 -0.36245 1.4022 -0.0152318 1.49563 1.26613 -0.0319035 -0.364433
-1.70119 0.264219
00000000: 91ff d3bc 8b70 03be 90dd 9dbe 68cb 03c0
00000010: 2a57 c43f d455 9b3d cd23 cfbf af21 043f
00000020: 9851 74c0 af5a c5bf 7afc b6bf c8b6 10bf
00000030: a0dd 41be 6189 93bf 2c73 04bc 5d17 7ebd
00000040: dff8 92bf d998 773e 3f70 45bf 5396 05c0
00000050: 9f59 cebf 9f71 adbf 9011 e83e d82a 91bf
00000060: 4e2b 00bd 0877 0bbf 76c4 2d3f 6b66 b53e
00000070: 957d 97bf 1840 a83d 2e57 3fbd f3aa 36bf
00000080: 3f57 773f 4738 a1bf 404e d83d 2a56 6dbe
00000090: 7f87 323e 2f12 3f3d b587 253f 22c2 afbe
000000a0: 84f5 5abd 0c93 b9be 4a7b b33f cd8e 79bc
000000b0: ce70 bf3f 8c10 a23f 3fad 02bd f696 babe
000000c0: 98c0 d9bf b647 873e

2.0.weight f4 [50, 50]
-0.411542 0.176563 -0.0803381 -0.0495051 0.013825 -0.54532 -0.0176927 -0.168125
-0.0432719 0.0944606 0.0168002 0.178158 0.0473643 0.047653 -0.0298272 -3.22257
0.165472 -0.4357 -0.542841 1.59802 0.33341 -0.232494 0.214098 -1.77609
-0.0552739 0.886005 0.0933122 0.569345 -0.618994 -0.0328888 0.0147704 -0.225174
-0.027774 -0.00377758 0.032248 0.486484 0.0418866 -0.26567 0.150393 0.29428
-0.521827 -0.56611 -0.829168 0.704424 -0.0337828 -0.141737 -0.0189343 0.353803
-0.633881 0.0463257 -0.363982 -0.383464 -0.101972 0.0320445 0.429894 -0.0254843
0.0144278 0.481538 -0.0221556 -0.408852 0.0134822 -0.488583 0.0256844 -0.375807
-0.000627281 0.10382 0.0546524 0.547891 0.62152 0.536904 0.0706184 0.00958482
0.120848 -0.701326 -0.040625 1.72788 1.3521 0.819605 0.468635 -0.0311415
8.64105e-05 -0.230339 0.0455766 -0.0361225 0.446691 0.726584 0.0447724 -1.07328
-0.0872359 -0.271924 0.360382 -0.0067238 1.0387 0.311592 0.263882 0.16224
0.295558 -0.873116 -0.373407 -0.0445277 0.344394 -0.00244501 0.391154 0.0148015
0.441962 -0.0971575 -0.0539879 0.980026 0.0159317 -0.447398 -0.0163032 -0.204363
-0.00170214 -0.151794 -0.00468498 1.31718 0.129765 -0.349752 -0.373963 -0.756237
-0.0998804 0.450168 -0.149651 -1.42363 -0.0284039 0.318858 -0.775503 1.81961
-0.581885 -0.0159019 0.00480538 -0.0801964 -0.0275987 -0.0202304 0.813957 0.138379
-0.00793341 0.514562 -0.0464945 0.406038 -0.437504 0.122636 -0.629543 0.415071
-0.27354 0.72386 0.977882 -0.203392 -0.241593 0.0175052 0.603604 -0.0184749
-0.090223 0.0277687 2.43662 0.31634 0.0509707 -0.516356 -0.0312972 -0.474084
-0.00545076 0.289462 -0.0088812 -0.116803 0.053804 -0.445597 0.085736 -0.0645481
0.677652 -0.443959 0.132955 0.476987 -0.07982 0.3718 -0.0499335 1.00402
-4.01757 0.652198 0.744867 -0.00714871 0.00056202 -1.11525 -0.0370774 0.0185478
-0.104747 0.379321 0.016311 0.869909 0.0888542 0.171824 -0.88839 -0.976003
1.48831 -0.108727 -0.268923 1.12135 -0.361965 0.18368 0.0629829 -0.0301118
0.364682 0.203928 0.283344 0.0424937 -0.0478878 -7.37054 0.0430893 -0.00836813
-0.0228017 -0.853746 0.0474475 0.792155 -0.0300698 -1.80101 0.0199354 0.366507
0.181103 -0.208836 -1.45947 -0.733137 -1.6052 -0.814794 0.71356 -0.200342
-0.0195991 -0.731598 -5.31443 -0.534513 1.15227 0.00339253 0.0352959 -0.0457236
-0.0446865 0.0398095 0.713303 -0.660046 0.00740253 0.965651 -2.09417 -1.49126
-2.4438 -1.01317 -0.921079 -4.4298 -0.552509 -1.47576 -1.29716 -0.163634
-1.19618 0.0367428 0.147288 0.54828 0.379201 0.0202445 1.37094 -0.714105
00000000: a2b5 d2be eecc 343e 4d88 a4bd dcc5 4abd
00000010: 4182 623c 179a 0bbf 48f0 90bc f628 2cbe
00000020: e03d 31bd 8f74 c13d 93a0 893c 0d6f 363e
00000030: 1101 423d cb2f 433d 2c58 f4bc 963e 4ec0
00000040: 7e71 293e 1214 dfbe a1f7 0abf eb8b cc3f
00000050: b7b4 aa3e e812 6ebe 823c 5b3e eb56 e3bf
00000060: e366 62bd 39d1 623f 771a bf3d 98c0 113f
00000070: 6476 1ebf 68b6 06bd 8cff 713c 0394 66be
00000080: 4d86 e3bc 4791 77bb 7b16 043d 6e14 f93e
00000090: 4991 2b3d e605 88be 9f00 1a3e deab 963e
000000a0: 7496 05bf 96ec 10bf 5b44 54bf 2255 343f
000000b0: d55f 0abd 8123 11be 1b1c 9bbc ab25 b53e
000000c0: 0646 22bf 04c0 3d3d d95b babe 6555 c4be
000000d0: b2d6 d0bd 1841 033d 111b dc3e 73c4 d0bc
000000e0: 9462 6c3c 268c f63e a97f b5bc 0d55 d1be
000000f0: 72e4 5c3c 8d27 fabe 1768 d23c c669 c0be
00000100: 1e70 24ba 959f d43d 32db 5f3d 9642 0c3f
00000110: ef1b 1f3f 8a72 093f 61a0 903d a609 1d3c
00000120: 287f f73d 1a8a 33bf 6666 26bd 2c2b dd3f
00000130: 9d11 ad3f a2d1 513f edf0 ef3e 761c ffbc
00000140: 4937 b538 fddd 6bbe 87ae 3a3d 30f5 13bd
00000150: afb4 e43e 6901 3a3f 4463 373d 3d61 89bf
00000160: bca8 b2bd 9f39 8bbe fd83 b83e 5353 dcbb
00000170: 1ff4 843f fd88 9f3e 8b1b 873e 3e22 263e
00000180: 6153 973e 8884 5fbf 342f bfbe ad62 36bd
00000190: 6954 b03e 763c 20bb 5645 c83e fe81 723c
000001a0: d848 e23e 83fa c6bd 6b22 5dbd fce2 7a3f
000001b0: 3283 823c 5a11 e5be 4a8e 85bc 8944 51be
000001c0: 571a dfba e36f 1bbe 7684 99bb 5b99 a83f
000001d0: 1ee1 043e b212 b3be 1478 bfbe bf98 41bf
000001e0: 188e ccbd 6c7c e63e 1d3e 19be 8239 b6bf
000001f0: 4caf e8bc 5b41 a33e 5d87 46bf fbe8 e83f
00000200: 6af6 14bf b444 82bc 7376 9d3b 033e a4bd
00000210: ab16 e2bc 39ba a5bc 7c5f 503f 39b3 0d3e
00000220: 22fb 01bc 56ba 033f 0471 3ebd 36e4 cf3e
00000230: 8600 e0be 9528 fb3d bb29 21bf 3084 d43e
00000240: 6f0d 8cbe e44e 393f 7a56 7a3f fe45 50be
00000250: 2864 77be 1167 8f3c cb85 1a3f ac58 97bc
00000260: d6c6 b8bd 2f7b e33c 95f1 1b40 51f7 a13e
00000270: a7c6 503d e82f 04bf 7e31 00bd 23bb f2be
00000280: 4a9c b2bb 5d34 943e 7482 11bc 6936 efbd
00000290: 9561 5c3d 4a25 e4be 5b96 af3d cb31 84bd
000002a0: 9a7a 2d3f 984e e3be 5b25 083e a437 f43e
000002b0: ab78 a3bd 925c be3e 1287 4cbd ba83 803f
000002c0: ef8f 80c0 73f6 263f 9baf 3e3f ba3f eabb
000002d0: 8654 133a 83c0 8ebf 79de 17bd 8ef1 973c
000002e0: 9885 d6bd 5d36 c23e a59e 853c 5bb2 5e3f
000002f0: 31f9 b53d a1f2 2f3e 876d 63bf 55db 79bf
00000300: f180 be3f 43ac debd 47b0 89be 6688 8f3f
00000310: 7a53 b9be 9c16 3c3e 2efd 803d 06ad f6bc
00000320: 99b7 ba3e 80d2 503e 7712 913e e00d 2e3d
00000330: ff25 44bd 77db ebc0 687e 303d 7b1a 09bc
00000340: a1ca babc 198f 5abf 4f58 423d acca 4a3f
00000350: f154 f6bc 7f87 e6bf 904f a33c cea6 bb3e
00000360: 1173 393e 1bd9 55be eacf babf deae 3bbf
00000370: 3277 cdbf 5796 50bf deab 363f 7426 4dbe
00000380: 4b8e a0bc 024a 3bbf d00f aac0 d8d5 08bf
00000390: 957d 933f 3555 5e3b 6f92 103d ab48 3bbd
000003a0: 3109 37bd 490f 233d 079b 363f c6f8 28bf
000003b0: ec90 f23b e734 773f e206 06c0 9ce1 bebf
000003c0: 3867 1cc0 8eaf 81bf d5cb 6bbf ecc0 8dc0
000003d0: 3b71 0dbf b4e5 bcbf 5709 a6bf ac8f 27be
000003e0: 6d1c 99bf 9e7f 163d aad2 163e 145c 0c3f
000003f0: a226 c23e cbd7 a53c f67a af3f 96cf 36bf

3.0.bias f4 [50]
-0.439243 -1.378 -0.217507 -0.656552 0.0380181 0.142127 -1.93467 -0.291713
-0.0133502 -1.72091 -0.324418 -1.63183 -1.24223 0.323543 1.03024 0.677203
1.05045 -0.691089 -2.39663 -1.6163 -0.48754 -4.14848 -2.75283 1.21152
-0.622375 0.0868021 -0.551823 -0.322094 -2.40796 0.0575772 -2.29862 -1.43271
-0.605111 0.273551 -0.150865 1.02377 -0.937176 -0.0155834 -0.47001 -0.0429888
1.58269 2.09802 -0.220931 0.337418 0.159838 0.490311 -0.116101 -0.512083
-1.20191 -0.624581
00000000: 75e4 e0be 4e62 b0bf 28ba 5ebe cb13 28bf
00000010: deb8 1b3d be89 113e 44a3 f7bf 685b 95be
00000020: ccba 5abc c746 dcbf 1e1a a6be cedf d0bf
00000030: 6501 9fbf 6ea7 a53e e8de 833f 2d5d 2d3f
00000040: 2575 863f 35eb 30bf 6362 19c0 ebe2 cebf
00000050: d89e f9be 59c0 84c0 5e2e 30c0 1613 9b3f
00000060: f853 1fbf 4dc5 b13d 4644 0dbf 81e9 a4be
00000070: 041c 1ac0 12d6 6b3d 971c 13c0 0b63 b7bf
00000080: 8ee8 1abf e00e 8c3e 5b7c 1abe e50a 833f
00000090: c4ea 6fbf 8451 7fbc 27a5 f0be 0615 30bd
000000a0: 9695 ca3f f645 0640 bc3b 62be 0dc2 ac3e
000000b0: 93ac 233e 0b0a fb3e 5cc6 edbd df17 03bf
000000c0: 30d8 99bf 8ae4 1fbf

3.0.weight f4 [50, 50]
-0.373654 0.206792 0.378768 -0.332293 2.58299 -0.487963 0.280661 -0.0258483
-0.469561 0.122486 0.156013 -1.97958 0.527246 -0.416931 -0.0205484 1.61273
-0.103734 -0.246109 0.660588 -1.50404 -0.0738349 0.286645 -0.32337 -0.209663
-0.0111271 0.413133 -0.471357 0.0937334 0.438083 0.113788 0.0724515 0.295313
-0.128556 -0.0769732 0.0307711 0.411559 0.0366019 0.117333 -0.273068 -0.436102
-0.0365002 -0.131845 0.644621 -0.491743 -0.202524 -0.209761 0.0685629 0.0715808
0.175209 -0.317745 -0.799066 0.894373 -0.291817 1.02015 0.00293098 -0.514299
-0.511242 0.159681 0.225268 -0.196154 -1.86741 0.202642 0.967586 0.837681
-0.00674815 1.13754 0.173395 0.454544 0.265163 1.2553 0.352777 -0.200062
0.0787021 0.136742 -0.704973 0.608029 0.486385 2.33985 0.223161 0.473265
0.556995 -0.404154 -0.692159 -0.195995 1.55569 0.219484 -1.7757 0.36368
-0.815624 1.08756 -0.693668 -0.122075 -0.694957 1.14326 0.585614 -0.606516
1.0672 0.0912174 0.299785 -0.935814 -1.51073 -0.898796 0.893948 -0.155125
0.454442 -0.276891 0.229793 -0.0639432 0.150618 0.597927 -0.260761 -0.867846
0.692038 0.872998 0.028633 0.475913 0.882091 0.139121 0.016573 0.30903
-0.0480686 -0.360093 -0.289914 -0.0843379 -0.187658 -0.591449 0.1921 -0.028733
0.106431 0.0509964 -0.479174 0.402389 1.37467 -0.0891628 0.35517 -0.420254
-0.141674 0.218534 0.151298 -0.231859 0.31794 0.428239 -0.588482 0.165056
0.331079 -0.433515 -0.454018 -0.310327 -0.0983128 0.713595 -0.144743 0.32725
0.189931 -1.09084 -0.447343 -0.105316 -0.382113 0.0924185 -0.864881 0.393766
-0.109461 0.653973 0.474352 0.00897115 0.0416947 0.132867 0.0330901 0.448936
0.639568 -1.13415 -0.114308 -0.273021 -0.347421 0.178886 0.187916 -0.253437
0.235741 0.46553 -0.278613 0.171032 -0.278267 0.124753 0.280767 -0.560607
-0.185955 -0.76412 0.597723 0.0509475 0.310699 -0.23673 0.344995 0.294856
-0.411587 -0.160373 -0.610348 0.488274 0.123191 -0.315589 0.852777 0.117154
-3.326 -1.10357 0.361152 1.28982 -3.12505 0.445576 0.55559 -1.3985
-1.35652 0.0777009 -0.665518 0.97584 -0.769715 0.363499 0.0289205 -0.229714
1.52286 -2.06845 -0.758022 0.866798 -1.08114 -3.75484 0.774307 -0.188146
0.955321 -0.149334 -0.945521 -1.40329 0.514224 0.0997888 0.663555 -1.57153
-1.48631 1.28476 0.589039 -0.678605 0.354364 -1.06304 -0.109351 0.0209277
0.97707 0.177199 -0.289649 0.064376 1.14568 -0.621687 0.71173 -2.13017
-0.245457 0.340766 -0.593734 -0.926369 0.144673 -1.37298 -1.19037 -0.0370356
00000000: 944f bfbe 48c1 533e e1ed c13e 4f22 aabe
00000010: b54f 2540 49d6 f9be ccb2 8f3e d0bf d3bc
00000020: 4d6a f0be f1d9 fa3d dfc1 1f3e e162 fdbf
00000030: 98f9 063f fb77 d5be 1e55 a8bc f06d ce3f
00000040: 7e72 d4bd ff03 7cbe 4c1c 293f 6284 c0bf
00000050: c136 97bd 22c3 923e c190 a5be e6b1 56be
00000060: 714e 36bc 2b86 d33e b455 f1be 4cf7 bf3d
00000070: 6a4c e03e af09 e93d 7461 943d 4433 973e
00000080: 2fa4 03be 20a4 9dbd ad13 fc3c dcb7 d23e
00000090: e0eb 153d 494c f03d 92cf 8bbe c348 dfbe
000000a0: 3c81 15bd 6002 07be e205 253f bdc5 fbbe
000000b0: 7462 4fbe 96cb 56be b56a 8c3d f498 923d
000000c0: fd69 333e 79af a2be 978f 4cbf a1f5 643f
000000d0: 0a69 95be 4694 823f af15 403b 19a9 03bf
000000e0: c1e0 02bf 6b83 233e a8ac 663e 98dc 48be
000000f0: 4a07 efbf 6281 4f3e b7b3 773f 4372 563f
00000100: 961f ddbb e99a 913f 758e 313e feb9 e83e
00000110: 72c3 873e acad a03f 309f b43e 0edd 4cbe
00000120: 912e a13d 1806 0c3e 1c79 34bf caa7 1b3f
00000130: 7407 f93e 1ac0 1540 5184 643e ca4f f23e
00000140: 3997 0e3f 46ed cebe 5531 31bf eab2 48be
00000150: da20 c73f 6ac0 603e 234a e3bf 4434 ba3e
00000160: bccc 50bf 2b35 8b3f 3a94 31bf 7502 fabd
00000170: b4e8 31bf 5856 923f cdea 153f a244 1bbf
00000180: 029a 883f 30d0 ba3d 6b7d 993e 8291 6fbf
00000190: 9a5f c1bf 7f17 66bf c7d9 643f 17d9 1ebe
000001a0: 9fac e83e a8c4 8dbe db4e 6b3e a7f4 82bd
000001b0: 9b3b 1a3e be11 193f 7782 85be 282b 5ebf
000001c0: 6729 313f cc7c 5f3f c18f ea3c deaa f33e
000001d0: b7d0 613f bc75 0e3e 1ac4 873c 2e39 9e3e
000001e0: 95e3 44bd 1c5e b8be 9c6f 94be 59b9 acbd
000001f0: 6b29 40be 3469 17bf ddb5 443e 7861 ebbc
00000200: 7ff8 d93d 9ae1 503d 4b56 f5be ee05 ce3e
00000210: 30f5 af3f fc9a b6bd d8d8 b53e 882b d7be
00000220: fd12 11be 60c7 5f3e dded 1a3e 726c 6dbe
00000230: 08c9 a23e 2442 db3e c2a6 16bf 7104 293e
00000240: 3083 a93e aef5 ddbe 0c75 e8be 2ee3 9ebe
00000250: 3958 c9bd 29ae 363f 8237 14be 508d a73e
00000260: 467d 423e a5a0 8bbf 240a e5be eaaf d7bd
00000270: 51a4 c3be e945 bd3d d768 5dbf b29b c93e
00000280: 172d e0bd c66a 273f 44de f23e bbfb 123c
00000290: 10c8 2a3d 490e 083e 7c89 073d f0da e53e
000002a0: baba 233f d42b 91bf 501a eabd 69c9 8bbe
000002b0: 2ae1 b1be e42d 373e 0d6d 403e 7fc2 81be
000002c0: 1766 713e f359 ee3e 5da6 8ebe 0323 2f3e
000002d0: 0379 8ebe 807e ff3d b1c0 8f3e f183 0fbf
000002e0: fd6a 3ebe 5e9d 43bf 6004 193f 53ae 503d
000002f0: f013 9f3e 5969 72be 2fa3 b03e 5ef7 963e
00000300: 88bb d2be d238 24be c43f 1cbf 0dff f93e
00000310: 904b fc3d e294 a1be 984f 5a3f 70ee ef3d
00000320: 2fdd 54c0 c841 8dbf eae8 b83e d218 a53f
00000330: d200 48c0 8a22 e43e 253b 0e3f 0c02 b3bf
00000340: 73a2 adbf a621 9f3d 635f 2abf a6d0 793f
00000350: 0b0c 45bf 8a1c ba3e afea ec3c 263a 6bbe
00000360: 14ed c23f 7c61 04c0 bb0d 42bf 79e6 5d3f
00000370: cc62 8abf 4c4f 70c0 fc38 463f 58a9 40be
00000380: eb8f 743f 03eb 18be aa0d 72bf 029f b3bf
00000390: 2fa4 033f 125e cc3d bede 293f e527 c9bf
000003a0: 683f bebf 0473 a43f 43cb 163f 0fb9 2dbf
000003b0: 336f b53e b211 88bf 6bf3 dfbd 9170 ab3c
000003c0: 4221 7a3f a873 353e e04c 94be 90d7 833d
000003d0: a4a5 923f e126 1fbf f033 363f b554 08c0
000003e0: 1459 7bbe e278 ae3e f4fe 17bf 8526 6dbf
000003f0: 2925 143e cfbd afbf 0b5e 98bf a4b2 17bd

4.0.bias f4 [50]
-1.10969 -0.620919 0.391311 -0.383646 -0.274716 0.634388 0.746099 1.20377
0.111137 -2.29182 -1.89926 -0.896093 0.549371 -0.722956 -2.24652 -2.32272
3.10898 0.775318 0.503614 0.958768 0.0123784 0.890113 0.377107 1.94375
-1.26572 1.10526 1.20016 0.193686 -0.378801 0.676456 1.10084 0.131447
0.436075 -1.28927 -0.939277 -4.13471 0.840716 1.22663 1.50432 0.170973
-0.553567 1.11568 -0.0324415 0.162567 -1.00956 -4.78954 0.37844 -1.7437
-0.0173015 -0.326043
00000000: 520a 8ebf 8cf4 1ebf ea59 c83e 406d c4be
00000010: 93a7 8cbe 4167 223f 5800 3f3f 2315 9a3f
00000020: cc9b e33d 2ead 12c0 f41a f3bf 5a66 65bf
00000030: 94a3 0c3f a513 39bf fcc6 0fc0 72a7 14c0
00000040: 87f9 4640 3e7b 463f d9ec 003f d271 753f
00000050: c6ce 4a3c 72de 633f 2b14 c13e cdcc f83f
00000060: 1d03 a2bf 2979 8d3f d89e 993f 9f55 463e
00000070: 34f2 c1be 382c 2d3f 53e8 8c3f 0b9a 063e
00000080: 3945 df3e cd06 a5bf 7574 70bf 8b4f 84c0
00000090: 2a39 573f 3602 9d3f 8f8d c03f 8c13 2f3e
000000a0: 91b6 0dbf 9ace 8e3f 61e1 04bd f777 263e
000000b0: 4339 81bf e943 99c0 e3c2 c13e 9031 dfbf
000000c0: e0bb 8dbc 1cef a6be

4.0.weight f4 [50, 50]
-0.247197 0.618204 -1.82283 -0.540795 -1.06915 -0.239328 0.0108243 -0.0558302
-0.0415474 0.0882887 -0.599781 0.561679 -0.445396 -0.384949 0.311556 0.597653
0.0704101 0.0163637 -3.42352 -1.33811 0.00396982 -1.21907 -0.772317 -0.16519
0.364451 0.0615712 -0.0713697 0.846072 0.0210152 -2.07997 -1.38989 -0.297751
-2.07646 0.74481 -0.314792 -0.290356 0.0297256 0.0487693 0.0136055 0.0035068
0.200436 0.386022 -1.94778 0.0827305 0.653609 -0.269949 -0.42766 -0.0017779
0.117845 0.376571 -0.00668054 0.102321 0.0655903 0.0761116 -0.0492216 -0.076064
0.372706 -0.00319963 0.00822206 0.152401 -0.0786519 -0.0123507 0.404893 0.0500829
-0.0038231 0.00204833 0.0446685 0.00943077 -0.095851 0.0185978 -0.751114 -0.0568882
-0.0179211 -0.10243 -0.0516631 -0.0663608 0.0224918 -0.134041 0.243072 -0.0388853
-0.146729 0.0328528 0.0335078 -0.224682 -0.0987383 -1.232 0.176928 -0.0471166
0.0234766 0.032969 -0.0747375 -0.0154051 0.171509 -0.00171667 0.289528 0.0308104
0.0480116 -0.166978 0.106548 0.326999 -0.0834499 0.223331 -0.103272 0.0891391
-3.1132 0.0783725 -0.00886263 -0.0477085 -0.0376535 -0.832468 0.411187 -0.0979395
1.23289 -0.335007 0.13199 -0.259239 0.146105 -0.0141712 -1.04445 0.189028
-0.185753 -1.07605 0.222274 0.148125 -0.00633145 -0.0791533 -0.214544 -0.483002
0.27325 0.0540357 1.9018 0.184765 -0.221912 -0.258531 -0.098154 -2.08372
0.10982 -0.0430799 -0.318931 0.0320398 0.162777 0.0644999 0.0879375 0.16469
-0.59829 0.10577 -0.381431 -0.0144478 -0.163405 0.123452 0.101509 -0.493084
-0.596701 -0.201942 -0.597566 -0.0686553 0.0161353 -0.337924 -0.0435266 -0.748634
0.108407 -0.334342 0.763201 -0.185273 -0.160886 0.209684 0.0108288 -0.22967
0.336124 0.322273 0.14794 0.34597 0.442303 0.25629 -0.0850805 -0.139288
-0.0517957 -0.180397 0.55613 0.0718073 -1.54154 0.26332 0.264685 0.311211
0.245997 -3.64614 0.483808 0.0300733 -0.135814 -0.0513154 -0.212317 0.0566139
0.112487 0.108915 0.43384 -0.0115487 -0.447381 -0.0351579 -0.0172056 -0.0135938
1.08502 -0.939269 0.770831 0.707138 -1.29969 0.938368 -1.142 -5.46373
0.000906774 -0.922842 -0.0510583 0.115 0.275716 -0.415129 -0.219712 -0.12853
-1.06899 0.603811 -5.082 -3.93369 0.0400031 -1.61992 -4.38767 -1.99757
0.293625 0.276066 -3.36782 -1.29099 0.0845734 -0.797641 -8.63232 -0.096066
0.893988 -0.988686 -0.101811 -0.148494 0.101947 0.0483431 0.414344 0.0319508
-1.16975 -0.685384 -0.75811 -2.37877 0.334074 -1.2916 1.5558 0.251203
-0.24654 -1.87228 -0.00706509 -0.718899 -0.191253 -0.220853 0.106857 -0.134414
00000000: 3621 7dbe 9e42 1e3f 7e52 e9bf 8b71 0abf
00000010: e8d9 88bf 6612 75be 6858 313c 35ae 64bd
00000020: 9b2d 2abd b5d0 b43d 3f8b 19bf 32ca 0f3f
00000030: f20a e4be 0918 c5be 4584 9f3e c9ff 183f
00000040: 2c33 903d 2b0d 863c f41a 5bc0 3047 abbf
00000050: 4415 823b 7c0a 9cbf 91b6 45bf 9127 29be
00000060: 5299 ba3e 1532 7c3d 472a 92bd 2d98 583f
00000070: 1228 ac3c 3a1e 05c0 eae7 b1bf d272 98be
00000080: b8e4 04c0 deab 3e3f 6b2c a1be 8ba9 94be
00000090: 1a83 f33c 51c2 473d 9ae9 5e3c 57d2 653b
000000a0: 183f 4d3e ada4 c53e db50 f9bf 9c6e a93d
000000b0: eb52 273f c136 8abe 40f6 dabe 6d08 e9ba
000000c0: b858 f13d eacd c03e 6ee8 dabb ac8d d13d
000000d0: 3554 863d 66e0 9b3d 979c 49bd 71c7 9bbd
000000e0: 52d3 be3e e2b0 51bb d2b5 063c 020f 1c3e
000000f0: 3f14 a1bd 975a 4abc 234e cf3e ba23 4d3d
00000100: f98c 7abb 463d 063b 51f6 363d 8483 1a3c
00000110: 874d c4bd 6a5a 983c 0249 40bf 9a03 69bd
00000120: 45cf 92bc d2c6 d1bd b09c 53bd 2ce8 87bd
00000130: b940 b83c 0b42 09be dee7 783e 3146 1fbd
00000140: 2140 16be a890 063d 7a3f 093d 0a13 66be
00000150: 4e37 cabd 2db2 9dbf 9d2c 353e 56fd 40bd
00000160: 0052 c03c 810a 073d f90f 99bd ac65 7cbc
00000170: 0ea0 2f3e e301 e1ba 043d 943e 1866 fc3c
00000180: d0a7 443d 48fc 2abe d635 da3d 6a6c a73e
00000190: c8e7 aabd e2b0 643e 4580 d3bd 8f8e b63d
000001a0: ab3e 47c0 c381 a03d 9134 11bc fd69 43bd
000001b0: 8e3a 1abd 9f1c 55bf 1a87 d23e 8194 c8bd
000001c0: 57cf 9d3f 0a86 abbe 6328 073e f9ba 84be
000001d0: 8d9c 153e 522e 68bc 8ab0 85bf 8e90 413e
000001e0: 0936 3ebe 02bc 89bf cc9b 633e 14ae 173e
000001f0: 0d78 cfbb 201b a2bd 6cb1 5bbe 0a4c f7be
00000200: 6de7 8b3e 8a54 5d3d 2f6e f33f 0933 3d3e
00000210: e63c 63be 2d5e 84be f704 c9bd ab5b 05c0
00000220: 4fe9 e03d 8d74 30bd ed4a a3be 2a3c 033d
00000230: 04af 263e 8618 843d 9318 b43d 7fa4 283e
00000240: 8929 19bf f19d d83d ed4a c3be 77b6 6cbc
00000250: a453 27be 67d4 fc3d f3e3 cf3d 8275 fcbe
00000260: 66c1 18bf e2c9 4ebe 16fa 18bf 269b 8cbd
00000270: 2d2e 843c 6004 adbe f348 32bd 7aa6 3fbf
00000280: 7d04 de3d e02e abbe 2461 433f 35b8 3dbe
00000290: 4dbf 24be 67b7 563e 476b 313c 9d2e 6bbe
000002a0: 7218 ac3e f700 a53e 957d 173e fb22 b13e
000002b0: 8a75 e23e 7138 833e af3e aebd 83a1 0ebe
000002c0: ba27 54bd feb9 38be 895e 0e3f b50f 933d
000002d0: 2f51 c5bf e1d1 863e cb84 873e 0c57 9f3e
000002e0: a3e6 7b3e 5c5a 69c0 afb5 f73e 485c f63c
000002f0: d312 0bbe 1930 52bd a169 59be fae3 673d
00000300: 965f e63d d40e df3d 4720 de3e c236 3dbc
00000310: 1f0f e5be bb01 10bd c2f2 8cbc 88b8 5ebc
00000320: efe1 8a3f ef73 70bf 2e55 453f ff06 353f
00000330: 3e5c a6bf e338 703f 0e2d 92bf e0d6 aec0
00000340: 93b4 6d3a 603f 6cbf 8222 51bd 1f85 eb3d
00000350: a62a 8d3e ca8b d4be 2ffc 60be 5e9d 03be
00000360: aad4 88bf 5c93 1a3f be9f a2c0 94c1 7bc0
00000370: 4ada 233d 8a59 cfbf cb67 8cc0 60b0 ffbf
00000380: 0456 963e 8658 8d3e 5d8a 57c0 293f a5bf
00000390: d234 ad3d 3332 4cbf fc1d 0ac1 40be c4bd
000003a0: 66dc 643f 871a 7dbf 4982 d0bd d00e 18be
000003b0: 97c9 d03d 6a03 463d e624 d43e d8de 023d
000003c0: 5eba 95bf 5375 2fbf 7f13 42bf c53d 18c0
000003d0: bf0b ab3e 2653 a5bf 7424 c73f ae9d 803e
000003e0: fb74 7cbe dfa6 efbf 4582 e7bb c409 38bf
000003f0: d4d7 43be 4a27 62be d8d7 da3d d3a3 09be

5.0.bias f4 [50]
0.337769 0.155476 0.359283 -1.05778 -0.133438 1.13726 0.591427 -0.0236826
-0.125494 0.418642 0.634176 0.238373 0.306059 0.901297 0.196567 0.524279
-0.32259 -0.143867 -0.28311 0.42442 1.25365 0.694526 0.400601 -0.00898358
-1.28502 0.417168 0.402045 0.706265 0.202139 0.649983 0.471186 0.300724
1.47902 1.85091 0.714777 0.797084 -2.32911 0.603216 0.204981 0.253374
-0.544178 -0.549509 0.452092 0.322466 0.905254 -0.0310717 -1.47795 0.494409
0.460141 -0.330635
00000000: 0ff0 ac3e 1a35 1f3e f1f3 b73e 5665 87bf
00000010: f9a3 08be bc91 913f c367 173f 0302 c2bc
00000020: 8081 00be 3f58 d63e 5c59 223f 0d18 743e
00000030: c4b3 9c3e 66bb 663f dc48 493e 2637 063f
00000040: 842a a5be df51 13be cbf3 90be 944d d93e
00000050: 9a77 a03f 75cc 313f 931b cd3e de2f 13bc
00000060: 897b a4bf 0b97 d53e d8d8 cd3e c8cd 343f
00000070: 87fd 4e3e 4965 263f 4b3f f13e 7ff8 993e
00000080: 8750 bd3f 9eea ec3f a0fb 363f b20d 4c3f
00000090: 2310 15c0 5d6c 1a3f 8ae6 513e 3dba 813e
000000a0: 404f 0bbf 9fac 0cbf 9a78 e73e 431a a53e
000000b0: babe 673f 148a febc 772d bdbf 2d23 fd3e
000000c0: 9a97 eb3e fe48 a9be

5.0.weight f4 [50, 50]
-0.255023 0.139204 0.0695456 -0.127596 -0.090535 -0.0443311 -0.142816 -0.112134
-0.0851147 -0.0289958 0.0218246 0.0980015 -0.00605065 -0.0692553 -0.0483917 0.0726596
0.0313834 0.301944 -0.257071 0.0294739 -0.227469 -0.05184 -0.034543 -0.236117
-0.0449406 -0.0398899 -0.0315446 -0.0366059 0.10672 0.140651 0.222254 0.0662374
0.0376459 -0.0444865 -0.0714527 0.0290488 0.196701 -0.026598 0.049064 -0.0367643
-0.257567 0.0119931 -0.0345673 -0.201012 0.214037 -0.00298536 0.0461472 -0.421464
0.03821 0.323694 -0.802189 0.279793 -0.016334 -0.0566793 -0.042562 -0.11105
-0.0941772 0.0268219 -0.0323537 -0.0223779 -0.0547082 -0.029912 0.0642049 -0.0112603
-0.00763979 0.040994 0.119685 -0.0553823 0.0505121 0.0377037 -0.120185 0.0101472
-0.0196461 0.20085 0.0297777 -0.00676404 -0.00923837 0.00155058 -0.0666036 0.0494259
0.0852481 0.0205336 -0.0234368 -0.0507489 0.0119054 0.0119038 0.0558878 0.00445878
0.0323848 -0.00421058 -0.0529604 -0.036092 0.0220751 0.0255651 0.0166106 0.00983527
0.0703988 0.349475 -0.0481171 -0.259855 1.17257 -0.0416768 -0.311774 0.294396
-0.145182 0.174124 0.0310862 0.129901 -0.217373 0.0810649 -0.158801 -0.152767
0.0505537 0.327019 0.0021741 0.101909 -0.150151 -0.487823 0.22389 0.14895
0.624015 0.267038 0.281957 -0.827277 0.241164 -0.101983 0.11854 -0.795864
0.0913687 0.0289984 -0.448277 -0.0628548 0.17687 -0.160552 -0.101461 -0.232708
0.0505458 -0.12151 -0.0239308 0.212911 -0.152328 0.10585 0.0422508 -0.0749854
-0.0654719 0.121652 0.0853629 1.70545 0.0369773 0.163567 0.58584 0.740536
-0.194513 0.653205 0.005248 0.217138 0.772037 -0.501923 -0.00235711 -4.56978
-0.416838 -0.48689 0.83499 -0.84762 -0.232101 0.00963813 0.105536 0.15595
0.922775 -0.00921113 0.604179 -0.0367185 0.158557 -0.209086 0.928369 -0.577218
-0.0791111 -0.342736 -1.02044 -0.0434107 0.949119 0.174459 -0.0344547 -0.48577
-0.489999 -0.314368 0.0749353 -0.265689 -0.60462 -0.0546056 -0.0251271 -0.213428
-0.0176162 -0.43074 0.526216 0.0100234 -0.426191 -0.83216 -0.00399613 -0.166243
2.24883 0.0257868 -0.0746766 -0.0573734 0.0494096 0.0928593 -0.397297 -0.12887
0.131318 0.0186465 -0.09557 -0.0642111 -0.127685 -0.0426595 0.0005352 0.0975152
0.450664 -0.175146 -0.0472007 0.0484479 0.227683 0.0727068 -0.44374 -0.167015
0.13163 -0.148983 0.00848883 -0.183004 -0.01449 -0.12185 0.212422 0.019605
0.0774238 -0.0688166 -0.0967087 -0.0226085 0.00247059 -0.0142173 -0.05872 -0.00335184
-0.0594154 0.0663544 0.0312623 0.120645 0.391669 0.0739432 0.0990077 0.380891
0.014384 -0.245978 1.05406 -0.290301 0.263392 0.35949 -0.0528186 0.292568
00000000: 6092 82be 7e8b 0e3e ec6d 8e3d 87a8 02be
00000010: 6a6a b9bd 8794 35bd 5c3e 12be 83a6 e5bd
00000020: 9e50 aebd 9a88 edbc 81c9 b23c 03b5 c83d
00000030: 8844 c6bb b9d5 8dbd 6036 46bd 8ece 943d
00000040: e18b 003d 6798 9a3e cf9e 83be 4073 f13c
00000050: a2ed 68be 2e56 54bd f67c 0dbd a8c8 71be
00000060: a213 38bd 9763 23bd e934 01bd 11f0 15bd
00000070: 0490 da3d d106 103e 8d96 633e 79a7 873d
00000080: 9632 1a3d 7a37 36bd cb55 92bd c0f7 ed3c
00000090: fd6b 493e 0de4 d9bc 55f7 483d 2a96 16bd
000000a0: d2df 83be b57e 443c 7196 0dbd 17d6 4dbe
000000b0: 842c 5b3e 08a6 43bb d904 3d3d 21ca d7be
000000c0: 1782 1c3d 38bb a53e 425c 4dbf 0741 8f3e
000000d0: e1ce 85bc 8e28 68bd 7e55 2ebd 2f6e e3bd
000000e0: fadf c0bd 9ab9 db3c 5085 04bd dc51 b7bc
000000f0: b515 60bd 030a f5bc dc7d 833d 1f7d 38bc
00000100: 3457 fabb 53e9 273d 691d f53d 8dd8 62bd
00000110: c7e5 4e3d 326f 1a3d 8e23 f6bd 7140 263c
00000120: dcf0 a0bc 9fab 4d3e 5df0 f33c e1a4 ddbb
00000130: 885c 17bc d53c cb3a 7867 88bd d072 4a3d
00000140: 8e96 ae3d 1536 a83c 88fe bfbc 14de 4fbd
00000150: de0e 433c 2808 433c 9bea 643d f51a 923b
00000160: eda5 043d e8f8 89bb 01ed 58bd 34d5 13bd
00000170: d7d6 b43c e76d d13c f412 883c 1d24 213c
00000180: 3f2d 903d 63ee b23e 7016 45bd b70b 85be
00000190: c616 963f 4bb5 2abd d7a0 9fbe 13bb 963e
000001a0: 97aa 14be 904d 323e 7da8 fe3c c504 053e
000001b0: 0797 5ebe 5b05 a63d bb9c 22be f46e 1cbe
000001c0: 6611 4f3d 096f a73e 587b 0e3b aab5 d03d
000001d0: 2fc1 19be f0c3 f9be 6c43 653e 5986 183e
000001e0: 72bf 1f3f 34b9 883e ab5c 903e 6dc8 53bf
000001f0: b2f3 763e 77dc d0bd 19c5 f23d bebd 4bbf
00000200: 831f bb3d 0d8e ed3c 9084 e5be 04ba 80bd
00000210: 691d 353e be67 24be c9ca cfbd 024b 6ebe
00000220: 1d09 4f3d 3cda f8bd 860a c4bc 5705 5a3e
00000230: dffb 1bbe e3c7 d83d 2d0f 2d3d f291 99bd
00000240: 2216 86bd af24 f93d bed2 ae3d 304c da3f
00000250: 8275 173d 1c7e 273e 9cf9 153f c493 3d3f
00000260: 6a2e 47be 7138 273f 6af7 ab3b 6d59 5e3e
00000270: 38a4 453f 077e 00bf be79 1abb a33b 92c0
00000280: ca6b d5be a549 f9be e8c1 553f a0fd 58bf
00000290: e2ab 6dbe 3fe9 1d3c 4223 d83d 5bb1 1f3e
000002a0: fb3a 6c3f 48ea 16bc 7aab 1a3f 2366 16bd
000002b0: c45c 223e a41a 56be 97a9 6d3f 8fc4 13bf
000002c0: 0005 a2bd 187b afbe c79d 82bf 6bcf 31bd
000002d0: 76f9 723f 61a5 323e 5f20 0dbd d8b6 f8be
000002e0: 26e1 fabe d8f4 a0be ae77 993d 6308 88be
000002f0: 60c8 1abf 1faa 5fbd 59d7 cdbc df8c 5abe
00000300: d94f 90bc f489 dcbe 17b6 063f 3039 243c
00000310: b535 dabe 7008 55bf f8f1 82bb 9b3b 2abe
00000320: d5ec 0f40 d73e d33c 0cf0 98bd 5f00 6bbd
00000330: b961 4a3d 042d be3d 836a cbbe 7ff6 03be
00000340: 3a78 063e 8bc0 983c 34ba c3bd 1c81 83bd
00000350: dbbf 02be babb 2ebd aa4c 0c3a 0db6 c73d
00000360: 6fbd e63e 7959 33be 8555 41bd 4e71 463d
00000370: bb25 693e 4ee7 943d e431 e3be fb05 2bbe
00000380: 04ca 063e 008f 18be bc14 0b3c 6765 3bbe
00000390: 7767 6dbc 7e8c f9bd 2785 593e aa9a a03c
000003a0: 5f90 9e3d b8ef 8cbd 360f c6bd 7635 b9bc
000003b0: 9fe9 213b aeef 68bc 6284 70bd 8baa 5bbb
000003c0: 905d 73bd d1e4 873d e60c 003d ba14 f73d
000003d0: d788 c83e 886f 973d 8dc4 ca3d 2504 c33e
000003e0: deaa 6b3c a8e1 7bbe 70eb 863f 55a2 94be
000003f0: 51db 863e 130f b83e 5158 58bd 79cb 953e

6.bias f4 [5]
-0.0205829 -0.0182621 0.0183731 -0.0181384 0.0182197
00000000: 789d a8bc 669a 95bc 2f83 963c fb96 94bc
00000010: 7b41 953c

6.weight f4 [5, 50]
0.0504667 0.0190787 -0.0745833 0.0091276 0.000344822 0.0518803 0.0410278 0.0139566
0.0223076 0.000930337 0.0158823 0.0271965 0.00411013 0.028935 0.00976917 0.0221094
0.0267718 -0.0283463 0.0842751 0.00276495 0.017277 0.0119368 -0.006721 0.0293541
0.0156215 0.0421849 -0.0317854 8.13783e-05 0.045367 0.00131229 0.014257 0.03317
0.00364958 -0.0173967 0.0115017 0.0143433 0.024168 0.0416989 0.0265382 -0.017585
-0.0111273 -0.00214447 -0.00721911 -0.167863 0.00255122 0.025973 -0.0124892 0.0544208
0.0300937 0.110736 0.043983 0.0223559 -0.00272977 -0.014807 0.0299851 -0.00220005
0.00116028 -0.0288831 0.0222663 0.0151884 -0.0097371 0.0322426 -0.010594 0.000178137
-0.0133632 -0.00187988 -0.00221099 -0.0264127 0.0868862 0.0288794 -0.00168515 -0.0103302
0.0120371 0.00426449 0.00325709 0.0390858 -0.0299189 -0.00392666 0.0165229 0.0112407
0.00125332 0.0278077 0.0354948 -0.000912311 -0.00257002 0.0358187 0.00124224 0.0437815
0.0238397 -0.00315705 -0.0411104 0.0161005 -0.012538 0.0166553 -0.00793981 -0.0434826
-0.0183212 0.0295501 0.0426162 0.00724717 0.045422 0.0196845 -0.01121 0.0220659
-0.00893962 0.0005812 0.00214498 -0.00386966 0.0131046 0.0266373 0.0307391 0.0248171
-0.00187792 0.000705727 0.0065063 -0.000669681 0.000747949 -0.0207157 0.0822044 0.00894872
-0.00139549 0.00206009 -0.0289088 0.00272006 0.00741736 0.0329056 -0.0257548 0.05689
0.0264 0.00659045 0.0101862 0.0386172 0.0329902 -0.00512715 0.0124919 0.0344415
0.00107996 0.0371733 0.020242 -0.013566 0.0129939 -0.00600679 -0.0211372 -0.000328936
0.00640914 0.0355506 -0.00858109 0.0293758 0.0190249 0.0430505 0.0467144 -0.000567556
0.00493778 -0.0315089 0.0486838 -4.37588e-05 -0.00173214 0.00921945 0.0280552 0.0172412
-0.0196358 0.00303197 0.034162 -0.00273751 0.00344954 0.00119422 0.00118204 0.00262372
0.0760863 0.0378804 -0.00100047 0.025021 0.00203414 -0.00174684 0.00678719 0.0323225
0.0271333 -0.00514069 0.0132029 0.0321206 0.00578213 0.0441902 0.0405779 0.00373927
-0.0276447 0.0318334 -0.0123386 0.0305975 0.0232636 0.0034297 0.00482629 -0.0361502
0.00502402 -0.00100269 -0.0309786 -0.00565676 -0.027349 0.0126165 0.00144323 -0.00433431
0.0534038 0.00903747 -0.00300473 0.058344 -0.0122841 -0.000396318 0.000881534 0.000922903
-0.00194002 0.029224 0.0327672 0.010032 -0.00969649 0.000506287 0.00343047 -0.00146869
0.00107311 -0.00537306 0.079714 0.0109012 -0.00168848 0.00944999 -0.0402664 0.00185527
0.0075966 0.0279696 -0.035767 0.066953 0.0330231 -0.0117517 0.0147574 0.0195414
0.0319858 -0.00408817 0.027405 0.0411166 0.0021675 0.0247583 0.0243158 -0.0200768
0.000747472 0.00522194 -0.00417509 -0.000728595 0.0384271 -0.0202924 -0.0103539 0.0286217
-0.00173453 0.0757752
00000000: 2cb6 4e3d ef4a 9c3c 21bf 98bd ee8b 153c
00000010: 3ac9 b439 7080 543d c40c 283d 39aa 643c
00000020: 6ebe b63c dce1 733a 991b 823c 32cb de3c
00000030: 45ae 863b 1809 ed3c de0e 203c c61e b53c
00000040: 8950 db3c 8036 e8bc 6c98 ac3d 2a34 353b
00000050: 7f88 8d3c 9192 433c d63b dcbb 0278 f03c
00000060: 52f1 7f3c 13ca 2c3d 6831 02bd a4a9 aa38
00000070: bfd2 393d 2501 ac3a 3196 693c 44dd 073d
00000080: cb2d 6f3b 8683 8ebc a071 3c3c 2900 6b3c
00000090: f8fb c53c 77cc 2a3d a466 d93c 6b0e 90bc
000000a0: 474f 36bc 3d8a 0cbb 498e ecbb 47e4 2bbe
000000b0: 5e32 273b 54c5 d43c 809f 4cbc 58e8 5e3d
000000c0: 1087 f63c 8ec9 e23d 8527 343d b823 b73c
000000d0: f1e5 32bb 0f99 72bc 50a3 f53c b72e 10bb
000000e0: 8914 983a 409c ecbc d167 b63c c4d8 783c
000000f0: 5c88 1fbc d110 043d 7592 2dbc 49ca 3a39
00000100: 53f1 5abc 4e66 f6ba 42e6 10bb 725f d8bc
00000110: 64f1 b13d 7e94 ec3c 40e0 dcba 0040 29bc
00000120: 4237 453c 23bd 8b3b e774 553b 6f18 203d
00000130: 7b18 f5bc 36ab 80bb 085b 873c ea2a 383c
00000140: 7146 a43a f9cc e33c ff62 113d 2828 6fba
00000150: c86d 28bb a1b6 123d a8d2 a23a 3b54 333d
00000160: 794b c33c 83e6 4ebb 6163 28bd 32e5 833c
00000170: 2f6c 4dbc b270 883c fa15 02bc d01a 32bd
00000180: 5716 96bc 0d13 f23c 538e 2e3d ab79 ed3b
00000190: 6b0c 3a3d 6341 a13c 26aa 37bc 8cc3 b43c
000001a0: 7c77 12bc ac5b 183a cb92 0c3b 1f9a 7dbb
000001b0: adb4 563c 7836 da3c 91d0 fb3c 3b4d cb3c
000001c0: 8a24 f6ba 8a00 393a cd32 d53b 888d 2fba
000001d0: 0212 443a f9b3 a9bc c85a a83d a79d 123c
000001e0: e0e8 b6ba 9302 073b 26d2 ecbc 0943 323b
000001f0: 530d f33b 06c8 063d bbfb d2bc 7d05 693d
00000200: d044 d83c b4f4 d73b 05e4 263c 122d 1e3d
00000210: bb20 073d a701 a8bb d3aa 4c3c 8812 0d3d
00000220: 728d 8d3a 0843 183d 8dd2 a53c ee43 5ebc
00000230: 5ee4 543c 9bd4 c4bb ec27 adbc 0b75 acb9
00000240: c303 d23b 829d 113d b397 0cbc 85a5 f03c
00000250: 1bda 9b3c b955 303d 9957 3f3d 0ac8 14ba
00000260: 1acd a13b 7a0f 01bd aa68 473d a789 37b8
00000270: f908 e3ba 2d0d 173c 05d4 e53c 6b3d 8d3c
00000280: 42db a0bc 04b4 463b 74ed 0b3d cc67 33bb
00000290: ad11 623b 6087 9c3a aeee 9a3a b8f2 2b3b
000002a0: 22d3 9b3d 7a28 1b3d 3422 83ba d7f8 cc3c
000002b0: 354f 053b 39f6 e4ba 1467 de3b 9964 043d
000002c0: a846 de3c 3c73 a8bb fa50 583c e490 033d
000002d0: 0678 bd3b c800 353d 0335 263d 8a0e 753b
000002e0: 2377 e2bc bd63 023d d727 4abc 9ca7 fa3c
000002f0: 4e93 be3c d1c4 603b db25 9e3b 3b12 14bd
00000300: 89a0 a43b b26c 83ba d5c6 fdbc 585c b9bb
00000310: 030b e0bc 70b5 4e3c c32a bd3a d406 8ebb
00000320: f1bd 5a3d e611 143c 01eb 44bb 1efa 6e3d
00000330: 4043 49bc e7c8 cfb9 bf16 673a f9ee 713a
00000340: 4548 feba 2c67 ef3c e636 063d 425d 243c
00000350: 07de 1ebc 58b8 043a bcd1 603b 0f81 c0ba
00000360: 99a7 8c3a 7e10 b0bb 1841 a33d f29a 323c
00000370: fd4f ddba 21d4 1a3c 61ee 24bd 882c f33a
00000380: e6ec f83b 8120 e53c 6b80 12bd a81e 893d
00000390: 3b43 073d 348a 40bc 06c9 713c 4915 a03c
000003a0: 8b03 033d 0ef6 85bb 7380 e03c e169 283d
000003b0: 9e0c 0e3b ebd1 ca3c ee31 c73c 1a78 a4bc
000003c0: fff1 433a cf1c ab3b 32cf 88bb 2fff 3eba
000003d0: bc65 1d3d 3f3c a6bc 67a3 29bc 0e78 ea3c
000003e0: 2b59 e3ba 0730 9b3d
