artifacts/neurifydave_benchmark/onnx/dave_small.onnx (onnx, 325954 bytes, 7 tensors)

0.0.bias f4 [24]
000000 9a 16 9b bd 6e b8 59 bc 89 7a 71 3e c2 b4 5a 3b
       -0.0757267 -0.0132886 0.235819 0.00333719
000010 26 a0 33 3d 24 46 2f bd e5 7e 17 be 10 dc 52 bd
       0.0438539 -0.0427915 -0.147945 -0.0514794
000020 a2 fc 9e 3d 3f 63 50 3d da 8e 19 3e e0 4b 61 bc
       0.0776303 0.0508759 0.149959 -0.013751
000030 14 e0 01 3c ff 3c 32 bc e5 20 70 3b 8c ee 66 bb
       0.00792696 -0.0108788 0.00366407 -0.00352374
000040 5d 0e 85 bc 57 06 55 be b4 00 9d 3e 21 76 16 be
       -0.0162422 -0.208032 0.306646 -0.146935
000050 9a 9b 8a 3d 70 88 4d ba e1 f2 f3 3c 6f 59 6f 3d
       0.0676796 -0.000784046 0.0297789 0.0584349

0.0.weight f4 [24, 3, 5, 5]
000000 b0 7e e2 3c 34 fc b2 bd 33 c5 1c bd ba b7 87 bc
       0.0276483 -0.0873951 -0.038274 -0.0165671
000010 8e 59 d6 bd 01 fd f8 bb 93 2c 71 3c ab 93 f3 bd
       -0.104663 -0.00759852 0.0147201 -0.118934
000020 e6 e8 71 bc f1 a4 9e bb 5d e1 fd bd 5c 90 2d 3c
       -0.014765 -0.00484144 -0.123965 0.0105935
000030 9f 6e 87 3b 27 e4 5e 3c bd 44 2b bc 5b a3 d4 3c
       0.00413306 0.0136042 -0.0104534 0.0259568
000040 59 02 5f bb 80 ab 86 bc 7a 72 68 bd aa d7 cd bd
       -0.00340285 -0.0164392 -0.0567498 -0.100509
000050 46 96 cc 3c 4e 7d e0 bd e0 d7 48 bd c7 17 c8 bd
       0.024974 -0.109614 -0.049034 -0.0977016
000060 b1 bf ec bd cc 1a 06 3d 52 e3 af 3d 3c 7f bf bc
       -0.1156 0.0327404 0.0858828 -0.0233761
000070 db ed 44 bc 99 1b 84 3b a8 dc e9 3c 78 8f 1d 3d
       -0.0120196 0.00403161 0.0285476 0.0384669
000080 45 31 94 3c 19 dd 66 3d 0c 82 1d bd 19 79 34 bd
       0.0180899 0.0563632 -0.0384541 -0.0440608
000090 45 5a 84 3d d7 29 c0 bd 4d d6 e8 3c 42 9a 0c bd
       0.0646253 -0.0938298 0.0284225 -0.0343268
0000a0 34 78 88 ba f0 47 b6 bc 03 9b 8e bd 3d 6f 39 bd
       -0.00104118 -0.0222511 -0.0696316 -0.0452721
0000b0 9c a3 2e bd c5 a0 1d bd 80 da 23 bd 58 19 c2 bd
       -0.0426365 -0.0384834 -0.0400033 -0.0947749
0000c0 50 a4 00 bd 5a 4b e1 bd e8 f0 f5 3c 6b fe 4e bc
       -0.0314067 -0.110007 0.0300221 -0.0126339
0000d0 d6 c6 f8 3d b7 9c 0b 3e b7 28 23 3e f4 c8 5a 3d
       0.121473 0.13634 0.159335 0.0534143
0000e0 8c be 02 3e c5 1b f9 3d 66 15 f6 3d 7c d2 e9 3d
       0.12768 0.121635 0.120158 0.114171
0000f0 a3 02 17 3e 52 6b 90 3d ab 06 21 bd cd 72 f9 3d
       0.147471 0.0705172 -0.039313 0.121801
000100 e4 67 03 3e 58 e0 50 bc 42 16 98 3c 22 54 e9 3d
       0.128326 -0.0127488 0.0185653 0.11393
000110 c3 1d 5e bc 11 ee 24 3d 30 e1 26 bd ba 84 c3 3c
       -0.0135569 0.0402661 -0.0407421 0.023867
000120 91 6a b3 3c 02 32 0f 3d d8 61 9c 3d fe 68 53 3d
       0.0219014 0.0349598 0.0763585 0.0516138
000130 c8 86 24 bc 16 f0 7c 3d 9d 41 68 bc 57 f6 83 bd
       -0.0100419 0.0617524 -0.0141758 -0.0644347
000140 46 cd d7 bc 9f 4c 6d 3a 07 67 06 3d d8 e4 8f 3d
       -0.026343 0.000905225 0.0328131 0.0702607
000150 04 75 ea 3d f3 ff ea 3d b2 5a ba 3d e4 4a fd 3d
       0.114481 0.114746 0.0909933 0.123678
000160 d0 5d 77 3d c3 1d 5e 3d 9b c5 30 3c 8b cd 7d 3c
       0.0603922 0.0542276 0.0107893 0.0154909
000170 2b 9e fe bb d5 cc 8a 3d 33 65 91 bd 41 c7 58 bc
       -0.00777032 0.0677735 -0.0709938 -0.0132311
000180 ad 04 41 bd f7 62 5e bd 25 33 a8 bc cc a2 a6 bc
       -0.0471236 -0.0542936 -0.0205322 -0.0203413
000190 7c 9a f3 bd d3 e6 ae bd d2 88 1b 3c c5 51 ae bd
       -0.118947 -0.0854012 0.00949307 -0.0851169
0001a0 01 d1 5d 3d 68 a5 5a 3d 44 50 d5 3d 2f 60 73 bd
       0.0541544 0.0533804 0.104157 -0.0594179
0001b0 a2 ba 34 3d f3 fa 58 3d 20 d2 cf 3d 0c 9e 58 bd
       0.0441233 0.0529737 0.101475 -0.0528851
0001c0 72 05 2a 3d bc fc 98 3d 1a c9 c9 3d ef 25 68 3d
       0.0415091 0.0747008 0.0985281 0.0566768
0001d0 e9 b0 e7 3c c9 26 14 3d d9 e3 bf 3d ba 16 eb 3b
       0.0282826 0.0361698 0.0936963 0.00717434
0001e0 40 6c 49 bd 23 7e 0a 3d 4c 3a 25 3c c7 7c 05 bd
       -0.0491755 0.0338117 0.0100847 -0.0325897
0001f0 33 37 5a 3d bd 3a b7 bd 00 54 31 be 06 4b 75 bd
       0.0532753 -0.0894675 -0.173172 -0.059886
000200 42 f9 cc bc 69 d5 c8 bd 75 ec bb 3c ae 2e e7 3c
       -0.0250212 -0.0980633 0.0229399 0.0282205
000210 52 ed b8 3c 7c bc 0b 3d df 7a 83 bd 1e b3 62 bd
       0.0225741 0.0341153 -0.0641992 -0.0553466
000220 ea 8c a9 bd fb d2 96 3d d2 8f 66 bd f8 f4 7d bc
       -0.0827883 0.0736446 -0.0562895 -0.0155003
000230 1e 6f d2 bd ed 17 c7 bb aa f7 6f bd d4 89 ba 3c
       -0.102751 -0.00607585 -0.0585858 0.0227708
000240 f1 22 5d bd 9b 1e 14 be 23 2f eb bd 5a 22 21 3d
       -0.0539884 -0.144648 -0.114836 0.0393394
000250 a0 d6 7e 3c 00 32 89 bd 87 66 83 bd 1d 3c b3 bd
       0.0155541 -0.0669899 -0.0641604 -0.087517
000260 1c 83 e9 3c 58 e7 98 bc 0c 68 c8 bd 0e 0b 8a bd
       0.0285049 -0.018665 -0.0978547 -0.0674039
000270 1b b7 fb 3b f0 3f b8 bd 84 0a c3 bd 9f 3c ec bd
       0.00768174 -0.0899657 -0.0952349 -0.11535
000280 f7 93 21 be 5e 6f c1 bd 0f 7b 21 be d5 e6 e4 bc
       -0.157791 -0.0944507 -0.157696 -0.0279421
000290 01 af c5 bc 41 aa d7 bc 12 18 a6 bd 8a 8d 5e bd
       -0.0241313 -0.0263263 -0.0811006 -0.0543342
0002a0 f4 3a 1d bd 62 c1 9a bb 74 55 8a bd 0d 8b 01 be
       -0.0383863 -0.00472276 -0.0675458 -0.126507
0002b0 4b 85 c2 bd f0 9c f7 bb 51 75 9e bd 57 2f b5 3c
       -0.0949808 -0.00755655 -0.0773722 0.0221173
0002c0 c6 f7 05 3e 25 6c c9 bc e8 f9 d3 3d 52 71 2d 3d
       0.130828 -0.0245877 0.103504 0.0423444
0002d0 e2 fd 9d 3c 36 4c be bd 82 d6 b2 3c e2 3a 46 3c
       0.0192861 -0.0929188 0.0218308 0.012099
0002e0 66 b7 bb bd 9f 59 52 bd d3 a4 94 3d 3c dd 75 bb
       -0.0916584 -0.051355 0.07258 -0.00375159
0002f0 7d cc e7 bd df 53 14 bc 99 9a 99 bd 7f 23 8b bc
       -0.113183 -0.0090532 -0.0750019 -0.0169847
000300 f8 33 1f 3c c6 35 5e 3d 69 ee 97 bc d5 3e dd bd
       0.00971698 0.0542505 -0.0185463 -0.10803
000310 f6 bc 36 bd c7 9b dc bd 94 06 48 bd c2 29 88 bd
       -0.0446138 -0.107719 -0.0488344 -0.0664859
000320 05 a7 1e 3e ee 21 e1 3d 09 32 b2 3d 2d 05 14 3e
       0.154934 0.109928 0.0870095 0.144551
000330 03 27 b6 3d 99 1a 57 bc d8 41 8a bd bd 07 23 3d
       0.0889416 -0.0131289 -0.0675084 0.0398023
000340 5d ce 3b bd a3 9b 83 3d 67 de 20 3d 5f 18 df 3c
       -0.0458511 0.0642617 0.0392746 0.0272333
000350 06 3b 6f bd cb 7a 56 bc ec 66 4b bd 4d 66 3c 3d
       -0.0584059 -0.0130908 -0.0496587 0.045996
000360 43 28 e5 3c 14 35 02 3d 5d a9 82 bc eb c2 c4 bd
       0.0279733 0.0317889 -0.0159499 -0.0960749
000370 21 49 3d 3b 56 01 0c bb fc 30 27 bd 71 4b 18 3c
       0.00288827 -0.00213631 -0.0408182 0.00929533
000380 a1 db cb bd 21 8f 90 bd 40 23 97 bd eb 8b 94 3d
       -0.09954 -0.0705855 -0.0737977 0.0725325
000390 a0 dc ab bd 32 8f 5c bd ec d6 77 3d 3b 87 87 bd
       -0.0839169 -0.0538475 0.0605077 -0.0661759
0003a0 32 bb ad bd ee 03 55 bd c5 31 5c 3d d1 cf 6f 3d
       -0.0848297 -0.0520057 0.0537584 0.0585478
0003b0 99 56 16 bb 3c 26 3c 3d b7 c8 27 bd b3 4b 2f 3c
       -0.00229398 0.0459349 -0.0409629 0.0106992
0003c0 5b 13 61 3d 56 38 58 3d 0d a7 8c 3c 5f 23 0e 3d
       0.0549501 0.0527881 0.0171695 0.0347017
0003d0 8c 9b 1f 3d e1 ad 78 bd 9a ff bc 3c 19 95 4f 3d
       0.0389667 -0.0607127 0.0230711 0.0506793
0003e0 79 48 67 bd ef af 39 bd da 02 82 3c 45 53 bc 3d
       -0.0564656 -0.0453338 0.0158705 0.0919557
0003f0 39 66 94 3d 8b 3e a5 bd 13 c0 68 bd ee 53 af 3d
       0.0724606 -0.0806857 -0.0568238 0.0856093

1.0.bias f4 [36]
000000 ac 60 69 3b ab ec bb 3c 76 8a b5 3d a3 1f 8d 3c
       0.00356106 0.02294 0.088643 0.017227
000010 22 33 9b 3b e3 63 b1 bd 8d 88 b8 bd d4 0d 34 bd
       0.00473632 -0.0866163 -0.0901042 -0.0439585
000020 92 f0 14 39 bc 1b 30 3d 07 8f a0 3d 04 82 4a bc
       0.00014204 0.0429952 0.0783978 -0.0123601
000030 da cc 5c 3d 25 ec 83 3e 13 c9 41 3d 40 51 74 3d
       0.0539063 0.257661 0.0473109 0.0596478
000040 18 9f 5d 3c e1 1d 2a 3c ff e6 ea bc d8 2b 4c 3d
       0.0135267 0.0103831 -0.0286746 0.0498465
000050 cd 88 7c bd f7 5b 76 bd 04 91 05 3e c7 73 a7 3d
       -0.0616539 -0.0601463 0.130436 0.0817638
000060 f1 34 14 3d 68 27 5e bd 05 fb 4f bd cc a7 1a 3c
       0.0361833 -0.0542368 -0.0507765 0.00943942
000070 71 8b 9e bc 48 f4 37 bd be e4 95 bd cf 2f 8c bb
       -0.0193536 -0.0449107 -0.0731902 -0.00427816
000080 b1 97 5c 3c bd 73 e8 bd 17 be 99 3d 3d ee db bd
       0.0134639 -0.113502 0.0750696 -0.107388

1.0.weight f4 [36, 24, 5, 5]
000000 3f 7e 25 bc 5e 03 2c 3d 28 96 00 3d 43 dc c1 3c
       -0.0101009 0.0419954 0.0313932 0.0236646
000010 d0 fe d1 bc 5e 01 1b 3d 66 e3 dc 3c 5b c2 d0 3c
       -0.0256342 0.0378431 0.0269639 0.0254833
000020 66 59 e6 bc 7f 95 cd 3c 53 b7 ed bb 9f df 1c 3c
       -0.0281188 0.0250957 -0.00725452 0.0095748
000030 9d 9f 22 3c 19 8a 40 3d b0 15 5e bd eb 30 0b bd
       0.00992575 0.0470067 -0.0542199 -0.0339822
000040 72 4f 17 bd d8 b2 02 3c c0 62 48 bd da f8 f8 3c
       -0.036941 0.00797721 -0.0489223 0.0303921
000050 86 73 8d 3d 2b 6d 6c 3d 83 3e 47 bc bc ca 5a 3c
       0.069068 0.0577213 -0.0121609 0.013354
000060 be d0 ed 3c bd e3 12 bc 3f 0c df ba 26 fb a9 3b
       0.0290302 -0.00896543 -0.00170172 0.00518741
000070 0c e5 24 bd 67 d3 11 bd 2c 0c 36 3d e5 14 83 bd
       -0.0402575 -0.035602 0.0444452 -0.0640047
000080 3e b6 c0 3c 67 e5 28 bc e1 b4 00 3d 91 00 7f bc
       0.0235244 -0.0103086 0.0314225 -0.0155641
000090 c1 98 63 bd 01 b8 a3 bc e7 73 09 bd b1 f7 47 bd
       -0.0555656 -0.0199852 -0.0335578 -0.0488202
0000a0 9a 8b 49 bd dd af e7 3c 66 eb cb 3b 95 bb 8f bc
       -0.0492054 0.0282821 0.00622313 -0.0175455
0000b0 ea d0 29 bd b1 ac cf bc ec 81 18 3c 3d 5a 26 bd
       -0.041459 -0.0253509 0.00930832 -0.0406134
0000c0 e0 11 d5 bc 42 91 d3 bc 61 99 8a bb 03 ac ba bc
       -0.0260095 -0.0258261 -0.00422971 -0.0227871
0000d0 27 03 f6 bc 93 9f 3e 3d af d7 aa bc 2e 70 bb ba
       -0.0300308 0.0465389 -0.0208548 -0.00143004
0000e0 cf a8 34 bd f3 b9 49 bc 09 27 38 3d fd dd 76 3d
       -0.0441063 -0.0123124 0.0449591 0.0602703
0000f0 72 c7 f6 3c 62 8b 78 3d 3d d2 e0 3c 4c b9 8c bc
       0.0301244 0.0606798 0.027444 -0.0171782
000100 52 08 29 3d 50 21 13 3c c5 40 12 bd 43 7d 81 3c
       0.0412677 0.00898011 -0.0357063 0.0158068
000110 00 aa 18 3d a3 e6 4b 3d 5a 38 7f bc ef dc 45 3c
       0.0372715 0.0497805 -0.0155774 0.0120766
000120 ff c2 3c 3c 16 fd 7c bc ec 4d 2c bd 03 94 26 3d
       0.0115211 -0.0154412 -0.0420665 0.0406685
000130 b9 9c 7c bd f3 0d 1b 3d 03 69 35 bc 3c 95 5d 3d
       -0.0616729 0.0378551 -0.0110724 0.0540974
000140 e0 f0 47 bd c6 1f 1b bd be 42 10 3d d8 0b 89 3a
       -0.0488137 -0.0378721 0.0352199 0.00104558
000150 58 db 7e bd 69 b3 a0 3c 73 49 15 bd 62 28 4c 3c
       -0.0622209 0.0196168 -0.036447 0.0124608
000160 e5 3f 69 bd 6e 30 4f 3a 7b 5b d9 bb 8b 18 f6 3c
       -0.0569457 0.000790364 -0.00663322 0.030041
000170 f1 c3 5c bd 87 f1 44 3d 2a 7a 1b 3d f8 05 6a bd
       -0.0538978 0.0480819 0.0379583 -0.0571346
000180 ef 0f 45 bd 1c b4 17 3d e1 7a 14 3d 92 ec ac bc
       -0.0481109 0.037037 0.03625 -0.0211089
000190 56 fe 2b bd 4b ae e2 3b 42 9f 7e 3d 70 c7 00 3d
       -0.0419906 0.00691775 0.0621636 0.0314402
0001a0 20 0d 42 3d 30 79 0d 3d 21 bf c8 bc 62 5f fc 3c
       0.0473758 0.0345394 -0.0245052 0.0308072
0001b0 68 21 01 3d 24 e7 69 bc 44 cd 46 bd 6f 0e 77 bd
       0.031526 -0.0142763 -0.0485356 -0.0603165
0001c0 08 fd 0e 3b 80 00 48 3d 58 97 ae bc fd 21 0c 3d
       0.00218183 0.0488286 -0.0213124 0.0342121
0001d0 35 ab 48 bd f1 0d 2a 3c 18 41 63 3c 69 05 21 bd
       -0.0489914 0.0103793 0.0138705 -0.0393118
0001e0 eb ba 21 3d 22 d2 a1 3b 2b a8 03 bd 55 ac f5 bc
       0.0394849 0.00493838 -0.0321428 -0.0299894
0001f0 c2 1e 6e bc b6 86 12 3d 8d fe 01 3d 14 f2 3c 3d
       -0.0145337 0.035773 0.0317369 0.0461293
000200 74 99 18 3c 96 49 b3 bd 45 94 1d bc fd 32 18 bd
       0.00931393 -0.0875427 -0.00961787 -0.037158
000210 f7 b3 33 3c 1b 53 07 3b d0 60 d3 3c 8b 01 8d bd
       0.0109682 0.00206489 0.025803 -0.0688506
000220 7d 1c 52 bd 74 26 ad bd 57 9d b0 3c 74 63 d5 3c
       -0.0512967 -0.084546 0.0215594 0.0260484
000230 9b 81 db 3a 3a 44 a7 bd 21 9f 46 bd 5f ef fe 3c
       0.0016747 -0.0816731 -0.0484916 0.03112
000240 bd 5f dc 3a 3a c3 8e 3d 77 99 e9 3b 8c ae dc 3c
       0.00168132 0.0697083 0.00712889 0.0269387
000250 ef 30 37 3d 19 6d ba 3c 82 bb bd bc 5a 21 76 3c
       0.0447244 0.0227571 -0.0231607 0.0150226
000260 d0 bf 18 3d a0 90 b8 3c df bf 9a bb d1 20 89 bb
       0.0372923 0.0225299 -0.00472258 -0.00418482
000270 3a 68 80 bd e6 c9 b5 bc ec c9 b2 3a 6c 6e 96 bc
       -0.0626988 -0.022191 0.00136405 -0.0183632
000280 64 64 83 3b 22 49 16 bc c9 46 76 bd b9 79 89 bd
       0.00400977 -0.00917271 -0.0601261 -0.0671267
000290 22 d5 81 bd 7d ce dd 3c 17 1e 95 bd c8 01 85 bd
       -0.0633948 0.027076 -0.0728113 -0.0649448
0002a0 a3 3a 3d bd 7e d0 29 3d cf 92 71 3d 28 da 70 3d
       -0.0461985 0.0414586 0.0589779 0.0588018
0002b0 86 fc 3c ba 95 78 65 bc 5c 98 20 3d 64 44 fd bc
       -0.000720926 -0.0140058 0.0392078 -0.0309164
0002c0 63 91 2b bd f8 73 65 bc 97 e1 ff 3c 2c b8 df 3c
       -0.0418867 -0.0140047 0.0312355 0.0273095
0002d0 80 d4 46 3d a2 ca 75 bd d9 b2 5c bd 33 67 22 bd
       0.0485425 -0.0600077 -0.0538815 -0.0396492
0002e0 39 6e 67 bc 86 a2 8a 3c b1 e4 95 bd 88 69 8a bd
       -0.0141254 0.0169232 -0.0731901 -0.0675841
0002f0 61 2f da 3a 00 83 01 3a 45 54 57 bd b4 d6 26 3d
       0.00166462 0.000494048 -0.0525706 0.0407321
000300 17 9d ac bc e4 b7 cd bc aa 98 af bc 0a 84 1d bd
       -0.021071 -0.0251121 -0.0214351 -0.038456
000310 7a ac 74 3c 42 a1 f5 3b 82 08 0c bd e6 06 93 3d
       0.0149337 0.00749603 -0.0341878 0.0717905
000320 db 16 05 bd 84 78 0e bd 0d ef 48 bd 1c 03 57 3d
       -0.0324925 -0.0347829 -0.0490561 0.0524932
000330 fd dc 70 3d da 3a 50 ba a1 ca 1f 3d 2f 00 68 bc
       0.0588045 -0.000794334 0.0390116 -0.0141602
000340 21 30 20 3d a7 30 40 3d f7 e1 85 3c 93 63 5c bd
       0.0391084 0.0469214 0.0163431 -0.0538059
000350 e2 0c f4 3c 2a a6 57 bd 28 bc 7f bd 85 93 d9 bc
       0.0297913 -0.0526487 -0.0624353 -0.0265596
000360 72 7b 18 3d 74 6b ca 3b dd 0f 11 bb 81 aa 16 3d
       0.0372271 0.00617736 -0.00221347 0.0367837
000370 86 9e 83 3c 44 bc da 3c 35 9c 0d bb 68 f0 72 bd
       0.0160668 0.0267011 -0.0021608 -0.0593113
000380 32 55 35 bd 19 8b 4b 3c e0 a8 90 bd 6c 4e f3 3b
       -0.0442707 0.0124233 -0.0706346 0.00742512
000390 ac 3c dc bc 07 11 24 3d 63 4f b1 3d 89 d9 e6 3c
       -0.0268844 0.0400553 0.0865772 0.0281799
0003a0 63 39 13 bd 3b 7e 39 bd a3 39 15 3c 8a d6 40 bc
       -0.0359434 -0.0452864 0.00910798 -0.0117699
0003b0 1f 82 2a 3c 70 88 c2 bc 8c 1c 98 3d ec 8c 8a 3c
       0.010407 -0.0237467 0.0742732 0.0169129
0003c0 36 2b 91 bd 40 0a 08 bd 17 f4 ff 3b b3 f0 80 bd
       -0.0708832 -0.0332129 0.00781108 -0.0629591
0003d0 d3 ba b2 bd 44 c4 68 3d 68 36 17 3c 67 48 55 bd
       -0.0872704 0.0568278 0.00922928 -0.052071
0003e0 3f ec 80 3d 46 d5 4a 3d 17 c2 83 bb 8e c3 6a bd
       0.0629506 0.0495198 -0.00402094 -0.0573154
0003f0 56 de c4 3c 01 36 7b bc 70 55 e3 3c 93 62 36 bd
       0.0240318 -0.0153327 0.0277507 -0.0445276

3.0.bias f4 [100]
000000 11 23 3a 3d 06 73 2a 3c fb 79 13 bd 3b bb 46 bc
       0.0454436 0.0104034 -0.036005 -0.0121296
000010 e8 6f dd bc 0b 60 8a 3c 78 a2 1e bc 3b 0e 0d bd
       -0.0270309 0.0168915 -0.00968229 -0.0344374
000020 0e 85 0f bd 83 8d 66 3d a4 54 62 3d bc 3e 93 bd
       -0.035039 0.0562873 0.0552565 -0.071897
000030 06 a5 c3 bc 25 d8 ae bc c0 19 86 3c 34 b9 18 bd
       -0.0238824 -0.0213433 0.0163697 -0.037286
000040 9c 83 eb 3a 43 6d 60 bd e6 6b 60 bc 62 14 63 bb
       0.00179683 -0.0547917 -0.0136976 -0.00346496
000050 b3 7f 19 bd d8 70 89 ba 0b de 66 bd 3d 37 04 3c
       -0.0374753 -0.00104859 -0.0563641 0.00806981
000060 a9 45 0e bd a3 8b 72 3d 2a 5e 40 3c 61 05 2e bd
       -0.0347344 0.0592152 0.0117412 -0.0424856
000070 5f 29 0b 3d 8a 7d b8 bc cc c5 a9 bc 89 ad e6 bb
       0.033975 -0.0225208 -0.0207242 -0.00703973
000080 5f 0d 90 bc f4 4d 8a bd 04 de b0 ba 31 09 17 3d
       -0.0175845 -0.0675315 -0.00134939 0.036874
000090 d2 75 3c 3c 73 ff aa 3b 0f 22 be bc 4d de 1b bd
       0.0115027 0.00521844 -0.0232096 -0.0380538
0000a0 4f 1a cf bc 96 12 76 bb 77 43 ff bc 39 d8 86 bd
       -0.0252811 -0.00375477 -0.0311601 -0.0658421
0000b0 0d c7 73 bc 1d 07 39 3c a8 1c 34 3b 13 15 85 3c
       -0.014879 0.0112932 0.00274829 0.0162454
0000c0 1b 02 91 bc 3d 4b eb 3a 51 70 6b bb fc 63 ab bc
       -0.0177012 0.00179515 -0.00359251 -0.0209217
0000d0 6e 00 ae bb e6 ac af bd e6 a0 99 3b 9d 2a df bc
       -0.00531011 -0.085779 0.00468837 -0.027242
0000e0 a0 70 d5 bb cb 0e f1 3c 44 f2 3a bd d1 c7 01 3d
       -0.00651367 0.029426 -0.0456412 0.0316847
0000f0 2f 28 3a bb db 54 18 bd 02 e8 41 bd 8c 72 3f 3d
       -0.00284053 -0.0371903 -0.0473404 0.0467401
000100 ed 70 e8 bb 34 de 31 bd 13 a4 4d bd 72 8a 0e 3b
       -0.00709354 -0.0434248 -0.0502053 0.002175
000110 02 ce 9c bc 75 e1 ee 3b 1b bf 0d bb 8e ad 27 3d
       -0.0191412 0.00729006 -0.00216288 0.040937
000120 1e e3 25 bd 6c f8 0c bd 2c 21 09 3d ab 01 4f 3d
       -0.0404998 -0.0344166 0.0334789 0.0505387
000130 c6 81 fc bc 7e 8a 23 bd da 2e 7e bc 62 22 8f bd
       -0.0308236 -0.039927 -0.0155141 -0.0698898
000140 5f 12 5d bd ae 71 9c bd 31 e0 b8 bb 25 98 85 3c
       -0.0539726 -0.0763887 -0.00564196 0.0163079
000150 0f f8 d7 bc c3 cc 68 bd 65 17 0c bd 5f 56 b2 bc
       -0.0263634 -0.0568359 -0.034202 -0.0217697
000160 1d 40 1a 3d 54 7e 88 bb 08 d6 e7 bc 21 f0 76 bc
       0.0376588 -0.00416545 -0.0283003 -0.0150719
000170 c8 bb 7e 3c 7e 33 56 bd 45 82 e9 bc 12 9d 8a bc
       0.0155477 -0.0522952 -0.0285045 -0.0169206
000180 14 5f 0d 3d d1 3a 4f bc 9d e1 bc 3c c0 f8 f3 bc
       0.0345145 -0.0126483 0.0230568 -0.0297817

3.0.weight f4 [100, 576]
000000 41 8e fc 3c 85 a0 38 bd 73 c0 17 3b 04 02 85 3c
       0.03082955 -0.04507496 0.002315548 0.016236313
000010 0b 1c e2 3b ef 43 04 bd e8 06 66 bd f9 13 cd bd
       0.0069003156 -0.03229135 -0.05615893 -0.10013575
000020 9c 05 01 3e 2f 0d 9b bc b5 ea dd 3d 7f f3 39 3d
       0.12599796 -0.018927185 0.108357824 0.04539823
000030 8e 41 30 bd b1 c9 8c 3c 4a 16 96 3d a3 43 61 3d
       -0.043031268 0.017186018 0.0732847 0.054996144
000040 b4 08 ca bd 23 99 81 3d e3 2a 21 3d f6 27 a5 bd
       -0.09864941 0.06328037 0.03934754 -0.080642626
000050 af c1 97 bd 93 d4 23 bd a4 7f 11 3e 26 d6 52 bd
       -0.07409989 -0.03999765 0.14208847 -0.05147376
000060 35 d1 17 bc c9 b0 ba 3c d0 bc 93 bc ed 01 b4 3c
       -0.009266187 0.022789376 -0.018034369 0.021973575
000070 04 79 48 3c a9 df da bd dd ff e1 3c a7 5f 6c bd
       0.012235884 -0.10687191 0.027587825 -0.05770841
000080 4e dc 48 bd bc 73 af bd 78 4b 69 bd 64 ff 65 3c
       -0.049038224 -0.085669965 -0.05695674 0.014037941
000090 26 ce 8a bc d0 56 bc 3d 29 d5 f0 3a f8 a1 98 bd
       -0.016944002 0.09196246 0.0018374074 -0.07452768
0000a0 1b bf b7 3d 54 8c 9f 3d 0f df 83 bd 74 d6 44 bd
       0.08971997 0.07790437 -0.064390294 -0.04805608
0000b0 af f5 fe 3c f7 73 c2 3c d3 a4 3f bd 54 15 2b bc
       0.03112301 0.023736937 -0.046788048 -0.010442097
0000c0 fd ab 8a 3d de 0e e6 3d ee 20 a6 bb 96 c5 f4 bc
       0.067710854 0.112333044 -0.0050698435 -0.029879373
0000d0 3c 95 ae bd 27 db 86 3c ec a0 98 bd 1f ee b8 3c
       -0.08524558 0.016461922 -0.074525684 0.022574482
0000e0 35 e5 dd bc ab 09 38 bd 9f 34 35 3d 97 55 f4 bc
       -0.027086833 -0.044931095 0.044239637 -0.029825969
0000f0 99 f4 70 bd 8c ae e5 3c 84 9c 96 bd ce 3d 8b bc
       -0.058827017 0.028037332 -0.07354072 -0.016997244
000100 41 8b 54 3d bd 59 5b bd 52 20 8c ba 35 5a 3e 3d
       0.051890615 -0.053552378 -0.0010690785 0.046472747
000110 df 0b 40 3d f4 8d 8b 3b c0 e4 8d 3b 96 b3 b2 3d
       0.04688632 0.0042588655 0.0043302476 0.087256595
000120 4b 89 6b 3d 4b ac 3f 3d 56 04 06 3d 80 c5 5c 3d
       0.05750398 0.04679517 0.03271898 0.05389929
000130 c4 43 80 3d 12 78 8f bd 78 1d a1 3d a4 1e 14 bd
       0.06262925 -0.070053235 0.07866949 -0.036162034
000140 5a c4 9b 3d eb c1 94 bd 8d b0 ed 3d 87 1a 40 3d
       0.076058105 -0.072635494 0.1160594 0.0469003
000150 cf 71 89 bd f4 39 54 3d fa 28 33 bd 67 ff b2 3c
       -0.067111604 0.05181308 -0.04374025 0.021850301
000160 af cf e7 3d a8 e2 4a 3d 30 48 c1 3d 78 f6 1f 3d
       0.113189094 0.049532562 0.09437597 0.03905341
000170 82 c2 e6 3c 4d 47 f8 3c aa e9 c7 3d cd d2 aa bc
       0.02816892 0.030307436 0.09761365 -0.02085247
000180 ac dc 24 bd d7 14 2d bd 38 1f e3 3d ad 3d 20 3c
       -0.04024951 -0.042256203 0.11089939 0.00978033
000190 ec 7c 5a bd 6b 84 87 3d 24 c5 db bc 83 60 05 3d
       -0.05334179 0.066170536 -0.026827402 0.032562744
0001a0 d5 b2 c6 bc 1c 3b ed bc 92 42 b2 bc 36 4e bb 3d
       -0.024255196 -0.02895885 -0.021760259 0.09145777
0001b0 8e 30 61 3d 6e 78 8c bd 51 44 52 bd a1 ad f0 bc
       0.054977946 -0.06858908 -0.051334683 -0.029379668
0001c0 fe 54 9a 3d 2d ec ad bc c3 0b c1 3c 75 12 c2 bc
       0.07535742 -0.021230781 0.023565179 -0.023690442
0001d0 df 4c 29 bd 00 36 c0 bd 0a 49 1a bd c5 89 24 3d
       -0.041333076 -0.093853 -0.03766731 0.04017045
0001e0 9a c8 d8 bd c7 cf f3 bd bf da d7 bc 0d fb 79 3d
       -0.10585137 -0.11904865 -0.026349423 0.061030436
0001f0 ad f2 8d bd 44 a3 d5 bd 10 41 e5 bd c7 33 96 bd
       -0.06931052 -0.10431531 -0.1119405 -0.073340945
000200 ac 63 a9 3c b5 e6 c3 3c 39 df 15 bc 72 e2 80 bd
       0.02067741 0.02391372 -0.009147459 -0.06293191
000210 64 08 27 bd b9 05 0d 3d 9d c5 55 3d 63 7d 72 3d
       -0.040779486 0.034429286 0.05219041 0.05920161
000220 13 86 78 bd df 12 8d 3c 3d 68 da 3d 8a 8b de 3c
       -0.06067474 0.017220913 0.10664413 0.027166147
000230 d0 51 d6 bc 5b 73 c5 bd d5 8a 6a 3d b9 80 20 3c
       -0.026162058 -0.09641143 0.057261307 0.009796315
000240 92 51 94 bd f2 f5 dd 3d 30 07 5f bc fe 5b 70 bd
       -0.07242121 0.10837926 -0.0136125535 -0.05868148
000250 ee a1 8e 3d c6 29 f2 3d 16 61 71 3c 51 9c f4 3d
       0.069644794 0.11824374 0.01473262 0.119438775
000260 2c a2 bb bc 62 3b b1 3d 35 28 37 3d 2f e5 04 be
       -0.022904478 0.086539045 0.04471608 -0.12978052
000270 f6 8a bc bd 04 5e 96 3c e3 d0 21 bc 75 0a 16 3d
       -0.09206192 0.018355377 -0.009876463 0.036631066
000280 e5 b6 d1 bc 9f 1a 53 bc be a2 0a bd c1 5c c9 bc
       -0.025599906 -0.012884765 -0.03384661 -0.024580361
000290 c0 ce ee 3d c7 6e d6 bc 7a 9c 4d bd a9 41 fa bc
       0.11660528 -0.02617587 -0.050198056 -0.030548887
0002a0 48 82 ac bb 14 c7 08 3d c5 71 02 bd ac 02 83 bc
       -0.005264554 0.03339298 -0.03184678 -0.015992485
0002b0 aa 98 8b 3d cf ae b9 3d 82 d8 b5 bd 52 c7 31 bc
       0.06816228 0.09066545 -0.08879186 -0.010850744
0002c0 f5 a2 6f 3d 48 be d3 3c 52 b6 4f 3d f1 c9 f4 bc
       0.058505017 0.02584757 0.050710984 -0.02988145
0002d0 47 c4 84 3d 35 1d 10 bd 7a 9d a2 bd 6e fe d3 bd
       0.064827494 -0.035184104 -0.079401925 -0.10351263
0002e0 29 ee 80 3d 01 12 c9 bc 0e 18 31 bd 9c a6 54 bd
       0.062954254 -0.024544718 -0.04323583 -0.051916704
0002f0 14 02 ee 3b 56 e2 ab 3c 3a 4f 3c 3d b2 93 09 3d
       0.0072634313 0.020981949 0.045973994 0.03358812
000300 e5 7e f2 bd bb b0 c1 bb d4 d2 fa 3c 2c da e1 bc
       -0.118406095 -0.0059109605 0.030618109 -0.027569853
000310 c7 50 42 bd 0f 10 68 bd b2 70 57 3c 4c 68 97 3c
       -0.047440317 -0.05665594 0.013149427 0.01848235
000320 7c 93 c6 3d 00 fd 7a bb 0f af 98 3c 13 f1 61 bd
       0.09696099 -0.0038297772 0.018638162 -0.055161547
000330 c7 b3 11 3d 18 cc 92 3c 6a 8b 0a 3d 11 21 74 3c
       0.03557184 0.017919585 0.03382436 0.014900462
000340 38 6d 9a 3d e5 29 77 3c f0 13 cf bd 52 6b 84 bd
       0.07540363 0.015085672 -0.10111225 -0.06465782
000350 6d 9c 33 3c 9b d6 b1 bd 69 f7 77 3d 24 28 78 3d
       0.010962588 -0.08683511 0.060538683 0.060585156
000360 97 e9 46 3c 1a b8 45 bc ea 88 95 bd 5b 35 09 3e
       0.012140653 -0.012067819 -0.07301505 0.1339926
000370 2d 36 ba bd fc be 71 bd 06 e9 24 bd ac 8f 09 bd
       -0.090923645 -0.059020028 -0.04026129 -0.03358428
000380 34 b6 55 39 0e 73 3d 3d 01 40 0e bd ea 43 d5 3c
       0.00020381139 0.046252303 -0.034729008 0.02603336
000390 0b 23 c4 3c ed 65 28 3d 8a 96 af bd 13 db 78 3d
       0.023942491 0.04111283 -0.08573635 0.0607558
0003a0 dd 46 ce bc e0 f4 c0 bd 2f d3 ae 3d 89 53 03 bc
       -0.025180275 -0.09421706 0.08536374 -0.008015522
0003b0 76 0f 0a 3d 87 33 59 bd 2c 5e 06 bd 05 97 63 bd
       0.03370615 -0.053027656 -0.032804653 -0.055563945
0003c0 04 a5 8a bd a8 1f 8f 3d 51 01 80 3d ee 18 17 3d
       -0.067697555 0.0698846 0.06250251 0.03688901
0003d0 19 7a e7 3b ff 9d ef 3d e6 aa 65 3d 13 cf d7 bd
       0.0070641157 0.11700057 0.056071185 -0.10537543
0003e0 ad 39 41 bc e3 2c 0c 3d 45 fe 21 bd bd d8 34 bd
       -0.011793536 0.034222495 -0.03954913 -0.04415201
0003f0 5d b1 af bc 54 fe 49 3b 6a 30 f9 bd 23 21 d6 bc
       -0.021446878 0.0030821757 -0.121674374 -0.026138848

4.weight f4 [1, 100]
000000 93 1d 7b 3e 85 ed 37 3e ab e3 9d bd 46 b5 18 be
       0.24523 0.179617 -0.0770944 -0.149129
000010 ed ac c7 3d 93 8f fd bd d9 82 19 bd 8f e4 92 be
       0.0974978 -0.123809 -0.0374783 -0.2869
000020 df 88 0e be c5 ad 32 be 50 01 a0 be 13 c1 13 bd
       -0.139194 -0.174491 -0.31251 -0.0360728
000030 a3 62 b7 bc c8 5f 5a 3e c5 c9 fd 3d f0 6b e4 3d
       -0.0223859 0.213256 0.12392 0.111534
000040 7e c4 97 3e 15 fc 9b bc b8 aa 11 bd cb 83 f4 3d
       0.296421 -0.0190411 -0.0355632 0.119392
000050 a0 6d b5 be 04 c9 ab 3e ce a8 89 be c5 59 11 3e
       -0.354352 0.335518 -0.268866 0.141944
000060 2b c1 32 3e 3a ea 38 3e c7 9e 0d 3e 3f ac 07 be
       0.174565 0.180581 0.138301 -0.132493
000070 f0 f9 e1 3d 4f 20 2c 3e a6 b8 7a be d8 47 8f 3e
       0.11034 0.168092 -0.244845 0.279845
000080 06 de a4 3c a2 96 16 be a1 4a 9d be c8 b2 d0 3e
       0.0201254 -0.147059 -0.30721 0.407614
000090 19 e7 0f 3e 35 5b 8e bd 5c 56 11 3e 11 a6 88 3e
       0.14053 -0.0695099 0.141931 0.266892
0000a0 b8 3a 90 be d8 0c 88 be 0a 21 31 3d cc 97 87 be
       -0.281698 -0.265723 0.0432444 -0.26483
0000b0 74 8c a5 bd 1f 30 c7 be d0 9a 9f be 2a ff b2 be
       -0.0808343 -0.389039 -0.311728 -0.349603
0000c0 64 3c 0a be 03 25 b5 be 31 98 ff 3d e3 18 89 3e
       -0.134996 -0.353798 0.124802 0.267768
0000d0 74 b3 0f 3e 5a d6 8d be 21 4d c6 3d 02 29 81 be
       0.140333 -0.277026 0.0968268 -0.252266
0000e0 48 96 92 bd 11 ad 90 3d 93 fc a9 3b 79 03 2c 3e
       -0.0715757 0.0706426 0.00518758 0.167982
0000f0 07 5d 42 3e f9 8b a4 bd 5a d8 d3 bd 31 98 ff 3d
       0.189808 -0.0803451 -0.10344 0.124802
000100 72 de 6f be 54 1e 3d bd f1 bb b9 be 76 88 3f be
       -0.234247 -0.0461715 -0.362762 -0.187044
000110 3c 86 87 bd 66 b2 a9 3d d2 6f 9f 3e ad c2 be be
       -0.066174 0.0828598 0.3114 -0.372579
000120 d9 60 01 be 07 7e 74 be ac 37 2a 3d 63 86 e1 3c
       -0.126346 -0.238762 0.041557 0.0275299
000130 a2 b4 07 3e 8b b8 6a bd 66 b2 b9 bd d2 8f 76 be
       0.132525 -0.0573049 -0.0906723 -0.240783
000140 80 d2 10 3e 54 8f 8c be 7b 4b 89 3e 02 bb d2 3e
       0.141428 -0.274531 0.268154 0.411583
000150 e2 cc 9f be 3d 86 42 bd e9 e1 3a bd a1 80 f5 be
       -0.31211 -0.0474913 -0.0456256 -0.479497
000160 50 1c b0 3e e8 2d 1e 3e ba d8 c4 bd a0 c2 91 3e
       0.343966 0.154472 -0.0961165 0.284688
000170 60 91 3f be bc 3d 48 3d 20 b2 78 3e 36 21 5d be
       -0.187078 0.048887 0.242867 -0.215947
000180 ab 26 28 3e 37 8d 1d be 2a 8b 42 3e 8e af 0d be
       0.16421 -0.153859 0.189984 -0.138365
